functionlearning/data/model_simulation/env=claude_dim1_maxsteps25_model=transformer_num_episodes100000_num_hidden=256_lr0.0003_num_layers=6_d_model=64_num_head=8_noise0.0_shuffleTrue_run=0_syntheticfunctionlearning.npz (npz, 365308 bytes, 4 tensors)

model_preds f4 [10, 100, 25, 1]
00000000: 9c2f d93e 1cc3 3cbd b60d 65bd 079d 303e
00000010: 0fd4 c13d f992 083e f9f5 d33d 3da7 82be
00000020: db49 81bc 8e6b 32bd ae0f 3a3e dcc9 ba3e
00000030: 1dea 813e 835a babc da46 21be 87a7 a63e
00000040: dcaf 663e 00d9 883e 3b1f 3c3e 662f 13be
00000050: 56ef bb3e 35c2 b33e 7b66 b0bc 2e80 1bbe
00000060: 4be6 d03e 9c2f d93e a3c0 f0bc b6c7 9c3d
00000070: 3577 98be 4e47 34bd ea8a 11bd c1a8 7abe
00000080: bae8 8c3e f697 093d bab0 233d eefb 37be
00000090: 1989 b7be 55c4 6cbe 7d82 cabd 74bb 3ebd
000000a0: 14cd 7dbe c516 33be 5edc 98be e886 fabd
000000b0: 9fc6 213e cf8b a4be b809 cebe c041 003e
000000c0: 65ec 353e 0f77 ddbe 9c2f d93e b30b f1bc
000000d0: c7b0 9e3d 888f 98be 9eb0 35bd d21b 12bd
000000e0: 65f5 79be 9ae5 8c3e ce4b 0b3d f698 263d
000000f0: 42b7 37be 9e92 b7be da18 6dbe 6d24 cabd
00000100: c2fa 3dbd 45f6 7dbe 1d41 33be 77fb 98be
00000110: 89f1 fabd d9d1 213e 558c a4be e924 cebe
00000120: 93e6 ff3d c7e6 353e b475 ddbe 9c2f d93e
00000130: 73c0 f0bc fbc7 9c3d 4077 98be 9247 34bd
00000140: 0a8b 11bd 97a8 7abe b7e8 8c3e 5a98 093d
00000150: 3ab1 233d e5fb 37be 1989 b7be 6ec4 6cbe
00000160: 5782 cabd 0cbb 3ebd 2fcd 7dbe ce16 33be
00000170: 5adc 98be b786 fabd b6c6 213e c38b a4be
00000180: bb09 cebe cf41 003e 75ec 353e 1b77 ddbe
00000190: 9c2f d93e efbf f0bc b7df 7c3e 9b1c b6be
000001a0: 34da 6dbe 45b3 a3be 03dc 053e c228 d73e
000001b0: fd8a 973e 50bc c13e d3a8 2f3e 8ab8 6d3c
000001c0: d651 48be 1f27 af3e ad25 ffbe 4e87 463d
000001d0: 7479 823e 4d1b 22be 92ec 92be 9d0f e7be
000001e0: 7742 b63d eb55 ecbd 124b d0be c1ae eb3e
000001f0: 5c9a 02bd 9c2f d93e 17c0 f0bc b7df 7c3e
00000200: 9c1c b6be 3bda 6dbe 43b3 a3be fadb 053e
00000210: c128 d73e f38a 973e 4bbc c13e c0a8 2f3e
00000220: eab7 6d3c d851 48be 1227 af3e ab25 ffbe
00000230: 5c87 463d 6e79 823e 581b 22be 90ec 92be
00000240: a10f e7be 5b42 b63d 0756 ecbd 154b d0be
00000250: bfae eb3e 689a 02bd 9c2f d93e e3bf f0bc
00000260: bbdf 7c3e 9b1c b6be 39da 6dbe 43b3 a3be
00000270: f9db 053e c028 d73e f88a 973e 4fbc c13e
00000280: c5a8 2f3e 32b8 6d3c d951 48be 1927 af3e
00000290: ad25 ffbe 4087 463d 6e79 823e 511b 22be
000002a0: 90ec 92be a00f e7be 6342 b63d f655 ecbd
000002b0: 124b d0be c1ae eb3e 629a 02bd 9c2f d93e
000002c0: 1cc3 3cbd 5b59 20be 56f9 c43e 9719 6d3e
000002d0: 319c 9f3e 33cc 04be bdfb d4be 217d a1be
000002e0: 6096 bfbe 3dc2 27be 3d35 833c f716 813e
000002f0: 6fd1 adbe a593 003f 8bab f8bc 371e 7ebe
00000300: ad69 5c3e 1e5c ae3e 6941 f53e 7317 c5bd
00000310: 0324 173e fb6a dd3e ab35 edbe ad16 a63c
00000320: 9c2f d93e 1cc3 3cbd 0e5a 20be 8af9 c43e
00000330: 3119 6d3e 0a9c 9f3e f0cc 04be e7fb d4be
00000340: 4b7d a1be 7396 bfbe 90c2 27be d12f 833c
00000350: 8e16 813e 7fd1 adbe a993 003f 97b3 f8bc
00000360: 111e 7ebe 5769 5c3e 0a5c ae3e 3d41 f53e
00000370: 2116 c5bd 7423 173e c96a dd3e 4735 edbe
00000380: 9911 a63c 9c2f d93e d3c0 f0bc 85c9 9c3d
00000390: 5377 98be ca48 34bd 7e8b 11bd 2ea8 7abe
000003a0: b3e8 8c3e bc99 093d f0b3 233d b0fb 37be
000003b0: 2889 b7be 97c4 6cbe 0f82 cabd aaba 3ebd
000003c0: 39cd 7dbe ed16 33be 63dc 98be 0387 fabd
000003d0: bfc6 213e c48b a4be c509 cebe 8d41 003e
000003e0: 84ec 353e 0977 ddbe 9c2f d93e ffbf f0bc
000003f0: bfdf 7c3e 9c1c b6be 3bda 6dbe 43b3 a3be
0.42419136 -0.04608451 -0.05592128 0.17247401 0.09464275 0.13337316 0.1034965 -0.25518218
-0.015782287 -0.043559603 0.18170044 0.3648213 0.25373927 -0.022748237 -0.15749684 0.32549688
0.22528023 0.26728058 0.18371288 -0.1437355 0.36706036 0.35109106 -0.021533241 -0.15185615
0.408007 0.42419136 -0.029388731 0.07655279 -0.29778448 -0.044013314 -0.03553287 -0.24478437
0.27521306 0.033592187 0.03996346 -0.17967197 -0.35846785 -0.2312177 -0.0988817 -0.046565488
-0.24785262 -0.17489155 -0.29855627 -0.122327626 0.15798424 -0.32137915 -0.4024179 0.12525082
0.17765959 -0.43254897 0.42419136 -0.029424524 0.07748561 -0.29797006 -0.04435789 -0.035671063
-0.24410017 0.27518922 0.03400784 0.04067322 -0.17941001 -0.35854048 -0.23154011 -0.09870229
-0.04638172 -0.24800976 -0.17505307 -0.29879352 -0.122531004 0.15802707 -0.32138315 -0.40262535
0.124951504 0.17763816 -0.43253863 0.42419136 -0.029388642 0.07655331 -0.2977848 -0.044013567
-0.03553299 -0.24478374 0.27521297 0.03359256 0.03996394 -0.17967184 -0.35846785 -0.23121807
-0.098881416 -0.0465651 -0.24785303 -0.17489168 -0.29855615 -0.12232726 0.15798458 -0.3213788
-0.402418 0.12525104 0.17765982 -0.43254933 0.42419136 -0.029388396 0.24694715 -0.355687
-0.23227769 -0.3197271 0.13072209 0.42023283 0.29598227 0.37838984 0.17154245 0.01450933
-0.19562468 0.34209535 -0.49833432 0.04846888 0.25483286 -0.15830727 -0.28696114 -0.451291
0.08899396 -0.11539825 -0.40682274 0.46031764 -0.03188549 0.42419136 -0.02938847 0.24694715
-0.35568702 -0.2322778 -0.31972703 0.13072196 0.4202328 0.29598197 0.3783897 0.17154217
0.014509181 -0.19562471 0.34209496 -0.49833426 0.048468933 0.25483268 -0.15830743 -0.28696108
-0.4512911 0.08899375 -0.11539846 -0.40682283 0.46031758 -0.031885535 0.42419136 -0.029388374
0.24694721 -0.355687 -0.23227777 -0.31972703 0.13072194 0.42023277 0.29598212 0.3783898
0.17154224 0.014509248 -0.19562472 0.34209517 -0.49833432 0.04846883 0.25483268 -0.15830733
-0.28696108 -0.45129108 0.08899381 -0.11539833 -0.40682274 0.46031764 -0.031885512 0.42419136
-0.04608451 -0.15659086 0.38471478 0.23154293 0.31173852 -0.12968521 -0.4159831 -0.31540778
-0.37419415 -0.1638269 0.016016597 0.25212833 -0.33948848 0.5022529 -0.030355236 -0.24816214
0.21524687 0.34054655 0.47901466 -0.09623613 0.14759831 0.43245682 -0.46330008 0.020274485
0.42419136 -0.04608451 -0.15659353 0.38471633 0.23154141 0.31173736 -0.12968802 -0.41598436
-0.31540903 -0.3741947 -0.16382813 0.016014012 0.2521252 -0.33948895 0.5022531 -0.030359073
-0.24816157 0.21524559 0.34054595 0.47901335 -0.096233614 0.14759618 0.43245533 -0.4632971
0.020272063 0.42419136 -0.02938882 0.07655624 -0.29778537 -0.04401473 -0.03553342 -0.24478218
0.27521285 0.03359388 0.039966524 -0.17967105 -0.3584683 -0.23121868 -0.09888088 -0.046564735
-0.24785317 -0.17489214 -0.29855642 -0.12232783 0.15798472 -0.32137883 -0.4024183 0.12525006
0.17766005 -0.4325488 0.42419136 -0.029388426 0.24694727 -0.35568702 -0.2322778 -0.31972703

model_errors f4 [10, 100, 1]
00000000: 435b 983d 12f0 3d3d d6fa 3d3d 14f0 3d3d
00000010: 58d2 fd39 7cd2 fd39 7dd2 fd39 19d5 103d
00000020: 1cd5 103d 1ff0 3d3d 78d2 fd39 4cf0 3d3d
00000030: 9df4 993d c696 a03d 1cd5 103d 13f0 3d3d
00000040: 18d5 103d 04f0 3d3d 4d28 a03d 1bd5 103d
00000050: 18d5 103d 1ad5 103d 18d5 103d 6669 983d
00000060: 7dd2 fd39 84f0 3d3d 1ff0 3d3d 78d2 fd39
00000070: a079 9a3d 1863 983d 74d2 fd39 ee6e 983d
00000080: 3188 983d 19d5 103d 4c58 9a3d 19d5 103d
00000090: 19d5 103d 1ad5 103d fa97 993d 52f0 3d3d
000000a0: bcd2 fd39 08f0 3d3d 1cd5 103d 7c91 c73d
000000b0: 4ff5 9d3d 1ff0 3d3d 318a a43d db36 9b3d
000000c0: 18d5 103d 1643 983d 64d2 fd39 18d5 103d
000000d0: 0ff0 3d3d b630 983d 76d2 fd39 9c31 983d
000000e0: 05f0 3d3d 74d2 fd39 6859 ab3d 1cf0 3d3d
000000f0: 6fc3 983d 1ad5 103d 18d5 103d 1548 993d
00000100: 19d5 103d 1af0 3d3d 16f0 3d3d b9cf 9a3d
00000110: 89d2 fd39 18d5 103d 18d5 103d 1bd5 103d
00000120: 19d5 103d 57f0 3d3d 19d5 103d 25b8 9a3d
00000130: 68d2 fd39 18d5 103d 8ed2 fd39 13f0 3d3d
00000140: 18d5 103d 0af0 3d3d 76d2 fd39 03f0 3d3d
00000150: 91d2 fd39 0df0 3d3d 65d2 fd39 9480 9f3d
00000160: 17f0 3d3d 81d2 fd39 2cf0 3d3d f467 983d
00000170: 12f0 3d3d 1af0 3d3d 19d5 103d 00f0 3d3d
00000180: 74d2 fd39 5fd2 fd39 19d5 103d 6fd2 fd39
00000190: fb96 1a3c 8fa1 613d e896 1a3c 341c 3539
000001a0: 2c1c 3539 3b4b 593d 758a 8a3d e996 1a3c
000001b0: a48a 8a3d b2db 5b3d 2c1c 3539 fd96 1a3c
000001c0: 1b1c 3539 a18a 8a3d c1b5 483d ee96 1a3c
000001d0: ea96 1a3c c88a 8a3d 419b 533d c81b 3539
000001e0: bc8a 8a3d d61d 3539 be8a 8a3d 9165 603d
000001f0: a48a 8a3d a396 1a3c 8362 483d f596 1a3c
00000200: ca8a 8a3d f696 1a3c f496 1a3c 9a8a 8a3d
00000210: 9774 643d 231c 3539 cec7 4a3d f71b 3539
00000220: bc8a 8a3d 5c51 4a3d fc96 1a3c f388 8a3d
00000230: 9a72 493d f796 1a3c cc8a 8a3d 971c 3539
00000240: e51c 3539 9f5b 543d 958a 8a3d be8a 8a3d
00000250: f196 1a3c 0c1c 3539 ef96 1a3c f396 1a3c
00000260: 0c1d 3539 f889 8a3d 1d8a 8a3d e796 1a3c
00000270: 00db 4a3d 638a 8a3d 7205 4a3d 6d98 583d
00000280: f896 1a3c 5a81 4b3d 1dff 653d 6b89 8a3d
00000290: dc30 483d 1b1c 3539 331c 3539 a38a 8a3d
000002a0: 598a 8a3d 4065 633d c38a 8a3d 4e06 483d
000002b0: 582c 4f3d 6339 533d 9c1c 3539 5a1c 3539
000002c0: c78a 8a3d 0e1c 3539 f596 1a3c 3289 8a3d
000002d0: 80fe 503d 7a8a 8a3d e4c3 5f3d c98a 8a3d
000002e0: 051e 3539 b48a 8a3d 038a 8a3d 03dc 4d3d
000002f0: 3156 4d3d d696 1a3c 7d1f 3539 e796 1a3c
00000300: 0c38 493d e796 1a3c 0e1c 3539 2c24 3539
00000310: b48a 8a3d 9b8a 8a3d 0625 3539 97d4 3539
00000320: 23ff 033c 2eb8 353d 31ff 033c 8c00 7839
00000330: 7bb8 353d d300 7839 12ff 033c bb00 7839
00000340: 3601 7839 b200 7839 3aff 033c bdb7 353d
00000350: 96d6 193d 96b8 353d 2eff 033c ec00 7839
00000360: a1b8 353d 9cb8 353d da00 7839 126d 2d3d
00000370: 80b8 353d 69eb 193d 6001 7839 21d7 3b3d
00000380: 5eb8 183d 740c 303d 91b8 353d cbfe 033c
00000390: 8f02 7839 21ff 033c f0fe 033c e300 7839
000003a0: 3601 7839 33ff 033c 31ff 033c 44c1 6e3d
000003b0: 06ff 033c b803 7839 37ff 033c c17d 5c3d
000003c0: 02ff 033c 9cb8 353d ae05 7839 43b5 353d
000003d0: c800 7839 4842 2a3d a6b8 353d 38ff 033c
000003e0: 46a1 183d 0cb7 353d 89b8 353d 7c01 7839
000003f0: 6fb8 353d 6885 243d fd81 1a3d aa00 7839
0.07439282 0.046371527 0.046381794 0.046371534 0.0004841264 0.00048412743 0.00048412746 0.035359476
0.035359487 0.046371575 0.00048412732 0.046371743 0.075173594 0.07841258 0.035359487 0.04637153
0.035359472 0.046371475 0.07820187 0.035359483 0.035359472 0.03535948 0.035359472 0.07441978
0.00048412746 0.04637195 0.046371575 0.00048412732 0.075427294 0.07440776 0.0004841272 0.07443033
0.074478514 0.035359476 0.075363725 0.035359476 0.035359476 0.03535948 0.0749969 0.046371765
0.0004841293 0.04637149 0.035359487 0.09744546 0.077128045 0.046371575 0.080341704 0.07578822
0.035359472 0.074346706 0.00048412674 0.035359472 0.046371516 0.07431166 0.00048412726 0.07431337
0.04637148 0.0004841272 0.08366662 0.046371564 0.07459151 0.03535948 0.035359472 0.07484452
0.035359476 0.046371557 0.046371542 0.07559151 0.0004841278 0.035359472 0.035359472 0.035359483
0.035359476 0.046371784 0.035359476 0.07554654 0.00048412685 0.035359472 0.00048412796 0.04637153
0.035359472 0.046371497 0.00048412726 0.04637147 0.00048412805 0.04637151 0.00048412677 0.07788196
0.046371546 0.00048412758 0.046371624 0.074417025 0.046371527 0.046371557 0.035359476 0.04637146
0.0004841272 0.0004841266 0.035359476 0.00048412706 0.009435411 0.055085715 0.009435393 0.00017272012
0.00017272 0.05305026 0.0676469 0.009435394 0.06764725 0.053676315 0.00017272 0.0094354125
0.00017271975 0.067647226 0.04900146 0.0094353985 0.009435395 0.06764752 0.051661734 0.00017271854
0.06764743 0.0001727262 0.06764744 0.05478436 0.06764725 0.009435329 0.048922073 0.009435405
0.06764753 0.009435406 0.009435404 0.067647174 0.05577525 0.00017271987 0.049506955 0.00017271923
0.06764743 0.049393997 0.009435412 0.06764402 0.04918156 0.009435407 0.06764755 0.00017272156
0.00017272269 0.05184519 0.06764714 0.06764744 0.009435401 0.00017271953 0.009435399 0.009435403
0.00017272326 0.06764597 0.06764624 0.009435392 0.04952526 0.067646764 0.0493216 0.05287974
0.009435408 0.049683906 0.056151498 0.06764492 0.04887472 0.00017271975 0.0001727201 0.06764724
0.06764669 0.05551648 0.06764748 0.048834138 0.0505794 0.0515684 0.00017272163 0.00017272067
0.06764751 0.00017271956 0.009435405 0.06764449 0.05102396 0.067646936 0.054630175 0.067647524
0.00017272688 0.06764737 0.06764605 0.050258648 0.050131027 0.009435376 0.00017273235 0.009435392
0.049125716 0.009435392 0.00017271956 0.0001727498 0.06764737 0.06764718 0.00017275297 0.00017340701
0.008056435 0.0443651 0.008056448 0.00023651327 0.044365387 0.0002365143 0.008056419 0.00023651395
0.00023651574 0.00023651382 0.008056456 0.04436468 0.03755816 0.044365488 0.008056445 0.00023651466
0.04436553 0.04436551 0.0002365144 0.042340346 0.044365406 0.03757802 0.00023651635 0.04585946
0.0372852 0.042980626 0.04436547 0.008056353 0.00023652076 0.008056433 0.008056387 0.00023651453
0.00023651574 0.00805645 0.008056448 0.05828978 0.008056408 0.00023652508 0.008056453 0.053830866
0.008056404 0.04436551 0.00023653239 0.044362318 0.00023651414 0.041567117 0.044365548 0.008056454
0.037263177 0.04436402 0.04436544 0.00023651676 0.044365343 0.04016629 0.037721623 0.0002365137

targets f4 [10, 100, 25]
00000000: 0000 00bf e206 ee3e ceb0 933e 9cc1 fcbd
00000010: 98e6 4d3e 0040 debb e0e9 d73e e6bb 7bbe
00000020: 20fa d03d 9cc1 fcbd b698 b93e 66ff ff3e
00000030: ceb0 933e 0040 debb 0000 00bf 407b fb3e
00000040: 98e6 4d3e b698 b93e 20fa d03d ce78 bebe
00000050: e206 ee3e e0e9 d73e e6bb 7bbe ce78 bebe
00000060: 407b fb3e b0ff ff3e 1fc7 f1be 7e1c a7be
00000070: 60fe 7f3d 1900 80be 988f 63bd 0200 e0be
00000080: 0c1c 473e 748e 23be 60fe 7f3d 7d1c c7be
00000090: 0000 00bf 7e1c a7be 988f 63bd b0ff ff3e
000000a0: c371 fcbe 1900 80be 7d1c c7be 748e 23be
000000b0: 9438 ae3e 1fc7 f1be 0200 e0be 0c1c 473e
000000c0: 9438 ae3e c371 fcbe 8cd6 ff3e bcca f1be
000000d0: 521f a7be 8040 7f3d d60c 80be a021 64bd
000000e0: 44fe dfbe b0f1 463e acab 23be 8040 7f3d
000000f0: 0d21 c7be 0000 00bf 521f a7be a021 64bd
00000100: 8cd6 ff3e af72 fcbe d60c 80be 0d21 c7be
00000110: acab 23be 601a ae3e bcca f1be 44fe dfbe
00000120: b0f1 463e 601a ae3e af72 fcbe a6ff ff3e
00000130: 20c7 f1be 821c a7be 60fe 7f3d 1600 80be
00000140: 908f 63bd 0700 e0be ec1b 473e 788e 23be
00000150: 60fe 7f3d 7c1c c7be 0000 00bf 821c a7be
00000160: 908f 63bd a6ff ff3e c871 fcbe 1600 80be
00000170: 7c1c c7be 788e 23be 9838 ae3e 20c7 f1be
00000180: 0700 e0be ec1b 473e 9838 ae3e c871 fcbe
00000190: f6ff ff3e b4aa aabd 4c55 553e 0100 c0be
000001a0: 0200 80be abaa aabe e8ff ff3d 4c55 d53e
000001b0: 4e55 953e faff bf3e a0aa 2a3e 0000 20b4
000001c0: 5a55 55be a4aa aa3e 0000 00bf 80aa 2a3d
000001d0: f4ff 7f3e aeaa 2abe 5655 95be abaa eabe
000001e0: 90aa aa3d 0400 00be 5655 d5be a2aa ea3e
000001f0: c0aa 2abd dcff ff3e e4aa aabd 2455 553e
00000200: 0400 c0be 0800 80be aeaa aabe a0ff ff3d
00000210: 3455 d53e 3a55 953e e2ff bf3e 80aa 2a3e
00000220: 0000 08b5 6855 55be 8caa aa3e 0000 00bf
00000230: 20aa 2a3d d0ff 7f3e beaa 2abe 5c55 95be
00000240: adaa eabe 58aa aa3d 1600 00be 5855 d5be
00000250: 8aaa ea3e 28ab 2abd eeff ff3e c8aa aabd
00000260: 3855 553e 0300 c0be 0400 80be acaa aabe
00000270: d0ff ff3d 4455 d53e 4855 953e f2ff bf3e
00000280: 94aa 2a3e 0000 90b4 6055 55be 9aaa aa3e
00000290: 0000 00bf 60aa 2a3d e8ff 7f3e b6aa 2abe
000002a0: 5855 95be acaa eabe 80aa aa3d 0c00 00be
000002b0: 5755 d5be 9caa ea3e e8aa 2abd 0000 00bf
000002c0: 28aa aa3d 7655 55be d0ff bf3e b0ff 7f3e
000002d0: 80aa aa3e 2800 00be 6055 d5be 6255 95be
000002e0: 0900 c0be d6aa 2abe 0000 68b5 0455 553e
000002f0: b8aa aabe c6ff ff3e 68ab 2abd 1200 80be
00000300: 64aa 2a3e 2855 953e 76aa ea3e 10ab aabd
00000310: 68ff ff3d 2655 d53e b0aa eabe a0a9 2a3d
00000320: 0000 00bf a8a6 aa3d 8856 55be 9afe bf3e
00000330: b8fd 7f3e 5aa9 aa3e 2401 00be 8155 d5be
00000340: c355 95be 4200 c0be a4ab 2abe 0000 d4b6
00000350: 3853 553e 02ab aabe 58fe ff3e a0b0 2abd
00000360: 8400 80be 54a8 2a3e 1a54 953e 18a9 ea3e
00000370: 4cad aabd a8fb ff3d d853 d53e c1aa eabe
00000380: 60a3 2a3d 8aff ff3e 1fc7 f1be 861c a7be
00000390: f0fd 7f3d 1e00 80be f88f 63bd 0800 e0be
000003a0: cc1b 473e 8a8e 23be f0fd 7f3d 801c c7be
000003b0: 0000 00bf 861c a7be f88f 63bd 8aff ff3e
000003c0: c871 fcbe 1e00 80be 801c c7be 8a8e 23be
000003d0: 7e38 ae3e 1fc7 f1be 0800 e0be cc1b 473e
000003e0: 7e38 ae3e c871 fcbe f8ff ff3e b8aa aabd
000003f0: 4455 553e 0000 c0be 0200 80be acaa aabe
-0.5 0.46489626 0.2884583 -0.123416156 0.20107496 -0.0067825317 0.4217062 -0.24583396
0.102039576 -0.123416156 0.36249322 0.4999954 0.2884583 -0.0067825317 -0.5 0.4911747
0.20107496 0.36249322 0.102039576 -0.37201542 0.46489626 0.4217062 -0.24583396 -0.37201542
0.4911747 0.49999762 -0.4722223 -0.32638925 0.06249845 -0.25000075 -0.055556864 -0.43750006
0.19444293 -0.1597231 0.06249845 -0.38888922 -0.5 -0.32638925 -0.055556864 0.49999762
-0.49305543 -0.25000075 -0.38888922 -0.1597231 0.3402754 -0.4722223 -0.43750006 0.19444293
0.3402754 -0.49305543 0.49968374 -0.47224987 -0.32641083 0.06231737 -0.25009793 -0.05569613
-0.43748677 0.19428134 -0.15983456 0.06231737 -0.38892403 -0.5 -0.32641083 -0.05569613
0.49968374 -0.49306247 -0.25009793 -0.38892403 -0.15983456 0.34004498 -0.47224987 -0.43748677
0.19428134 0.34004498 -0.49306247 0.49999732 -0.47222233 -0.32638937 0.06249845 -0.25000066
-0.055556834 -0.4375002 0.19444245 -0.15972316 0.06249845 -0.3888892 -0.5 -0.32638937
-0.055556834 0.49999732 -0.49305558 -0.25000066 -0.3888892 -0.15972316 0.34027553 -0.47222233
-0.4375002 0.19444245 0.34027553 -0.49305558 0.4999997 -0.0833334 0.2083332 -0.37500003
-0.25000006 -0.33333334 0.12499982 0.4166664 0.29166645 0.37499982 0.16666651 -1.4901161e-07
-0.2083334 0.33333313 -0.5 0.041666508 0.24999982 -0.16666672 -0.2916667 -0.45833334
0.083333135 -0.12500006 -0.4166667 0.45833308 -0.041666746 0.49999893 -0.08333376 0.2083326
-0.37500012 -0.25000024 -0.33333343 0.124999285 0.41666567 0.29166585 0.3749991 0.16666603
-5.066395e-07 -0.20833361 0.33333242 -0.5 0.04166615 0.24999928 -0.16666695 -0.29166687
-0.4583334 0.08333272 -0.12500033 -0.41666675 0.45833236 -0.041667134 0.49999946 -0.08333355
0.2083329 -0.3750001 -0.25000012 -0.33333337 0.12499964 0.41666615 0.29166627 0.37499958
0.16666633 -2.682209e-07 -0.20833349 0.33333284 -0.5 0.04166639 0.24999964 -0.16666684
-0.29166675 -0.45833337 0.083333015 -0.12500018 -0.41666672 0.4583329 -0.041666895 -0.5
0.08333236 -0.20833382 0.37499857 0.24999881 0.33333206 -0.1250006 -0.41666698 -0.29166704
-0.37500027 -0.16666731 -8.6426735e-07 0.20833212 -0.33333373 0.49999827 -0.041667372 -0.25000054
0.16666561 0.29166532 0.45833176 -0.08333409 0.12499887 0.41666526 -0.4583335 0.041665673
-0.5 0.083325684 -0.2083379 0.37498933 0.2499913 0.3333233 -0.12500435 -0.41666797
-0.29166993 -0.37500197 -0.16667038 -6.3180923e-06 0.20832527 -0.33333594 0.49998736 -0.04167235
-0.25000393 0.16665775 0.29165727 0.45832133 -0.08333835 0.124991715 0.4166553 -0.458334
0.041659713 0.49999648 -0.4722223 -0.3263895 0.062498033 -0.2500009 -0.05555722 -0.43750024
0.19444197 -0.15972343 0.062498033 -0.3888893 -0.5 -0.3263895 -0.05555722 0.49999648
-0.49305558 -0.2500009 -0.3888893 -0.15972343 0.34027475 -0.4722223 -0.43750024 0.19444197
0.34027475 -0.49305558 0.49999976 -0.08333343 0.20833308 -0.375 -0.25000006 -0.33333337

human_preds f4 [10, 100, 25]
00000000: f0ff ff3e c4aa aabd 3c55 553e 0200 c0be
00000010: 0400 80be acaa aabe d8ff ff3d 4655 d53e
00000020: 4855 953e f2ff bf3e 94aa 2a3e 0000 80b4
00000030: 5e55 55be 9caa aa3e 0000 00bf 60aa 2a3d
00000040: e8ff 7f3e b4aa 2abe 5855 95be acaa eabe
00000050: 80aa aa3d 0c00 00be 5655 d5be 9caa ea3e
00000060: e0aa 2abd f0ff ff3e c4aa aabd 3c55 553e
00000070: 0200 c0be 0400 80be acaa aabe d8ff ff3d
00000080: 4655 d53e 4855 953e f2ff bf3e 94aa 2a3e
00000090: 0000 80b4 5e55 55be 9caa aa3e 0000 00bf
000000a0: 60aa 2a3d e8ff 7f3e b4aa 2abe 5855 95be
000000b0: acaa eabe 80aa aa3d 0c00 00be 5655 d5be
000000c0: 9caa ea3e e0aa 2abd f0ff ff3e c4aa aabd
000000d0: 3c55 553e 0200 c0be 0400 80be acaa aabe
000000e0: d8ff ff3d 4655 d53e 4855 953e f2ff bf3e
000000f0: 94aa 2a3e 0000 80b4 5e55 55be 9caa aa3e
00000100: 0000 00bf 60aa 2a3d e8ff 7f3e b4aa 2abe
00000110: 5855 95be acaa eabe 80aa aa3d 0c00 00be
00000120: 5655 d5be 9caa ea3e e0aa 2abd f0ff ff3e
00000130: c4aa aabd 3c55 553e 0200 c0be 0400 80be
00000140: acaa aabe d8ff ff3d 4655 d53e 4855 953e
00000150: f2ff bf3e 94aa 2a3e 0000 80b4 5e55 55be
00000160: 9caa aa3e 0000 00bf 60aa 2a3d e8ff 7f3e
00000170: b4aa 2abe 5855 95be acaa eabe 80aa aa3d
00000180: 0c00 00be 5655 d5be 9caa ea3e e0aa 2abd
00000190: f0ff ff3e c4aa aabd 3c55 553e 0200 c0be
000001a0: 0400 80be acaa aabe d8ff ff3d 4655 d53e
000001b0: 4855 953e f2ff bf3e 94aa 2a3e 0000 80b4
000001c0: 5e55 55be 9caa aa3e 0000 00bf 60aa 2a3d
000001d0: e8ff 7f3e b4aa 2abe 5855 95be acaa eabe
000001e0: 80aa aa3d 0c00 00be 5655 d5be 9caa ea3e
000001f0: e0aa 2abd f0ff ff3e c4aa aabd 3c55 553e
00000200: 0200 c0be 0400 80be acaa aabe d8ff ff3d
00000210: 4655 d53e 4855 953e f2ff bf3e 94aa 2a3e
00000220: 0000 80b4 5e55 55be 9caa aa3e 0000 00bf
00000230: 60aa 2a3d e8ff 7f3e b4aa 2abe 5855 95be
00000240: acaa eabe 80aa aa3d 0c00 00be 5655 d5be
00000250: 9caa ea3e e0aa 2abd f0ff ff3e c4aa aabd
00000260: 3c55 553e 0200 c0be 0400 80be acaa aabe
00000270: d8ff ff3d 4655 d53e 4855 953e f2ff bf3e
00000280: 94aa 2a3e 0000 80b4 5e55 55be 9caa aa3e
00000290: 0000 00bf 60aa 2a3d e8ff 7f3e b4aa 2abe
000002a0: 5855 95be acaa eabe 80aa aa3d 0c00 00be
000002b0: 5655 d5be 9caa ea3e e0aa 2abd f0ff ff3e
000002c0: c4aa aabd 3c55 553e 0200 c0be 0400 80be
000002d0: acaa aabe d8ff ff3d 4655 d53e 4855 953e
000002e0: f2ff bf3e 94aa 2a3e 0000 80b4 5e55 55be
000002f0: 9caa aa3e 0000 00bf 60aa 2a3d e8ff 7f3e
00000300: b4aa 2abe 5855 95be acaa eabe 80aa aa3d
00000310: 0c00 00be 5655 d5be 9caa ea3e e0aa 2abd
00000320: f0ff ff3e c4aa aabd 3c55 553e 0200 c0be
00000330: 0400 80be acaa aabe d8ff ff3d 4655 d53e
00000340: 4855 953e f2ff bf3e 94aa 2a3e 0000 80b4
00000350: 5e55 55be 9caa aa3e 0000 00bf 60aa 2a3d
00000360: e8ff 7f3e b4aa 2abe 5855 95be acaa eabe
00000370: 80aa aa3d 0c00 00be 5655 d5be 9caa ea3e
00000380: e0aa 2abd f0ff ff3e c4aa aabd 3c55 553e
00000390: 0200 c0be 0400 80be acaa aabe d8ff ff3d
000003a0: 4655 d53e 4855 953e f2ff bf3e 94aa 2a3e
000003b0: 0000 80b4 5e55 55be 9caa aa3e 0000 00bf
000003c0: 60aa 2a3d e8ff 7f3e b4aa 2abe 5855 95be
000003d0: acaa eabe 80aa aa3d 0c00 00be 5655 d5be
000003e0: 9caa ea3e e0aa 2abd f0ff ff3e c4aa aabd
000003f0: 3c55 553e 0200 c0be 0400 80be acaa aabe
0.49999952 -0.08333352 0.20833296 -0.37500006 -0.25000012 -0.33333337 0.1249997 0.4166662
0.29166627 0.37499958 0.16666633 -2.3841858e-07 -0.20833346 0.3333329 -0.5 0.04166639
0.24999964 -0.1666668 -0.29166675 -0.45833337 0.083333015 -0.12500018 -0.4166667 0.4583329
-0.041666865 0.49999952 -0.08333352 0.20833296 -0.37500006 -0.25000012 -0.33333337 0.1249997
0.4166662 0.29166627 0.37499958 0.16666633 -2.3841858e-07 -0.20833346 0.3333329 -0.5
0.04166639 0.24999964 -0.1666668 -0.29166675 -0.45833337 0.083333015 -0.12500018 -0.4166667
0.4583329 -0.041666865 0.49999952 -0.08333352 0.20833296 -0.37500006 -0.25000012 -0.33333337
0.1249997 0.4166662 0.29166627 0.37499958 0.16666633 -2.3841858e-07 -0.20833346 0.3333329
-0.5 0.04166639 0.24999964 -0.1666668 -0.29166675 -0.45833337 0.083333015 -0.12500018
-0.4166667 0.4583329 -0.041666865 0.49999952 -0.08333352 0.20833296 -0.37500006 -0.25000012
-0.33333337 0.1249997 0.4166662 0.29166627 0.37499958 0.16666633 -2.3841858e-07 -0.20833346
0.3333329 -0.5 0.04166639 0.24999964 -0.1666668 -0.29166675 -0.45833337 0.083333015
-0.12500018 -0.4166667 0.4583329 -0.041666865 0.49999952 -0.08333352 0.20833296 -0.37500006
-0.25000012 -0.33333337 0.1249997 0.4166662 0.29166627 0.37499958 0.16666633 -2.3841858e-07
-0.20833346 0.3333329 -0.5 0.04166639 0.24999964 -0.1666668 -0.29166675 -0.45833337
0.083333015 -0.12500018 -0.4166667 0.4583329 -0.041666865 0.49999952 -0.08333352 0.20833296
-0.37500006 -0.25000012 -0.33333337 0.1249997 0.4166662 0.29166627 0.37499958 0.16666633
-2.3841858e-07 -0.20833346 0.3333329 -0.5 0.04166639 0.24999964 -0.1666668 -0.29166675
-0.45833337 0.083333015 -0.12500018 -0.4166667 0.4583329 -0.041666865 0.49999952 -0.08333352
0.20833296 -0.37500006 -0.25000012 -0.33333337 0.1249997 0.4166662 0.29166627 0.37499958
0.16666633 -2.3841858e-07 -0.20833346 0.3333329 -0.5 0.04166639 0.24999964 -0.1666668
-0.29166675 -0.45833337 0.083333015 -0.12500018 -0.4166667 0.4583329 -0.041666865 0.49999952
-0.08333352 0.20833296 -0.37500006 -0.25000012 -0.33333337 0.1249997 0.4166662 0.29166627
0.37499958 0.16666633 -2.3841858e-07 -0.20833346 0.3333329 -0.5 0.04166639 0.24999964
-0.1666668 -0.29166675 -0.45833337 0.083333015 -0.12500018 -0.4166667 0.4583329 -0.041666865
0.49999952 -0.08333352 0.20833296 -0.37500006 -0.25000012 -0.33333337 0.1249997 0.4166662
0.29166627 0.37499958 0.16666633 -2.3841858e-07 -0.20833346 0.3333329 -0.5 0.04166639
0.24999964 -0.1666668 -0.29166675 -0.45833337 0.083333015 -0.12500018 -0.4166667 0.4583329
-0.041666865 0.49999952 -0.08333352 0.20833296 -0.37500006 -0.25000012 -0.33333337 0.1249997
0.4166662 0.29166627 0.37499958 0.16666633 -2.3841858e-07 -0.20833346 0.3333329 -0.5
0.04166639 0.24999964 -0.1666668 -0.29166675 -0.45833337 0.083333015 -0.12500018 -0.4166667
0.4583329 -0.041666865 0.49999952 -0.08333352 0.20833296 -0.37500006 -0.25000012 -0.33333337
