categorisation/data/model_comparison/badham2017_env=dim3synthetic_model=transformer_num_episodes500000_num_hidden=256_lr0.0003_num_layers=6_d_model=64_num_head=8_noise0.0_shuffleTrue_run=0_synthetic_eps_greedy.npz (npz, 23944 bytes, 4 tensors)

betas f8 [20]
00000000: 0000 0000 0000 0000 9a99 9999 9999 a93f
00000010: 9a99 9999 9999 b93f 3433 3333 3333 c33f
00000020: 9a99 9999 9999 c93f 0000 0000 0000 d03f
00000030: 3433 3333 3333 d33f 6766 6666 6666 d63f
00000040: 9a99 9999 9999 d93f cdcc cccc cccc dc3f
00000050: 0000 0000 0000 e03f 9a99 9999 9999 e13f
00000060: 3433 3333 3333 e33f cdcc cccc cccc e43f
00000070: 6766 6666 6666 e63f 0000 0000 0000 e83f
00000080: 9a99 9999 9999 e93f 3433 3333 3333 eb3f
00000090: cdcc cccc cccc ec3f 6766 6666 6666 ee3f
0.0 0.05 0.1 0.15000000000000002 0.2 0.25 0.30000000000000004 0.35000000000000003
0.4 0.45 0.5 0.55 0.6000000000000001 0.65 0.7000000000000001 0.75
0.8 0.8500000000000001 0.9 0.9500000000000001

nlls f4 [20, 95]
00000000: 7976 1b44 6584 4444 b595 3344 a2d1 f843
00000010: a787 3a44 8ef8 5a44 df68 4844 44ad 1644
00000020: acac 6644 5a57 2544 190f 8144 872f cc43
00000030: 4e44 c243 021a 0744 6306 db43 5b88 2d44
00000040: 9c27 6c44 8ed7 a243 d958 1244 c8af 3244
00000050: 4edd 3044 eaae 5344 0b24 1844 50ac f243
00000060: c3f4 9943 d5ea 1044 5662 ce43 e87a 4743
00000070: 9f4f 2c44 615d c943 3bb6 0244 7422 a443
00000080: 1921 a143 85ab c043 90b6 ee43 6f27 9343
00000090: 0a18 da43 2538 0944 f6d8 e043 9673 f843
000000a0: eb5e 2f44 ed2b a243 4252 4e44 d73a ab43
000000b0: ebf3 8244 4dce 5a44 781a 1644 85ce 6a43
000000c0: 116c 1144 c2e7 ca43 d8f0 2a44 de02 fc43
000000d0: caf8 8d43 f31d a843 dc3a e343 fae7 e143
000000e0: 6fad 8043 c3d2 8643 e3f6 6243 cefb c643
000000f0: 5286 6043 1807 ff43 2c47 2c44 3a97 8943
00000100: f310 ba43 d3c6 8943 d820 fd43 6463 b943
00000110: 6b1c 2144 f8c2 bb43 1b06 0744 4642 fc43
00000120: 3c1f 1944 d170 d443 075f c343 9b2c 3944
00000130: 4de3 da43 9f98 5244 77bf d643 e8e0 7644
00000140: dae4 1444 5ea8 5744 640e f843 ee49 b343
00000150: 6e03 0544 c200 9244 24db 3144 dd26 3344
00000160: ad56 4b44 7716 9744 700b be43 fccd 4044
00000170: 84ee 0a44 0c44 4c44 434a 1b44 8c27 bb43
00000180: 9964 ca43 bc40 aa43 1078 8b43 fb10 b943
00000190: f216 c043 9cc7 ca43 0863 b343 d697 ce43
000001a0: fff7 b043 3e9a e043 ea2e 8343 902a a043
000001b0: 2ee9 9343 f010 8343 02f4 a843 8d84 d843
000001c0: 7ffc 9043 38b8 a343 54fe c143 092e a343
000001d0: 5fe8 cd43 c1b6 ac43 3518 9943 100d 6b43
000001e0: 0d4e a843 d191 8543 227e 0c43 10d8 a843
000001f0: 4e1a 7243 ca51 a543 3f50 8643 cc75 6c43
00000200: e62e 8a43 2a90 7c43 d773 5b43 3554 9f43
00000210: dc3b 9943 16e0 9543 4968 8543 e504 a843
00000220: c6f8 9243 e681 e043 3626 7343 af24 dd43
00000230: 9059 d843 8220 a943 2c38 4843 d2fc 9043
00000240: 2805 6c43 9b62 9b43 c81c 8643 3242 4c43
00000250: 2fea 6643 ce35 8243 453a 9c43 8694 6943
00000260: 951e 4a43 1452 3943 46c7 8b43 1a5f 4643
00000270: 5db8 8b43 9014 b343 9a5c 3d43 67f6 6843
00000280: f74e 8443 296a 9c43 3961 7643 98cf 9d43
00000290: f75a 8243 6a66 9c43 e238 a243 2998 b343
000002a0: 175e 7c43 a2b5 7a43 403e aa43 c099 7543
000002b0: 6a51 de43 b9f4 9543 7a7f f343 c537 a843
000002c0: 39c4 b943 608d 9243 3501 a643 ea6b a443
000002d0: 71c3 0b44 ce6a ac43 c83b af43 9e5a e143
000002e0: a27f 0544 eebc 6f43 00b5 a943 e553 9943
000002f0: a3f1 d643 1b44 a643 c96c a843 3126 b143
00000300: 3745 8c43 f0f3 7543 f1dd 9f43 4499 a743
00000310: a747 b643 8808 9b43 b470 c243 923e a943
00000320: a7ad ce43 7e63 8443 0924 9743 489b 8943
00000330: eb28 8343 0b1f 9643 31cd be43 c555 8643
00000340: c615 9e43 9cb2 ba43 6a28 8f43 648f b243
00000350: 2a7a 9143 00d3 9443 8383 5243 9264 9743
00000360: 8388 7143 d5fa 0a43 aeee 9543 ac00 5c43
00000370: d448 9243 62c4 7c43 b91e 6543 3c5f 7543
00000380: 45b6 8043 a0e3 6143 5883 9343 4a88 9243
00000390: 3fe9 8343 f46a 8243 e213 9a43 7405 8443
000003a0: 3eec bb43 804e 5e43 3f64 c643 7786 c043
000003b0: d223 9143 f984 4043 b7ff 8e43 9096 4743
000003c0: 53ae 8643 328a 7543 1785 4943 4d56 5543
000003d0: f4f5 7f43 bc83 8f43 4e3a 5d43 5a75 3a43
000003e0: 5c1a 2543 cc5e 8243 e824 3c43 f610 8743
000003f0: 36ec 9d43 a39c 2b43 db4a 5243 ff00 6643
621.85114 786.06866 718.3392 497.63776 746.11957 875.88367 801.6386 602.7073
922.698 661.36487 1032.4718 408.3713 388.53363 540.4064 438.0499 694.13055
944.6189 325.68402 585.38824 714.7466 707.4579 846.73303 608.5632 485.3462
307.9122 579.66925 412.76825 199.4801 689.2441 402.72952 522.84735 328.26917
322.25858 385.34 477.42627 294.30807 436.1878 548.87726 449.695 496.903
701.4831 324.34317 825.2853 342.4597 1047.6224 875.22345 600.4136 234.80672
581.68854 405.8106 683.7632 504.0224 283.94366 336.23398 454.45984 451.81232
257.35495 269.64658 226.9644 397.96722 224.52469 510.05542 689.11206 275.18146
372.13242 275.5533 506.2566 370.7765 644.44403 375.5232 540.0954 504.51776
612.48804 424.88138 390.7424 740.69696 437.7758 842.3847 429.49582 987.51416
595.5758 862.63074 496.11243 358.57758 532.0536 1168.0237 711.4241 716.60724
813.3543 1208.702 380.08936 771.2185 555.7268 817.06323 621.16034 374.30896
404.78592 340.50574 278.938 370.13266 384.17926 405.55945 358.77368 413.18622
353.93747 449.20502 262.36652 320.33252 295.82172 262.13232 337.9063 433.03555
289.97263 327.4392 387.98694 326.35965 411.8154 345.42776 306.18912 235.05103
336.60977 267.1392 140.4927 337.688 242.10275 330.63898 268.62692 236.46014
276.3664 252.56314 219.4525 318.65787 306.46765 299.75067 266.81473 336.03824
293.94354 449.01483 243.14926 442.2866 432.6997 338.25397 200.21942 289.97516
236.02014 310.77036 268.22485 204.25858 230.91478 260.42035 312.45523 233.58017
202.11946 185.32062 279.55682 198.37149 279.44034 358.16064 189.36172 232.96251
264.6169 312.82938 246.37978 315.62183 260.71066 312.8001 324.4444 359.18875
252.36754 250.7095 340.48633 245.60059 444.63605 299.9119 486.9959 336.4357
371.533 293.1045 332.00943 328.84308 559.0538 344.8344 350.46704 450.70795
533.99426 239.738 339.41406 306.65543 429.8878 332.53207 336.84988 354.29837
280.54074 245.95288 319.73392 335.1974 364.55978 310.06665 388.8805 338.48883
413.35666 264.77728 302.28152 275.21313 262.31967 300.24252 381.60306 268.67007
316.1701 373.3954 286.31573 357.12024 290.9544 297.64844 210.51372 302.7857
241.53325 138.97981 299.8647 220.00262 292.56897 252.76712 229.12001 245.37201
257.42398 225.88916 295.02612 293.06476 263.82224 260.83557 308.15533 264.0426
375.84564 222.30664 396.78317 385.0505 290.27985 192.51942 285.99777 199.58813
269.3619 245.53983 201.51988 213.33711 255.96075 287.02917 221.22775 186.4584
165.10297 260.7406 188.14417 270.1325 315.8454 171.61186 210.2924 230.00389

pr2s f4 [20, 95]
00000000: 140c abbf cd02 18c0 2066 05c0 58a0 5ebf
00000010: c4ce e6bf 24c3 1bc0 c046 12c0 48d7 a1bf
00000020: aadc 1dc0 227c ebbf ca41 38c0 007a 2cbf
00000030: 2013 2bbf 9e01 a9bf b880 61bf ce51 dcbf
00000040: 0122 23c0 38fb cbbe 70ba c1bf 70b8 d7bf
00000050: a568 02c0 a498 0bc0 1677 cebf ba3d 7dbf
00000060: 8098 20be 12c3 96bf c8ff 0cbf c04f febd
00000070: a8ce fabf c4ad 3abf 74df 76bf 38e9 92be
00000080: 6c73 c4be b44f 14bf e02f 4bbf 3001 87be
00000090: 9ca9 49bf 326e 93bf b0d5 57bf f8ae 84bf
000000a0: 53c4 00c0 08cf 5fbe 6d70 06c0 5cdc f0be
000000b0: 26da 46c0 5f72 12c0 9efc babf 8050 06bc
000000c0: fead cfbf 7234 84bf a0b6 e6bf 8002 95bf
000000d0: 7070 60be 0411 04bf d80f 94bf 368d 32bf
000000e0: 6067 60bd d044 dcbe c0b0 d03c b071 35bf
000000f0: 5077 43be d291 6abf 16bc fabf f4a2 9cbe
00000100: 1a74 06bf 788c 3bbe d83c 96bf e407 05bf
00000110: 7ee9 b5bf 9c5a d2be 22bb 83bf a4ad 88bf
00000120: 4e9f d0bf aacc 3dbf d0fa 19bf f78a 0bc0
00000130: 9633 61bf fb8c 0ac0 a619 58bf 6c72 2dc0
00000140: 36dd aabf 3a6b 0fc0 98a9 90bf 7076 f0be
00000150: fcfc 8abf b0d9 58c0 a97f 03c0 4aec 04c0
00000160: 0492 03c0 a4a1 62c0 60c5 4dbf b2e0 f2bf
00000170: 1c8b a3bf 8752 16c0 7863 d5bf ac04 d0be
00000180: 6ef0 3cbf b490 ecbe a081 44bd 18fc c7be
00000190: 5291 01bf b886 29bf 7c22 b2be b066 0dbf
000001a0: f80b 05bf 3c0b 30bf b044 9abd 7437 c0be
000001b0: 1055 8abe 188a 00be 4841 a6be fe7d 20bf
000001c0: 80f2 7abe 04d7 cfbe 4054 eabe 7477 cdbe
000001d0: 2c15 0cbf c462 f7be fc86 82be f86d ef3d
000001e0: 1480 87be 0000 6fbb 5c3f 553e e85e e6be
000001f0: 20e5 21bd a807 78be 4090 59bd 80a1 7abc
00000200: 08e4 07be a05e 513d 5075 6c3d 4cb1 9cbe
00000210: 084d 4ebe 6808 6abe 209b bfbd 74be e2be
00000220: 20b6 d5bd 6adc 2fbf e04c 34bd 90e2 3bbf
00000230: 4e2b 20bf 74d0 c5be a0ad 0f3e 685a 9dbe
00000240: 50af 3abe 1024 8cbe b853 1bbe 80d6 fb3d
00000250: e02f 28bd 388a 71be d812 32be 70b8 2e3d
00000260: 508d 93bd 602f 513e b826 4dbe a0ad 55bd
00000270: a03c 4cbd 58b0 09bf c88d cf3d f016 393d
00000280: b076 0bbe c4b8 afbe 809f 20bc 9041 3ebe
00000290: a0fa a73c 8066 33be dcd5 a8be a6d1 0abf
000002a0: 40ad 0cbd 00af e1bc c885 ecbe 8069 5fbd
000002b0: 44a6 2bbf f452 93be 1c64 54bf 9c4d a3be
000002c0: acad cabe d45b 84be d8b5 b8be 2010 94be
000002d0: 18d9 8cbf d414 f6be 683b 01bf 4a7d 31bf
000002e0: 06cc 80bf 2808 0dbe 08e5 8cbe 8081 83be
000002f0: 660d 43bf 3809 dbbe 54f6 87be 8671 05bf
00000300: 307a 51be f08b 9b3d 7813 4ebe 4cd1 a0be
00000310: 2004 fdbe 60e2 28be 480c ecbe 9c21 e8be
00000320: a890 0dbf 0081 aebd 9088 98be 900d 3abe
00000330: f85c 01be 704f 35be 940c debe d848 1dbe
00000340: e410 b7be c842 cebe 68de 6abe 40f4 aebe
00000350: 9043 7fbe c035 61be 4c1d 563e 88df 0cbe
00000360: 908d bd3d 60fa 5d3e 6438 93be 70c8 623d
00000370: 9022 cbbd c070 143c 60de 843c 00e7 b9bb
00000380: 4091 063d e082 f63c 5034 56be d87e 18be
00000390: d07c a6bd f06a 8dbd 4472 a5be 40dc 023c
000003a0: 64f9 d2be 1043 3a3d 9637 0ebf 3cae e4be
000003b0: d848 42be 9488 313e 102c 94be 00f0 4839
000003c0: 90fc d4bd e057 5ebd dcf5 093e 3069 1c3d
000003d0: 38de 5bbe 8082 a0bd 780b bf3d 408c 343c
000003e0: f409 953e 40d7 f4bd 0036 083b 0001 74bc
000003f0: 285a b6be c408 3e3e d46a 0d3e c08e 4b3c
-1.3363061 -2.375171 -2.0843582 -0.86963415 -1.803185 -2.4337854 -2.2855682 -1.2643824
-2.4665933 -1.8397257 -2.8790154 -0.6737366 -0.6682606 -1.3203619 -0.88087034 -1.7212465
-2.5489504 -0.39840102 -1.5135021 -1.6853161 -2.037637 -2.1811914 -1.6130092 -0.9892231
-0.15683174 -1.1778281 -0.5507779 -0.12417555 -1.9594316 -0.72921395 -0.9643471 -0.28693557
-0.3836931 -0.5793412 -0.79369926 -0.26368093 -0.7877443 -1.1518004 -0.84310436 -1.0365896
-2.0119827 -0.2185632 -2.100612 -0.4704312 -3.1070647 -2.2882307 -1.4608343 -0.008197904
-1.6224973 -1.0328505 -1.8024483 -1.1641388 -0.21917892 -0.51588464 -1.1567335 -0.6974672
-0.054786086 -0.4302125 0.025474906 -0.708766 -0.19088483 -0.91628754 -1.9588649 -0.30593073
-0.52520907 -0.18315303 -1.1737318 -0.51965165 -1.4211881 -0.41084754 -1.0291483 -1.0677991
-1.6298616 -0.7414042 -0.60148335 -2.1803567 -0.8796934 -2.1648548 -0.84414136 -2.7101088
-1.3348758 -2.2409196 -1.1301756 -0.4696536 -1.0858455 -3.3882866 -2.0546668 -2.076922
-2.055787 -3.5411158 -0.80379295 -1.8974822 -1.2776828 -2.348787 -1.667098 -0.40628564
-0.73804367 -0.4620415 -0.047975183 -0.3905952 -0.50612366 -0.6622119 -0.34791934 -0.55234814
-0.5197139 -0.6876714 -0.07532632 -0.37542307 -0.27018023 -0.12552679 -0.3247168 -0.6269225
-0.24506569 -0.4059373 -0.45767403 -0.40130198 -0.54719806 -0.4831754 -0.2549361 0.11690897
-0.26464903 -0.0036468506 0.20824951 -0.44994283 -0.03952515 -0.2422167 -0.053116083 -0.015297294
-0.13270581 0.051115632 0.057729065 -0.30604017 -0.20146573 -0.22854769 -0.093557596 -0.4428593
-0.10435128 -0.686957 -0.044018626 -0.7339258 -0.6256608 -0.386356 0.14031076 -0.30733037
-0.18230939 -0.27371264 -0.15168655 0.12296772 -0.041061282 -0.23587883 -0.17390001 0.042656362
-0.072046876 0.20428228 -0.20034301 -0.052167535 -0.049862504 -0.53784704 0.101344645 0.04518789
-0.13619494 -0.34320652 -0.009803653 -0.18579698 0.02050525 -0.1751957 -0.32975662 -0.5422615
-0.03434491 -0.027549267 -0.46195817 -0.054543972 -0.67050576 -0.28774226 -0.82965255 -0.3189515
-0.39585626 -0.2585131 -0.36076236 -0.28918552 -1.1003752 -0.48062766 -0.5048127 -0.693318
-1.0062263 -0.13772643 -0.27518487 -0.25684738 -0.7619232 -0.4278047 -0.2655512 -0.5212635
-0.20456767 0.0759505 -0.20124614 -0.3140968 -0.4941721 -0.16492605 -0.4610312 -0.45338142
-0.5529885 -0.085206985 -0.2979169 -0.18169236 -0.12633121 -0.17706084 -0.4336897 -0.15359819
-0.35755074 -0.40285325 -0.22936404 -0.34170723 -0.24928117 -0.2199316 0.20909613 -0.13757145
0.092555165 0.21677542 -0.2875396 0.055366933 -0.09918702 0.009060085 0.016219318 -0.0056732893
0.032853365 0.030091703 -0.20918393 -0.14892137 -0.08129275 -0.06905162 -0.3231374 0.007987082
-0.41205895 0.045474112 -0.5555357 -0.4466418 -0.189731 0.17337257 -0.28939867 0.00019162893
-0.10399735 -0.054283023 0.13472694 0.038186252 -0.21471488 -0.07837391 0.09328359 0.011019766
0.29109156 -0.11955118 0.002078414 -0.014892817 -0.3561566 0.18558031 0.13810283 0.012424171

accs f4 [20, 95]
00000000: abaa 423f b76d 3b3f 2549 423f 5555 413f
00000010: 0000 483f 16b2 403f 175d 343f 0000 3a3f
00000020: 5555 2d3f e879 2e3f abaa 463f 4617 2d3f
00000030: 7a9e 273f dbb6 3d3f 4992 343f f5a6 473f
00000040: 5555 3d3f c330 1c3f b76d 2b3f 0000 343f
00000050: f43c 3f3f 0000 323f 2549 323f 2fba 383f
00000060: 0000 443f 0000 443f 0000 443f 0000 343f
00000070: abaa 3a3f 9ee7 393f abaa 363f 862c 343f
00000080: cff3 2c3f 5d74 313f 5555 473f c330 2c3f
00000090: bae8 223f b290 353f 8c2e 4a3f 74d1 453f
000000a0: 3dcf 333f 5555 293f 5555 3b3f 7a9e 273f
000000b0: 6f7a 433f abaa 323f bae8 423f 9ee7 393f
000000c0: 6666 3e3f 1cc7 393f 8c2e 4a3f abaa 3a3f
000000d0: b76d 3b3f cdcc 3c3f 790d 353f 0000 3a3f
000000e0: e9a2 2b3f b5b4 343f dbb6 3d3f 310c 333f
000000f0: d3d2 223f 5555 393f 0000 303f ca6b 383f
00000100: 2fba 403f 1886 213f 0000 403f 74d1 2d3f
00000110: abaa 463f 0000 323f 0000 343f 4617 353f
00000120: 7a9e 373f 5d74 413f bae8 423f 5555 453f
00000130: 9224 393f 5555 3f3f 5555 353f 0000 2c3f
00000140: 38bd 393f 5555 473f e879 2e3f 4617 253f
00000150: 210b 393f abaa 403f 310c 433f 0cc3 403f
00000160: 5555 233f 5555 453f 6c28 2f3f 5555 4b3f
00000170: e9a2 333f 0000 303f c330 3c3f 5555 433f
00000180: 9224 393f 0cc3 403f abaa 423f abaa 403f
00000190: 9cde 443f e9a2 333f 0000 403f abaa 343f
000001a0: 4992 343f 0000 423f 5d74 313f c330 2c3f
000001b0: 3dcf 333f 6edb 363f f5a6 473f 0000 483f
000001c0: 0cc3 203f 8661 383f 5555 333f 0000 403f
000001d0: abaa 2a3f 9224 393f 8c2e 2a3f abaa 3a3f
000001e0: 5555 3f3f abaa 423f 0000 353f 5555 453f
000001f0: 3dcf 433f 0000 403f d39b 2e3f 9ee7 293f
00000200: 175d 343f abaa 4a3f 6edb 263f e9a2 2b3f
00000210: 6421 3b3f e9a2 433f 74d1 4d3f f43c 3f3f
00000220: 0000 223f abaa 3e3f 7a9e 273f 862c 443f
00000230: 0000 363f 5d74 413f f43c 2f3f 6666 3e3f
00000240: 398e 433f 2fba 483f cff3 3c3f dbb6 3d3f
00000250: cdcc 3c3f 4379 3d3f 0000 3e3f bae8 2a3f
00000260: 7878 283f 9ee7 393f 0000 303f 1e1e 2e3f
00000270: abaa 423f abaa 3a3f d850 3e3f 5d74 493f
00000280: 6218 263f 7a9e 373f 5d74 313f 5555 4f3f
00000290: abaa 343f 5555 3d3f 74d1 353f 5555 353f
000002a0: e9a2 433f d145 373f cff3 3c3f 1886 413f
000002b0: 0000 3a3f 6edb 363f 5555 2b3f 210b 393f
000002c0: abaa 423f 0cc3 303f 8c2e 223f c842 363f
000002d0: abaa 3e3f 310c 433f e879 3e3f abaa 243f
000002e0: 5555 3d3f 3694 273f 0000 463f d145 2f3f
000002f0: 0000 383f 1886 313f 0000 423f 310c 333f
00000300: 1886 413f abaa 403f abaa 3e3f 862c 443f
00000310: 74d1 3d3f 0000 383f abaa 323f 6edb 363f
00000320: 0000 443f 5d74 293f 6edb 263f 6edb 263f
00000330: 9224 393f 7ad3 4b3f 5555 473f cff3 1c3f
00000340: abaa 3a3f 5555 393f f43c 3f3f 5555 313f
00000350: 3dcf 333f a38b 363f abaa 403f abaa 423f
00000360: abaa 403f 0000 3a3f c330 3c3f 310c 433f
00000370: abaa 363f 862c 343f 9ee7 293f bae8 323f
00000380: 5555 413f b76d 2b3f bae8 2a3f 0b59 383f
00000390: 175d 443f a38b 463f 0000 403f abaa 2a3f
000003a0: 0000 3a3f b76d 2b3f dff4 463f 0000 323f
000003b0: 5d74 413f 2549 323f 9a99 3d3f e438 363f
000003c0: d145 473f 4992 343f dbb6 3d3f 0000 383f
000003d0: 790d 353f 5555 393f 2fba 283f 2d2d 2d3f
000003e0: 0cc3 403f 2549 223f c4c3 233f 0000 3e3f
000003f0: f43c 3f3f 5e43 393f 74d1 453f abaa 1a3f
0.7604167 0.73214287 0.7589286 0.7552083 0.78125 0.7527174 0.70454544 0.7265625
0.6770833 0.68154764 0.7760417 0.6761364 0.6547619 0.7410714 0.70535713 0.7798913
0.7395833 0.61011904 0.66964287 0.703125 0.7470238 0.6953125 0.6964286 0.72159094
0.765625 0.765625 0.765625 0.703125 0.7291667 0.72619045 0.7135417 0.7038044
0.6755952 0.6931818 0.7786458 0.67261904 0.6363636 0.7092391 0.78977275 0.77272725
0.70238096 0.6614583 0.7317708 0.6547619 0.76358694 0.6979167 0.7613636 0.72619045
0.74375 0.7256944 0.78977275 0.7291667 0.73214287 0.7375 0.7072368 0.7265625
0.67045456 0.7058824 0.7410714 0.6994048 0.6360294 0.7239583 0.6875 0.72039473
0.75284094 0.63095236 0.75 0.67897725 0.7760417 0.6953125 0.703125 0.7073864
0.7172619 0.7556818 0.7613636 0.7708333 0.72321427 0.7473958 0.7083333 0.671875
0.7255435 0.7786458 0.68154764 0.6448864 0.72282606 0.7526042 0.7619048 0.7529762
0.6380208 0.7708333 0.68421054 0.7942708 0.70170456 0.6875 0.73511904 0.7630208
0.72321427 0.7529762 0.7604167 0.7526042 0.76902175 0.70170456 0.75 0.7057292
0.70535713 0.7578125 0.6931818 0.67261904 0.70238096 0.71428573 0.7798913 0.78125
0.6279762 0.7202381 0.7005208 0.75 0.6666667 0.72321427 0.66477275 0.7291667
0.7473958 0.7604167 0.70703125 0.7708333 0.76488096 0.75 0.6820652 0.66369045
0.70454544 0.7916667 0.65178573 0.67045456 0.73097825 0.76420456 0.80397725 0.7470238
0.6328125 0.7447917 0.6547619 0.7663044 0.7109375 0.7556818 0.6845238 0.74375
0.7638889 0.78409094 0.7380952 0.7410714 0.7375 0.74013156 0.7421875 0.6676136
0.6580882 0.72619045 0.6875 0.68014705 0.7604167 0.7291667 0.7434211 0.7869318
0.64880955 0.7172619 0.6931818 0.8098958 0.7057292 0.7395833 0.71022725 0.7083333
0.76420456 0.71590906 0.7380952 0.75595236 0.7265625 0.71428573 0.6692708 0.72282606
0.7604167 0.6904762 0.63352275 0.7119565 0.7447917 0.7619048 0.74404764 0.6432292
0.7395833 0.65460527 0.7734375 0.68465906 0.71875 0.69345236 0.7578125 0.6994048
0.75595236 0.7526042 0.7447917 0.7663044 0.74147725 0.71875 0.6979167 0.71428573
0.765625 0.6619318 0.65178573 0.65178573 0.72321427 0.7961956 0.7786458 0.6130952
0.7291667 0.7239583 0.7470238 0.6927083 0.70238096 0.7130682 0.7526042 0.7604167
0.7526042 0.7265625 0.73511904 0.7619048 0.7135417 0.7038044 0.66369045 0.6988636
0.7552083 0.66964287 0.6676136 0.7201087 0.76704544 0.7755682 0.75 0.6666667
0.7265625 0.66964287 0.77717394 0.6953125 0.7556818 0.6964286 0.740625 0.7118056
0.77840906 0.70535713 0.7410714 0.71875 0.7072368 0.7239583 0.65909094 0.6764706
0.7529762 0.6339286 0.6397059 0.7421875 0.7470238 0.7236842 0.77272725 0.6041667
