categorisation/data/model_comparison/devraj2022_env=dim6synthetic_model=transformer_num_episodes500000_num_hidden=256_lr0.0003_num_layers=6_d_model=64_num_head=8_noise0.0_shuffleTrue_run=0_syntheticnonlinear_eps_greedy.npz (npz, 15544 bytes, 4 tensors)

betas f8 [20]
0.0 0.05 0.1 0.15000000000000002 0.2 0.25 0.30000000000000004 0.35000000000000003
0.4 0.45 0.5 0.55 0.6000000000000001 0.65 0.7000000000000001 0.75
0.8 0.8500000000000001 0.9 0.9500000000000001
00000000: 0000 0000 0000 0000 9a99 9999 9999 a93f
00000010: 9a99 9999 9999 b93f 3433 3333 3333 c33f
00000020: 9a99 9999 9999 c93f 0000 0000 0000 d03f
00000030: 3433 3333 3333 d33f 6766 6666 6666 d63f
00000040: 9a99 9999 9999 d93f cdcc cccc cccc dc3f
00000050: 0000 0000 0000 e03f 9a99 9999 9999 e13f
00000060: 3433 3333 3333 e33f cdcc cccc cccc e43f
00000070: 6766 6666 6666 e63f 0000 0000 0000 e83f
00000080: 9a99 9999 9999 e93f 3433 3333 3333 eb3f
00000090: cdcc cccc cccc ec3f 6766 6666 6666 ee3f

nlls f4 [20, 60]
2353.3591 1329.2463 2171.1475 1544.7457 2351.8105 1913.8822 2346.1602 2358.1274
592.78394 1042.0623 645.7667 1988.9435 1862.4446 2433.3728 1441.617 1310.5745
1283.778 246.55618 867.8583 1769.7416 1013.00696 465.90622 1005.6618 1407.9048
2388.4053 770.3125 1224.9363 413.05682 2000.4407 673.04 760.7772 2524.953
2248.2803 2033.7991 226.81522 966.3296 888.1398 1503.5337 450.24884 541.663
491.16937 201.74774 2083.5786 1880.242 397.0267 558.5024 324.223 2331.8948
279.68835 831.10876 387.68427 607.8716 363.23837 2187.568 1244.0455 247.1762
2059.1453 498.8113 1003.91516 1439.1185 947.6305 552.7112 886.04047 609.8833
926.9462 795.4556 947.7175 946.26495 269.0451 502.1304 311.33676 809.435
788.9435 931.1328 595.8363 577.942 545.6893 203.97423 429.2149 710.01184
439.3938 262.23874 481.0184 603.15295 968.3321 368.53806 611.43427 200.24033
817.65814 362.42984 359.60303 1008.33136 901.12854 831.3606 174.35349 428.772
375.454 622.40356 243.46361 283.5515 268.32822 176.64319 845.6388 769.007
259.46387 322.5747 227.56339 902.0879 189.45708 377.51932 259.76532 300.98428
261.39944 874.0051 538.5775 185.90256 889.8314 244.1201 500.15463 632.95935
803.37415 501.1915 774.05945 543.1 786.1002 680.2577 805.22156 810.711
262.51007 442.99573 307.8065 699.1874 677.08246 789.8557 518.3134 502.93088
475.41766 201.64673 366.77206 626.4857 389.43295 269.09116 424.7949 522.6637
802.17224 333.14273 492.48837 258.27734 699.46204 310.89014 341.15085 851.5064
769.29156 709.81226 187.48438 402.6623 359.26025 540.3822 231.85118 265.5232
252.0198 166.33737 715.7071 657.2315 206.99548 267.12943 218.22876 775.8258
188.53531 340.01163 245.76308 277.5691 216.50595 745.9308 477.26498 185.92915
756.9117 230.6675 410.91064 550.251 718.8798 461.72363 696.3964 497.1209
704.79486 618.8008 722.6797 722.16895 256.6175 410.6343 278.91226 623.42285
611.3946 708.33014 475.54266 461.53998 448.84308 204.01146 345.7868 568.2579
364.2133 263.05176 395.06042 475.4032 737.1848 316.3006 452.38168 199.32152
632.19086 298.08292 322.89877 762.33594 686.9386 641.5785 181.7463 356.72192
340.90765 494.38574 236.66495 266.89456 246.88759 172.88098 645.36505 598.5886
247.82875 259.53555 217.78728 695.7136 182.86844 322.63025 241.67462 268.23917
215.9095 670.8652 439.10437 190.40001 691.9959 226.92369 382.84576 508.39877
661.2095 423.7886 642.4027 452.63992 648.37445 573.54504 660.6883 668.0481
244.48491 390.6825 290.70798 584.8406 566.3664 638.6487 448.43747 433.99213
00000000: bf15 1345 e227 a644 5cb2 0745 dd17 c144
00000010: f8fc 1245 3b3c ef44 90a2 1245 0a62 1345
00000020: 2c32 1444 fe41 8244 1271 2144 319e f844
00000030: 3ace e844 f715 1845 be33 b444 62d2 a344
00000040: e578 a044 628e 7643 eef6 5844 bb37 dd44
00000050: 7240 7d44 fff3 e843 5b6a 7b44 f4fc af44
00000060: 7c46 1545 0094 4044 f61d 9944 4687 ce43
00000070: 1a0e fa44 8f42 2844 be31 3e44 3fcf 1d45
00000080: 7c84 0c45 9239 fe44 b2d0 6243 1895 7144
00000090: f208 5e44 14f1 bb44 da1f e143 6f6a 0744
000000a0: ae95 f543 6cbf 4943 4239 0245 be07 eb44
000000b0: 6b83 c643 27a0 0b44 8b1c a243 51be 1145
000000c0: 1cd8 8b43 f6c6 4f44 96d7 c143 c8f7 1744
000000d0: 839e b543 17b9 0845 7581 9b44 1b2d 7743
000000e0: 53b2 0045 d967 f943 92fa 7a44 cbe3 b344
000000f0: 5ae8 6c44 842d 0a44 9782 5d44 8878 1844
00000100: 8fbc 6744 29dd 4644 eced 6c44 f590 6c44
00000110: c685 8643 b110 fb43 1bab 9b43 d75b 4a44
00000120: 623c 4544 80c8 6844 86f5 1444 4a7c 1044
00000130: 1d6c 0844 67f9 4b43 829b d643 c280 3144
00000140: 68b2 db43 8f1e 8343 5b82 f043 cac9 1644
00000150: 4115 7244 df44 b843 cbdb 1844 863d 4843
00000160: 1f6a 4c44 0537 b543 30cd b343 3515 7c44
00000170: 3a48 6144 14d7 4f44 7e5a 2e43 d162 d643
00000180: 1dba bb43 d499 1b44 af76 7343 98c6 8d43
00000190: 032a 8643 a8a4 3043 e268 5344 7340 4044
000001a0: 60bb 8143 9049 a143 3a90 6343 a085 6144
000001b0: 0375 3d43 79c2 bc43 f6e1 8143 fd7d 9643
000001c0: 21b3 8243 5480 5a44 f6a4 0644 0ee7 3943
000001d0: 3675 5e44 bf1e 7443 cb13 fa43 663d 1e44
000001e0: f2d7 4844 8398 fa43 ce83 4144 66c6 0744
000001f0: 6a86 4444 7e10 2a44 2e4e 4944 81ad 4a44
00000200: 4a41 8343 747f dd43 3be7 9943 fecb 2e44
00000210: 4745 2944 c476 4544 0f94 0144 2777 fb43
00000220: 76b5 ed43 90a5 4943 d362 b743 169f 1c44
00000230: 6bb7 c243 ab8b 8643 bf65 d443 7aaa 0244
00000240: 068b 4844 4592 a643 833e f643 8023 8143
00000250: 92dd 2e44 f071 9b43 4f93 aa43 69e0 5444
00000260: a952 4044 fc73 3144 007c 3b43 c654 c943
00000270: 50a1 b343 7618 0744 e7d9 6743 f8c2 8443
00000280: 1205 7c43 5e56 2643 41ed 3244 d14e 2444
00000290: d8fe 4e43 9190 8543 903a 5a43 daf4 4144
000002a0: 0a89 3c43 7d01 aa43 59c3 7543 d8c8 8a43
000002b0: 8681 5843 927b 3a44 eba1 ee43 dded 3943
000002c0: 593a 3d44 e1aa 6643 9074 cd43 1090 0944
000002d0: 4fb8 3344 a0dc e643 5f19 2e44 7a8f f843
000002e0: df32 3044 40b3 1a44 80ab 3444 d08a 3444
000002f0: 0a4f 8043 3151 cd43 c574 8b43 10db 1b44
00000300: 41d9 1844 2115 3144 76c5 ed43 1ec5 e643
00000310: ea6b e043 ef02 4c43 b6e4 ac43 8110 0e44
00000320: 4d1b b643 a086 8343 bc87 c543 9cb3 ed43
00000330: d44b 3844 7a26 9e43 db30 e243 4f52 4743
00000340: 370c 1e44 9d0a 9543 0b73 a143 8095 3e44
00000350: 12bc 2b44 0665 2044 0ebf 3543 685c b243
00000360: 2e74 aa43 6031 f743 3aaa 6c43 8172 8543
00000370: 39e3 7643 88e1 2c43 5d57 2144 aca5 1544
00000380: 29d4 7743 8dc4 8143 8bc9 5943 aced 2d44
00000390: 52de 3643 ac50 a143 b4ac 7143 9d1e 8643
000003a0: d5e8 5743 5fb7 2744 5c8d db43 6766 3e43
000003b0: bdff 2c44 77ec 6243 426c bf43 0b33 fe43
000003c0: 684d 2544 f1e4 d343 c699 2044 e951 e243
000003d0: f717 2244 e262 0f44 0d2c 2544 1403 2744
000003e0: 237c 7443 5c57 c343 9f5a 9143 cc35 1244
000003f0: 7397 0d44 84a9 1f44 ff37 e043 fefe d843

pr2s f4 [20, 60]
-4.511655 -2.1131446 -4.0849085 -2.6178522 -4.508028 -3.4823837 -4.494795 -4.5228224
-0.38832211 -1.4405487 -0.5124098 -3.6581798 -3.3619146 -4.69905 -2.3763208 -2.0694144
-2.006656 0.42255622 -1.0325565 -3.1448011 -1.3725002 -0.091169834 -1.3552976 -2.2973657
-4.5937343 -0.80410063 -1.8688467 0.03260547 -3.6851068 -0.57628477 -0.7817687 -4.913534
-4.2655563 -3.7632337 0.4687903 -1.26318 -1.0800564 -2.521332 -0.054499626 -0.2685951
-0.15033698 0.52749926 -3.879819 -3.4035969 0.07014865 -0.30803347 0.24065763 -4.461385
0.34495944 -0.9464878 0.092028975 -0.423658 0.14928216 -4.1233664 -1.9136012 0.42110413
-3.8225951 -0.1682347 -1.3512068 -2.3704693 -1.2193861 -0.2944702 -1.07514 -0.42836952
-1.1709428 -0.8629868 -1.21959 -1.216188 0.36988628 -0.17600822 0.27083766 -0.89572704
-0.84773517 -1.1807477 -0.39547086 -0.35356176 -0.27802467 0.52228475 -0.005237341 -0.6628742
-0.029076695 0.38582706 -0.12656307 -0.41260672 -1.26787 0.13687009 -0.43200195 0.5310297
-0.9149859 0.1511758 0.15779626 -1.3615496 -1.1104767 -0.94707763 0.59165764 -0.004200101
0.1206727 -0.45769238 0.42979914 0.33591175 0.37156528 0.586295 -0.9805176 -0.80104315
0.39232594 0.24451798 0.46703804 -1.1127236 0.5562844 0.11583567 0.39161992 0.29508358
0.3877927 -1.0469527 -0.26136863 0.5646093 -1.0840185 0.42826158 -0.17138088 -0.48241448
-0.8815323 -0.17380917 -0.8128761 -0.2719605 -0.84107614 -0.5931889 -0.885859 -0.8987155
0.38519162 -0.03751254 0.27910572 -0.63752294 -0.58575237 -0.84987164 -0.21390939 -0.17788291
-0.11344588 0.5277358 0.14100611 -0.46725297 0.08793348 0.36977845 0.0051144958 -0.22409797
-0.8787174 0.21976727 -0.15342617 0.39510483 -0.6381662 0.27188367 0.20101196 -0.99425983
-0.80170965 -0.6624068 0.5609046 0.056949854 0.15859908 -0.26559532 0.45699584 0.37813473
0.40976018 0.6104317 -0.6762128 -0.53926075 0.51520884 0.3743729 0.48890007 -0.817013
0.55844325 0.20368004 0.42441368 0.34992284 0.49293494 -0.74699783 -0.11777246 0.56454694
-0.77271545 0.45976812 0.03763193 -0.28870833 -0.68364346 -0.08137405 -0.63098645 -0.16427577
-0.65065587 -0.4492545 -0.6925428 -0.69134665 0.39899224 0.038279116 0.34677708 -0.46007967
-0.43190897 -0.65893567 -0.113738656 -0.08094382 -0.051207304 0.52219754 0.19015437 -0.33088124
0.14699888 0.38392293 0.0747537 -0.11341202 -0.72651434 0.2592122 -0.059494853 0.53318155
-0.48061466 0.3018787 0.24375898 -0.7854192 -0.6088358 -0.5026008 0.5743433 0.16454393
0.20158154 -0.15786994 0.44572186 0.37492293 0.42178005 0.59510624 -0.5114691 -0.40191698
0.4195758 0.39215803 0.48993403 -0.62938726 0.5717153 0.24438792 0.433989 0.37177384
0.4943319 -0.5711913 -0.028398871 0.5540761 -0.62068033 0.46853626 0.10336089 -0.19068897
-0.5485773 0.0074712634 -0.50453115 -0.0600996 -0.51851726 -0.34326398 -0.5473567 -0.56459355
0.4274072 0.08500701 0.31915104 -0.36971843 -0.3264513 -0.4957391 -0.050257325 -0.016425729
00000000: 7a5f 90c0 c33d 07c0 92b7 82c0 e48a 27c0
00000010: c441 90c0 60df 5ec0 5cd5 8fc0 f6ba 90c0
00000020: 28d2 c6be e663 b8bf 4a2d 03bf 9e1f 6ac0
00000030: 9c29 57c0 9e5e 96c0 a415 18c0 4971 04c0
00000040: 0d6d 00c0 4a59 d83e d02a 84bf 6c44 49c0
00000050: 16ae afbf 40b7 babd 647a adbf 0a08 13c0
00000060: dfff 92c0 8ad9 4dbf 5e36 efbf 508d 053d
00000070: cad8 6bc0 6687 13bf fe21 48bf ac3b 9dc0
00000080: 707f 88c0 d2d8 70c0 4805 f03e e2af a1bf
00000090: 4a3f 8abf 815d 21c0 003b 5fbd 4c85 89be
000000a0: f0f1 19be 310a 073f f44e 78c0 88d4 59c0
000000b0: 18aa 8f3d 90b6 9dbe f46e 763e aac3 8ec0
000000c0: 869e b03e 064d 72bf b079 bc3d b4e9 d8be
000000d0: 6cdd 183e 9ef2 83c0 e2f0 f4bf f69a d73e
000000e0: 66a5 74c0 b845 2cbe 58f4 acbf c5b5 17c0
000000f0: d814 9cbf ccc4 96be 309e 89bf 4053 dbbe
00000100: 74e1 95bf b4ec 5cbf 861b 9cbf 0cac 9bbf
00000110: bc61 bd3e 803b 34be 3cab 8a3e 5e4e 65bf
00000120: 2c05 59bf be22 97bf 287b cabe 0c06 b5be
00000130: 4059 8ebe 74b4 053f 009e abbb 20b2 29bf
00000140: 4032 eebc 208b c53e c099 01be 3041 d3be
00000150: 9049 a2bf ac27 0c3e 5c2f ddbe 90f1 073f
00000160: 843c 6abf d4cd 1a3e 5895 213e 4247 aebf
00000170: 1a24 8ebf ae73 72bf e076 173f 00a1 89bb
00000180: 4023 f73d a856 eabe a20e dc3e a0fc ab3e
00000190: ce3d be3e 6e17 163f 3403 7bbf 2a11 4dbf
000001a0: f2de c83e ec62 7a3e 9c1f ef3e ba6d 8ebf
000001b0: a868 0e3f 403b ed3d 6882 c83e 3215 973e
000001c0: c48c c63e 8c02 86bf 1cd2 85be 3c8a 103f
000001d0: 1ec1 8abf 1a45 db3e 787e 2fbe 08ff f6be
000001e0: 1aac 61bf 08fb 31be a618 50bf 683e 8bbe
000001f0: c450 57bf 3adb 17bf a8c7 62bf 3812 66bf
00000200: d637 c53e c0a6 19bd f2e6 8e3e b434 23bf
00000210: def3 15bf 3091 59bf 100b 5bbe f026 36be
00000220: 5056 e8bd b219 073f e863 103e c83b efbe
00000230: 7816 b43d 9a53 bd3e 8097 a73b f079 65be
00000240: a0f3 60bf ac0a 613e c01b 1dbe 2e4b ca3e
00000250: dc5e 23bf 5634 8b3e 14d6 4d3e d087 7ebf
00000260: d83c 4dbf 7e93 29bf 7297 0f3f 4044 693d
00000270: cc67 223e 1cfc 87be 5cfb e93e e09a c13e
00000280: 16cc d13e 4045 1c3f 481c 2dbf fe0c 0abf
00000290: bae4 033f cead bf3e 1c51 fa3e c427 51bf
000002a0: 23f6 0e3f 8091 503e c04c d93e 1629 b33e
000002b0: f861 fc3e 403b 3fbf b032 f1bd 2686 103f
000002c0: aed0 45bf ba66 eb3e f023 1a3d 94d1 93be
000002d0: 4203 2fbf 70a7 a6bd 5488 21bf e837 28be
000002e0: 6291 26bf b004 e6be 7c4a 31bf 18fc 30bf
000002f0: b648 cc3e 90ca 1c3d c48c b13e 908f ebbe
00000300: 2c23 ddbe 02b0 28bf d0ef e8bd e0c5 a5bd
00000310: c0be 51bd bdae 053f d4b7 423e 4469 a9be
00000320: e086 163e 8c91 c43e 7818 993d 9044 e8bd
00000330: d8fc 39bf 76b7 843e e0b0 73bd 967e 083f
00000340: 2013 f6be d88f 9a3e f49b 793e 3c11 49bf
00000350: aadc 1bbf 72aa 00bf 2a08 133f 347e 283e
00000360: 646b 4e3e a8a8 21be a835 e43e e6f5 bf3e
00000370: 8ef3 d73e e258 183f a4ef 02bf 10c8 cdbe
00000380: a4d2 d63e f0c8 c83e a2d8 fa3e 861f 21bf
00000390: ef5b 123f d440 7a3e ce33 de3e 2459 be3e
000003a0: 1219 fd3e 9839 12bf c0a4 e8bc eed7 0d3f
000003b0: e8e4 1ebf fce3 ef3e e0ae d33d f843 43be
000003c0: 906f 0cbf 80d1 f43b f428 01bf 002b 76bd
000003d0: 8cbd 04bf 4cc0 afbe 921f 0cbf 3489 10bf
000003e0: 1ed5 da3e 2818 ae3d c467 a33e bc4b bdbe
000003f0: a024 a7be 84d1 fdbe a0da 4dbd 408f 86bc

accs f4 [20, 60]
0.8668831 0.8668831 0.8766234 0.8717533 0.862013 0.8798701 0.8814935 0.8685065
0.875 0.8863636 0.8863636 0.8831169 0.8863636 0.8636364 0.862013 0.89123374
0.8603896 0.875 0.8766234 0.8831169 0.8814935 0.88474023 0.8814935 0.875
0.8814935 0.8701299 0.8831169 0.89772725 0.8685065 0.8798701 0.8733766 0.8685065
0.862013 0.90746754 0.8896104 0.8733766 0.8831169 0.8863636 0.8766234 0.8603896
0.8961039 0.8814935 0.875 0.8766234 0.85876626 0.8831169 0.8766234 0.875
0.8766234 0.8766234 0.8798701 0.85714287 0.8961039 0.8733766 0.8636364 0.88474023
0.862013 0.8701299 0.8896104 0.875 0.8733766 0.88474023 0.8636364 0.8733766
0.8668831 0.8766234 0.8668831 0.8863636 0.8814935 0.85714287 0.8814935 0.887987
0.875 0.8782467 0.8717533 0.8782467 0.8766234 0.8766234 0.887987 0.8685065
0.85876626 0.8701299 0.89123374 0.8831169 0.887987 0.8733766 0.86525977 0.862013
0.8766234 0.90584415 0.8717533 0.8814935 0.8685065 0.88474023 0.8733766 0.8717533
0.8782467 0.8798701 0.862013 0.8782467 0.875 0.887987 0.8782467 0.8766234
0.8798701 0.8766234 0.875 0.875 0.8717533 0.8717533 0.8831169 0.8668831
0.85714287 0.8668831 0.875 0.8814935 0.89285713 0.8766234 0.8717533 0.8701299
0.8636364 0.8798701 0.875 0.8733766 0.8782467 0.8717533 0.8863636 0.8782467
0.8896104 0.8863636 0.8896104 0.8668831 0.89285713 0.875 0.8668831 0.8668831
0.8717533 0.887987 0.8733766 0.8896104 0.8685065 0.8896104 0.8603896 0.8944805
0.887987 0.8831169 0.8685065 0.89123374 0.89285713 0.8896104 0.8668831 0.8701299
0.85876626 0.875 0.8766234 0.8717533 0.8831169 0.89123374 0.8685065 0.86525977
0.887987 0.8636364 0.8814935 0.86525977 0.8896104 0.8733766 0.8474026 0.875
0.86525977 0.8701299 0.887987 0.8668831 0.8668831 0.875 0.8733766 0.8733766
0.8831169 0.8538961 0.8733766 0.8896104 0.8798701 0.8766234 0.8798701 0.88474023
0.85714287 0.8896104 0.875 0.86525977 0.86525977 0.8668831 0.8701299 0.8896104
0.8766234 0.8782467 0.8896104 0.8733766 0.8603896 0.8782467 0.8863636 0.8863636
0.88474023 0.88474023 0.8798701 0.8814935 0.8798701 0.8685065 0.862013 0.8668831
0.8701299 0.8636364 0.88474023 0.887987 0.86525977 0.8798701 0.8636364 0.8733766
0.89285713 0.8863636 0.8863636 0.8896104 0.8685065 0.8798701 0.8668831 0.875
0.8798701 0.8717533 0.8782467 0.8636364 0.875 0.8717533 0.8944805 0.8685065
0.89123374 0.8814935 0.875 0.8668831 0.85876626 0.8733766 0.8668831 0.8814935
0.8782467 0.8668831 0.8814935 0.86525977 0.875 0.8863636 0.88474023 0.8782467
0.8814935 0.85714287 0.8766234 0.8863636 0.89285713 0.862013 0.8798701 0.8717533
00000000: 0dec 5d3f 0dec 5d3f 646a 603f 392b 5f3f
00000010: e2ac 5c3f 2b3f 613f 8fa9 613f 7156 5e3f
00000020: 0000 603f bae8 623f bae8 623f f313 623f
00000030: bae8 623f 4617 5d3f e2ac 5c3f e527 643f
00000040: 7e42 5c3f 0000 603f 646a 603f f313 623f
00000050: 8fa9 613f 567e 623f 8fa9 613f 0000 603f
00000060: 8fa9 613f d5c0 5e3f f313 623f 74d1 653f
00000070: 7156 5e3f 2b3f 613f 9c95 5f3f 7156 5e3f
00000080: e2ac 5c3f cb4f 683f 82bd 633f 9c95 5f3f
00000090: f313 623f bae8 623f 646a 603f 7e42 5c3f
000000a0: 1167 653f 8fa9 613f 0000 603f 646a 603f
000000b0: 1bd8 5b3f f313 623f 646a 603f 0000 603f
000000c0: 646a 603f 646a 603f 2b3f 613f b76d 5b3f
000000d0: 1167 653f 9c95 5f3f 4617 5d3f 567e 623f
000000e0: e2ac 5c3f d5c0 5e3f 82bd 633f 0000 603f
000000f0: 9c95 5f3f 567e 623f 4617 5d3f 9c95 5f3f
00000100: 0dec 5d3f 646a 603f 0dec 5d3f bae8 623f
00000110: 8fa9 613f b76d 5b3f 8fa9 613f 1e53 633f
00000120: 0000 603f c7d4 603f 392b 5f3f c7d4 603f
00000130: 646a 603f 646a 603f 1e53 633f 7156 5e3f
00000140: 1bd8 5b3f d5c0 5e3f e527 643f f313 623f
00000150: 1e53 633f 9c95 5f3f aa81 5d3f e2ac 5c3f
00000160: 646a 603f 67e5 673f 392b 5f3f 8fa9 613f
00000170: 7156 5e3f 567e 623f 9c95 5f3f 392b 5f3f
00000180: c7d4 603f 2b3f 613f e2ac 5c3f c7d4 603f
00000190: 0000 603f 1e53 633f c7d4 603f 646a 603f
000001a0: 2b3f 613f 646a 603f 0000 603f 0000 603f
000001b0: 392b 5f3f 392b 5f3f f313 623f 0dec 5d3f
000001c0: b76d 5b3f 0dec 5d3f 0000 603f 8fa9 613f
000001d0: 4992 643f 646a 603f 392b 5f3f d5c0 5e3f
000001e0: 4617 5d3f 2b3f 613f 0000 603f 9c95 5f3f
000001f0: c7d4 603f 392b 5f3f bae8 623f c7d4 603f
00000200: 82bd 633f bae8 623f 82bd 633f 0dec 5d3f
00000210: 4992 643f 0000 603f 0dec 5d3f 0dec 5d3f
00000220: 392b 5f3f 1e53 633f 9c95 5f3f 82bd 633f
00000230: 7156 5e3f 82bd 633f 7e42 5c3f adfc 643f
00000240: 1e53 633f f313 623f 7156 5e3f e527 643f
00000250: 4992 643f 82bd 633f 0dec 5d3f d5c0 5e3f
00000260: 1bd8 5b3f 0000 603f 646a 603f 392b 5f3f
00000270: f313 623f e527 643f 7156 5e3f aa81 5d3f
00000280: 1e53 633f 4617 5d3f 8fa9 613f aa81 5d3f
00000290: 82bd 633f 9c95 5f3f 60ef 583f 0000 603f
000002a0: aa81 5d3f d5c0 5e3f 1e53 633f 0dec 5d3f
000002b0: 0dec 5d3f 0000 603f 9c95 5f3f 9c95 5f3f
000002c0: f313 623f ef98 5a3f 9c95 5f3f 82bd 633f
000002d0: 2b3f 613f 646a 603f 2b3f 613f 567e 623f
000002e0: b76d 5b3f 82bd 633f 0000 603f aa81 5d3f
000002f0: aa81 5d3f 0dec 5d3f d5c0 5e3f 82bd 633f
00000300: 646a 603f c7d4 603f 82bd 633f 9c95 5f3f
00000310: 7e42 5c3f c7d4 603f bae8 623f bae8 623f
00000320: 567e 623f 567e 623f 2b3f 613f 8fa9 613f
00000330: 2b3f 613f 7156 5e3f e2ac 5c3f 0dec 5d3f
00000340: d5c0 5e3f 4617 5d3f 567e 623f 1e53 633f
00000350: aa81 5d3f 2b3f 613f 4617 5d3f 9c95 5f3f
00000360: 4992 643f bae8 623f bae8 623f 82bd 633f
00000370: 7156 5e3f 2b3f 613f 0dec 5d3f 0000 603f
00000380: 2b3f 613f 392b 5f3f c7d4 603f 4617 5d3f
00000390: 0000 603f 392b 5f3f adfc 643f 7156 5e3f
000003a0: e527 643f 8fa9 613f 0000 603f 0dec 5d3f
000003b0: 1bd8 5b3f 9c95 5f3f 0dec 5d3f 8fa9 613f
000003c0: c7d4 603f 0dec 5d3f 8fa9 613f aa81 5d3f
000003d0: 0000 603f bae8 623f 567e 623f c7d4 603f
000003e0: 8fa9 613f b76d 5b3f 646a 603f bae8 623f
000003f0: 4992 643f e2ac 5c3f 2b3f 613f 392b 5f3f
