decisionmaking/trained_models/env=claude_dim2_model=transformer_num_episodes1000000_num_hidden=8_lr0.0003_num_layers=2_d_model=64_num_head=8_noise0.0_shuffleTrue_pairedTrue_lossnll_ess9.4_std0.1_run=1_essinit0.001_annealed_schedulefree.pt (torch, 928558 bytes, 121 tensors)

embedding.weight f4 [64, 3]
0	0x3b47fec1	0.0030516835
1	0x3b69e1bb	0.0035687524
2	0x3d9aaae9	0.0755213
3	0x3b481161	0.0030527937
4	0x3b11026e	0.0022126692
5	0xbda06a1d	-0.078327395
6	0x3acee8c4	0.0015785922
7	0x3aa82977	0.001282974
8	0xbd98f34f	-0.074682824
9	0x3b19fa8f	0.0023495292
10	0x3ae068c8	0.0017121071
11	0xbda20a47	-0.079121165
12	0x3a80c6df	0.0009824893
13	0x3995db4b	0.0002858288
14	0xbd9b2a7d	-0.07576463
15	0x3b53e1dd	0.003233067
16	0x3b0bbe93	0.0021323308
17	0xbd9b8747	-0.075941615
18	0x3917f018	0.00014489924
19	0xb971af0d	-0.00023048763
20	0xbda3543b	-0.0797505
21	0x3b4c6e88	0.0031193811
22	0x3b053c53	0.0020330145
23	0xbd9cc91d	-0.07655547
24	0x37a3dbed	1.9533525e-05
25	0xb9cbbc25	-0.00038859356
26	0xbda4892a	-0.080339745
27	0x3b106b01	0.0022036436
28	0x3ab8141c	0.0014044079
29	0xbda37f59	-0.07983274
30	0x3aa193c5	0.0012327364
31	0x3a4bf393	0.0007780131
32	0x3da475ed	0.08030305
33	0x3aae8e08	0.0013317475
34	0x3a9736c6	0.001153671
35	0x3da6d082	0.081452385
36	0x3a95ca85	0.0011428153
37	0x3a3fa3e6	0.00073104945
38	0x3da2e622	0.079540506
39	0x3a9217be	0.0011145992
40	0x399fd35c	0.00030484318
41	0xbda51d0a	-0.080621794
42	0xb9cf0010	-0.00039482163
43	0xba16349c	-0.00057298853
44	0xbda47a28	-0.08031112
45	0x3802134f	3.1012398e-05
46	0x37ba0601	2.2175724e-05
47	0xbda6c93a	-0.0814385
48	0xb965e52a	-0.00021924512
49	0xb9bf7414	-0.00036516844
50	0xbda2f59c	-0.079570025
51	0x39abcb51	0.00032767144
52	0x3953d51a	0.00020201915
53	0xbda88163	-0.082278036
54	0xb9d58800	-0.00040727854
55	0xb9e8987c	-0.00044364098
56	0xbda0e772	-0.07856645
57	0x3a85e9a6	0.0010216727
58	0x3a78f2b1	0.0009496613
59	0x3da8f242	0.08249332
60	0x39d5d730	0.00040786853
61	0xb8c7a491	-9.519712e-05
62	0xbd94279d	-0.07234118
63	0x3a27734f	0.0006387727
64	0x394e320a	0.00019664332
65	0xbda97486	-0.08274178
66	0xbafa6355	-0.001910309
67	0xbaab0ec3	-0.0013050664
68	0xbd962aa3	-0.07332351
69	0x39a6738c	0.00031748076
70	0x39cad6bc	0.00038688432
71	0x3da78a23	0.08180644
72	0x3d7e9cc0	0.062161207
73	0x3d23c878	0.039986104
74	0x3a9ce522	0.0011970142
75	0x39b9d6a9	0.00035445884
76	0x3a1245bc	0.0005579849
77	0x3da7f772	0.08201493
78	0x3a27bdf5	0.000639885
79	0x3aa244ad	0.0012380086
80	0xbd66c59b	-0.056340795
81	0x3a326f23	0.0006806722
82	0x3a3068dc	0.00067294925
83	0x3da8fd5d	0.0825145
84	0x37105ee0	8.605159e-06
85	0x39ba6034	0.00035548361
86	0xbd6284d0	-0.05530244
87	0x3a25a6af	0.0006319088
88	0x3a2a1bd7	0.0006489134
89	0x3da703b0	0.08155
90	0x3bbad085	0.005701127
91	0x3b665604	0.0035146484
92	0x3d8daa78	0.0691728
93	0x3a0ff97d	0.0005492194
94	0x3a095b39	0.00052397285
95	0x3da5f56e	0.081034526
96	0x3d9421ec	0.072330326
97	0x3d562d80	0.052289486
98	0x3a88c721	0.0010435322
99	0x39e0dde7	0.0004288994
100	0x3a08384d	0.0005196378
101	0x3da895a3	0.08231666
102	0x3d95ab2f	0.07308041
103	0x3d5dd629	0.054159317
104	0x3b1e5b06	0.002416314
105	0x3a3061f0	0.0006728461
106	0x39c0e3b2	0.0003679074
107	0x3da6e840	0.08149767
108	0xbb8a6dc9	-0.004224513
109	0xbacbb7d2	-0.0015542454
110	0x3c92d072	0.01792166
111	0x39e9c51e	0.00044588087
112	0x39bb89ed	0.00035770182
113	0x3da86ed6	0.08224265
114	0xbd987597	-0.074443035
115	0xbd6feecb	-0.05857734
116	0xbbecbd61	-0.007224724
117	0x3a230d41	0.00062199315
118	0x38434a94	4.656108e-05
119	0xbda7c174	-0.08191195
120	0x3cb79715	0.022410909
121	0x3c7140f3	0.014724958
122	0xbd2accd6	-0.041699253
123	0x3a590603	0.0008278789
124	0x39cd26a5	0.0003912944
125	0xbda677b5	-0.08128301
126	0xbd9376f8	-0.07200426
127	0xbd619994	-0.055078104
128	0xbc385834	-0.011251498
129	0x39ada4e6	0.0003311999
130	0x3990cb25	0.00027617175
131	0x3da856ea	0.082197025
132	0x3d0d2622	0.034460194
133	0x3cbbd3a6	0.02292807
134	0xbd21a44d	-0.03946333
135	0x39f2e5f7	0.00046329174
136	0x38f5f41f	0.000117279815
137	0xbda91637	-0.0825619
138	0x3d9774fc	0.0739536
139	0x3d635005	0.055496234
140	0x3afc1052	0.0019230938
141	0x39c3a1e3	0.00037313913
142	0x3a13e45d	0.0005641634
143	0x3da8ff76	0.0825185
144	0xbd93b02d	-0.07211337
145	0xbd60108c	-0.05470328
146	0xbc50fb38	-0.012755208
147	0x39d122c8	0.000398895
148	0x3a17daff	0.0005792826
149	0x3da9588d	0.08268843
150	0xbbb59a2e	-0.0055420613
151	0xbb5cd843	-0.0033698238
152	0xbd5b44fc	-0.053532586
153	0x3996e514	0.00028780906
154	0x39d34622	0.0004029731
155	0x3da7dddf	0.081966154
156	0xbb8f488a	-0.004372661
157	0xbb3a3f3d	-0.002841904
158	0x3d58c6a6	0.05292382
159	0x39f47672	0.00046627555
160	0x3a143bbc	0.0005654653
161	0x3da77813	0.08177199
162	0x3d1df386	0.03856232
163	0x3ccb19ee	0.024792638
164	0xbced9517	-0.029001756
165	0x3a13ab45	0.0005633126
166	0x3a374d4d	0.0006992415
167	0x3da6f8db	0.08152934
168	0xb9d1a502	-0.00039986527
169	0xb99b83e8	-0.00029662182
170	0xbd60c921	-0.05487931
171	0x3a1ca2bd	0.00059751776
172	0x3a032282	0.00050023955
173	0x3da66ef0	0.081266284
174	0x3d94b6e8	0.07261449
175	0x3d5f0b8c	0.05445437
176	0x3c3c998c	0.011511218
177	0x3a0588d8	0.00050939387
178	0x397b8ed9	0.0002399044
179	0xbda7d9a9	-0.08195812
180	0xbb6a6c35	-0.0035770063
181	0xbb224651	-0.002476115
182	0x3d590549	0.052983556
183	0x39d7d65b	0.00041167703
184	0x391804a1	0.00014497574
185	0xbda5fe3f	-0.08105134
186	0xbb0a2d6a	-0.0021084198
187	0xbacdf186	-0.0015712238
188	0xbd6698f7	-0.056298222
189	0x3a5ca520	0.00084169395
190	0x3a29bd59	0.00064750534
191	0x3da8a10a	0.08233841

embedding.bias f4 [64]
0	0x3c73b1b1	0.014873908
1	0xbc44c7fc	-0.012010571
2	0xba2a9cf0	-0.0006508371
3	0xbb4964c3	-0.0030730225
4	0x382a1456	4.0550098e-05
5	0xbbc44eb2	-0.0059908265
6	0x3b7f5f55	0.0038966734
7	0xbb8bb4ab	-0.0042634807
8	0xbb2059ee	-0.0024467665
9	0xbc15c637	-0.009141496
10	0xbb53edf3	-0.0032337874
11	0x3c8fcbbf	0.017553208
12	0xbb614ec3	-0.003437922
13	0x3c231803	0.009954455
14	0xbb48a5bb	-0.0030616361
15	0x3b3b5fcd	0.0028591037
16	0xbad49efa	-0.0016221695
17	0xbb5308ef	-0.003220137
18	0xba83836c	-0.0010033674
19	0xbbbb05a0	-0.0057074577
20	0xbb020892	-0.0019841534
21	0xbc2c4718	-0.010514997
22	0x37b0fc23	2.1098245e-05
23	0xbc125f1c	-0.008933809
24	0xba2e2b4d	-0.00066440256
25	0xbc0fdeb5	-0.008781125
26	0xba98e795	-0.0011665697
27	0xbc0fca7e	-0.008776305
28	0xb97daa3f	-0.00024191382
29	0xbc256fca	-0.010097453
30	0xb9ca82b9	-0.00038625838
31	0xbc0bdda0	-0.008536726
32	0x38ea9412	0.0001118557
33	0xbc10ff0f	-0.008849873
34	0x38a45f32	7.837861e-05
35	0xbc1154e2	-0.008870335
36	0xbab5f52d	-0.0013882272
37	0xbc270c75	-0.010195841
38	0x3a5bad79	0.00083800365
39	0xbc4915d7	-0.012273273
40	0x3a6b642f	0.0008979467
41	0xbc696239	-0.0142446095
42	0x3697382c	4.50669e-06
43	0xbc07b6fc	-0.008283373
44	0x3ab6fa8c	0.0013960167
45	0xbc3c5aa1	-0.011496217
46	0xb90371fb	-0.00012535595
47	0xbc131f30	-0.008979604
48	0xb8be0ed0	-9.062665e-05
49	0xbc28507c	-0.010273095
50	0x39d5fedb	0.00040816408
51	0xbc1e32d8	-0.009655677
52	0xbabbf3ae	-0.001433959
53	0xbc3eb6d9	-0.011640274
54	0x3ac1bd1a	0.0014781088
55	0xbc26098b	-0.010134111
56	0x3a229859	0.0006202511
57	0xbc1d6ddc	-0.009608712
58	0x390480a5	0.00012636425
59	0xbc4d4353	-0.012528258
60	0xba913fb3	-0.0011081606
61	0xbc490fba	-0.012271816
62	0x3a52b119	0.0008037254
63	0xbc238dab	-0.009982507

pos_encoder.pe f4 [1, 10, 64]
0	0x00000000	0.0
1	0x3f800000	1.0
2	0x00000000	0.0
3	0x3f800000	1.0
4	0x00000000	0.0
5	0x3f800000	1.0
6	0x00000000	0.0
7	0x3f800000	1.0
8	0x00000000	0.0
9	0x3f800000	1.0
10	0x00000000	0.0
11	0x3f800000	1.0
12	0x00000000	0.0
13	0x3f800000	1.0
14	0x00000000	0.0
15	0x3f800000	1.0
16	0x00000000	0.0
17	0x3f800000	1.0
18	0x00000000	0.0
19	0x3f800000	1.0
20	0x00000000	0.0
21	0x3f800000	1.0
22	0x00000000	0.0
23	0x3f800000	1.0
24	0x00000000	0.0
25	0x3f800000	1.0
26	0x00000000	0.0
27	0x3f800000	1.0
28	0x00000000	0.0
29	0x3f800000	1.0
30	0x00000000	0.0
31	0x3f800000	1.0
32	0x00000000	0.0
33	0x3f800000	1.0
34	0x00000000	0.0
35	0x3f800000	1.0
36	0x00000000	0.0
37	0x3f800000	1.0
38	0x00000000	0.0
39	0x3f800000	1.0
40	0x00000000	0.0
41	0x3f800000	1.0
42	0x00000000	0.0
43	0x3f800000	1.0
44	0x00000000	0.0
45	0x3f800000	1.0
46	0x00000000	0.0
47	0x3f800000	1.0
48	0x00000000	0.0
49	0x3f800000	1.0
50	0x00000000	0.0
51	0x3f800000	1.0
52	0x00000000	0.0
53	0x3f800000	1.0
54	0x00000000	0.0
55	0x3f800000	1.0
56	0x00000000	0.0
57	0x3f800000	1.0
58	0x00000000	0.0
59	0x3f800000	1.0
60	0x00000000	0.0
61	0x3f800000	1.0
62	0x00000000	0.0
63	0x3f800000	1.0
64	0x3f576aa4	0.84147096
65	0x3f0a5141	0.54030234
66	0x3f2e7ace	0.68156135
67	0x3f3b54b0	0.731761
68	0x3f087dba	0.53316844
69	0x3f58940d	0.8460091
70	0x3ed190f0	0.4093089
71	0x3f6992c7	0.9123959
72	0x3e9f393e	0.3109836
73	0x3f734e6b	0.9504153
74	0x3e708f25	0.23492105
75	0x3f78d5f1	0.9720145
76	0x3e35233a	0.17689219
77	0x3f7bf683	0.9842302
78	0x3e0825f3	0.13295726
79	0x3f7dba28	0.99112177
80	0x3dcc7576	0.099833414
81	0x3f7eb898	0.9950042
82	0x3d996f36	0.07491915
83	0x3f7f47d1	0.9971896
84	0x3d6636ae	0.05620449
85	0x3f7f9868	0.9984193
86	0x3d2cacfb	0.042157155
87	0x3f7fc5bd	0.999111
88	0x3d01815b	0.031617504
89	0x3f7fdf3c	0.99950004
90	0x3cc23ea5	0.023711512
91	0x3f7fed93	0.99971884
92	0x3c91ab42	0.017781857
93	0x3f7ff5a3	0.99984187
94	0x3c5a7a49	0.013334819
95	0x3f7ffa2c	0.99991107
96	0x3c23d657	0.009999833
97	0x3f7ffcb9	0.99995
98	0x3bf5b916	0.0074988706
99	0x3f7ffe28	0.99997187
100	0x3bb8445a	0.0056233825
101	0x3f7ffef7	0.9999842
102	0x3b8a2e5a	0.0042169513
103	0x3f7fff6b	0.9999911
104	0x3b4f3e1c	0.0031622713
105	0x3f7fffac	0.999995
106	0x3b1b6903	0.0023713715
107	0x3f7fffd1	0.9999972
108	0x3ae91520	0.0017782785
109	0x3f7fffe6	0.99999845
110	0x3aaec98b	0.0013335211
111	0x3f7ffff1	0.9999991
112	0x3a83126d	0.0009999998
113	0x3f7ffff8	0.9999995
114	0x3a449489	0.000749894
115	0x3f7ffffb	0.9999997
116	0x3a136a13	0.0005623411
117	0x3f7ffffd	0.9999998
118	0x39dd1721	0.00042169637
119	0x3f7fffff	0.99999994
120	0x39a5cb61	0.00031622782
121	0x3f7fffff	0.99999994
122	0x3978a80d	0.00023713727
123	0x3f800000	1.0
124	0x393a7753	0.00017782794
125	0x3f800000	1.0
126	0x390bd46d	0.00013335208
127	0x3f800000	1.0
128	0x3f68c7b7	0.9092974
129	0xbed51133	-0.41614684
130	0x3f7f5ad9	0.99748
131	0x3d914d53	0.070948265
132	0x3f66f20a	0.9021307
133	0x3edce8b2	0.43146282
134	0x3f3f3511	0.7469035
135	0x3f2a3903	0.6649324
136	0x3f17541b	0.5911271
137	0x3f4e7bec	0.8065784
138	0x3ee9d3b5	0.45669332
139	0x3f63be69	0.8896242
140	0x3eb247f6	0.34820527
141	0x3f6ffaa6	0.93741834
142	0x3e86f082	0.26355368
143	0x3f76f2f5	0.96464473
144	0x3e4b6ff8	0.19866931
145	0x3f7ae5a5	0.9800666
146	0x3e1900d3	0.1494172
147	0x3f7d204f	0.98877424
148	0x3de5d986	0.1122313
149	0x3f7e61f3	0.9936821
150	0x3dac85af	0.084239356
151	0x3f7f170e	0.99644554
152	0x3d8170c8	0.063203394
153	0x3f7f7cf9	0.9980007
154	0x3d4230aa	0.04740969
155	0x3f7fb64e	0.9988755
156	0x3d11a55c	0.03555809
157	0x3f7fd68e	0.9993676
158	0x3cda7550	0.026667267
159	0x3f7fe8b1	0.99964434
160	0x3ca3d43e	0.019998666
161	0x3f7ff2e5	0.9998
162	0x3c75b751	0.014997319
163	0x3f7ff8a1	0.9998875
164	0x3c38439b	0.011246587
165	0x3f7ffbdb	0.99993676
166	0x3c0a2e0a	0.008433828
167	0x3f7ffdab	0.9999644
168	0x3bcf3dd8	0.006324511
169	0x3f7ffeb1	0.99998003
170	0x3b9b68e7	0.00474273
171	0x3f7fff43	0.99998873
172	0x3b691508	0.0035565514
173	0x3f7fff96	0.9999937
174	0x3b2ec980	0.0026670396
175	0x3f7fffc4	0.9999964
176	0x3b031268	0.0019999985
177	0x3f7fffdf	0.99999803
178	0x3ac49485	0.0014997876
179	0x3f7fffed	0.99999887
180	0x3a936a12	0.0011246821
181	0x3f7ffff5	0.99999934
182	0x3a5d171f	0.0008433926
183	0x3f7ffffa	0.99999964
184	0x3a25cb60	0.0006324556
185	0x3f7ffffd	0.9999998
186	0x39f8a80c	0.0004742745
187	0x3f7ffffe	0.9999999
188	0x39ba7753	0.00035565588
189	0x3f7fffff	0.99999994
190	0x398bd46d	0.00026670416
191	0x3f800000	1.0
192	0x3e1081c3	0.14112
193	0xbf7d7026	-0.9899925
194	0x3f473cde	0.7782725
195	0xbf20bfce	-0.6279267
196	0x3f7e45d7	0.9932532
197	0xbded7fab	-0.11596616
198	0x3f742163	0.95363444
199	0x3e9a1863	0.3009673
200	0x3f5009c2	0.8126489
201	0x3f152f58	0.58275366
202	0x3f2724b7	0.652904
203	0x3f41e7a2	0.7574407
204	0x3f022f6c	0.5085361
205	0x3f5c6d29	0.86104065
206	0x3ec768a7	0.3894703
207	0x3f6bc937	0.92103904
208	0x3e974e6c	0.2955202
209	0x3f7490ef	0.9553365
210	0x3e646de2	0.22307542
211	0x3f798c92	0.9748012
212	0x3e2beed7	0.16790329
213	0x3f7c5d9e	0.9858035
214	0x3e01332c	0.12617177
215	0x3f7df443	0.9920084
216	0x3dc1ffc0	0.094726086
217	0x3f7ed94f	0.99550337
218	0x3d919306	0.071081206
219	0x3f7f5a3a	0.9974705
220	0x3d5a694e	0.053323083
221	0x3f7fa2c3	0.9985773
222	0x3d23d1c5	0.039994974
223	0x3f7fcb90	0.99919987
224	0x3cf5b91f	0.0299955
225	0x3f7fe283	0.99955004
226	0x3cb84747	0.022494925
227	0x3f7fef6b	0.999747
228	0x3c8a31c6	0.016869437
229	0x3f7ff6ad	0.9998577
230	0x3c4f4446	0.012650555
231	0x3f7ffac1	0.99991995
232	0x3c1b6e0d	0.009486687
233	0x3f7ffd0d	0.999955
234	0x3be91d13	0.0071140616
235	0x3f7ffe58	0.9999747
236	0x3baecfa8	0.005334813
237	0x3f7fff11	0.99998575
238	0x3b831713	0.0040005534
239	0x3f7fff7a	0.999992
240	0x3b449b92	0.0029999954
241	0x3f7fffb5	0.9999955
242	0x3b136f60	0.0022496805
243	0x3f7fffd6	0.9999975
244	0x3add1f17	0.0016870227
245	0x3f7fffe8	0.99999857
246	0x3aa5d156	0.0012650888
247	0x3f7ffff3	0.9999992
248	0x3a78b110	0.00094868336
249	0x3f7ffff9	0.9999996
250	0x3a3a7e09	0.00071141176
251	0x3f7ffffc	0.99999976
252	0x3a0bd97e	0.0005334838
253	0x3f7ffffe	0.9999999
254	0x39d1bea4	0.00040005625
255	0x3f7fffff	0.99999994

transformer.layers.0.self_attn.in_proj_weight f4 [192, 64]
0	0x3d6f9585	0.058492202
1	0xbd750157	-0.05981573
2	0xbcc9d903	-0.024639612
3	0xbcd108fb	-0.025516978
4	0xbbdbff7c	-0.0067138057
5	0xbd940c21	-0.07228876
6	0x3d9b8e33	0.07595482
7	0xbd8f3321	-0.06992174
8	0x3da19337	0.07889407
9	0xbd4a545f	-0.04939687
10	0x3da27abc	0.07933566
11	0x3d96681b	0.07344075
12	0x3da18b18	0.07887858
13	0x3da32494	0.07965961
14	0x3da02c64	0.07820967
15	0x3da401d6	0.08008163
16	0x3d9f163f	0.07767915
17	0x3da4013c	0.08008048
18	0x3d9e2aa2	0.07722975
19	0x3da3e29f	0.08002209
20	0x3d9db7ce	0.077010736
21	0x3da3e63e	0.080028996
22	0x3d9d4c27	0.076805405
23	0x3da3698f	0.07979118
24	0x3d9a6fd2	0.07540859
25	0x3da3bd16	0.0799505
26	0x3d9915eb	0.07474884
27	0x3da4059d	0.08008883
28	0x3d96e961	0.07368732
29	0x3da302d0	0.07959521
30	0x3d9f667e	0.07783221
31	0x3da3dc04	0.08000949
32	0x3d6f022d	0.058351684
33	0x3da3edfe	0.08004378
34	0x3d4bd202	0.049760826
35	0x3da38bd0	0.079856515
36	0x3d990f3f	0.07473611
37	0x3da33362	0.07968785
38	0x3d0ad5f9	0.033895466
39	0x3da3b405	0.079933204
40	0xbd00cd21	-0.031445626
41	0x3da38ea5	0.07986192
42	0x3c8291a2	0.015938584
43	0x3da3e076	0.08001797
44	0xbd1e588a	-0.038658656
45	0x3da3e049	0.080017634
46	0x3c11ad44	0.008891407
47	0x3da34d76	0.07973759
48	0x3b2c12b9	0.0026256277
49	0x3da3e293	0.080022
50	0xbd93ae95	-0.07211033
51	0x3da43588	0.08018023
52	0x3d987cd5	0.07445685
53	0x3da36e60	0.07980037
54	0xbd227884	-0.039665714
55	0x3da41ed8	0.080136955
56	0xbd9933bd	-0.074805714
57	0x3da3378f	0.07969581
58	0x3c056951	0.008142785
59	0x3da3cb6e	0.079977855
60	0x3d9779a3	0.07396247
61	0x3da38d30	0.07985914
62	0xbd98944a	-0.07450159
63	0x3da382a8	0.07983905
64	0x3d6f9582	0.05849219
65	0xbd750157	-0.05981573
66	0xbcc9d902	-0.02463961
67	0xbcd108fc	-0.02551698
68	0xbbdbff80	-0.0067138076
69	0xbd940c21	-0.07228876
70	0x3d9b8e33	0.07595482
71	0xbd8f3322	-0.06992175
72	0x3da19337	0.07889407
73	0xbd4a5461	-0.049396876
74	0x3da27abc	0.07933566
75	0x3d966819	0.07344074
76	0x3da18b18	0.07887858
77	0x3da32493	0.0796596
78	0x3da02c64	0.07820967
79	0x3da401d7	0.080081634
80	0x3d9f163f	0.07767915
81	0x3da4013f	0.0800805
82	0x3d9e2aa1	0.077229746
83	0x3da3e29e	0.08002208
84	0x3d9db7cf	0.07701074
85	0x3da3e63e	0.080028996
86	0x3d9d4c25	0.07680539
87	0x3da3698e	0.07979117
88	0x3d9a6fd2	0.07540859
89	0x3da3bd17	0.079950504
90	0x3d9915eb	0.07474884
91	0x3da4059d	0.08008883
92	0x3d96e960	0.073687315
93	0x3da302cf	0.0795952
94	0x3d9f667e	0.07783221
95	0x3da3dc03	0.08000948
96	0x3d6f022c	0.05835168
97	0x3da3edff	0.080043785
98	0x3d4bd201	0.049760822
99	0x3da38bcf	0.07985651
100	0x3d990f40	0.07473612
101	0x3da33363	0.079687856
102	0x3d0ad5fa	0.03389547
103	0x3da3b405	0.079933204
104	0xbd00cd25	-0.03144564
105	0x3da38ea5	0.07986192
106	0x3c8291a0	0.01593858
107	0x3da3e075	0.08001796
108	0xbd1e5888	-0.03865865
109	0x3da3e048	0.08001763
110	0x3c11ad42	0.008891406
111	0x3da34d76	0.07973759
112	0x3b2c12b8	0.0026256274
113	0x3da3e294	0.08002201
114	0xbd93ae96	-0.07211034
115	0x3da43586	0.08018021
116	0x3d987cd3	0.07445683
117	0x3da36e60	0.07980037
118	0xbd227884	-0.039665714
119	0x3da41ed9	0.08013696
120	0xbd9933bd	-0.074805714
121	0x3da3378e	0.079695806
122	0x3c05694d	0.008142781
123	0x3da3cb6d	0.07997785
124	0x3d9779a3	0.07396247
125	0x3da38d31	0.079859145
126	0xbd989448	-0.074501574
127	0x3da382a6	0.079839036
128	0xbd6f9583	-0.058492195
129	0x3d750157	0.05981573
130	0x3cc9d904	0.024639614
131	0x3cd108fb	0.025516978
132	0x3bdbff86	0.0067138104
133	0x3d940c21	0.07228876
134	0xbd9b8e32	-0.07595481
135	0x3d8f3320	0.06992173
136	0xbda19337	-0.07889407
137	0x3d4a5462	0.04939688
138	0xbda27abd	-0.07933567
139	0xbd96681c	-0.07344076
140	0xbda18b19	-0.07887859
141	0xbda32494	-0.07965961
142	0xbda02c65	-0.078209676
143	0xbda401d6	-0.08008163
144	0xbd9f163f	-0.07767915
145	0xbda4013d	-0.08008049
146	0xbd9e2aa2	-0.07722975
147	0xbda3e29d	-0.080022074
148	0xbd9db7cf	-0.07701074
149	0xbda3e63e	-0.080028996
150	0xbd9d4c27	-0.076805405
151	0xbda3698f	-0.07979118
152	0xbd9a6fd2	-0.07540859
153	0xbda3bd18	-0.07995051
154	0xbd9915ea	-0.07474883
155	0xbda4059d	-0.08008883
156	0xbd96e961	-0.07368732
157	0xbda302cf	-0.0795952
158	0xbd9f667e	-0.07783221
159	0xbda3dc04	-0.08000949
160	0xbd6f022c	-0.05835168
161	0xbda3edff	-0.080043785
162	0xbd4bd203	-0.04976083
163	0xbda38bd0	-0.079856515
164	0xbd990f3e	-0.0747361
165	0xbda33363	-0.079687856
166	0xbd0ad5f7	-0.03389546
167	0xbda3b405	-0.079933204
168	0x3d00cd24	0.031445637
169	0xbda38ea5	-0.07986192
170	0xbc82919e	-0.015938576
171	0xbda3e076	-0.08001797
172	0x3d1e5889	0.038658652
173	0xbda3e04a	-0.08001764
174	0xbc11ad44	-0.008891407
175	0xbda34d77	-0.079737596
176	0xbb2c12b4	-0.0026256265
177	0xbda3e294	-0.08002201
178	0x3d93ae96	0.07211034
179	0xbda43585	-0.080180205
180	0xbd987cd3	-0.07445683
181	0xbda36e5e	-0.07980035
182	0x3d227885	0.039665718
183	0xbda41ed8	-0.080136955
184	0x3d9933bd	0.074805714
185	0xbda3378f	-0.07969581
186	0xbc05694f	-0.008142783
187	0xbda3cb6e	-0.079977855
188	0xbd9779a3	-0.07396247
189	0xbda38d30	-0.07985914
190	0x3d989448	0.074501574
191	0xbda382a5	-0.07983903
192	0x3d6f9583	0.058492195
193	0xbd750156	-0.059815727
194	0xbcc9d902	-0.02463961
195	0xbcd108fb	-0.025516978
196	0xbbdbff83	-0.006713809
197	0xbd940c1f	-0.072288744
198	0x3d9b8e32	0.07595481
199	0xbd8f3321	-0.06992174
200	0x3da19338	0.07889408
201	0xbd4a5460	-0.049396873
202	0x3da27abb	0.07933565
203	0x3d96681a	0.073440745
204	0x3da18b18	0.07887858
205	0x3da32493	0.0796596
206	0x3da02c64	0.07820967
207	0x3da401d6	0.08008163
208	0x3d9f163e	0.07767914
209	0x3da4013c	0.08008048
210	0x3d9e2aa1	0.077229746
211	0x3da3e29f	0.08002209
212	0x3d9db7ce	0.077010736
213	0x3da3e63e	0.080028996
214	0x3d9d4c28	0.07680541
215	0x3da3698f	0.07979118
216	0x3d9a6fd1	0.075408585
217	0x3da3bd16	0.0799505
218	0x3d9915eb	0.07474884
219	0x3da4059d	0.08008883
220	0x3d96e960	0.073687315
221	0x3da302d0	0.07959521
222	0x3d9f667d	0.0778322
223	0x3da3dc05	0.0800095
224	0x3d6f022d	0.058351684
225	0x3da3edff	0.080043785
226	0x3d4bd202	0.049760826
227	0x3da38bd0	0.079856515
228	0x3d990f40	0.07473612
229	0x3da33363	0.079687856
230	0x3d0ad5f8	0.033895463
231	0x3da3b405	0.079933204
232	0xbd00cd23	-0.031445634
233	0x3da38ea6	0.079861924
234	0x3c8291a0	0.01593858
235	0x3da3e076	0.08001797
236	0xbd1e588a	-0.038658656
237	0x3da3e048	0.08001763
238	0x3c11ad44	0.008891407
239	0x3da34d76	0.07973759
240	0x3b2c12b2	0.002625626
241	0x3da3e294	0.08002201
242	0xbd93ae96	-0.07211034
243	0x3da43585	0.080180205
244	0x3d987cd3	0.07445683
245	0x3da36e60	0.07980037
246	0xbd227884	-0.039665714
247	0x3da41ed8	0.080136955
248	0xbd9933bc	-0.07480571
249	0x3da33790	0.07969582
250	0x3c05694f	0.008142783
251	0x3da3cb6c	0.07997784
252	0x3d9779a2	0.073962465
253	0x3da38d31	0.079859145
254	0xbd989449	-0.07450158
255	0x3da382a6	0.079839036

transformer.layers.0.self_attn.in_proj_bias f4 [192]
0	0x3da44991	0.08021844
1	0x3da44992	0.08021845
2	0xbda44992	-0.08021845
3	0x3da44991	0.08021844
4	0xbda44992	-0.08021845
5	0x3da44992	0.08021845
6	0xbda44992	-0.08021845
7	0x3da44991	0.08021844
8	0xbda30e74	-0.07961741
9	0xbda30e74	-0.07961741
10	0x3da30e74	0.07961741
11	0xbda30e75	-0.07961742
12	0xbda30e75	-0.07961742
13	0xbda30e74	-0.07961741
14	0xbda30e74	-0.07961741
15	0xbda30e74	-0.07961741
16	0xbda486a7	-0.080334954
17	0xbda486a8	-0.08033496
18	0x3da486a9	0.08033497
19	0xbda486a8	-0.08033496
20	0x3da486a8	0.08033496
21	0x3da486a7	0.080334954
22	0xbda486a8	-0.08033496
23	0xbda486a8	-0.08033496
24	0xbda42630	-0.08015096
25	0xbda4262f	-0.080150954
26	0xbda42630	-0.08015096
27	0x3da4262f	0.080150954
28	0xbda4262f	-0.080150954
29	0x3da42630	0.08015096
30	0xbda42630	-0.08015096
31	0xbda42630	-0.08015096
32	0xbced853f	-0.0289942
33	0x3ced853e	0.028994199
34	0xbced853d	-0.028994197
35	0x3ced853e	0.028994199
36	0xbced853d	-0.028994197
37	0x3ced853f	0.0289942
38	0xbced853f	-0.0289942
39	0xbced853f	-0.0289942
40	0xbcf9707c	-0.030449145
41	0x3cf9707c	0.030449145
42	0xbcf9707e	-0.030449148
43	0x3cf9707d	0.030449146
44	0xbcf9707d	-0.030449146
45	0x3cf9707e	0.030449148
46	0xbcf9707a	-0.03044914
47	0xbcf9707b	-0.030449143
48	0xbce357fb	-0.027751913
49	0xbce357f8	-0.027751908
50	0xbce357f9	-0.02775191
51	0x3ce357f7	0.027751906
52	0xbce357f9	-0.02775191
53	0xbce357fb	-0.027751913
54	0x3ce357fa	0.027751911
55	0xbce357f8	-0.027751908
56	0xbda4e4fa	-0.08051486
57	0x3da4e4fa	0.08051486
58	0x3da4e4fb	0.08051487
59	0x3da4e4fa	0.08051486
60	0x3da4e4fb	0.08051487
61	0x3da4e4fb	0.08051487
62	0x3da4e4fa	0.08051486
63	0x3da4e4fa	0.08051486
64	0x38cfd7eb	9.910747e-05
65	0x38d03fa7	9.930069e-05
66	0xb8cfaa5d	-9.902262e-05
67	0x38d025a6	9.9252255e-05
68	0xb8d01f67	-9.924062e-05
69	0x38cfa910	9.9020195e-05
70	0xb8d11a5d	-9.970807e-05
71	0x38cfb060	9.9033816e-05
72	0xb8d001d8	-9.918556e-05
73	0xb8d015c8	-9.92227e-05
74	0x38cf4821	9.883964e-05
75	0xb8d09488	-9.945879e-05
76	0xb8d08a11	-9.94393e-05
77	0xb8cfb98e	-9.9050914e-05
78	0xb8cf756e	-9.892402e-05
79	0xb8d04a16	-9.9320125e-05
80	0xb8ab7948	-8.176506e-05
81	0xb8aae107	-8.148146e-05
82	0x38aacee7	8.14477e-05
83	0xb8abd3bf	-8.193356e-05
84	0x38aafee4	8.153709e-05
85	0x38ad188b	8.253854e-05
86	0xb8ab8044	-8.177807e-05
87	0xb8abd081	-8.192752e-05
88	0xb8aa8a54	-8.131997e-05
89	0xb8a96a22	-8.078317e-05
90	0xb8aab717	-8.140335e-05
91	0x38aa94a2	8.133917e-05
92	0xb8aa4be0	-8.1203645e-05
93	0x38a9b222	8.091728e-05
94	0xb8a9e8c9	-8.1019076e-05
95	0xb8a97fc1	-8.082344e-05
96	0xb6008247	-1.9149318e-06
97	0x36004f9b	1.9119823e-06
98	0xb60021da	-1.909319e-06
99	0x3600a5a1	1.9169895e-06
100	0xb6006865	-1.9134252e-06
101	0x36000458	1.9076015e-06
102	0xb600ba78	-1.9182025e-06
103	0xb6006c2d	-1.9136453e-06
104	0xb60c8f03	-2.094487e-06
105	0x360c479e	2.0903312e-06
106	0xb60c62f7	-2.091923e-06
107	0x360bdcfa	2.084124e-06
108	0xb60b6f46	-2.0777384e-06
109	0x360bf002	2.0852317e-06
110	0xb60bea32	-2.0848934e-06
111	0xb60c5664	-2.0911912e-06
112	0xb60333e5	-1.9550728e-06
113	0xb603b449	-1.962546e-06
114	0xb6032b29	-1.9545644e-06
115	0x36028ea2	1.9454533e-06
116	0xb603c746	-1.9636514e-06
117	0xb602ff4e	-1.9520116e-06
118	0x36038491	1.9597685e-06
119	0xb60256a9	-1.9421952e-06
120	0xb8aa956b	-8.134063e-05
121	0x38a9cda5	8.096852e-05
122	0x38a94f6b	8.073341e-05
123	0x38a98412	8.083148e-05
124	0x38a9e2a6	8.1007645e-05
125	0x38a9eeb4	8.10301e-05
126	0x38a8ccf3	8.049039e-05
127	0x38aa22df	8.112727e-05
128	0x39b28ecb	0.00034057195
129	0x39b28ec0	0.00034057163
130	0x39b28ec4	0.00034057174
131	0x39b28ec2	0.00034057169
132	0x39b28ec4	0.00034057174
133	0x39b28eac	0.00034057104
134	0x39b28eb9	0.00034057142
135	0xb9b28ebf	-0.0003405716
136	0x39a44467	0.0003133148
137	0xb9a4446c	-0.00031331496
138	0x39a44467	0.0003133148
139	0xb9a44468	-0.00031331484
140	0xb9a44468	-0.00031331484
141	0x39a44473	0.00031331516
142	0x39a4445a	0.00031331443
143	0x39a4446b	0.00031331493
144	0x39946e5f	0.00028310993
145	0xb9946e5a	-0.00028310978
146	0xb9946e62	-0.00028311
147	0xb9946e62	-0.00028311
148	0x39946e5f	0.00028310993
149	0x39946e59	0.00028310975
150	0xb9946e66	-0.00028311013
151	0xb9946e5e	-0.0002831099
152	0x39a5100f	0.00031483217
153	0x39a51010	0.0003148322
154	0xb9a51029	-0.00031483293
155	0x39a51021	0.0003148327
156	0x39a51015	0.00031483234
157	0x39a5101b	0.00031483252
158	0x39a51016	0.00031483237
159	0x39a51011	0.00031483223
160	0x3ca4095e	0.020023998
161	0x3ca4095f	0.020024
162	0xbca40962	-0.020024005
163	0xbca40960	-0.020024002
164	0x3ca40960	0.020024002
165	0x3ca4095f	0.020024
166	0xbca4095f	-0.020024
167	0xbca40960	-0.020024002
168	0xbcaf05b4	-0.021365024
169	0x3caf05b5	0.021365026
170	0xbcaf05b5	-0.021365026
171	0x3caf05b6	0.021365028
172	0xbcaf05b8	-0.021365032
173	0x3caf05b5	0.021365026
174	0x3caf05b6	0.021365028
175	0x3caf05b6	0.021365028
176	0x3c9f6dd7	0.019461555
177	0xbc9f6e02	-0.019461636
178	0xbc9f6dfc	-0.019461624
179	0xbc9f6dff	-0.01946163
180	0xbc9f6de7	-0.019461585
181	0x3c9f6de5	0.019461581
182	0xbc9f6dfa	-0.01946162
183	0x3c9f6de7	0.019461585
184	0xb99c7ac8	-0.00029846118
185	0xb99c7ac3	-0.00029846103
186	0x399c7ad5	0.00029846156
187	0xb99c7ad6	-0.0002984616
188	0xb99c7ac6	-0.00029846112
189	0xb99c7acf	-0.00029846138
190	0xb99c7ad3	-0.0002984615
191	0x399c7ac7	0.00029846115

transformer.layers.0.self_attn.out_proj.weight f4 [64, 64]
0	0x3d41a95c	0.047280654
1	0x3d41a95a	0.047280647
2	0x3d41a95b	0.04728065
3	0x3d41a95b	0.04728065
4	0x3d41a95d	0.047280658
5	0x3d41a97e	0.04728078
6	0x3d41a95a	0.047280647
7	0xbd41a95d	-0.047280658
8	0x3d3e7bc5	0.046504755
9	0xbd3e7bc3	-0.046504747
10	0x3d3e7bc5	0.046504755
11	0xbd3e7bc4	-0.04650475
12	0xbd3e7bc6	-0.04650476
13	0x3d3e7bc4	0.04650475
14	0x3d3e7bc3	0.046504747
15	0x3d3e7bc3	0.046504747
16	0x3d45c40c	0.048282668
17	0xbd45c40b	-0.048282664
18	0xbd45c40c	-0.048282668
19	0xbd45c40c	-0.048282668
20	0x3d45c40c	0.048282668
21	0x3d45c40c	0.048282668
22	0xbd45c40c	-0.048282668
23	0xbd45c40c	-0.048282668
24	0x3d42dbfb	0.04757307
25	0x3d42dbfc	0.047573075
26	0xbd42dbfd	-0.04757308
27	0x3d42dbfb	0.04757307
28	0x3d42dbfb	0.04757307
29	0x3d42dbfc	0.047573075
30	0x3d42dbfb	0.04757307
31	0x3d42dbfb	0.04757307
32	0x3b8811f4	0.004152531
33	0x3b8811f9	0.004152533
34	0xbb8811f5	-0.0041525313
35	0xbb8811f8	-0.0041525327
36	0x3b8811f3	0.0041525303
37	0x3b8811f9	0.004152533
38	0xbb8811f5	-0.0041525313
39	0xbb8811f7	-0.004152532
40	0xbb8c5b93	-0.0042833774
41	0x3b8c5b95	0.0042833784
42	0xbb8c5b92	-0.004283377
43	0x3b8c5b92	0.004283377
44	0xbb8c5b93	-0.0042833774
45	0x3b8c5b91	0.0042833765
46	0x3b8c5b98	0.0042833798
47	0x3b8c5b99	0.00428338
48	0x3b8808bb	0.0041514314
49	0xbb8808af	-0.004151426
50	0xbb8808ac	-0.0041514244
51	0xbb8808b6	-0.004151429
52	0xbb8808b9	-0.0041514304
53	0x3b8808bd	0.0041514323
54	0xbb8808ae	-0.0041514253
55	0x3b8808ba	0.004151431
56	0xbd432ea4	-0.0476519
57	0xbd432ea5	-0.047651906
58	0x3d432ea2	0.047651894
59	0xbd432ea5	-0.047651906
60	0xbd432ea4	-0.0476519
61	0xbd432ea4	-0.0476519
62	0xbd432ea5	-0.047651906
63	0x3d432ea6	0.04765191
64	0x3d51e15b	0.051240306
65	0x3d51e15b	0.051240306
66	0x3d51e15a	0.051240303
67	0x3d51e15b	0.051240306
68	0x3d51e15a	0.051240303
69	0x3d51e180	0.051240444
70	0x3d51e15a	0.051240303
71	0xbd51e15a	-0.051240303
72	0x3d4fecbb	0.050762873
73	0xbd4fecbc	-0.050762877
74	0x3d4fecbc	0.050762877
75	0xbd4fecbc	-0.050762877
76	0xbd4fecbf	-0.050762888
77	0x3d4fecbb	0.050762873
78	0x3d4fecbc	0.050762877
79	0x3d4fecbd	0.05076288
80	0x3d4f14a7	0.050556805
81	0xbd4f14a9	-0.050556812
82	0xbd4f14a7	-0.050556805
83	0xbd4f14a6	-0.0505568
84	0x3d4f14a7	0.050556805
85	0x3d4f14a7	0.050556805
86	0xbd4f14a6	-0.0505568
87	0xbd4f14a8	-0.05055681
88	0x3d4cd98b	0.050012153
89	0x3d4cd98c	0.050012156
90	0xbd4cd98d	-0.05001216
91	0x3d4cd98b	0.050012153
92	0x3d4cd98c	0.050012156
93	0x3d4cd98b	0.050012153
94	0x3d4cd98b	0.050012153
95	0x3d4cd98a	0.05001215
96	0x3ba709a3	0.0050975843
97	0x3ba709a3	0.0050975843
98	0xbba709a4	-0.005097585
99	0xbba709a8	-0.0050975867
100	0x3ba709a6	0.0050975857
101	0x3ba709a6	0.0050975857
102	0xbba709a2	-0.005097584
103	0xbba709a3	-0.0050975843
104	0xbbad7912	-0.0052939737
105	0x3bad7915	0.005293975
106	0xbbad7915	-0.005293975
107	0x3bad7912	0.0052939737
108	0xbbad7916	-0.0052939756
109	0x3bad7918	0.0052939765
110	0x3bad7918	0.0052939765
111	0x3bad7918	0.0052939765
112	0x3ba58c84	0.005052151
113	0xbba58c87	-0.0050521526
114	0xbba58c8a	-0.005052154
115	0xbba58c8a	-0.005052154
116	0xbba58c87	-0.0050521526
117	0x3ba58c88	0.005052153
118	0xbba58c86	-0.005052152
119	0x3ba58c86	0.005052152
120	0xbd4e39f1	-0.050348226
121	0xbd4e39f1	-0.050348226
122	0x3d4e39f3	0.050348233
123	0xbd4e39f8	-0.050348252
124	0xbd4e39f4	-0.050348237
125	0xbd4e39f3	-0.050348233
126	0xbd4e39f2	-0.05034823
127	0x3d4e39f3	0.050348233
128	0x3d71b6f0	0.059012353
129	0x3d71b6ed	0.059012342
130	0x3d71b6ef	0.05901235
131	0x3d71b6f0	0.059012353
132	0x3d71b6f2	0.05901236
133	0x3d71b716	0.059012495
134	0x3d71b6f0	0.059012353
135	0xbd71b6ef	-0.05901235
136	0x3d6f1cea	0.058377184
137	0xbd6f1ce8	-0.058377177
138	0x3d6f1cec	0.05837719
139	0xbd6f1ce9	-0.05837718
140	0xbd6f1ceb	-0.058377188
141	0x3d6f1ceb	0.058377188
142	0x3d6f1cec	0.05837719
143	0x3d6f1cec	0.05837719
144	0x3d483dbb	0.048886996
145	0xbd483dbb	-0.048886996
146	0xbd483dba	-0.048886992
147	0xbd483dba	-0.048886992
148	0x3d483dba	0.048886992
149	0x3d483dba	0.048886992
150	0xbd483dba	-0.048886992
151	0xbd483dbc	-0.048887
152	0x3d45cff0	0.048294008
153	0x3d45cfef	0.048294004
154	0xbd45cfee	-0.048294
155	0x3d45cfef	0.048294004
156	0x3d45cfef	0.048294004
157	0x3d45cfef	0.048294004
158	0x3d45cff1	0.04829401
159	0x3d45cfef	0.048294004
160	0x3be20bc4	0.006898375
161	0x3be20bc4	0.006898375
162	0xbbe20bc1	-0.006898374
163	0xbbe20bc6	-0.006898376
164	0x3be20bc0	0.0068983734
165	0x3be20bc5	0.0068983757
166	0xbbe20bc2	-0.0068983743
167	0xbbe20bc3	-0.0068983748
168	0xbbe3f341	-0.0069564884
169	0x3be3f339	0.0069564846
170	0xbbe3f341	-0.0069564884
171	0x3be3f33b	0.0069564856
172	0xbbe3f33a	-0.006956485
173	0x3be3f33f	0.0069564874
174	0x3be3f33e	0.006956487
175	0x3be3f33a	0.006956485
176	0x3bdf3074	0.006811196
177	0xbbdf3067	-0.00681119
178	0xbbdf306d	-0.0068111927
179	0xbbdf3064	-0.0068111885
180	0xbbdf3071	-0.0068111946
181	0x3bdf3070	0.006811194
182	0xbbdf306b	-0.006811192
183	0x3bdf306f	0.0068111937
184	0xbd46c13a	-0.04852412
185	0xbd46c139	-0.048524115
186	0x3d46c13a	0.04852412
187	0xbd46c13b	-0.048524123
188	0xbd46c13d	-0.04852413
189	0xbd46c13a	-0.04852412
190	0xbd46c139	-0.048524115
191	0x3d46c13a	0.04852412
192	0x3d4fe448	0.050754815
193	0x3d4fe448	0.050754815
194	0x3d4fe448	0.050754815
195	0x3d4fe446	0.050754808
196	0x3d4fe44b	0.050754827
197	0x3d4fe464	0.05075492
198	0x3d4fe447	0.05075481
199	0xbd4fe448	-0.050754815
200	0x3d4e2bf8	0.0503349
201	0xbd4e2bf5	-0.05033489
202	0x3d4e2bf7	0.050334897
203	0xbd4e2bf9	-0.050334904
204	0xbd4e2bf9	-0.050334904
205	0x3d4e2bf6	0.050334893
206	0x3d4e2bf7	0.050334897
207	0x3d4e2bf7	0.050334897
208	0x3d537110	0.051621497
209	0xbd53710f	-0.051621493
210	0xbd537112	-0.051621504
211	0xbd53710f	-0.051621493
212	0x3d53710f	0.051621493
213	0x3d53710f	0.051621493
214	0xbd537112	-0.051621504
215	0xbd537110	-0.051621497
216	0x3d50ff79	0.051024888
217	0x3d50ff7a	0.05102489
218	0xbd50ff7b	-0.051024895
219	0x3d50ff7a	0.05102489
220	0x3d50ff79	0.051024888
221	0x3d50ff7a	0.05102489
222	0x3d50ff79	0.051024888
223	0x3d50ff78	0.051024884
224	0x3ba7cea5	0.0051210695
225	0x3ba7cea5	0.0051210695
226	0xbba7cea4	-0.005121069
227	0xbba7cea3	-0.0051210686
228	0x3ba7cea5	0.0051210695
229	0x3ba7cea2	0.005121068
230	0xbba7cea5	-0.0051210695
231	0xbba7cea7	-0.0051210704
232	0xbbab543b	-0.005228547
233	0x3bab543d	0.005228548
234	0xbbab5439	-0.005228546
235	0x3bab543d	0.005228548
236	0xbbab543b	-0.005228547
237	0x3bab543e	0.0052285483
238	0x3bab543c	0.0052285474
239	0x3bab543c	0.0052285474
240	0x3ba4fea0	0.0050352365
241	0xbba4fe93	-0.0050352304
242	0xbba4fe8c	-0.005035227
243	0xbba4fe98	-0.0050352328
244	0xbba4fe9a	-0.0050352337
245	0x3ba4fe99	0.005035233
246	0xbba4fe90	-0.005035229
247	0x3ba4fe9a	0.0050352337
248	0xbd52a487	-0.051426437
249	0xbd52a484	-0.051426426
250	0x3d52a485	0.05142643
251	0xbd52a488	-0.05142644
252	0xbd52a485	-0.05142643
253	0xbd52a484	-0.051426426
254	0xbd52a483	-0.05142642
255	0x3d52a485	0.05142643

transformer.layers.0.self_attn.out_proj.bias f4 [64]
0	0x3b464c77	0.003025798
1	0x3b96b3ca	0.0045990692
2	0x3bba9330	0.0056938156
3	0x3b8fe042	0.0043907473
4	0x3b868711	0.0041054566
5	0x3c3b3067	0.011425114
6	0xbb7f5f5c	-0.003896675
7	0x3c5c81b0	0.013458654
8	0xbc0edc23	-0.008719477
9	0x3c1690e9	0.009189823
10	0xbc3a8305	-0.011383777
11	0x38970986	7.202015e-05
12	0xbc2c0a27	-0.010500467
13	0xbbaa3e5e	-0.005195423
14	0xbbe1c107	-0.0068894657
15	0xbc2714c9	-0.010197827
16	0xbbb048c5	-0.0053797686
17	0xbc5056d6	-0.012716016
18	0xbb6da94b	-0.0036264237
19	0xbc89c123	-0.016815728
20	0xba9824a5	-0.0011607601
21	0xbc805d42	-0.015669469
22	0xba8926bb	-0.0010463813
23	0xbc94a026	-0.018142771
24	0xba3573a8	-0.0006921836
25	0xbc984dc4	-0.018591769
26	0x3a4e9907	0.0007881079
27	0xbc975d35	-0.018477062
28	0xba17fc5e	-0.00057977985
29	0xbc955a41	-0.018231513
30	0x38cabe58	9.667565e-05
31	0xbc99b603	-0.018763548
32	0xb9c00f6a	-0.00036632578
33	0xbc9983bc	-0.018739574
34	0xb99152c4	-0.0002771822
35	0xbc9da104	-0.019241817
36	0x39992f08	0.00029217475
37	0xbc991396	-0.018686097
38	0x39e85638	0.00044314726
39	0xbc842c2c	-0.016134344
40	0x39b73438	0.00034943386
41	0xbc886db9	-0.016653882
42	0xb98f919d	-0.00027383576
43	0xbc91bd25	-0.017790386
44	0x3a99912f	0.0011716242
45	0xbc888a42	-0.016667489
46	0xb994126f	-0.00028242494
47	0xbc997992	-0.018734727
48	0xb817ea1b	-3.6219233e-05
49	0xbc9a0868	-0.018802837
50	0xb8334d23	-4.2748765e-05
51	0xbc99e929	-0.018787937
52	0xb9e5736e	-0.00043764286
53	0xbc946fd5	-0.018119732
54	0x3a75aa68	0.0009371401
55	0xbc95bba4	-0.01827795
56	0xb7e60b80	-2.7423492e-05
57	0xbc9b7dd8	-0.018980905
58	0x3a9a720e	0.0011783259
59	0xbc86d7a8	-0.016460255
60	0xba232078	-0.0006222795
61	0xbc858b75	-0.01630185
62	0xb8dbfc5b	-0.000104897386
63	0xbc9dd3d8	-0.019266054

transformer.layers.0.multihead_attn.in_proj_weight f4 [192, 64]
0	0x3be309c0	0.0069286525
1	0x3bddd0ba	0.006769267
2	0x3bca72bb	0.0061782277
3	0x3c01787c	0.007902261
4	0x3bebee14	0.007200012
5	0x3bada90d	0.0052996934
6	0x3be93fd3	0.007118204
7	0x3bb63e2a	0.0055616098
8	0x3bb87ab9	0.005629864
9	0x3bc29fbb	0.0059394515
10	0x3bee4d3e	0.0072723916
11	0x3bf06a0e	0.0073368615
12	0x3bd8eeb8	0.0066202544
13	0x3bee721b	0.007276786
14	0x3bc36eb8	0.0059641264
15	0x3be96d15	0.0071235993
16	0x3bd96be8	0.006635178
17	0x3bed86e8	0.007248748
18	0x3be0d81c	0.0068616997
19	0x3be18a12	0.0068829143
20	0x3c1936a5	0.009351407
21	0x3bd68696	0.0065468056
22	0x3bfec12d	0.007774493
23	0x3bf8ccf1	0.0075927903
24	0x3c197a5a	0.00936755
25	0x3bfb19ff	0.007663011
26	0x3bf53e1d	0.007484211
27	0x3bfcbc5c	0.007712884
28	0x3c362719	0.01111772
29	0x3c02a4ac	0.007973831
30	0x3bddd1ec	0.0067694094
31	0x3c004bd1	0.007830576
32	0x3c26b0ab	0.010173957
33	0x3c01e023	0.0079269735
34	0x3c292b84	0.010325316
35	0x3bd9b800	0.006644249
36	0x3bad7155	0.0052930512
37	0x3bfb39d8	0.0076668076
38	0x3bec0f9e	0.00720401
39	0x3c00a98c	0.007852923
40	0x3beb5da7	0.007182795
41	0x3bd345fe	0.0064475527
42	0x3c2b6973	0.010462153
43	0x3bfd4d64	0.007730173
44	0x3bd4391c	0.0064765345
45	0x3bed75f7	0.0072467285
46	0x3c2ad134	0.0104258545
47	0x3bf9c0c7	0.007621858
48	0x3c26c1a5	0.010178004
49	0x3bfac811	0.0076532443
50	0x3c455351	0.01204379
51	0x3bfc9531	0.0077082147
52	0x3c1ed946	0.009695357
53	0x3c051f30	0.008125111
54	0x3bf3f634	0.007445121
55	0x3bfe56fb	0.0077618337
56	0x3c46e2cf	0.012139036
57	0x3bf4f82b	0.007475873
58	0x3c1bac40	0.009501517
59	0x3bf06589	0.0073363227
60	0x3c1e0047	0.009643621
61	0x3befc7ac	0.007317504
62	0x3c2f5487	0.010701305
63	0x3be46a30	0.0069706663
64	0xbbe309c3	-0.006928654
65	0xbbddd0b9	-0.0067692664
66	0xbbca72bd	-0.0061782287
67	0xbc01787a	-0.007902259
68	0xbbebee14	-0.007200012
69	0xbbada90d	-0.0052996934
70	0xbbe93fd1	-0.007118203
71	0xbbb63e2b	-0.00556161
72	0xbbb87ab9	-0.005629864
73	0xbbc29fb9	-0.0059394506
74	0xbbee4d3e	-0.0072723916
75	0xbbf06a0c	-0.0073368605
76	0xbbd8eeb9	-0.006620255
77	0xbbee721b	-0.007276786
78	0xbbc36eb8	-0.0059641264
79	0xbbe96d16	-0.0071235998
80	0xbbd96be6	-0.006635177
81	0xbbed86e5	-0.0072487467
82	0xbbe0d81b	-0.0068616993
83	0xbbe18a12	-0.0068829143
84	0xbc1936a2	-0.009351404
85	0xbbd68697	-0.006546806
86	0xbbfec12e	-0.0077744937
87	0xbbf8ccee	-0.007592789
88	0xbc197a5b	-0.009367551
89	0xbbfb19fd	-0.00766301
90	0xbbf53e1d	-0.007484211
91	0xbbfcbc62	-0.0077128867
92	0xbc36271b	-0.011117722
93	0xbc02a4ac	-0.007973831
94	0xbbddd1ee	-0.0067694103
95	0xbc004bd0	-0.007830575
96	0xbc26b0aa	-0.010173956
97	0xbc01e023	-0.0079269735
98	0xbc292b84	-0.010325316
99	0xbbd9b800	-0.006644249
100	0xbbad7153	-0.0052930503
101	0xbbfb39d9	-0.007666808
102	0xbbec0f9c	-0.007204009
103	0xbc00a98d	-0.007852924
104	0xbbeb5da8	-0.0071827956
105	0xbbd34600	-0.0064475536
106	0xbc2b6975	-0.010462155
107	0xbbfd4d65	-0.0077301734
108	0xbbd43919	-0.006476533
109	0xbbed75f6	-0.007246728
110	0xbc2ad134	-0.0104258545
111	0xbbf9c0c3	-0.007621856
112	0xbc26c1a5	-0.010178004
113	0xbbfac80b	-0.0076532415
114	0xbc455351	-0.01204379
115	0xbbfc9530	-0.007708214
116	0xbc1ed946	-0.009695357
117	0xbc051f2f	-0.0081251105
118	0xbbf3f632	-0.0074451203
119	0xbbfe56f3	-0.00776183
120	0xbc46e2ce	-0.012139035
121	0xbbf4f82a	-0.0074758725
122	0xbc1bac40	-0.009501517
123	0xbbf06589	-0.0073363227
124	0xbc1e0048	-0.009643622
125	0xbbefc7ac	-0.007317504
126	0xbc2f5487	-0.010701305
127	0xbbe46a32	-0.0069706673
128	0xbbe309bf	-0.006928652
129	0xbbddd0b9	-0.0067692664
130	0xbbca72bd	-0.0061782287
131	0xbc01787c	-0.007902261
132	0xbbebee14	-0.007200012
133	0xbbada90e	-0.005299694
134	0xbbe93fd2	-0.0071182037
135	0xbbb63e2a	-0.0055616098
136	0xbbb87aba	-0.0056298645
137	0xbbc29fbb	-0.0059394515
138	0xbbee4d40	-0.0072723925
139	0xbbf06a0d	-0.007336861
140	0xbbd8eeb8	-0.0066202544
141	0xbbee7219	-0.007276785
142	0xbbc36eb8	-0.0059641264
143	0xbbe96d17	-0.0071236
144	0xbbd96be9	-0.0066351783
145	0xbbed86e9	-0.0072487486
146	0xbbe0d81c	-0.0068616997
147	0xbbe18a14	-0.0068829153
148	0xbc1936a3	-0.009351405
149	0xbbd68695	-0.006546805
150	0xbbfec12c	-0.0077744927
151	0xbbf8ccf3	-0.007592791
152	0xbc197a5d	-0.009367553
153	0xbbfb19ff	-0.007663011
154	0xbbf53e21	-0.007484213
155	0xbbfcbc60	-0.0077128857
156	0xbc36271b	-0.011117722
157	0xbc02a4ac	-0.007973831
158	0xbbddd1ec	-0.0067694094
159	0xbc004bd1	-0.007830576
160	0xbc26b0ab	-0.010173957
161	0xbc01e021	-0.007926972
162	0xbc292b86	-0.010325318
163	0xbbd9b7ff	-0.0066442485
164	0xbbad7153	-0.0052930503
165	0xbbfb39d9	-0.007666808
166	0xbbec0fa0	-0.007204011
167	0xbc00a98b	-0.007852922
168	0xbbeb5da5	-0.007182794
169	0xbbd345ff	-0.006447553
170	0xbc2b6975	-0.010462155
171	0xbbfd4d65	-0.0077301734
172	0xbbd4391b	-0.006476534
173	0xbbed75f7	-0.0072467285
174	0xbc2ad133	-0.010425854
175	0xbbf9c0c7	-0.007621858
176	0xbc26c1a6	-0.010178005
177	0xbbfac80f	-0.0076532434
178	0xbc455352	-0.012043791
179	0xbbfc9532	-0.007708215
180	0xbc1ed945	-0.009695356
181	0xbc051f31	-0.008125112
182	0xbbf3f632	-0.0074451203
183	0xbbfe56fd	-0.0077618347
184	0xbc46e2d0	-0.012139037
185	0xbbf4f82d	-0.007475874
186	0xbc1bac3e	-0.009501515
187	0xbbf06589	-0.0073363227
188	0xbc1e0049	-0.009643623
189	0xbbefc7ae	-0.007317505
190	0xbc2f5487	-0.010701305
191	0xbbe46a31	-0.006970667
192	0xbbe309c2	-0.0069286535
193	0xbbddd0ba	-0.006769267
194	0xbbca72bd	-0.0061782287
195	0xbc01787b	-0.00790226
196	0xbbebee13	-0.0072000115
197	0xbbada90e	-0.005299694
198	0xbbe93fd2	-0.0071182037
199	0xbbb63e2a	-0.0055616098
200	0xbbb87ab8	-0.0056298636
201	0xbbc29fba	-0.005939451
202	0xbbee4d3e	-0.0072723916
203	0xbbf06a0c	-0.0073368605
204	0xbbd8eeb8	-0.0066202544
205	0xbbee721c	-0.0072767865
206	0xbbc36eb8	-0.0059641264
207	0xbbe96d17	-0.0071236
208	0xbbd96be6	-0.006635177
209	0xbbed86e9	-0.0072487486
210	0xbbe0d81b	-0.0068616993
211	0xbbe18a12	-0.0068829143
212	0xbc1936a3	-0.009351405
213	0xbbd68695	-0.006546805
214	0xbbfec130	-0.0077744946
215	0xbbf8ccf1	-0.0075927903
216	0xbc197a5d	-0.009367553
217	0xbbfb19fc	-0.0076630097
218	0xbbf53e1d	-0.007484211
219	0xbbfcbc5d	-0.0077128843
220	0xbc362718	-0.011117719
221	0xbc02a4ad	-0.007973832
222	0xbbddd1ec	-0.0067694094
223	0xbc004bd0	-0.007830575
224	0xbc26b0ab	-0.010173957
225	0xbc01e023	-0.0079269735
226	0xbc292b85	-0.010325317
227	0xbbd9b7ff	-0.0066442485
228	0xbbad7154	-0.005293051
229	0xbbfb39da	-0.0076668086
230	0xbbec0f9f	-0.0072040106
231	0xbc00a98b	-0.007852922
232	0xbbeb5da7	-0.007182795
233	0xbbd34600	-0.0064475536
234	0xbc2b6973	-0.010462153
235	0xbbfd4d65	-0.0077301734
236	0xbbd4391b	-0.006476534
237	0xbbed75f7	-0.0072467285
238	0xbc2ad133	-0.010425854
239	0xbbf9c0c6	-0.0076218573
240	0xbc26c1a6	-0.010178005
241	0xbbfac80f	-0.0076532434
242	0xbc455352	-0.012043791
243	0xbbfc9531	-0.0077082147
244	0xbc1ed946	-0.009695357
245	0xbc051f2f	-0.0081251105
246	0xbbf3f633	-0.0074451207
247	0xbbfe56f7	-0.007761832
248	0xbc46e2ce	-0.012139035
249	0xbbf4f82b	-0.007475873
250	0xbc1bac3f	-0.009501516
251	0xbbf06588	-0.007336322
252	0xbc1e0048	-0.009643622
253	0xbbefc7ac	-0.007317504
254	0xbc2f5487	-0.010701305
255	0xbbe46a2e	-0.0069706654

transformer.layers.0.multihead_attn.in_proj_bias f4 [192]
0	0xbd425fcb	-0.047454637
1	0x3d425fca	0.047454633
2	0x3d425fcd	0.047454644
3	0x3d425fcc	0.04745464
4	0xbd425fcc	-0.04745464
5	0xbd425fcc	-0.04745464
6	0xbd425fcd	-0.047454644
7	0x3d425fcd	0.047454644
8	0xbd4ceac6	-0.050028585
9	0xbd4ceac6	-0.050028585
10	0xbd4ceac6	-0.050028585
11	0x3d4ceac6	0.050028585
12	0xbd4ceac5	-0.05002858
13	0xbd4ceac4	-0.050028577
14	0xbd4ceac7	-0.05002859
15	0xbd4ceac5	-0.05002858
16	0xbd48b9f9	-0.049005482
17	0xbd48b9fa	-0.049005486
18	0xbd48b9f7	-0.049005475
19	0xbd48b9fb	-0.04900549
20	0x3d48b9f9	0.049005482
21	0x3d48b9fb	0.04900549
22	0x3d48b9f7	0.049005475
23	0x3d48b9fb	0.04900549
24	0x3d4cf7f1	0.050041143
25	0xbd4cf7f1	-0.050041143
26	0x3d4cf7ef	0.050041135
27	0x3d4cf7f0	0.05004114
28	0x3d4cf7f2	0.050041147
29	0x3d4cf7f0	0.05004114
30	0xbd4cf7f1	-0.050041143
31	0xbd4cf7f0	-0.05004114
32	0x3d321eaf	0.043486293
33	0xbd321eae	-0.04348629
34	0x3d321eaf	0.043486293
35	0xbd321eae	-0.04348629
36	0x3d321eb1	0.0434863
37	0x3d321eaf	0.043486293
38	0xbd321eae	-0.04348629
39	0x3d321eb1	0.0434863
40	0xbd4260ba	-0.047455527
41	0x3d4260bb	0.04745553
42	0xbd4260bd	-0.047455538
43	0xbd4260bd	-0.047455538
44	0x3d4260bb	0.04745553
45	0x3d4260bb	0.04745553
46	0xbd4260bb	-0.04745553
47	0x3d4260ba	0.047455527
48	0xbd4191bb	-0.04725812
49	0xbd4191bb	-0.04725812
50	0x3d4191bc	0.047258124
51	0x3d4191bb	0.04725812
52	0xbd4191ba	-0.047258116
53	0x3d4191bc	0.047258124
54	0xbd4191bc	-0.047258124
55	0x3d4191ba	0.047258116
56	0xbd48f947	-0.049065854
57	0xbd48f947	-0.049065854
58	0xbd48f949	-0.04906586
59	0xbd48f948	-0.049065858
60	0x3d48f949	0.04906586
61	0x3d48f949	0.04906586
62	0x3d48f948	0.049065858
63	0x3d48f947	0.049065854
64	0xb4353357	-1.6875616e-07
65	0x34386953	1.7174652e-07
66	0x3439c3b2	1.7300661e-07
67	0x343770be	1.7084218e-07
68	0xb434de31	-1.6844639e-07
69	0xb43703fb	-1.7044651e-07
70	0xb4363f59	-1.6973117e-07
71	0x343669c3	1.6988547e-07
72	0xb41933fc	-1.4268147e-07
73	0xb41deb2d	-1.4707321e-07
74	0xb41d3bd8	-1.4643535e-07
75	0x341ce3ad	1.461146e-07
76	0xb420bef6	-1.4970632e-07
77	0xb41be1c7	-1.4517637e-07
78	0xb41b7955	-1.447964e-07
79	0xb41a35d6	-1.4361953e-07
80	0xb4235cec	-1.5214363e-07
81	0xb422284e	-1.5102088e-07
82	0xb41d59ef	-1.4654482e-07
83	0xb41e423d	-1.4738994e-07
84	0x342604e5	1.5461735e-07
85	0x341fceb7	1.4883231e-07
86	0x341d61d0	1.4657348e-07
87	0x34229295	1.5140752e-07
88	0x3427f5ae	1.5642465e-07
89	0xb426d833	-1.5538608e-07
90	0x3428c4d6	1.5717828e-07
91	0x3425306d	1.538444e-07
92	0x3426a2e9	1.5519221e-07
93	0x34274bde	1.5580687e-07
94	0xb425be0f	-1.5435965e-07
95	0xb4279d9d	-1.5610426e-07
96	0x341d24cd	1.4635152e-07
97	0xb41d0b23	-1.4625816e-07
98	0x341e255d	1.472849e-07
99	0xb41bba53	-1.4503284e-07
100	0x341db7fe	1.46887e-07
101	0x3419ec9e	1.4335316e-07
102	0xb41c790f	-1.4572673e-07
103	0x341a2922	1.4357332e-07
104	0xb41a67c8	-1.4380123e-07
105	0x341b5b71	1.4468766e-07
106	0xb41d8c5a	-1.4672824e-07
107	0xb41b1b8d	-1.4445523e-07
108	0x341b3b91	1.445717e-07
109	0x3419d9aa	1.4328421e-07
110	0xb41b2ffe	-1.445296e-07
111	0x34172212	1.4075366e-07
112	0xb40e0ccd	-1.3229437e-07
113	0xb40fac7e	-1.3380665e-07
114	0x340ad2cf	1.2928943e-07
115	0x340a4a94	1.2879383e-07
116	0xb4114678	-1.3529814e-07
117	0x340a0a81	1.2856073e-07
118	0xb408f6da	-1.2755791e-07
119	0x34112bbb	1.3520086e-07
120	0xb412bd27	-1.3666123e-07
121	0xb40ea416	-1.3284475e-07
122	0xb40b47f4	-1.297156e-07
123	0xb40e335b	-1.3243464e-07
124	0x340ba488	1.300524e-07
125	0x340f1a1d	1.3327413e-07
126	0x340d59fe	1.3164387e-07
127	0x340e3329	1.3243393e-07
128	0x398f81c6	0.00027371774
129	0xb98f81b5	-0.00027371725
130	0x399be3d6	0.00029733655
131	0xb98f81b7	-0.0002737173
132	0xb99d4d25	-0.0003000285
133	0x398f81c2	0.00027371763
134	0xb99e3640	-0.00030176528
135	0x398f81c0	0.00027371757
136	0x39ad9046	0.00033104623
137	0x39a35827	0.0003115546
138	0x39affdcd	0.00033567697
139	0xb9ad9057	-0.00033104673
140	0xb9487c21	-0.00019119728
141	0xb99c8c13	-0.00029859002
142	0xb9ad9041	-0.0003310461
143	0x39ad903e	0.000331046
144	0x39b7d7e7	0.0003506534
145	0x39973664	0.00028841489
146	0xb997eb00	-0.00028976053
147	0xb9b8206c	-0.0003511937
148	0x39973649	0.0002884141
149	0xb9b78d8e	-0.00035009946
150	0xb9973675	-0.00028841538
151	0x39973671	0.00028841526
152	0xb96e771f	-0.00022741825
153	0x39b0e20a	0.00033737748
154	0x39b0e22a	0.0003373784
155	0x394f896e	0.00019792255
156	0xb9b0e21c	-0.000337378
157	0xb932d96c	-0.00017056399
158	0x39b0e227	0.00033737833
159	0xb920413c	-0.00015283091
160	0xb970d85a	-0.00022968781
161	0x39a0b18b	0.00030649858
162	0xb970d89b	-0.00022968875
163	0x3970d86a	0.00022968804
164	0x3970d899	0.00022968873
165	0x39a0bad3	0.00030656773
166	0xb970d85c	-0.00022968784
167	0xb970d855	-0.00022968774
168	0xb98ca1d2	-0.00026823446
169	0xb98ca1ca	-0.00026823423
170	0xb9993b1c	-0.00029226474
171	0xb99b025d	-0.00029565665
172	0x398ca1ce	0.00026823435
173	0x398ca1c0	0.00026823394
174	0x399849fa	0.00029046816
175	0xb98ca1c2	-0.000268234
176	0xb9ac8286	-0.00032903644
177	0xb9a3d29d	-0.00031246702
178	0xb9a292b7	-0.0003100836
179	0x39dd8b6b	0.0004225628
180	0x39a292b3	0.00031008347
181	0xb9ab30f3	-0.00032652132
182	0x39a30b9c	0.00031098432
183	0x39a292b6	0.00031008356
184	0xb990d052	-0.0002762103
185	0x399870da	0.0002907578
186	0xb99d004a	-0.0002994559
187	0xb990d056	-0.00027621043
188	0xb99c76cc	-0.0002984315
189	0xb990d061	-0.00027621075
190	0xb990d060	-0.00027621072
191	0x3990d059	0.0002762105
