decisionmaking/trained_models/env=claude_dim2_model=transformer_num_episodes1000000_num_hidden=8_lr0.0003_num_layers=2_d_model=64_num_head=8_noise0.0_shuffleTrue_pairedTrue_lossnll_ess2.2_std0.1_run=1_essinit0.001_annealed.pt (torch, 942445 bytes, 121 tensors)

embedding.weight f4 [64, 3]
00000000: c365 b23b a9b8 523b eb3a 06be ac01 9dbb
00000010: b617 c2bb e3f2 57be 1188 613a e3a0 d5ba
00000020: e082 26be c6fa 6bbb 8f50 5dbb 170a 54be
00000030: 2b13 bcb9 cdd1 c8bb 137a 3dbe 5789 a4ba
00000040: 2766 71bc 6cd4 23be 89b2 323a 264d 57bb
00000050: d56b 48be 9407 07bc 954d 1dbb 8d95 69be
00000060: 4be3 113b 975c f0ba 7866 3abe adec e13a
00000070: fae5 2c3b 459c 433e 5404 083b ce85 253b
00000080: ab25 3cbe 432c 23bb 0cc2 02bc f826 6cbe
00000090: 6f22 503b 4287 8c3a 7e01 28be 645a 69bb
000000a0: 6099 cfb8 9e15 83be 50ef 8f3b de1b 2d3b
000000b0: 73b4 16be 162b 89bb 958f 65bb 43f1 81be
000000c0: e014 493b 9909 6d3b ff9a e7bd 8a1b 86bb
000000d0: d2fc 00bb a214 82be a084 b43b b240 b13b
000000e0: 7249 f4bd 7607 63bb 1b7c 96bb 2aa4 7cbe
000000f0: 149e 41bd 7d40 f83d 6fa9 d5bc 4866 aebb
00000100: 42f0 e1bb 5d9b 75be e1e4 443d 8460 f7bd
00000110: b1f6 04bd b2a0 91bb 9b51 7aba 5ea7 7dbe
00000120: c25f 1cbd 9291 043e 37a3 38bb b9ed 61bb
00000130: dd97 beba 09f9 7fbe 2fb9 283d e984 02be
00000140: a1f9 17bc f786 5abb 28f7 7abb bbbf 76be
00000150: 9ec4 74bd 38a8 48bd d6bd c33b 6823 bbbb
00000160: 669a 8439 c46e 7bbe 83c6 023e 01db 9abc
00000170: 66a9 c9bb d7e3 93bb ff62 1ebb ec19 81be
00000180: a965 02be be6e 9fbd 918b 1f3a 163b b0bb
00000190: 0609 33bb b2c1 80be 00a2 fdbd 4809 adbd
000001a0: d92b f139 6686 88bb 709e 3dbb 993e 77be
000001b0: b408 afba 7d04 903a 3a78 483e f987 7dbb
000001c0: 358b 59bb 02a8 77be 8c12 7ebb a1f0 013d
000001d0: 4ec6 2ebe e604 a4bb eb28 8fba f62c 81be
000001e0: 384c 8d3b f9f5 dc3b 44cd c93d bbae 98bb
000001f0: 594f 0abb bb6c 86be eae3 83ba 0c9b 7a3b
00000200: 7ed3 4b3e 5d67 b1bb 45f3 01bb d3c0 71be
00000210: c6fa ffbd b5bf a3bd f8b4 1c3b 8f35 94bb
00000220: c6d0 42bb 5e52 7dbe 6491 fbbd 5ce7 abbd
00000230: 09fc b93a e350 8bbb ca54 5dbb f1e3 79be
00000240: e019 023e effd 9c3d 043a c7ba 67f4 c9bb
00000250: 53f4 4eba 070c 71be a690 1e3a aa6f b63b
00000260: 10b4 453e ebe6 c5bb 0a98 d3ba c741 6fbe
00000270: 4fa8 a63b bc49 adbb ba8f 36be 4b22 bfbb
00000280: 3d8f 9b3a 4a2d 79be 5cd1 123d 89fd a63c
00000290: 1449 9bbd bf1f 54bb f3d3 99bb 21cc 79be
000002a0: 27c7 fbbd 2b06 a5bd ab8a fb3a f9bb c1bb
000002b0: 4b46 56b9 742f 70be 8246 fd3d e411 a93d
000002c0: 604d 9aba a81a 8ebb 2974 42bb 286f 7ebe
000002d0: d1f1 fdbd 1bd3 aabd ec59 6538 d8d5 adbb
000002e0: 33fd 93bb a7de 82be e53c af3b 4451 0abc
000002f0: a2eb 3abe 6b65 ebbb d9e6 8fbb d1e4 84be
0.00544426 0.0032153523 -0.13108413 -0.004791459 -0.0059232367 -0.21088748 0.00086033443 -0.0016298558
-0.16260862 -0.0036007627 -0.003376994 -0.20706974 -0.00035872436 -0.006128526 -0.18503599 -0.0012553137
-0.014733828 -0.15999001 0.0006816765 -0.003285238 -0.19572385 -0.008241553 -0.0024002541 -0.22810955
0.0022260721 -0.0018338141 -0.18203151 0.0017236673 0.0026382194 0.19102581 0.0020754533 0.0025256756
-0.18373744 -0.0024898208 -0.007980835 -0.2306174 0.0031758805 0.0010721462 -0.16406819 -0.0035606856
-9.8990975e-05 -0.2560243 0.004392542 0.0026414315 -0.14717273 -0.0041860444 -0.0035028209 -0.2537938
0.0030682608 0.003616905 -0.1130886 -0.0040926384 -0.0019681943 -0.25406367 0.005508974 0.0054093236
-0.11928071 -0.0034641898 -0.0045924312 -0.24671999 -0.047269896 0.12121675 -0.026081769 -0.0053222515
-0.006895096 -0.23985048 0.04806984 -0.12078956 -0.032461826 -0.004444205 -0.00095489033 -0.24770877
-0.03817726 0.12946156 -0.0028173456 -0.003447397 -0.0014541108 -0.24997343 0.04119223 -0.12746014
-0.009275825 -0.0033344605 -0.003829429 -0.24096577 -0.05975782 -0.04898855 0.005973558 -0.005711008
0.00025292038 -0.24553972 0.12771039 -0.018903257 -0.006154227 -0.0045132446 -0.0024167893 -0.2521509
-0.12734093 -0.07784794 0.00060861657 -0.0053781373 -0.002731861 -0.25147778 -0.12384415 -0.08449036
0.0004599977 -0.004166412 -0.0028933547 -0.24144973 -0.0013354034 0.0010987666 0.19577113 -0.0038685782
-0.0033194546 -0.24185184 -0.003876838 0.031723622 -0.17067835 -0.0050054668 -0.0010922229 -0.25229615
0.0043120645 0.0067431894 0.098536044 -0.0046595014 -0.0021104424 -0.2625483 -0.001006243 0.0038239388
0.19904897 -0.005413933 -0.0019828838 -0.23608713 -0.12499003 -0.079955496 0.0023911577 -0.0045229862
-0.002972649 -0.24738452 -0.122835904 -0.08393738 0.0014189492 -0.004251586 -0.0033772462 -0.24403359
0.12705183 0.076656215 -0.0015199785 -0.0061631682 -0.00078946835 -0.23539744 0.0006048776 0.0055675106
0.1930697 -0.0060394905 -0.0016143334 -0.23364936 0.005085982 -0.005288331 -0.17828265 -0.0058329455
0.001186825 -0.24333683 0.035844192 0.020384567 -0.07582298 -0.0032367555 -0.004694456 -0.24394275
-0.12293845 -0.08057817 0.0019191107 -0.0059123007 -0.00020434817 -0.23455602 0.12366964 0.082553655
-0.0011772327 -0.0043366738 -0.0029671288 -0.2484709 -0.123996384 -0.083410464 5.46816e-05 -0.005305033
-0.0045162677 -0.25560495 0.0053478354 -0.008442227 -0.1825395 -0.007183721 -0.004391533 -0.25955823

embedding.bias f4 [64]
00000000: c392 8ebc af11 08bd 71c8 dabc d7a4 2abd
00000010: d40f 04bd 0b52 7bbd 9811 1abd ed35 98bd
00000020: be8f 23bd e9d6 50bd d9e3 23bd 041b c8bd
00000030: d344 0bbd 3cee 0ebe 6d2f e3bc ceb9 10be
00000040: 46c7 e7bc 82a6 1bbe 9ab6 85bc 102b 15be
00000050: d682 dcbc d39e 16be af7a 99bc 22f6 17be
00000060: 372a 75bc 5513 22be 16bb 4abc 31c7 16be
00000070: 58ae 1bbb 12f6 1dbe 7062 6abb a34f 1fbe
00000080: 621e 39bb 9f61 17be 2d6c 24bb 07b0 18be
00000090: cba4 08bc d138 16be fd11 623a ac44 25be
000000a0: b7b0 663b dea5 27be 9499 08bc cab2 18be
000000b0: 254a 09bb 15bd 1abe 3620 95ba 9186 11be
000000c0: 336b 94b9 d850 13be 1c4c bdbb 3965 13be
000000d0: 2243 533b 6248 23be 8e54 4c3b dcc4 17be
000000e0: cb00 52b9 e6d3 15be 9854 5b3a a9af 1ebe
000000f0: eebb d5ba c127 22be 57a6 8b3b f104 1dbe
-0.017403966 -0.03321999 -0.026706906 -0.04166111 -0.032241657 -0.06135754 -0.037614435 -0.074321605
-0.039932005 -0.050986204 -0.040012214 -0.09770778 -0.034001183 -0.13958067 -0.027732575 -0.14133379
-0.028293263 -0.15200236 -0.016322423 -0.14567208 -0.026917856 -0.14709024 -0.018735258 -0.14839986
-0.014963678 -0.15827687 -0.012373706 -0.14724423 -0.002375504 -0.154259 -0.003576424 -0.15557723
-0.002824687 -0.14783333 -0.0025088892 -0.14910899 -0.008340071 -0.14670111 0.0008623896 -0.16139477
0.0035200545 -0.16371867 -0.008337397 -0.14911953 -0.0020948735 -0.15111192 -0.0011377397 -0.1421149
-0.0002830863 -0.14386308 -0.005776895 -0.14394082 0.003223606 -0.1594558 0.0031178328 -0.1482119
-0.00020027456 -0.14631614 0.00083667925 -0.15496697 -0.0016306618 -0.15835477 0.0042617726 -0.15333916

pos_encoder.pe f4 [1, 10, 64]
00000000: 0000 0000 0000 803f 0000 0000 0000 803f
00000010: 0000 0000 0000 803f 0000 0000 0000 803f
00000020: 0000 0000 0000 803f 0000 0000 0000 803f
00000030: 0000 0000 0000 803f 0000 0000 0000 803f
00000040: 0000 0000 0000 803f 0000 0000 0000 803f
00000050: 0000 0000 0000 803f 0000 0000 0000 803f
00000060: 0000 0000 0000 803f 0000 0000 0000 803f
00000070: 0000 0000 0000 803f 0000 0000 0000 803f
00000080: 0000 0000 0000 803f 0000 0000 0000 803f
00000090: 0000 0000 0000 803f 0000 0000 0000 803f
000000a0: 0000 0000 0000 803f 0000 0000 0000 803f
000000b0: 0000 0000 0000 803f 0000 0000 0000 803f
000000c0: 0000 0000 0000 803f 0000 0000 0000 803f
000000d0: 0000 0000 0000 803f 0000 0000 0000 803f
000000e0: 0000 0000 0000 803f 0000 0000 0000 803f
000000f0: 0000 0000 0000 803f 0000 0000 0000 803f
00000100: a46a 573f 4151 0a3f ce7a 2e3f b054 3b3f
00000110: ba7d 083f 0d94 583f f090 d13e c792 693f
00000120: 3e39 9f3e 6b4e 733f 258f 703e f1d5 783f
00000130: 3a23 353e 83f6 7b3f f325 083e 28ba 7d3f
00000140: 7675 cc3d 98b8 7e3f 366f 993d d147 7f3f
00000150: ae36 663d 6898 7f3f fbac 2c3d bdc5 7f3f
00000160: 5b81 013d 3cdf 7f3f a53e c23c 93ed 7f3f
00000170: 42ab 913c a3f5 7f3f 497a 5a3c 2cfa 7f3f
00000180: 57d6 233c b9fc 7f3f 16b9 f53b 28fe 7f3f
00000190: 5a44 b83b f7fe 7f3f 5a2e 8a3b 6bff 7f3f
000001a0: 1c3e 4f3b acff 7f3f 0369 1b3b d1ff 7f3f
000001b0: 2015 e93a e6ff 7f3f 8bc9 ae3a f1ff 7f3f
000001c0: 6d12 833a f8ff 7f3f 8994 443a fbff 7f3f
000001d0: 136a 133a fdff 7f3f 2117 dd39 ffff 7f3f
000001e0: 61cb a539 ffff 7f3f 0da8 7839 0000 803f
000001f0: 5377 3a39 0000 803f 6dd4 0b39 0000 803f
00000200: b7c7 683f 3311 d5be d95a 7f3f 534d 913d
00000210: 0af2 663f b2e8 dc3e 1135 3f3f 0339 2a3f
00000220: 1b54 173f ec7b 4e3f b5d3 e93e 69be 633f
00000230: f647 b23e a6fa 6f3f 82f0 863e f5f2 763f
00000240: f86f 4b3e a5e5 7a3f d300 193e 4f20 7d3f
00000250: 86d9 e53d f361 7e3f af85 ac3d 0e17 7f3f
00000260: c870 813d f97c 7f3f aa30 423d 4eb6 7f3f
00000270: 5ca5 113d 8ed6 7f3f 5075 da3c b1e8 7f3f
00000280: 3ed4 a33c e5f2 7f3f 51b7 753c a1f8 7f3f
00000290: 9b43 383c dbfb 7f3f 0a2e 0a3c abfd 7f3f
000002a0: d83d cf3b b1fe 7f3f e768 9b3b 43ff 7f3f
000002b0: 0815 693b 96ff 7f3f 80c9 2e3b c4ff 7f3f
000002c0: 6812 033b dfff 7f3f 8594 c43a edff 7f3f
000002d0: 126a 933a f5ff 7f3f 1f17 5d3a faff 7f3f
000002e0: 60cb 253a fdff 7f3f 0ca8 f839 feff 7f3f
000002f0: 5377 ba39 ffff 7f3f 6dd4 8b39 0000 803f
00000300: c381 103e 2670 7dbf de3c 473f cebf 20bf
00000310: d745 7e3f ab7f edbd 6321 743f 6318 9a3e
00000320: c209 503f 582f 153f b724 273f a2e7 413f
00000330: 6c2f 023f 296d 5c3f a768 c73e 37c9 6b3f
00000340: 6c4e 973e ef90 743f e26d 643e 928c 793f
00000350: d7ee 2b3e 9e5d 7c3f 2c33 013e 43f4 7d3f
00000360: c0ff c13d 4fd9 7e3f 0693 913d 3a5a 7f3f
00000370: 4e69 5a3d c3a2 7f3f c5d1 233d 90cb 7f3f
00000380: 1fb9 f53c 83e2 7f3f 4747 b83c 6bef 7f3f
00000390: c631 8a3c adf6 7f3f 4644 4f3c c1fa 7f3f
000003a0: 0d6e 1b3c 0dfd 7f3f 131d e93b 58fe 7f3f
000003b0: a8cf ae3b 11ff 7f3f 1317 833b 7aff 7f3f
000003c0: 929b 443b b5ff 7f3f 606f 133b d6ff 7f3f
000003d0: 171f dd3a e8ff 7f3f 56d1 a53a f3ff 7f3f
000003e0: 10b1 783a f9ff 7f3f 097e 3a3a fcff 7f3f
000003f0: 7ed9 0b3a feff 7f3f a4be d139 ffff 7f3f
0.0 1.0 0.0 1.0 0.0 1.0 0.0 1.0
0.0 1.0 0.0 1.0 0.0 1.0 0.0 1.0
0.0 1.0 0.0 1.0 0.0 1.0 0.0 1.0
0.0 1.0 0.0 1.0 0.0 1.0 0.0 1.0
0.0 1.0 0.0 1.0 0.0 1.0 0.0 1.0
0.0 1.0 0.0 1.0 0.0 1.0 0.0 1.0
0.0 1.0 0.0 1.0 0.0 1.0 0.0 1.0
0.0 1.0 0.0 1.0 0.0 1.0 0.0 1.0
0.84147096 0.54030234 0.68156135 0.731761 0.53316844 0.8460091 0.4093089 0.9123959
0.3109836 0.9504153 0.23492105 0.9720145 0.17689219 0.9842302 0.13295726 0.99112177
0.099833414 0.9950042 0.07491915 0.9971896 0.05620449 0.9984193 0.042157155 0.999111
0.031617504 0.99950004 0.023711512 0.99971884 0.017781857 0.99984187 0.013334819 0.99991107
0.009999833 0.99995 0.0074988706 0.99997187 0.0056233825 0.9999842 0.0042169513 0.9999911
0.0031622713 0.999995 0.0023713715 0.9999972 0.0017782785 0.99999845 0.0013335211 0.9999991
0.0009999998 0.9999995 0.000749894 0.9999997 0.0005623411 0.9999998 0.00042169637 0.99999994
0.00031622782 0.99999994 0.00023713727 1.0 0.00017782794 1.0 0.00013335208 1.0
0.9092974 -0.41614684 0.99748 0.070948265 0.9021307 0.43146282 0.7469035 0.6649324
0.5911271 0.8065784 0.45669332 0.8896242 0.34820527 0.93741834 0.26355368 0.96464473
0.19866931 0.9800666 0.1494172 0.98877424 0.1122313 0.9936821 0.084239356 0.99644554
0.063203394 0.9980007 0.04740969 0.9988755 0.03555809 0.9993676 0.026667267 0.99964434
0.019998666 0.9998 0.014997319 0.9998875 0.011246587 0.99993676 0.008433828 0.9999644
0.006324511 0.99998003 0.00474273 0.99998873 0.0035565514 0.9999937 0.0026670396 0.9999964
0.0019999985 0.99999803 0.0014997876 0.99999887 0.0011246821 0.99999934 0.0008433926 0.99999964
0.0006324556 0.9999998 0.0004742745 0.9999999 0.00035565588 0.99999994 0.00026670416 1.0
0.14112 -0.9899925 0.7782725 -0.6279267 0.9932532 -0.11596616 0.95363444 0.3009673
0.8126489 0.58275366 0.652904 0.7574407 0.5085361 0.86104065 0.3894703 0.92103904
0.2955202 0.9553365 0.22307542 0.9748012 0.16790329 0.9858035 0.12617177 0.9920084
0.094726086 0.99550337 0.071081206 0.9974705 0.053323083 0.9985773 0.039994974 0.99919987
0.0299955 0.99955004 0.022494925 0.999747 0.016869437 0.9998577 0.012650555 0.99991995
0.009486687 0.999955 0.0071140616 0.9999747 0.005334813 0.99998575 0.0040005534 0.999992
0.0029999954 0.9999955 0.0022496805 0.9999975 0.0016870227 0.99999857 0.0012650888 0.9999992
0.00094868336 0.9999996 0.00071141176 0.99999976 0.0005334838 0.9999999 0.00040005625 0.99999994

transformer.layers.0.self_attn.in_proj_weight f4 [192, 64]
00000000: 0165 87bd c373 833d ef8f 35bd cddd c63c
00000010: 5db6 30bd f61e 2a3d ec38 cebd 1ca3 2a3d
00000020: 8239 f0bd e1fa c0bd 55c3 eabd dba8 cdbd
00000030: cb0f e2bd 0cd8 0ebe 9d8b d9bd 6e90 12be
00000040: 14b4 ccbd 4c07 12be af42 ccbd 12a4 10be
00000050: 588e bcbd fb80 0fbe b5c8 aebd 7807 0cbe
00000060: bba8 a0bd b214 0cbe 00fb 8ebd e5b5 10be
00000070: 1ac3 aabd 3ba7 0dbe 4b29 7abd 7754 0cbe
00000080: 564b 84bc 8476 0cbe 3896 7abb 8365 10be
00000090: 6283 e5bd 189f 0ebe aa03 de3d ca0f 0ebe
000000a0: a427 f0bd 5db7 0bbe 0aa2 e3bd eac8 0ebe
000000b0: 302a 743c b930 0fbe d96e 9d3c 7bad 0abe
000000c0: 21c0 e4bc 7ff2 0cbe f783 dfbd 1ce1 0fbe
000000d0: 4c48 e23d 6410 0cbe 0ec5 c23d a247 0fbe
000000e0: 68ea b63c d208 0ebe bb9d cabc 89f3 0ebe
000000f0: 3fe5 a73c c0c6 0fbe afcd e53d c59b 0cbe
00000100: 0365 87bd c373 833d ed8f 35bd d4dd c63c
00000110: 62b6 30bd f31e 2a3d ea38 cebd 1aa3 2a3d
00000120: 8339 f0bd e2fa c0bd 57c3 eabd dba8 cdbd
00000130: c80f e2bd 0cd8 0ebe 9b8b d9bd 6e90 12be
00000140: 13b4 ccbd 4d07 12be ae42 ccbd 12a4 10be
00000150: 588e bcbd fc80 0fbe b5c8 aebd 7b07 0cbe
00000160: b9a8 a0bd b214 0cbe 01fb 8ebd e5b5 10be
00000170: 1bc3 aabd 3aa7 0dbe 4b29 7abd 7754 0cbe
00000180: 564b 84bc 8376 0cbe 4b96 7abb 8465 10be
00000190: 6483 e5bd 199f 0ebe aa03 de3d c90f 0ebe
000001a0: a327 f0bd 5eb7 0bbe 0aa2 e3bd ecc8 0ebe
000001b0: 362a 743c bc30 0fbe d26e 9d3c 7bad 0abe
000001c0: 21c0 e4bc 82f2 0cbe f583 dfbd 1de1 0fbe
000001d0: 4e48 e23d 6410 0cbe 0fc5 c23d a347 0fbe
000001e0: 65ea b63c d108 0ebe b09d cabc 88f3 0ebe
000001f0: 42e5 a73c c2c6 0fbe b1cd e53d c69b 0cbe
00000200: 0365 87bd c173 833d ec8f 35bd cfdd c63c
00000210: 60b6 30bd f31e 2a3d ec38 cebd 16a3 2a3d
00000220: 8239 f0bd e1fa c0bd 54c3 eabd daa8 cdbd
00000230: c90f e2bd 0cd8 0ebe 9b8b d9bd 6b90 12be
00000240: 14b4 ccbd 4c07 12be ae42 ccbd 12a4 10be
00000250: 578e bcbd fb80 0fbe b5c8 aebd 7907 0cbe
00000260: b9a8 a0bd b214 0cbe fdfa 8ebd e4b5 10be
00000270: 1dc3 aabd 3ca7 0dbe 4b29 7abd 7754 0cbe
00000280: 574b 84bc 8476 0cbe 3d96 7abb 8365 10be
00000290: 6383 e5bd 199f 0ebe aa03 de3d cc0f 0ebe
000002a0: a327 f0bd 5eb7 0bbe 0aa2 e3bd eac8 0ebe
000002b0: 282a 743c bc30 0fbe d46e 9d3c 7cad 0abe
000002c0: 20c0 e4bc 81f2 0cbe f583 dfbd 1de1 0fbe
000002d0: 4c48 e23d 6310 0cbe 0dc5 c23d a347 0fbe
000002e0: 6aea b63c d408 0ebe b29d cabc 8cf3 0ebe
000002f0: 39e5 a73c c2c6 0fbe b2cd e53d c49b 0cbe
00000300: 0365 87bd c473 833d ef8f 35bd d2dd c63c
00000310: 63b6 30bd f51e 2a3d ec38 cebd 16a3 2a3d
00000320: 8439 f0bd e0fa c0bd 54c3 eabd daa8 cdbd
00000330: cb0f e2bd 0cd8 0ebe 998b d9bd 6e90 12be
00000340: 12b4 ccbd 4d07 12be af42 ccbd 11a4 10be
00000350: 568e bcbd fb80 0fbe b5c8 aebd 7807 0cbe
00000360: b7a8 a0bd b314 0cbe fefa 8ebd e4b5 10be
00000370: 1cc3 aabd 3ba7 0dbe 4d29 7abd 7754 0cbe
00000380: 554b 84bc 8276 0cbe 4396 7abb 8465 10be
00000390: 6583 e5bd 1a9f 0ebe aa03 de3d ca0f 0ebe
000003a0: a827 f0bd 5eb7 0bbe 0ca2 e3bd ebc8 0ebe
000003b0: 2c2a 743c ba30 0fbe d36e 9d3c 7dad 0abe
000003c0: 1dc0 e4bc 7ff2 0cbe f783 dfbd 1ce1 0fbe
000003d0: 4e48 e23d 6410 0cbe 11c5 c23d a347 0fbe
000003e0: 6aea b63c d108 0ebe b89d cabc 88f3 0ebe
000003f0: 3de5 a73c c0c6 0fbe b0cd e53d c69b 0cbe
-0.06611062 0.06418564 -0.04432672 0.024275685 -0.043142665 0.041533433 -0.10069451 0.04165946
-0.11729719 -0.09422851 -0.11463038 -0.10041972 -0.110381685 -0.13949603 -0.10622332 -0.14312908
-0.09995285 -0.14260596 -0.099736564 -0.14125088 -0.092068374 -0.14014046 -0.085343756 -0.13674724
-0.07844683 -0.1367977 -0.06981468 -0.14131887 -0.08337994 -0.13833325 -0.061074536 -0.13704096
-0.016149204 -0.13717085 -0.003823651 -0.14101224 -0.112067 -0.13927877 0.108405426 -0.1387321
-0.11726311 -0.13644166 -0.11114891 -0.1394383 0.014902636 -0.1398343 0.019217895 -0.1354274
-0.027923645 -0.1376438 -0.10913842 -0.14050716 0.11048946 -0.13678128 0.095102414 -0.1399217
0.02232857 -0.13870552 -0.024733415 -0.13960089 0.020495055 -0.14040661 0.11220872 -0.13731296
-0.06611063 0.06418564 -0.04432671 0.024275698 -0.043142684 0.04153342 -0.10069449 0.041659452
-0.117297195 -0.09422852 -0.11463039 -0.10041972 -0.11038166 -0.13949603 -0.10622331 -0.14312908
-0.09995284 -0.14260598 -0.09973656 -0.14125088 -0.092068374 -0.14014047 -0.085343756 -0.13674729
-0.07844681 -0.1367977 -0.06981469 -0.14131887 -0.08337995 -0.13833323 -0.061074536 -0.13704096
-0.016149204 -0.13717084 -0.0038236554 -0.14101225 -0.112067014 -0.13927878 0.108405426 -0.13873209
-0.1172631 -0.13644168 -0.11114891 -0.13943833 0.014902642 -0.13983434 0.019217882 -0.1354274
-0.027923645 -0.13764384 -0.10913841 -0.14050718 0.11048947 -0.13678128 0.09510242 -0.13992171
0.022328565 -0.1387055 -0.024733394 -0.13960087 0.02049506 -0.14040664 0.11220873 -0.13731298
-0.06611063 0.06418563 -0.044326708 0.024275688 -0.043142676 0.04153342 -0.10069451 0.041659437
-0.11729719 -0.09422851 -0.11463037 -0.100419715 -0.11038167 -0.13949603 -0.10622331 -0.14312904
-0.09995285 -0.14260596 -0.09973656 -0.14125088 -0.09206837 -0.14014046 -0.085343756 -0.13674726
-0.07844681 -0.1367977 -0.06981466 -0.14131886 -0.08337996 -0.13833326 -0.061074536 -0.13704096
-0.016149206 -0.13717085 -0.0038236522 -0.14101224 -0.11206701 -0.13927878 0.108405426 -0.13873214
-0.1172631 -0.13644168 -0.11114891 -0.1394383 0.014902629 -0.13983434 0.019217886 -0.13542742
-0.027923644 -0.13764383 -0.10913841 -0.14050718 0.11048946 -0.13678126 0.09510241 -0.13992171
0.022328574 -0.13870555 -0.024733398 -0.13960093 0.020495044 -0.14040664 0.11220874 -0.13731295
-0.06611063 0.06418565 -0.04432672 0.024275694 -0.043142688 0.04153343 -0.10069451 0.041659437
-0.1172972 -0.094228506 -0.11463037 -0.100419715 -0.110381685 -0.13949603 -0.10622329 -0.14312908
-0.09995283 -0.14260598 -0.099736564 -0.14125086 -0.09206836 -0.14014046 -0.085343756 -0.13674724
-0.0784468 -0.13679771 -0.06981467 -0.14131886 -0.083379954 -0.13833325 -0.061074544 -0.13704096
-0.016149202 -0.13717082 -0.0038236536 -0.14101225 -0.11206702 -0.1392788 0.108405426 -0.1387321
-0.11726314 -0.13644168 -0.11114892 -0.13943832 0.014902633 -0.13983431 0.019217884 -0.13542743
-0.027923638 -0.1376438 -0.10913842 -0.14050716 0.11048947 -0.13678128 0.09510244 -0.13992171
0.022328574 -0.1387055 -0.02473341 -0.13960087 0.020495052 -0.14040661 0.112208724 -0.13731298

transformer.layers.0.self_attn.in_proj_bias f4 [192]
00000000: b97d 0fbe b87d 0fbe b87d 0fbe b87d 0fbe
00000010: b87d 0fbe b87d 0f3e b77d 0f3e b77d 0f3e
00000020: 2b05 0f3e 2a05 0f3e 2b05 0f3e 2c05 0f3e
00000030: 2b05 0fbe 2c05 0fbe 2b05 0f3e 2b05 0fbe
00000040: 1c72 09be 1c72 093e 1b72 09be 1d72 093e
00000050: 1d72 093e 1b72 093e 1b72 09be 1a72 09be
00000060: fcf1 0c3e fcf1 0c3e fcf1 0cbe fcf1 0c3e
00000070: fcf1 0cbe fcf1 0cbe fcf1 0c3e fcf1 0c3e
00000080: 8043 f83d 8143 f8bd 8243 f83d 8243 f83d
00000090: 8243 f83d 8043 f8bd 8043 f8bd 8243 f83d
000000a0: 44bf 0e3e 45bf 0e3e 45bf 0ebe 45bf 0ebe
000000b0: 45bf 0ebe 45bf 0e3e 47bf 0e3e 46bf 0e3e
000000c0: f393 f4bd f993 f43d f993 f43d f793 f43d
000000d0: f593 f4bd f593 f43d f693 f43d f993 f4bd
000000e0: 73e8 03be 72e8 033e 73e8 033e 73e8 03be
000000f0: 73e8 03be 73e8 03be 73e8 033e 73e8 03be
00000100: 5716 e7ba 3888 e9ba 7237 e9ba dea0 e7ba
00000110: 6c1a e7ba 7faf e73a 0261 e93a 8217 ea3a
00000120: 3d2f cc3a d784 cf3a 8e4e d03a a69a cd3a
00000130: 2a0e cfba 42d4 cdba 4eff ce3a 6b68 ceba
00000140: 6148 f4ba 76e0 f13a 48eb f1ba eb8d f03a
00000150: 171d f13a 7ccd f03a 9da0 f2ba 4c13 f2ba
00000160: d6bd c73a 5017 ca3a 402a c6ba 4291 c93a
00000170: 406a c7ba 1849 caba 5fd6 c83a 6bdb c43a
00000180: 9dc4 383b 65d0 37bb a00d 393b b4ee 383b
00000190: b66d 383b e0c4 37bb e303 3abb 5f0d 393b
000001a0: 1a72 dc3a 5acc da3a 596b dbba 38ab deba
000001b0: 585d dbba ff72 da3a 5a96 dc3a fa48 d93a
000001c0: b048 41bb 2bcc 423b 0b93 413b ad37 403b
000001d0: 1185 43bb cb33 413b 988e 413b 34ba 43bb
000001e0: aaf9 42bb d221 473b 1c95 453b 3602 45bb
000001f0: 0814 45bb 93ca 43bb c153 453b 0415 44bb
00000200: f7dc bd3a 00dd bd3a 02dd bdba 00dd bd3a
00000210: 16dd bd3a 01dd bdba 02dd bd3a 05dd bdba
00000220: f129 98ba fb29 983a fa29 98ba f829 98ba
00000230: ff29 983a f629 983a ee29 98ba f429 983a
00000240: 9b92 a93a 9c92 a9ba 9c92 a9ba 9e92 a9ba
00000250: 9192 a93a 9392 a9ba 9892 a9ba a292 a93a
00000260: 147c df3a 1c7c df3a 0c7c dfba 167c dfba
00000270: 1e7c dfba 127c dfba 0e7c dfba 1e7c df3a
00000280: 2cce fc3a 33ce fc3a 25ce fc3a 37ce fcba
00000290: 3dce fcba 23ce fcba 36ce fc3a 35ce fcba
000002a0: 7d0a d3ba 790a d3ba 670a d33a 790a d33a
000002b0: 790a d33a 730a d3ba 770a d3ba 750a d33a
000002c0: 5c5a f8ba 5c5a f8ba 645a f8ba 505a f83a
000002d0: 565a f8ba 545a f83a 585a f83a 5e5a f8ba
000002e0: cd56 b6ba d056 b6ba e356 b63a cd56 b63a
000002f0: c456 b6ba d256 b6ba d056 b6ba cd56 b6ba
-0.14012803 -0.14012802 -0.14012802 -0.14012802 -0.14012802 0.14012802 0.140128 0.140128
0.13966815 0.13966814 0.13966815 0.13966817 -0.13966815 -0.13966817 0.13966815 -0.13966815
-0.13422436 0.13422436 -0.13422434 0.13422437 0.13422437 0.13422434 -0.13422434 -0.13422433
0.13764185 0.13764185 -0.13764185 0.13764185 -0.13764185 -0.13764185 0.13764185 0.13764185
0.121222496 -0.1212225 0.12122251 0.12122251 0.12122251 -0.121222496 -0.121222496 0.12122251
0.1394015 0.13940151 -0.13940151 -0.13940151 -0.13940151 0.13940151 0.13940154 0.13940153
-0.119422816 0.11942286 0.11942286 0.119422846 -0.11942283 0.11942283 0.11942284 -0.11942286
-0.12881641 0.1288164 0.12881641 -0.12881641 -0.12881641 -0.12881641 0.12881641 -0.12881641
-0.0017630559 -0.0017817086 -0.0017793013 -0.0017671844 -0.0017631776 0.0017676203 0.00178054 0.0017859789
0.0015578043 0.0015832436 0.0015892552 0.0015686348 -0.0015797068 -0.0015703517 0.001579264 -0.0015747672
-0.0018637293 0.0018453735 -0.001845696 0.0018352842 0.001839551 0.0018371786 -0.0018511001 -0.0018468886
0.0015239071 0.0015418325 -0.0015118793 0.0015378373 -0.001521416 -0.0015433161 0.0015322677 0.0015019005
0.0028193363 -0.0028047797 0.002823688 0.002821845 0.0028141565 -0.002804093 -0.0028383664 0.002823673
0.0016818673 0.0016692982 -0.0016740366 -0.0016988283 -0.0016736193 0.0016666352 0.0016829476 0.0016577535
-0.0029492788 0.0029723744 0.0029537107 0.002933006 -0.0029833952 0.0029480334 0.0029534455 -0.0029865624
-0.0029750862 0.0030385149 0.003014869 -0.0030061132 -0.0030071754 -0.0029875382 0.0030109736 -0.0029919753
0.0014485408 0.0014485419 -0.0014485421 0.0014485419 0.0014485444 -0.001448542 0.0014485421 -0.0014485425
-0.0011609179 0.0011609191 -0.001160919 -0.0011609187 0.0011609195 0.0011609185 -0.0011609176 0.0011609183
0.0012937369 -0.001293737 -0.001293737 -0.0012937372 0.0012937357 -0.0012937359 -0.0012937365 0.0012937377
0.0017050528 0.0017050537 -0.0017050519 -0.001705053 -0.001705054 -0.0017050526 -0.0017050521 0.001705054
0.0019287518 0.0019287526 0.001928751 -0.0019287531 -0.0019287538 -0.0019287508 0.001928753 -0.0019287529
-0.0016101148 -0.0016101144 0.0016101123 0.0016101144 0.0016101144 -0.0016101137 -0.0016101141 0.0016101139
-0.0018947828 -0.0018947828 -0.0018947837 0.0018947814 -0.0018947821 0.0018947818 0.0018947823 -0.001894783
-0.0013911367 -0.001391137 0.0013911392 0.0013911367 -0.0013911356 -0.0013911373 -0.001391137 -0.0013911367

transformer.layers.0.self_attn.out_proj.weight f4 [64, 64]
00000000: adef f7bc acef f7bc aeef f73c aeef f7bc
00000010: abef f7bc aeef f73c acef f7bc aeef f73c
00000020: 28ef 003d 27ef 00bd 27ef 003d 29ef 003d
00000030: 27ef 00bd 28ef 00bd 28ef 003d 27ef 00bd
00000040: c604 efbc ca04 ef3c c904 ef3c c604 ef3c
00000050: ca04 efbc ca04 ef3c c904 ef3c c504 efbc
00000060: 7692 01bd 7692 01bd 7592 013d 7692 013d
00000070: 7592 013d 7692 013d 7592 013d 7792 01bd
00000080: 077c 25bd 077c 25bd 087c 25bd 097c 253d
00000090: 087c 253d 087c 253d 097c 25bd 097c 253d
000000a0: 3e0f ec3c 390f ec3c 3e0f ecbc 3a0f ecbc
000000b0: 390f ecbc 380f ec3c 380f ec3c 390f ecbc
000000c0: bf60 1e3d c260 1e3d c060 1e3d c360 1ebd
000000d0: c160 1e3d c260 1ebd c260 1ebd bc60 1e3d
000000e0: e638 483d e638 483d eb38 48bd e738 48bd
000000f0: e638 483d e738 483d e838 483d e738 483d
00000100: a5f2 83bc a4f2 83bc a6f2 833c a5f2 83bc
00000110: a6f2 83bc a3f2 833c a4f2 83bc a4f2 833c
00000120: 8dbc 903c 89bc 90bc 89bc 903c 8bbc 903c
00000130: 89bc 90bc 89bc 90bc 8abc 903c 89bc 90bc
00000140: 0224 83bc 0424 833c ff23 833c 0324 833c
00000150: 0324 83bc 0424 833c 0424 833c 0424 83bc
00000160: 6447 91bc 6247 91bc 6347 913c 6247 913c
00000170: 5f47 913c 6047 913c 6047 913c 6347 91bc
00000180: 3ccf 24bd 3fcf 24bd 41cf 24bd 3bcf 243d
00000190: 3bcf 243d 3dcf 243d 3ccf 24bd 3bcf 243d
000001a0: 198f 8b3c 178f 8b3c 148f 8bbc 188f 8bbc
000001b0: 168f 8bbc 178f 8b3c 178f 8b3c 158f 8bbc
000001c0: 6dfd 1a3d 6efd 1a3d 6dfd 1a3d 6efd 1abd
000001d0: 6efd 1a3d 6efd 1abd 6efd 1abd 69fd 1a3d
000001e0: 111a 443d 101a 443d 151a 44bd 101a 44bd
000001f0: 0d1a 443d 141a 443d 111a 443d 141a 443d
00000200: 4836 fabc 4d36 fabc 4636 fa3c 4636 fabc
00000210: 4e36 fabc 4636 fa3c 4436 fabc 4836 fa3c
00000220: f18a fe3c eb8a febc ee8a fe3c ef8a fe3c
00000230: ee8a febc f08a febc ed8a fe3c ed8a febc
00000240: f00c fcbc ee0c fc3c ee0c fc3c ee0c fc3c
00000250: ee0c fcbc ee0c fc3c ee0c fc3c f00c fcbc
00000260: 5017 05bd 4f17 05bd 4f17 053d 4e17 053d
00000270: 4f17 053d 4f17 053d 5117 053d 5117 05bd
00000280: c4c7 27bd c3c7 27bd c5c7 27bd c2c7 273d
00000290: c3c7 273d c3c7 273d c5c7 27bd c1c7 273d
000002a0: a19a ef3c a49a ef3c a29a efbc 9f9a efbc
000002b0: a19a efbc a39a ef3c a29a ef3c a29a efbc
000002c0: 0645 1e3d 0945 1e3d 0845 1e3d 0945 1ebd
000002d0: 0745 1e3d 0645 1ebd 0a45 1ebd 0745 1e3d
000002e0: be32 473d bd32 473d c332 47bd c332 47bd
000002f0: c232 473d c132 473d c232 473d c232 473d
00000300: f327 a1bc f227 a1bc f427 a13c f227 a1bc
00000310: f427 a1bc f227 a13c f427 a1bc f427 a13c
00000320: f078 af3c ed78 afbc f078 af3c ed78 af3c
00000330: ed78 afbc ee78 afbc ef78 af3c ee78 afbc
00000340: 0031 a3bc fe30 a33c ff30 a33c fe30 a33c
00000350: ff30 a3bc fe30 a33c ff30 a33c ff30 a3bc
00000360: 2acd b0bc 29cd b0bc 2bcd b03c 2ccd b03c
00000370: 2acd b03c 29cd b03c 2acd b03c 29cd b0bc
00000380: b988 27bd c088 27bd c188 27bd bc88 273d
00000390: bd88 273d c288 273d bd88 27bd b988 273d
000003a0: 293f a13c 2b3f a13c 2a3f a1bc 283f a1bc
000003b0: 293f a1bc 253f a13c 253f a13c 243f a1bc
000003c0: db8b 203d da8b 203d d98b 203d da8b 20bd
000003d0: da8b 203d da8b 20bd da8b 20bd d98b 203d
000003e0: 190f 503d 180f 503d 1f0f 50bd 1c0f 50bd
000003f0: 1b0f 503d 1b0f 503d 1c0f 503d 1f0f 503d
-0.030265654 -0.030265652 0.030265655 -0.030265655 -0.03026565 0.030265655 -0.030265652 0.030265655
0.031478077 -0.031478073 0.031478073 0.03147808 -0.031478073 -0.031478077 0.031478077 -0.031478073
-0.02917708 0.029177088 0.029177086 0.02917708 -0.029177088 0.029177088 0.029177086 -0.029177079
-0.031633817 -0.031633817 0.031633813 0.031633817 0.031633813 0.031633817 0.031633813 -0.03163382
-0.040401485 -0.040401485 -0.04040149 0.040401492 0.04040149 0.04040149 -0.040401492 0.040401492
0.028815862 0.028815852 -0.028815862 -0.028815854 -0.028815852 0.02881585 0.02881585 -0.028815852
0.038666483 0.038666494 0.038666487 -0.038666498 0.03866649 -0.038666494 -0.038666494 0.03866647
0.048882388 0.048882388 -0.048882406 -0.04888239 0.048882388 0.04888239 0.048882395 0.04888239
-0.016106913 -0.016106911 0.016106915 -0.016106913 -0.016106915 0.01610691 -0.016106911 0.016106911
0.017668033 -0.017668026 0.017668026 0.01766803 -0.017668026 -0.017668026 0.017668027 -0.017668026
-0.01600838 0.016008385 0.016008375 0.016008383 -0.016008383 0.016008385 0.016008385 -0.016008385
-0.017734237 -0.017734233 0.017734235 0.017734233 0.017734228 0.01773423 0.01773423 -0.017734235
-0.040236697 -0.040236708 -0.040236715 0.040236693 0.040236693 0.0402367 -0.040236697 0.040236693
0.017036008 0.017036004 -0.017035998 -0.017036006 -0.017036002 0.017036004 0.017036004 -0.017036
0.037839342 0.037839346 0.037839342 -0.037839346 0.037839346 -0.037839346 -0.037839346 0.037839327
0.04787642 0.047876418 -0.047876436 -0.047876418 0.047876406 0.047876433 0.04787642 0.047876433
-0.030543461 -0.03054347 0.030543458 -0.030543458 -0.030543473 0.030543458 -0.030543454 0.030543461
0.031072112 -0.0310721 0.031072106 0.031072108 -0.031072106 -0.03107211 0.031072104 -0.031072104
-0.030767888 0.030767884 0.030767884 0.030767884 -0.030767884 0.030767884 0.030767884 -0.030767888
-0.032492936 -0.032492932 0.032492932 0.03249293 0.032492932 0.032492932 0.03249294 -0.03249294
-0.040961996 -0.040961992 -0.040962 0.04096199 0.040961992 0.040961992 -0.040962 0.040961985
0.029248537 0.029248543 -0.02924854 -0.029248534 -0.029248537 0.029248541 0.02924854 -0.02924854
0.038640045 0.038640056 0.038640052 -0.038640056 0.03864005 -0.038640045 -0.03864006 0.03864005
0.048632376 0.048632372 -0.048632395 -0.048632395 0.04863239 0.048632387 0.04863239 0.04863239
-0.01967237 -0.019672368 0.019672371 -0.019672368 -0.019672371 0.019672368 -0.019672371 0.019672371
0.021419972 -0.021419967 0.021419972 0.021419967 -0.021419967 -0.021419968 0.02141997 -0.021419968
-0.019920826 0.019920822 0.019920824 0.019920822 -0.019920824 0.019920822 0.019920824 -0.019920824
-0.021582205 -0.021582203 0.021582207 0.021582209 0.021582205 0.021582203 0.021582205 -0.021582203
-0.040901873 -0.0409019 -0.040901903 0.040901884 0.04090189 0.040901907 -0.04090189 0.040901873
0.019683437 0.019683441 -0.01968344 -0.019683436 -0.019683437 0.01968343 0.01968343 -0.019683428
0.039195877 0.039195873 0.03919587 -0.039195873 0.039195873 -0.039195873 -0.039195873 0.03919587
0.05079565 0.050795645 -0.05079567 -0.05079566 0.050795656 0.050795656 0.05079566 0.05079567

transformer.layers.0.self_attn.out_proj.bias f4 [64]
00000000: 9958 caba 49b7 103b bc2c 24bb 1659 863b
00000010: b543 e0bb 3df0 b93b 9886 59bc 9637 9b3b
00000020: 6bdf 84bc 7b38 20bc 1d3f 7ebc a3b1 e1bb
00000030: cc0a 5cbc 1d3c 19bc b065 42bc 2cf7 58bc
00000040: cc96 7fbb 2036 83bc 4dc8 f8bb afe1 81bc
00000050: 11a6 0ebc d209 85bc 9469 edbb e2e8 8abc
00000060: ce06 dabb 43c9 8dbc 6a1d d4bb bc95 94bc
00000070: 9bae 313b e733 9abc 9291 9cbb 6d1f 8bbc
00000080: cc69 c0bb 2987 92bc 1270 b6bb 5c85 99bc
00000090: 176f f2bb e476 95bc b3ae 1dbb a23b 99bc
000000a0: 6811 71ba 3c0f 8cbc c8cb 043c 31ec 95bc
000000b0: ce83 aebb 2a37 93bc 4e49 9ebb 6331 9bbc
000000c0: 50bc daba 1291 9dbc c965 443c 7fee 9dbc
000000d0: af62 2dbb ebd2 9bbc d4c4 0d3a 56d0 8fbc
000000e0: 8170 c0bb 3a87 9bbc b317 93ba 4b66 92bc
000000f0: 36b6 b4bb 6d3a 8dbc cbe2 0ebb ef86 89bc
-0.0015437781 0.0022081903 -0.0025051078 0.0040999753 -0.006844009 0.0056743906 -0.013276719 0.004736851
-0.016219815 -0.009779091 -0.015517977 -0.006887631 -0.013430309 -0.009352711 -0.0118650645 -0.013242524
-0.0038999794 -0.01601702 -0.007592237 -0.015854685 -0.0087065855 -0.016240034 -0.007245252 -0.01695675
-0.006653643 -0.017307883 -0.006473233 -0.018137805 0.002711213 -0.018823577 -0.0047780955 -0.016982758
-0.005871987 -0.017886715 -0.005567559 -0.018740349 -0.007398497 -0.018245168 -0.0024060428 -0.018705193
-0.0009196014 -0.017097108 0.008105226 -0.018301101 -0.005325771 -0.01797064 -0.004830516 -0.018944448
-0.0016688202 -0.019234214 0.011987158 -0.019278763 -0.0026456525 -0.019021472 0.0005408053 -0.017555397
-0.0058727865 -0.01898538 -0.0011222273 -0.017871043 -0.0055148853 -0.017239774 -0.002180266 -0.016787974

transformer.layers.0.multihead_attn.in_proj_weight f4 [192, 64]
00000000: 24f3 a4bd d1e5 89bd 172f a5bd e0ac 8abd
00000010: a4a4 8fbd 9953 7bbd fde8 81bd 26cf 75bd
00000020: 9365 77bd e4c6 99bd 557d 84bd 5b05 8fbd
00000030: ec53 89bd 8643 93bd 009c 8cbd 42d2 95bd
00000040: 4939 b5bd a287 8fbd 5f33 9fbd 0aa8 94bd
00000050: 6d63 96bd 1e04 9fbd bbaf 92bd d056 9abd
00000060: 241f 98bd 2a6a 98bd a7cb a7bd dc35 9fbd
00000070: 8c83 88bd a82c a2bd 25d0 82bd d80e 9bbd
00000080: a8e0 adbd 41ff 94bd af82 a5bd 5214 92bd
00000090: 7a46 92bd 0bac 96bd faad 94bd 5384 9fbd
000000a0: cfd2 9fbb efaa 8ebd f7f0 423d c788 97bd
000000b0: 831e a6bd 5fc5 aabd 4649 abbd 7be4 95bd
000000c0: 71fb c8bb 4634 96bd 4b15 e03c 5359 8cbd
000000d0: 73cb 96bd 5140 a6bd f528 06bd 90f6 97bd
000000e0: cfe4 aabd 404d a7bd 46a8 a43b 43fe 97bd
000000f0: 1eaa adbd 1e88 99bd c628 98bd f890 91bd
00000100: 23f3 a4bd d0e5 89bd 152f a5bd e1ac 8abd
00000110: a3a4 8fbd 9b53 7bbd fde8 81bd 28cf 75bd
00000120: 9565 77bd e5c6 99bd 557d 84bd 5905 8fbd
00000130: ec53 89bd 8743 93bd 019c 8cbd 42d2 95bd
00000140: 4939 b5bd 9e87 8fbd 6333 9fbd 0ba8 94bd
00000150: 6c63 96bd 1e04 9fbd baaf 92bd d356 9abd
00000160: 251f 98bd 296a 98bd aacb a7bd d935 9fbd
00000170: 8d83 88bd a62c a2bd 24d0 82bd da0e 9bbd
00000180: a8e0 adbd 40ff 94bd b082 a5bd 5414 92bd
00000190: 7a46 92bd 0dac 96bd faad 94bd 5484 9fbd
000001a0: d1d2 9fbb efaa 8ebd f8f0 423d c688 97bd
000001b0: 841e a6bd 5ec5 aabd 4549 abbd 78e4 95bd
000001c0: 63fb c8bb 4634 96bd 4815 e03c 5359 8cbd
000001d0: 74cb 96bd 5340 a6bd f628 06bd 90f6 97bd
000001e0: cfe4 aabd 404d a7bd 3da8 a43b 43fe 97bd
000001f0: 1caa adbd 1e88 99bd c928 98bd f890 91bd
00000200: 23f3 a4bd d1e5 89bd 162f a5bd dfac 8abd
00000210: a4a4 8fbd 9b53 7bbd fee8 81bd 25cf 75bd
00000220: 9465 77bd e6c6 99bd 567d 84bd 5b05 8fbd
00000230: ed53 89bd 8643 93bd 029c 8cbd 43d2 95bd
00000240: 4939 b5bd a087 8fbd 6133 9fbd 0aa8 94bd
00000250: 6c63 96bd 1f04 9fbd b9af 92bd d156 9abd
00000260: 241f 98bd 286a 98bd aacb a7bd da35 9fbd
00000270: 8d83 88bd a62c a2bd 22d0 82bd d70e 9bbd
00000280: a9e0 adbd 41ff 94bd b182 a5bd 5314 92bd
00000290: 7946 92bd 0fac 96bd faad 94bd 5484 9fbd
000002a0: c4d2 9fbb efaa 8ebd f6f0 423d c588 97bd
000002b0: 841e a6bd 5fc5 aabd 4749 abbd 78e4 95bd
000002c0: 69fb c8bb 4534 96bd 4615 e03c 5059 8cbd
000002d0: 74cb 96bd 5340 a6bd f628 06bd 92f6 97bd
000002e0: cfe4 aabd 424d a7bd 3da8 a43b 44fe 97bd
000002f0: 1eaa adbd 1e88 99bd c928 98bd f890 91bd
00000300: 22f3 a43d d1e5 893d 162f a53d e0ac 8a3d
00000310: a3a4 8f3d 9953 7b3d fde8 813d 2acf 753d
00000320: 9165 773d e6c6 993d 557d 843d 5d05 8f3d
00000330: ef53 893d 8743 933d 009c 8c3d 40d2 953d
00000340: 4839 b53d a287 8f3d 6133 9f3d 0aa8 943d
00000350: 6c63 963d 1d04 9f3d baaf 923d cf56 9a3d
00000360: 241f 983d 2a6a 983d a8cb a73d da35 9f3d
00000370: 8d83 883d a62c a23d 22d0 823d da0e 9b3d
00000380: a8e0 ad3d 40ff 943d af82 a53d 5214 923d
00000390: 7946 923d 0cac 963d f9ad 943d 5484 9f3d
000003a0: d2d2 9f3b efaa 8e3d f6f0 42bd c588 973d
000003b0: 841e a63d 60c5 aa3d 4649 ab3d 7ae4 953d
000003c0: 65fb c83b 4234 963d 4c15 e0bc 5359 8c3d
000003d0: 73cb 963d 5240 a63d f428 063d 90f6 973d
000003e0: cfe4 aa3d 414d a73d 45a8 a4bb 43fe 973d
000003f0: 1faa ad3d 1c88 993d c828 983d f990 913d
-0.08054188 -0.06733287 -0.08065622 -0.067712545 -0.070138246 -0.06135902 -0.06343267 -0.060012005
-0.060399603 -0.075086385 -0.06469218 -0.06983443 -0.0670546 -0.071906134 -0.06865692 -0.07315494
-0.08848817 -0.07008292 -0.0777347 -0.072586134 -0.07343183 -0.07764457 -0.07162424 -0.075360894
-0.074278146 -0.07442124 -0.081931405 -0.07773945 -0.066657156 -0.07918674 -0.06387357 -0.075711906
-0.084901154 -0.07275248 -0.080815665 -0.07132782 -0.071423486 -0.07357033 -0.07259746 -0.07788911
-0.0048774253 -0.06966197 0.047593083 -0.07399135 -0.081112884 -0.08338427 -0.08363585 -0.0731897
-0.00613349 -0.07334189 0.027353903 -0.06852975 -0.073630236 -0.08117736 -0.032753903 -0.07420075
-0.08344423 -0.08169031 0.0050249426 -0.074215434 -0.08479713 -0.074966654 -0.07429652 -0.07107729
-0.08054187 -0.067332864 -0.08065621 -0.06771255 -0.07013824 -0.06135903 -0.06343267 -0.060012013
-0.06039961 -0.07508639 -0.06469218 -0.06983442 -0.0670546 -0.07190614 -0.06865693 -0.07315494
-0.08848817 -0.07008289 -0.07773473 -0.07258614 -0.07343182 -0.07764457 -0.071624234 -0.07536092
-0.07427815 -0.074421234 -0.08193143 -0.077739425 -0.06665716 -0.07918672 -0.06387356 -0.07571192
-0.084901154 -0.072752476 -0.08081567 -0.071327835 -0.071423486 -0.07357035 -0.07259746 -0.077889115
-0.004877426 -0.06966197 0.047593087 -0.07399134 -0.08111289 -0.08338426 -0.083635844 -0.073189676
-0.0061334833 -0.07334189 0.027353898 -0.06852975 -0.07363024 -0.081177376 -0.032753907 -0.07420075
-0.08344423 -0.08169031 0.0050249384 -0.074215434 -0.084797114 -0.074966654 -0.07429654 -0.07107729
-0.08054187 -0.06733287 -0.080656216 -0.06771254 -0.070138246 -0.06135903 -0.06343268 -0.060012
-0.060399607 -0.0750864 -0.064692184 -0.06983443 -0.06705461 -0.071906134 -0.06865694 -0.07315495
-0.08848817 -0.0700829 -0.077734716 -0.072586134 -0.07343182 -0.07764458 -0.07162423 -0.0753609
-0.074278146 -0.07442123 -0.08193143 -0.07773943 -0.06665716 -0.07918672 -0.063873544 -0.0757119
-0.08490116 -0.07275248 -0.08081568 -0.07132783 -0.07142348 -0.07357036 -0.07259746 -0.077889115
-0.00487742 -0.06966197 0.04759308 -0.073991336 -0.08111289 -0.08338427 -0.08363586 -0.073189676
-0.006133486 -0.07334188 0.027353894 -0.068529725 -0.07363024 -0.081177376 -0.032753907 -0.074200764
-0.08344423 -0.08169033 0.0050249384 -0.07421544 -0.08479713 -0.074966654 -0.07429654 -0.07107729
0.080541864 0.06733287 0.080656216 0.067712545 0.07013824 0.06135902 0.06343267 0.06001202
0.060399596 0.0750864 0.06469218 0.06983445 0.06705462 0.07190614 0.06865692 0.07315493
0.08848816 0.07008292 0.077734716 0.072586134 0.07343182 0.077644564 0.071624234 0.07536089
0.074278146 0.07442124 0.08193141 0.07773943 0.06665716 0.07918672 0.063873544 0.07571192
0.084901154 0.072752476 0.080815665 0.07132782 0.07142348 0.07357034 0.07259745 0.077889115
0.0048774267 0.06966197 -0.04759308 0.073991336 0.08111289 0.083384275 0.08363585 0.07318969
0.006133484 0.07334186 -0.027353905 0.06852975 0.073630236 0.08117737 0.0327539 0.07420075
0.08344423 0.08169032 -0.005024942 0.074215434 0.08479714 0.07496664 0.074296534 0.071077295

transformer.layers.0.multihead_attn.in_proj_bias f4 [192]
00000000: 0a28 a43d 0c28 a43d 0c28 a43d 0b28 a4bd
00000010: 0b28 a4bd 0b28 a43d 0a28 a43d 0a28 a43d
00000020: 0ed3 dcbd 0cd3 dcbd 0dd3 dcbd 0ed3 dcbd
00000030: 0dd3 dcbd 0cd3 dc3d 0dd3 dc3d 0ed3 dc3d
00000040: 2437 8fbd 2437 8fbd 2437 8f3d 2437 8fbd
00000050: 2437 8f3d 2437 8fbd 2437 8fbd 2437 8f3d
00000060: fa86 c4bd fc86 c43d fd86 c43d fb86 c4bd
00000070: fb86 c4bd fd86 c43d ff86 c4bd fb86 c4bd
00000080: 8331 acbd 8331 ac3d 8231 acbd 8531 acbd
00000090: 8531 ac3d 8631 ac3d 8231 acbd 8331 acbd
000000a0: 10be a63d 0ebe a63d 11be a6bd 11be a6bd
000000b0: 12be a6bd 0ebe a6bd 0ebe a63d 12be a6bd
000000c0: 4af1 a0bd 49f1 a03d 49f1 a03d 49f1 a0bd
000000d0: 49f1 a0bd 49f1 a03d 49f1 a03d 4af1 a03d
000000e0: 26fd c1bd 25fd c13d 27fd c1bd 25fd c13d
000000f0: 26fd c1bd 26fd c13d 26fd c13d 26fd c13d
00000100: 7104 2e38 accf 2e38 487b 2c38 cf1f 2db8
00000110: 378b 2db8 1f6c 2e38 7d48 2e38 4f8a 2d38
00000120: 4f7f 8cb8 f11e 8ab8 138a 8bb8 5d11 89b8
00000130: edaa 8bb8 9d42 8b38 bad9 8a38 2ec0 8938
00000140: 73a5 27b8 9493 25b8 99e8 2538 5d53 27b8
00000150: e1b4 2538 3223 2bb8 84d7 28b8 faed 2938
00000160: 1164 94b8 f9b4 9238 5dde 9338 2e54 92b8
00000170: b26b 95b8 3b6d 9238 83d7 94b8 cf1d 92b8
00000180: a8f9 82b8 5e77 8238 8ea8 83b8 f74a 7fb8
00000190: 66b3 8338 3d2a 8238 0f50 82b8 4cfa 82b8
000001a0: b930 3638 cf1e 3c38 fb82 38b8 10c3 36b8
000001b0: 2486 37b8 43ed 3ab8 e691 3d38 a3e7 36b8
000001c0: 40c4 2db8 bb1a 2d38 1d3e 3138 8ad6 2eb8
000001d0: 2f9f 2eb8 770e 3138 026d 3138 0baa 2b38
000001e0: 9af0 85b8 a947 8538 f316 85b8 0737 8638
000001f0: bf28 86b8 4ae7 8738 1cbd 8438 51ec 8638
00000200: 5b7e 3d3a e7f0 863b f0bc ce39 9084 d839
00000210: 9bf0 afba 9d10 283b 24ef 6b3b f762 c239
00000220: ac00 1a3a da25 a139 53f8 103b ea53 703b
00000230: 5bd4 eab9 f293 1cba 4d58 98b9 0214 9a3b
00000240: f63f 95b9 406b a5bb 2a77 663b 6edd 313b
00000250: 2070 683a fce3 903a cd44 c93a 64ed c23a
00000260: 4a56 94bb e496 d338 8a60 583b 7309 3aba
00000270: eea0 13bb 277e 543a 6942 a63a 879a a33a
00000280: a136 653b 7f32 f0ba df35 66bb 3248 0eba
00000290: e64e c53a 7856 46ba d84e 3637 8f2b 8c3b
000002a0: 6bb0 e539 ec21 5d3a 604d 1c39 d157 e436
000002b0: e8a0 1b3b 3a99 2abb 7430 1fbb 1cb9 a73b
000002c0: 14f5 84ba 90f6 ddb7 713f 263b aacd 28bb
000002d0: 99c8 973b 241f f039 fc6d c539 67c1 d439
000002e0: 515a e3b8 1e57 333b d993 eaba d2f5 88ba
000002f0: 4b6f 00bb 4e50 a8ba 6893 313a fa0e 963b
0.08015449 0.08015451 0.08015451 -0.0801545 -0.0801545 0.0801545 0.08015449 0.08015449
-0.10782443 -0.107824415 -0.10782442 -0.10782443 -0.10782442 0.107824415 0.10782442 0.10782443
-0.06992939 -0.06992939 0.06992939 -0.06992939 0.06992939 -0.06992939 -0.06992939 0.06992939
-0.09596057 0.09596059 0.095960595 -0.09596058 -0.09596058 0.095960595 -0.09596061 -0.09596058
-0.08407881 0.08407881 -0.0840788 -0.084078826 0.084078826 0.08407883 -0.0840788 -0.08407881
0.0814172 0.08141719 -0.08141721 -0.08141721 -0.08141722 -0.08141719 0.08141719 -0.08141722
-0.07858522 0.078585215 0.078585215 -0.078585215 -0.078585215 0.078585215 0.078585215 0.07858522
-0.09472112 0.094721116 -0.09472113 0.094721116 -0.09472112 0.09472112 0.09472112 0.09472112
4.148897e-05 4.1678242e-05 4.112281e-05 -4.127604e-05 -4.1376068e-05 4.158553e-05 4.1552343e-05 4.1375224e-05
-6.699433e-05 -6.586116e-05 -6.653755e-05 -6.535903e-05 -6.659874e-05 6.640444e-05 6.6209075e-05 6.568465e-05
-3.996999e-05 -3.947651e-05 3.955569e-05 -3.989354e-05 3.9507522e-05 -4.0802355e-05 -4.0255036e-05 4.0514373e-05
-7.075829e-05 6.995531e-05 7.0509246e-05 -6.977502e-05 -7.1249335e-05 6.982168e-05 -7.097332e-05 -6.967375e-05
-6.245385e-05 6.221117e-05 -6.2779625e-05 -6.0866554e-05 6.279982e-05 6.2067505e-05 -6.213795e-05 -6.2455045e-05
4.3437558e-05 4.4851386e-05 -4.3991004e-05 -4.3573848e-05 -4.3755528e-05 -4.4566823e-05 4.519699e-05 -4.360791e-05
-4.1429186e-05 4.127131e-05 4.2257936e-05 -4.1684638e-05 -4.1633084e-05 4.221356e-05 4.230161e-05 4.0927942e-05
-6.38675e-05 6.355282e-05 -6.346209e-05 6.3998676e-05 -6.3972075e-05 6.4803826e-05 6.329475e-05 6.433635e-05
0.0007228606 0.0041180733 0.0003943215 0.00041297497 -0.0013423146 0.0025644668 0.0036000693 0.00037076298
0.0005874734 0.00030736515 0.002212067 0.003667111 -0.00044790175 -0.00059729733 -0.00029057488 0.004702092
-0.0002846715 -0.0050481856 0.0035166242 0.002714004 0.00088668056 0.0011054273 0.0015355587 0.0014871773
-0.004526888 0.000100893696 0.0033016526 -0.0007096745 -0.0022526341 0.00081059564 0.0012684587 0.0012481966
0.0034975188 -0.0018325596 -0.0035127325 -0.0005427628 0.0015053421 -0.00075659854 1.0866403e-05 0.0042776535
0.00043809725 0.0008435536 0.00014906144 6.8051527e-06 0.002374703 -0.0026031272 -0.0024290355 0.0051185023
-0.001014384 -2.6460068e-05 0.0025367404 -0.002575735 0.0046320674 0.0004579957 0.00037656713 0.00040579887
-0.00010841026 0.0027365158 -0.0017896845 -0.0010449237 -0.0019597586 -0.0012841315 0.00067739794 0.004579422

transformer.layers.0.multihead_attn.out_proj.weight f4 [64, 64]
00000000: 6356 07ba 02cf c53c 7280 e537 4def 0cb9
00000010: 29a2 7f3a d6e9 803b 94ae 86ba 512f b03a
00000020: 0dae b5ba d888 31ba 117c 8e3c 5e92 9eba
00000030: 57c7 80b8 d8dc a2ba 2d36 91ba b867 a13c
00000040: 7cb7 26ba b21c 78bc f2ca 483c 70b1 44ba
00000050: 6d3d 09b9 a665 e239 e164 a0b9 f523 8d3b
00000060: 0b15 aabc 5045 0fba 9313 46b9 535b 5038
00000070: bfd1 8dbc 2b94 133b 6595 273a e017 853a
00000080: 075e 4b39 01ea 9ebc ae20 7bb9 c567 80b9
00000090: 70d1 a7b9 7c29 3339 dc4e 80ba ff40 b53c
000000a0: 0e23 0eba 71ca 65b9 9aa9 85b9 c1d8 82b9
000000b0: cc04 06bb efa3 68ba fd85 94bc 4fc2 703c
000000c0: 78fa c13a 1388 a43a 7f2f eeba 0846 61bc
000000d0: 79f1 a33c 720a 47ba 7dcf e3b9 5a8f e0ba
000000e0: 33e0 78ba 26db 66bb 8610 aeb9 fea8 e2ba
000000f0: d289 8dbc 4a31 35ba 948f 5e3a f566 9e3c
00000100: d739 7a3a eb87 2fbc dccd fcba 1be7 e6ba
00000110: cb33 383a 00e0 80bb 0255 80bc 41f7 d3b9
00000120: c17a 75bb 4456 bcb9 424c 27bc 6621 93bc
00000130: a5d3 3a3a 1e39 9cb8 dce1 ad3a 0c9d 64bc
00000140: 5a2c 1e3b fc51 733c 8f28 84bb f8d0 62bc
00000150: ef00 29ba 5168 6cba 8f35 72ba f5ed aaba
00000160: 463e 3d3c 316b 04bb ab7c 91bc 25b0 05b7
00000170: 85d4 353c fc17 e13a e461 4bbb 15e3 b4ba
00000180: 0138 53bc eeae 423c 0792 543c 3c3e f1b8
00000190: cf41 83b9 e357 1ab8 22ec 93b9 b146 2dbc
000001a0: e959 61b9 bdda a2ba b1a1 9d3a 2661 a439
000001b0: 0f20 41bc 6d99 3b3b 9ff1 2a3c 7d74 83bc
000001c0: ef81 8e3a 0a69 8739 0da4 80bc b312 113c
000001d0: d3d8 70bc c879 77b9 a720 3dba c55f 133a
000001e0: 18a2 023b 96d9 84bc d491 793b 5aae 333b
000001f0: c490 473c 18ae bc3a 533f cdba 23c6 71bc
00000200: 92ae e5b9 3aa2 c13c 431f 54ba 8649 53ba
00000210: 61dd 633a 95dd 9a3b e084 c5ba 58b5 1eba
00000220: 2553 5dbb 31bc 14b9 bc48 753c 909a 5bbb
00000230: 43a2 3539 39b4 eaba d2ae a73a a986 8b3c
00000240: af93 9c3b 6621 5dbc ef86 2a3c 96f4 2bbb
00000250: 9f12 b5ba 5ef6 5bba e5db 053a a1a7 ccb8
00000260: 77a7 9ebc ed53 f437 19c6 01bb 1bc0 9ab8
00000270: eb5a 85bc aa53 0fba 03b9 c0ba 3f14 283a
00000280: 7d1a 8eba c6d4 8abc 5235 893a f3eb 463a
00000290: 024b 21bb c9d6 113b bb43 1cb9 4de0 a63c
000002a0: ed0d 91ba dea6 25ba bc0e ac3a 3a45 a6bb
000002b0: 21f1 66bb 3b40 2c3a 8faf 80bc 7247 543c
000002c0: 21f5 a23a 9a13 903a 72c1 36bb 74b0 38bc
000002d0: 723c 943c c773 2839 726d 10bb 71b4 f2ba
000002e0: 4f59 4539 b1ab 95bb 47fd 8d3a f304 e03a
000002f0: f9cc 81bc 63dc 2d3a 66e6 74ba 1d75 9f3c
00000300: 60b8 6e3a 458d 38bc 698f 2ebb 6803 30bb
00000310: 3d08 9a3a db88 95bb e7a6 7cbc faf9 9eb7
00000320: a483 42bb 7df5 003b 465d 30bc e8fe 8bbc
00000330: c0c7 493a d5b3 d1ba 574d b03a a01c 80bc
00000340: 9ff6 333b 6927 843c 1d5b 83bb 8b91 67bc
00000350: 70c3 eb39 a281 48bb 02f3 3738 8f6c 6abb
00000360: b76f 403c ad64 323a 5905 88bc 7a74 ad3a
00000370: 6200 2c3c d539 653a 9d5e 62bb 9d32 9eba
00000380: 1550 63bc 9d50 503c 4ab4 643c 5f7b 82b9
00000390: e79e 3bb9 2eb1 c7ba 4b64 233a 7734 44bc
000003a0: 5467 7dba b796 deba fd39 1a3b 74a2 1bbb
000003b0: 5409 3cbc 79e5 c03a 8ca2 2d3c 9b7a 89bc
000003c0: fa9c 133a 4598 1cba e5b0 80bc c05c 183c
000003d0: 572a 89bc b090 18ba 4b47 c239 0c8b 613b
000003e0: 2d3e f73a a7d6 7abc c9a7 643b 819e 553b
000003f0: a7a9 363c f2cb 41ba deda a53a 0943 79bc
-0.0005162714 0.02414656 2.735874e-05 -0.00013440587 0.0009751642 0.0039341254 -0.0010275417 0.0013441836
-0.0013861075 -0.00067724055 0.017393144 -0.0012098064 -6.1406456e-05 -0.0012425436 -0.0011078768 0.019702777
-0.0006359739 -0.01514356 0.012255417 -0.0007503247 -0.00013088221 0.00043181813 -0.0003059274 0.004307265
-0.020761987 -0.00054653455 -0.00018890043 4.9676117e-05 -0.017311929 0.0022518735 0.0006392806 0.001015421
0.00019394617 -0.019398691 -0.000239494 -0.00024491377 -0.00032008765 0.00017086224 -0.0009789127 0.02212572
-0.00054220937 -0.00021914557 -0.000254941 -0.00024957026 -0.0020449637 -0.00088745257 -0.018130297 0.014694764
0.0014799377 0.001255276 -0.0018172114 -0.013749607 0.020012604 -0.0007592804 -0.00043451405 -0.0017132566
-0.00094938575 -0.0035225837 -0.00033200177 -0.0017292795 -0.017277632 -0.00069119467 0.0008490023 0.019336203
0.0009545362 -0.010713558 -0.0019287425 -0.0017616482 0.0007026761 -0.003932953 -0.015665535 -0.00040429275
-0.00374572 -0.00035922427 -0.010211052 -0.017960262 0.00071268744 -7.4492986e-05 0.0013266164 -0.0139534585
0.0024135322 0.01485109 -0.0040331553 -0.013843767 -0.00064469775 -0.000901823 -0.0009239548 -0.0013040887
0.011550492 -0.0020205493 -0.017759642 -7.96843e-06 0.011098032 0.0017173286 -0.003103369 -0.0013800586
-0.01289177 0.011882527 0.012974269 -0.000115033676 -0.00025035298 -3.6798312e-05 -0.00028213958 -0.010575936
-0.00021491166 -0.0012424808 0.0012026337 0.000313529 -0.0117874285 0.0028625384 0.0104335835 -0.016046757
0.0010872463 0.00025827467 -0.015703226 0.008854556 -0.014700132 -0.00023601123 -0.00072146434 0.0005621876
0.0019933041 -0.016217034 0.0038081305 0.0027417154 0.012180511 0.0014395146 -0.0015659131 -0.014756712
-0.0004380835 0.023636926 -0.00080918166 -0.0008059967 0.0008692351 0.0047261217 -0.0015069507 -0.0006054244
-0.0033771482 -0.00014184487 0.0149709545 -0.0033508874 0.00017321952 -0.0017906494 0.0012793189 0.017031984
0.0047783474 -0.013496732 0.010408147 -0.0026238314 -0.0013814754 -0.00083908986 0.0005106314 -9.758701e-05
-0.019366963 2.9126148e-05 -0.0019801913 -7.379075e-05 -0.016278705 -0.0005467484 -0.0014703575 0.00064117083
-0.0010841634 -0.016947161 0.0010468161 0.000758826 -0.0024611359 0.0022253266 -0.00014902551 0.020370627
-0.0011066772 -0.00063191156 0.001312695 -0.0050741704 -0.003523894 0.00065708504 -0.015708713 0.012956487
0.0012432673 0.001099217 -0.0027886298 -0.011272538 0.018095229 0.00016064859 -0.002203789 -0.001851691
0.00018820654 -0.0045675864 0.0010832929 0.0017091319 -0.015844809 0.00066322664 -0.00093421934 0.019465024
0.00091064535 -0.01126415 -0.0026635772 -0.00268575 0.0011751723 -0.0045634336 -0.015420652 -1.8951472e-05
-0.0029680515 0.0019677572 -0.010764426 -0.017089322 0.00076973066 -0.0015999029 0.0013450783 -0.01563865
0.002746023 0.016132073 -0.0040086643 -0.014133821 0.00044968305 -0.0030594845 4.385692e-05 -0.0035770272
0.011745385 0.0006805163 -0.016604112 0.0013233565 0.010498138 0.00087442744 -0.0034541257 -0.0012069527
-0.0138740735 0.012714532 0.013959 -0.0002488745 -0.00017892905 -0.0015235299 0.00062329014 -0.011975399
-0.0009666581 -0.0016982172 0.00235331 -0.0023747953 -0.011476833 0.0014716826 0.010597836 -0.016782096
0.00056309963 -0.00059736177 -0.01570935 0.009299457 -0.016743822 -0.00058199 0.0003705568 0.0034415154
0.0018863134 -0.015309966 0.0034890047 0.0032595696 0.011148847 -0.0007392756 0.0012653728 -0.015213736
