decisionmaking/trained_models/env=claude_dim2_model=transformer_num_episodes1000000_num_hidden=8_lr0.0003_num_layers=2_d_model=64_num_head=8_noise0.0_shuffleTrue_pairedTrue_lossnll_ess1.7_std0.1_run=1_essinit0.001_annealed.pt (torch, 942445 bytes, 121 tensors)

embedding.weight f4 [64, 3]
0	0xbbaab572	-0.0052096182
1	0xbb847985	-0.0040428066
2	0x3b362b6b	0.0027796875
3	0xbb277afc	-0.0025555482
4	0x3b8e451d	0.004341735
5	0xbe40608d	-0.18786831
6	0x3a1809ae	0.0005799782
7	0x3b5f5a92	0.0034081084
8	0xbc3641ed	-0.011124116
9	0x3bd7ede6	0.006589639
10	0x3c04eda7	0.008113301
11	0xbe2645d8	-0.16237581
12	0xbb82e3a6	-0.003994423
13	0x3ba8d724	0.0051526
14	0xbccf708a	-0.025322217
15	0x3c18c17b	0.009323473
16	0x3acc980d	0.001560928
17	0xbe3e5427	-0.18586789
18	0xbaf122e9	-0.0018397245
19	0xbb066fea	-0.0020513483
20	0xbc13ba66	-0.009016609
21	0x3c1a0855	0.009401401
22	0x3aa0901b	0.0012249978
23	0xbe601d06	-0.21886072
24	0xbbdc583e	-0.0067243865
25	0xbba797ad	-0.0051145167
26	0x3db3c06c	0.08776936
27	0x3beb4744	0.0071801264
28	0x3ac097bf	0.0014693661
29	0xbe7d19a8	-0.24716818
30	0xbcb7d7b7	-0.022441728
31	0xbbdf92d5	-0.0068229237
32	0x3e082178	0.13294017
33	0x3b538d8a	0.0032280409
34	0xba208292	-0.0006122972
35	0xbe88d116	-0.2672202
36	0x3bc7fca5	0.0061031156
37	0x3bab6eb7	0.005231704
38	0x3d52cdd5	0.051465828
39	0x3b8aa852	0.004231491
40	0x3bb0beae	0.0053938245
41	0xbe910194	-0.28321517
42	0x3d7563ab	0.059909504
43	0xbd9f439d	-0.07776568
44	0xbb190f25	-0.0023354974
45	0x39c739d8	0.00037999335
46	0x39cac533	0.00038675367
47	0xbe9b2591	-0.30302098
48	0x3add30cd	0.0016875506
49	0x3a9dbecc	0.0012035011
50	0xbe86b555	-0.2631022
51	0x3a28ff0f	0.0006446698
52	0xbb8326db	-0.0040024347
53	0xbe9869e1	-0.2976828
54	0xbce9ef3c	-0.028556459
55	0x3e190acf	0.1494553
56	0xbc819768	-0.015819266
57	0xbb4ee98e	-0.0031572315
58	0xbb03ea4f	-0.0020128672
59	0xbe92a664	-0.2864257
60	0x3e0ecba5	0.13944872
61	0xbd4842cd	-0.04889183
62	0xbc03a9d9	-0.0080361
63	0xb8141d94	-3.5313496e-05
64	0xbb87c3d9	-0.00414322
65	0xbe9b618c	-0.3034786
66	0xbaf3c94f	-0.0018599423
67	0xbbf12fc7	-0.007360432
68	0xbe2f2254	-0.17102939
69	0xbb1ef188	-0.002425285
70	0xbb57fe30	-0.0032957904
71	0xbe9a8020	-0.30175877
72	0x3dcb31b2	0.09921588
73	0xbd9ccb5a	-0.07655974
74	0xbc0c8198	-0.008575819
75	0xbbeb8aa2	-0.007188157
76	0xb8a246c2	-7.7379416e-05
77	0xbe94b9c1	-0.2904797
78	0xbe0ea545	-0.13930233
79	0x3d4795f1	0.04872698
80	0xbbd16c80	-0.006391108
81	0xbaddd9a1	-0.001692582
82	0xbb7b7d9a	-0.0038374425
83	0xbe8d8162	-0.27637774
84	0xbe0f7836	-0.140107
85	0xbc823784	-0.015895613
86	0xbb91c789	-0.0044488353
87	0xbb94f2f1	-0.0045455624
88	0xba835f4c	-0.0010022908
89	0xbe96cf71	-0.2945514
90	0xbd3c4789	-0.04596666
91	0x3d213415	0.03935631
92	0x3e500e28	0.203179
93	0xbb9e4703	-0.0048302426
94	0xbb84f25d	-0.0040572123
95	0xbe925377	-0.28579304
96	0xbdd18b6a	-0.10231669
97	0x3d84b2ad	0.06479392
98	0xbb03a6cf	-0.002008844
99	0xbb1a3cac	-0.0023534698
100	0xbb285c35	-0.0025689725
101	0xbe924b5b	-0.28573117
102	0xbdd27e54	-0.102780014
103	0xbdcfcb1e	-0.101461634
104	0xbb0607f2	-0.0020451513
105	0xbb420d27	-0.002960989
106	0xbbb8eaba	-0.005643216
107	0xbe94c2cb	-0.29054865
108	0x3c31c311	0.01084973
109	0xbc990542	-0.018679265
110	0x3e868e45	0.26280418
111	0xbb31f547	-0.0027154253
112	0xb82c4c1b	-4.1078874e-05
113	0xbe933e6b	-0.2875856
114	0xb9b5541b	-0.00034585674
115	0xba7c57f8	-0.00096261455
116	0xbe992750	-0.29912806
117	0x3aca49b2	0.001543334
118	0x3ae26a18	0.001727405
119	0xbe99c337	-0.3003175
120	0x3de9212a	0.11383279
121	0xbd54d9e5	-0.051965613
122	0xbb7a7a88	-0.0038220007
123	0xbb09d767	-0.002103293
124	0xbb1e79f1	-0.002418157
125	0xbe99f359	-0.30068472
126	0xbde19272	-0.1101426
127	0xbdad6469	-0.08466417
128	0xba0c9d51	-0.0005364018
129	0xbb5d2311	-0.0033742825
130	0xba9688b2	-0.001148483
131	0xbe9619d3	-0.29316577
132	0x3dca1d67	0.09868889
133	0x3dbee803	0.093215965
134	0xba0c2aa7	-0.0005346932
135	0xb9c1e68e	-0.00036983605
136	0xbafb80dc	-0.0019188183
137	0xbe941422	-0.2892161
138	0x3dd57331	0.10422362
139	0x3dbc6642	0.09199192
140	0x39c1e807	0.00036984702
141	0xbb0136a2	-0.0019716402
142	0xba9f42cc	-0.0012150644
143	0xbe978907	-0.2959673
144	0xbb5549f8	-0.003254531
145	0xb7f941c2	-2.9713734e-05
146	0xbe9b4b9a	-0.30331117
147	0xbb5ee351	-0.0034010003
148	0x3aabc774	0.0013105706
149	0xbe8ec278	-0.27882743
150	0xb869d259	-5.574743e-05
151	0x3ba4dbd6	0.0050310893
152	0xbe9d6f7b	-0.30749115
153	0xba2139ee	-0.0006150295
154	0xbba5fe63	-0.0050657257
155	0xbe9c8547	-0.30570433
156	0xbdcc2054	-0.099671036
157	0xbdd32337	-0.10309451
158	0xb9d46f22	-0.0004051859
159	0xbaea546b	-0.0017877942
160	0xbc0770c2	-0.00826663
161	0x3e8d35fa	0.27580243
162	0x3dd237dc	0.102645606
163	0x3dbca4a7	0.092110924
164	0xb96b4905	-0.00022438548
165	0xbb946a14	-0.004529247
166	0xbba2dd79	-0.0049702493
167	0x3e8a2734	0.26983035
168	0xbb6630d1	-0.0035124312
169	0x3ba28b97	0.004960488
170	0xbe9af318	-0.3026359
171	0xbacf7e35	-0.0015830459
172	0xbb530132	-0.0032196757
173	0xbe93e7cc	-0.28887784
174	0xbdc7d98a	-0.09758289
175	0xbdd6f733	-0.10496368
176	0xba3d921e	-0.0007231551
177	0xbbabe229	-0.0052454663
178	0xbba5d8a0	-0.005061224
179	0xbe941c70	-0.28927946
180	0xbde21b39	-0.110403486
181	0xbdb3d8a9	-0.08781559
182	0xba2c1349	-0.0006564153
183	0xbb0952e4	-0.0020953948
184	0xbba4b05b	-0.005025906
185	0xbe98248d	-0.29715386
186	0xbdd5bc3e	-0.10436295
187	0xbdc8966f	-0.09794318
188	0xba369747	-0.0006965291
189	0xbb3de3aa	-0.002897481
190	0xbbc6ac52	-0.0060630227
191	0x3e8c208c	0.2736858

embedding.bias f4 [64]
0	0xbd5feba9	-0.054668102
1	0xbd548ab3	-0.051890086
2	0xbd014eca	-0.03156928
3	0xbd9d711b	-0.07687589
4	0xbd0f55e8	-0.034994036
5	0xbdec4108	-0.11535841
6	0xbd1bcf01	-0.03803921
7	0xbe0d4900	-0.13797379
8	0xbd0f9ea0	-0.035063386
9	0xbe1e438e	-0.15455458
10	0xbd0b7a53	-0.034052204
11	0xbe2e2c0d	-0.17008992
12	0xbd1f274c	-0.038855836
13	0xbe51a9e6	-0.20474967
14	0xbd1fc0bf	-0.039002176
15	0xbe5b5a57	-0.2142118
16	0xbd168529	-0.036748085
17	0xbe566282	-0.20936015
18	0xbcbcd006	-0.023048412
19	0xbe4f1384	-0.20222288
20	0xbca2af6c	-0.019859038
21	0xbe5ac8f4	-0.2136572
22	0xbcced635	-0.025248626
23	0xbe5ce11a	-0.21570244
24	0xbc12f7ab	-0.008970181
25	0xbe3b7aa2	-0.183085
26	0xbbc5c6f5	-0.0060356804
27	0xbe490220	-0.19629717
28	0xbaf6dc9d	-0.0018834058
29	0xbe521d5c	-0.20519012
30	0xb8fe996f	-0.00012140243
31	0xbe4c848d	-0.19972439
32	0xbb0ccc53	-0.0021484091
33	0xbe36f44c	-0.1786663
34	0xbaaae9b0	-0.0013039615
35	0xbe57f3ac	-0.21089047
36	0xbbc7c475	-0.0060964175
37	0xbe4829cb	-0.19547193
38	0x3c18d8d5	0.009329041
39	0xbe5d5a0f	-0.21616386
40	0x3b3d727d	0.0028907352
41	0xbe56e84b	-0.2098705
42	0x3a947769	0.0011327091
43	0xbe3c82d3	-0.1840928
44	0x3b210743	0.0024570979
45	0xbe3b0a3a	-0.1826562
46	0x3b2cca20	0.0026365593
47	0xbe523f20	-0.20531893
48	0x3bb39d73	0.005481416
49	0xbe431e1e	-0.19054458
50	0x3c4746ef	0.012162908
51	0xbe585e8a	-0.21129814
52	0x3a35e324	0.00069384486
53	0xbde0838a	-0.10962589
54	0x3b297f0a	0.0025863075
55	0xbddc8372	-0.10767259
56	0x3c457bd9	0.012053453
57	0xbe49e13d	-0.19714828
58	0x389f41d3	7.5939715e-05
59	0xbe524f01	-0.2053795
60	0x39e9a6a8	0.00044565392
61	0xbe5102dc	-0.20411247
62	0x3aa192d5	0.0012327085
63	0xbdde2aa0	-0.10847974

pos_encoder.pe f4 [1, 10, 64]
0	0x00000000	0.0
1	0x3f800000	1.0
2	0x00000000	0.0
3	0x3f800000	1.0
4	0x00000000	0.0
5	0x3f800000	1.0
6	0x00000000	0.0
7	0x3f800000	1.0
8	0x00000000	0.0
9	0x3f800000	1.0
10	0x00000000	0.0
11	0x3f800000	1.0
12	0x00000000	0.0
13	0x3f800000	1.0
14	0x00000000	0.0
15	0x3f800000	1.0
16	0x00000000	0.0
17	0x3f800000	1.0
18	0x00000000	0.0
19	0x3f800000	1.0
20	0x00000000	0.0
21	0x3f800000	1.0
22	0x00000000	0.0
23	0x3f800000	1.0
24	0x00000000	0.0
25	0x3f800000	1.0
26	0x00000000	0.0
27	0x3f800000	1.0
28	0x00000000	0.0
29	0x3f800000	1.0
30	0x00000000	0.0
31	0x3f800000	1.0
32	0x00000000	0.0
33	0x3f800000	1.0
34	0x00000000	0.0
35	0x3f800000	1.0
36	0x00000000	0.0
37	0x3f800000	1.0
38	0x00000000	0.0
39	0x3f800000	1.0
40	0x00000000	0.0
41	0x3f800000	1.0
42	0x00000000	0.0
43	0x3f800000	1.0
44	0x00000000	0.0
45	0x3f800000	1.0
46	0x00000000	0.0
47	0x3f800000	1.0
48	0x00000000	0.0
49	0x3f800000	1.0
50	0x00000000	0.0
51	0x3f800000	1.0
52	0x00000000	0.0
53	0x3f800000	1.0
54	0x00000000	0.0
55	0x3f800000	1.0
56	0x00000000	0.0
57	0x3f800000	1.0
58	0x00000000	0.0
59	0x3f800000	1.0
60	0x00000000	0.0
61	0x3f800000	1.0
62	0x00000000	0.0
63	0x3f800000	1.0
64	0x3f576aa4	0.84147096
65	0x3f0a5141	0.54030234
66	0x3f2e7ace	0.68156135
67	0x3f3b54b0	0.731761
68	0x3f087dba	0.53316844
69	0x3f58940d	0.8460091
70	0x3ed190f0	0.4093089
71	0x3f6992c7	0.9123959
72	0x3e9f393e	0.3109836
73	0x3f734e6b	0.9504153
74	0x3e708f25	0.23492105
75	0x3f78d5f1	0.9720145
76	0x3e35233a	0.17689219
77	0x3f7bf683	0.9842302
78	0x3e0825f3	0.13295726
79	0x3f7dba28	0.99112177
80	0x3dcc7576	0.099833414
81	0x3f7eb898	0.9950042
82	0x3d996f36	0.07491915
83	0x3f7f47d1	0.9971896
84	0x3d6636ae	0.05620449
85	0x3f7f9868	0.9984193
86	0x3d2cacfb	0.042157155
87	0x3f7fc5bd	0.999111
88	0x3d01815b	0.031617504
89	0x3f7fdf3c	0.99950004
90	0x3cc23ea5	0.023711512
91	0x3f7fed93	0.99971884
92	0x3c91ab42	0.017781857
93	0x3f7ff5a3	0.99984187
94	0x3c5a7a49	0.013334819
95	0x3f7ffa2c	0.99991107
96	0x3c23d657	0.009999833
97	0x3f7ffcb9	0.99995
98	0x3bf5b916	0.0074988706
99	0x3f7ffe28	0.99997187
100	0x3bb8445a	0.0056233825
101	0x3f7ffef7	0.9999842
102	0x3b8a2e5a	0.0042169513
103	0x3f7fff6b	0.9999911
104	0x3b4f3e1c	0.0031622713
105	0x3f7fffac	0.999995
106	0x3b1b6903	0.0023713715
107	0x3f7fffd1	0.9999972
108	0x3ae91520	0.0017782785
109	0x3f7fffe6	0.99999845
110	0x3aaec98b	0.0013335211
111	0x3f7ffff1	0.9999991
112	0x3a83126d	0.0009999998
113	0x3f7ffff8	0.9999995
114	0x3a449489	0.000749894
115	0x3f7ffffb	0.9999997
116	0x3a136a13	0.0005623411
117	0x3f7ffffd	0.9999998
118	0x39dd1721	0.00042169637
119	0x3f7fffff	0.99999994
120	0x39a5cb61	0.00031622782
121	0x3f7fffff	0.99999994
122	0x3978a80d	0.00023713727
123	0x3f800000	1.0
124	0x393a7753	0.00017782794
125	0x3f800000	1.0
126	0x390bd46d	0.00013335208
127	0x3f800000	1.0
128	0x3f68c7b7	0.9092974
129	0xbed51133	-0.41614684
130	0x3f7f5ad9	0.99748
131	0x3d914d53	0.070948265
132	0x3f66f20a	0.9021307
133	0x3edce8b2	0.43146282
134	0x3f3f3511	0.7469035
135	0x3f2a3903	0.6649324
136	0x3f17541b	0.5911271
137	0x3f4e7bec	0.8065784
138	0x3ee9d3b5	0.45669332
139	0x3f63be69	0.8896242
140	0x3eb247f6	0.34820527
141	0x3f6ffaa6	0.93741834
142	0x3e86f082	0.26355368
143	0x3f76f2f5	0.96464473
144	0x3e4b6ff8	0.19866931
145	0x3f7ae5a5	0.9800666
146	0x3e1900d3	0.1494172
147	0x3f7d204f	0.98877424
148	0x3de5d986	0.1122313
149	0x3f7e61f3	0.9936821
150	0x3dac85af	0.084239356
151	0x3f7f170e	0.99644554
152	0x3d8170c8	0.063203394
153	0x3f7f7cf9	0.9980007
154	0x3d4230aa	0.04740969
155	0x3f7fb64e	0.9988755
156	0x3d11a55c	0.03555809
157	0x3f7fd68e	0.9993676
158	0x3cda7550	0.026667267
159	0x3f7fe8b1	0.99964434
160	0x3ca3d43e	0.019998666
161	0x3f7ff2e5	0.9998
162	0x3c75b751	0.014997319
163	0x3f7ff8a1	0.9998875
164	0x3c38439b	0.011246587
165	0x3f7ffbdb	0.99993676
166	0x3c0a2e0a	0.008433828
167	0x3f7ffdab	0.9999644
168	0x3bcf3dd8	0.006324511
169	0x3f7ffeb1	0.99998003
170	0x3b9b68e7	0.00474273
171	0x3f7fff43	0.99998873
172	0x3b691508	0.0035565514
173	0x3f7fff96	0.9999937
174	0x3b2ec980	0.0026670396
175	0x3f7fffc4	0.9999964
176	0x3b031268	0.0019999985
177	0x3f7fffdf	0.99999803
178	0x3ac49485	0.0014997876
179	0x3f7fffed	0.99999887
180	0x3a936a12	0.0011246821
181	0x3f7ffff5	0.99999934
182	0x3a5d171f	0.0008433926
183	0x3f7ffffa	0.99999964
184	0x3a25cb60	0.0006324556
185	0x3f7ffffd	0.9999998
186	0x39f8a80c	0.0004742745
187	0x3f7ffffe	0.9999999
188	0x39ba7753	0.00035565588
189	0x3f7fffff	0.99999994
190	0x398bd46d	0.00026670416
191	0x3f800000	1.0
192	0x3e1081c3	0.14112
193	0xbf7d7026	-0.9899925
194	0x3f473cde	0.7782725
195	0xbf20bfce	-0.6279267
196	0x3f7e45d7	0.9932532
197	0xbded7fab	-0.11596616
198	0x3f742163	0.95363444
199	0x3e9a1863	0.3009673
200	0x3f5009c2	0.8126489
201	0x3f152f58	0.58275366
202	0x3f2724b7	0.652904
203	0x3f41e7a2	0.7574407
204	0x3f022f6c	0.5085361
205	0x3f5c6d29	0.86104065
206	0x3ec768a7	0.3894703
207	0x3f6bc937	0.92103904
208	0x3e974e6c	0.2955202
209	0x3f7490ef	0.9553365
210	0x3e646de2	0.22307542
211	0x3f798c92	0.9748012
212	0x3e2beed7	0.16790329
213	0x3f7c5d9e	0.9858035
214	0x3e01332c	0.12617177
215	0x3f7df443	0.9920084
216	0x3dc1ffc0	0.094726086
217	0x3f7ed94f	0.99550337
218	0x3d919306	0.071081206
219	0x3f7f5a3a	0.9974705
220	0x3d5a694e	0.053323083
221	0x3f7fa2c3	0.9985773
222	0x3d23d1c5	0.039994974
223	0x3f7fcb90	0.99919987
224	0x3cf5b91f	0.0299955
225	0x3f7fe283	0.99955004
226	0x3cb84747	0.022494925
227	0x3f7fef6b	0.999747
228	0x3c8a31c6	0.016869437
229	0x3f7ff6ad	0.9998577
230	0x3c4f4446	0.012650555
231	0x3f7ffac1	0.99991995
232	0x3c1b6e0d	0.009486687
233	0x3f7ffd0d	0.999955
234	0x3be91d13	0.0071140616
235	0x3f7ffe58	0.9999747
236	0x3baecfa8	0.005334813
237	0x3f7fff11	0.99998575
238	0x3b831713	0.0040005534
239	0x3f7fff7a	0.999992
240	0x3b449b92	0.0029999954
241	0x3f7fffb5	0.9999955
242	0x3b136f60	0.0022496805
243	0x3f7fffd6	0.9999975
244	0x3add1f17	0.0016870227
245	0x3f7fffe8	0.99999857
246	0x3aa5d156	0.0012650888
247	0x3f7ffff3	0.9999992
248	0x3a78b110	0.00094868336
249	0x3f7ffff9	0.9999996
250	0x3a3a7e09	0.00071141176
251	0x3f7ffffc	0.99999976
252	0x3a0bd97e	0.0005334838
253	0x3f7ffffe	0.9999999
254	0x39d1bea4	0.00040005625
255	0x3f7fffff	0.99999994

transformer.layers.0.self_attn.in_proj_weight f4 [192, 64]
0	0x3dc60eed	0.096708156
1	0xbd6d04a1	-0.057865743
2	0x3dbee626	0.09321241
3	0xbbd5269b	-0.0065048463
4	0x3da7a661	0.08186031
5	0xbcd267db	-0.025684288
6	0x3de934cd	0.11387024
7	0xbc8e0bae	-0.017339554
8	0x3e0227f8	0.1271056
9	0x3cf41207	0.029793752
10	0x3dfce2f6	0.12347977
11	0x3daa231c	0.08307478
12	0x3df244d5	0.11829535
13	0x3dfcf7dd	0.12351964
14	0x3de3c746	0.11121993
15	0x3e05279f	0.13003395
16	0x3d87549b	0.06607934
17	0x3e056e49	0.13030352
18	0x3dd5e0ab	0.10443243
19	0x3e05099d	0.12991948
20	0x3deacec3	0.11465218
21	0x3e0540c5	0.13012989
22	0x3cb50474	0.02209685
23	0x3e055d56	0.13023886
24	0x3ddcca3a	0.10780759
25	0x3e040c53	0.12895326
26	0x3cf35c94	0.02970723
27	0x3e067b57	0.13132988
28	0x3bd87a89	0.006606404
29	0x3e04c18f	0.12964462
30	0x3e0c92df	0.13727902
31	0x3e05adb2	0.13054541
32	0x3babcd6d	0.0052429945
33	0x3e052177	0.13001047
34	0xbcd8dac1	-0.026471497
35	0x3e02f8f3	0.12790279
36	0x3e24f998	0.16110837
37	0x3e038040	0.12841892
38	0xbe26b010	-0.162781
39	0x3e057d6a	0.13036123
40	0x3d94c2ee	0.072637424
41	0x3e028b4e	0.12748453
42	0xbd2d1066	-0.042251967
43	0x3e03af91	0.12859942
44	0x3d8a8b08	0.06764799
45	0x3e043e72	0.12914446
46	0x3d8b2989	0.067950316
47	0x3e04a009	0.12951674
48	0xbe25b404	-0.16181952
49	0x3e06a751	0.13149764
50	0xbe26fa50	-0.16306424
51	0x3e042ae6	0.1290699
52	0xbd6a0b1a	-0.057139494
53	0x3e170bff	0.1475067
54	0x3d82eaed	0.06392465
55	0x3e164713	0.1467555
56	0xbe263cad	-0.16234083
57	0x3e03e97a	0.12882033
58	0xbd65f048	-0.056137353
59	0x3e042bbd	0.1290731
60	0xbd7209c1	-0.059091333
61	0x3e03cb76	0.12870583
62	0xbd7505dc	-0.05982004
63	0x3e1787c4	0.14797884
64	0x3dc60eeb	0.09670814
65	0xbd6d04a5	-0.057865757
66	0x3dbee626	0.09321241
67	0xbbd526b0	-0.006504856
68	0x3da7a661	0.08186031
69	0xbcd267e5	-0.025684306
70	0x3de934cf	0.113870256
71	0xbc8e0bae	-0.017339554
72	0x3e0227f8	0.1271056
73	0x3cf41209	0.029793756
74	0x3dfce2f6	0.12347977
75	0x3daa231e	0.08307479
76	0x3df244d8	0.11829537
77	0x3dfcf7dd	0.12351964
78	0x3de3c744	0.11121991
79	0x3e05279f	0.13003395
80	0x3d87549a	0.06607933
81	0x3e056e49	0.13030352
82	0x3dd5e0a7	0.1044324
83	0x3e05099d	0.12991948
84	0x3deacec5	0.114652194
85	0x3e0540c6	0.1301299
86	0x3cb50476	0.022096854
87	0x3e055d55	0.13023885
88	0x3ddcca3a	0.10780759
89	0x3e040c51	0.12895323
90	0x3cf35c9b	0.029707244
91	0x3e067b57	0.13132988
92	0x3bd87a99	0.0066064117
93	0x3e04c18f	0.12964462
94	0x3e0c92df	0.13727902
95	0x3e05adb5	0.13054545
96	0x3babcd65	0.005242991
97	0x3e052178	0.13001049
98	0xbcd8dabb	-0.026471486
99	0x3e02f8f4	0.1279028
100	0x3e24f99a	0.1611084
101	0x3e038040	0.12841892
102	0xbe26b010	-0.162781
103	0x3e057d69	0.13036121
104	0x3d94c2ec	0.07263741
105	0x3e028b4f	0.12748455
106	0xbd2d1069	-0.042251978
107	0x3e03af92	0.12859944
108	0x3d8a8b07	0.067647986
109	0x3e043e70	0.12914443
110	0x3d8b298b	0.06795033
111	0x3e04a008	0.12951672
112	0xbe25b404	-0.16181952
113	0x3e06a752	0.13149765
114	0xbe26fa51	-0.16306426
115	0x3e042ae5	0.12906988
116	0xbd6a0b19	-0.05713949
117	0x3e170bff	0.1475067
118	0x3d82eaee	0.063924655
119	0x3e164713	0.1467555
120	0xbe263ca9	-0.16234078
121	0x3e03e979	0.12882032
122	0xbd65f046	-0.056137346
123	0x3e042bbf	0.12907313
124	0xbd7209c2	-0.059091337
125	0x3e03cb76	0.12870583
126	0xbd7505db	-0.059820037
127	0x3e1787c5	0.14797886
128	0xbdc60eee	-0.09670816
129	0x3d6d04a0	0.05786574
130	0xbdbee627	-0.09321242
131	0x3bd526a4	0.0065048505
132	0xbda7a660	-0.081860304
133	0x3cd267e4	0.025684305
134	0xbde934cc	-0.11387023
135	0x3c8e0bb4	0.017339565
136	0xbe0227f9	-0.12710561
137	0xbcf41209	-0.029793756
138	0xbdfce2f8	-0.12347978
139	0xbdaa231e	-0.08307479
140	0xbdf244d8	-0.11829537
141	0xbdfcf7dd	-0.12351964
142	0xbde3c745	-0.11121992
143	0xbe05279f	-0.13003395
144	0xbd875498	-0.06607932
145	0xbe056e49	-0.13030352
146	0xbdd5e0a9	-0.10443241
147	0xbe0509a1	-0.12991954
148	0xbdeacec4	-0.11465219
149	0xbe0540c8	-0.13012993
150	0xbcb5047b	-0.022096863
151	0xbe055d57	-0.13023888
152	0xbddcca3a	-0.10780759
153	0xbe040c51	-0.12895323
154	0xbcf35c98	-0.029707238
155	0xbe067b59	-0.13132991
156	0xbbd87a93	-0.006606409
157	0xbe04c18e	-0.1296446
158	0xbe0c92e0	-0.13727903
159	0xbe05adb3	-0.13054542
160	0xbbabcd65	-0.005242991
161	0xbe052179	-0.1300105
162	0x3cd8daba	0.026471484
163	0xbe02f8f5	-0.12790282
164	0xbe24f99a	-0.1611084
165	0xbe038040	-0.12841892
166	0x3e26b012	0.16278103
167	0xbe057d6a	-0.13036123
168	0xbd94c2ee	-0.072637424
169	0xbe028b4e	-0.12748453
170	0x3d2d1066	0.042251967
171	0xbe03af91	-0.12859942
172	0xbd8a8b06	-0.06764798
173	0xbe043e71	-0.12914445
174	0xbd8b2989	-0.067950316
175	0xbe04a009	-0.12951674
176	0x3e25b404	0.16181952
177	0xbe06a752	-0.13149765
178	0x3e26fa51	0.16306426
179	0xbe042ae5	-0.12906988
180	0x3d6a0b18	0.057139486
181	0xbe170bff	-0.1475067
182	0xbd82eaed	-0.06392465
183	0xbe164714	-0.14675552
184	0x3e263ca9	0.16234078
185	0xbe03e979	-0.12882032
186	0x3d65f044	0.05613734
187	0xbe042bbe	-0.12907311
188	0x3d7209c3	0.05909134
189	0xbe03cb75	-0.12870581
190	0x3d7505e0	0.059820056
191	0xbe1787c5	-0.14797886
192	0xbdc60eed	-0.096708156
193	0x3d6d04a1	0.057865743
194	0xbdbee624	-0.093212396
195	0x3bd526a4	0.0065048505
196	0xbda7a65f	-0.0818603
197	0x3cd267e0	0.025684297
198	0xbde934cf	-0.113870256
199	0x3c8e0baa	0.017339546
200	0xbe0227f8	-0.1271056
201	0xbcf41209	-0.029793756
202	0xbdfce2f8	-0.12347978
203	0xbdaa231d	-0.083074786
204	0xbdf244d7	-0.118295364
205	0xbdfcf7db	-0.12351962
206	0xbde3c745	-0.11121992
207	0xbe05279f	-0.13003395
208	0xbd87549a	-0.06607933
209	0xbe056e49	-0.13030352
210	0xbdd5e0a9	-0.10443241
211	0xbe05099e	-0.1299195
212	0xbdeacec4	-0.11465219
213	0xbe0540c5	-0.13012989
214	0xbcb50473	-0.022096848
215	0xbe055d56	-0.13023886
216	0xbddcca3a	-0.10780759
217	0xbe040c51	-0.12895323
218	0xbcf35c9a	-0.029707242
219	0xbe067b58	-0.1313299
220	0xbbd87a7e	-0.006606399
221	0xbe04c18f	-0.12964462
222	0xbe0c92df	-0.13727902
223	0xbe05adb0	-0.13054538
224	0xbbabcd70	-0.005242996
225	0xbe052179	-0.1300105
226	0x3cd8dac0	0.026471496
227	0xbe02f8f4	-0.1279028
228	0xbe24f997	-0.16110836
229	0xbe038040	-0.12841892
230	0x3e26b011	0.16278102
231	0xbe057d69	-0.13036121
232	0xbd94c2ef	-0.07263743
233	0xbe028b4e	-0.12748453
234	0x3d2d1068	0.042251974
235	0xbe03af91	-0.12859942
236	0xbd8a8b06	-0.06764798
237	0xbe043e6f	-0.12914442
238	0xbd8b2989	-0.067950316
239	0xbe04a009	-0.12951674
240	0x3e25b404	0.16181952
241	0xbe06a753	-0.13149767
242	0x3e26fa4f	0.16306423
243	0xbe042ae5	-0.12906988
244	0x3d6a0b19	0.05713949
245	0xbe170c00	-0.14750671
246	0xbd82eaec	-0.06392464
247	0xbe164714	-0.14675552
248	0x3e263caa	0.16234079
249	0xbe03e97a	-0.12882033
250	0x3d65f044	0.05613734
251	0xbe042bbf	-0.12907313
252	0x3d7209c2	0.059091337
253	0xbe03cb77	-0.12870584
254	0x3d7505db	0.059820037
255	0xbe1787c5	-0.14797886

transformer.layers.0.self_attn.in_proj_bias f4 [192]
0	0x3e12ce8a	0.14336601
1	0x3e12ce89	0.143366
2	0xbe12ce8b	-0.14336602
3	0xbe12ce8a	-0.14336601
4	0x3e12ce8c	0.14336604
5	0x3e12ce88	0.14336598
6	0x3e12ce8a	0.14336601
7	0xbe12ce8a	-0.14336601
8	0xbddfc590	-0.10926354
9	0xbddfc591	-0.10926355
10	0x3ddfc590	0.10926354
11	0x3ddfc591	0.10926355
12	0xbddfc591	-0.10926355
13	0x3ddfc593	0.10926356
14	0xbddfc591	-0.10926355
15	0xbddfc591	-0.10926355
16	0xbcaa9a6a	-0.020825583
17	0x3caa9a6d	0.02082559
18	0xbcaa9a6a	-0.020825583
19	0x3caa9a6a	0.020825583
20	0xbcaa9a6b	-0.020825585
21	0x3caa9a68	0.02082558
22	0xbcaa9a6d	-0.02082559
23	0xbcaa9a6b	-0.020825585
24	0x3e4d2fea	0.20037809
25	0xbe4d2fec	-0.20037812
26	0x3e4d2fea	0.20037809
27	0x3e4d2fec	0.20037812
28	0x3e4d2fec	0.20037812
29	0xbe4d2feb	-0.2003781
30	0x3e4d2fec	0.20037812
31	0x3e4d2fec	0.20037812
32	0xbca94f54	-0.02066771
33	0xbca94f54	-0.02066771
34	0x3ca94f54	0.02066771
35	0x3ca94f53	0.020667708
36	0xbca94f54	-0.02066771
37	0x3ca94f54	0.02066771
38	0x3ca94f54	0.02066771
39	0xbca94f54	-0.02066771
40	0xbe0dfee3	-0.13866763
41	0xbe0dfee2	-0.13866761
42	0x3e0dfee3	0.13866763
43	0x3e0dfee4	0.13866764
44	0xbe0dfee5	-0.13866766
45	0xbe0dfee3	-0.13866763
46	0x3e0dfee2	0.13866761
47	0xbe0dfee3	-0.13866763
48	0xbe4a25f2	-0.19741037
49	0xbe4a25f2	-0.19741037
50	0xbe4a25f5	-0.19741042
51	0xbe4a25f3	-0.19741039
52	0xbe4a25f5	-0.19741042
53	0xbe4a25f5	-0.19741042
54	0xbe4a25f3	-0.19741039
55	0x3e4a25f4	0.1974104
56	0xbe05ee35	-0.1307915
57	0x3e05ee38	0.13079154
58	0x3e05ee38	0.13079154
59	0xbe05ee35	-0.1307915
60	0xbe05ee38	-0.13079154
61	0xbe05ee37	-0.13079153
62	0x3e05ee35	0.1307915
63	0x3e05ee37	0.13079153
64	0x3b830c5d	0.0039992766
65	0x3b837761	0.004012034
66	0xbb842219	-0.004032385
67	0xbb83c1e5	-0.0040209168
68	0x3b830c4b	0.003999268
69	0x3b838c0f	0.004014499
70	0x3b82a3b4	0.0039868
71	0xbb830669	-0.003998567
72	0xbb16e125	-0.002302238
73	0xbb17179a	-0.002305484
74	0x3b160d04	0.0022895942
75	0x3b16c425	0.0023005095
76	0xbb16e4e0	-0.0023024604
77	0x3b1723d1	0.002306212
78	0xbb16b235	-0.0022994403
79	0xbb16f671	-0.0023035074
80	0xb98b29fb	-0.00026543424
81	0x3989c83a	0.00026279857
82	0xb98b49eb	-0.0002656722
83	0x398ae79f	0.00026493982
84	0xb98b11a4	-0.0002652529
85	0x398b3a05	0.00026555374
86	0xb98ad8ec	-0.0002648303
87	0xb9894b7b	-0.00026186914
88	0x3c070554	0.008241016
89	0xbc06859d	-0.008210567
90	0x3c05ee87	0.008174545
91	0x3c07ef44	0.008296791
92	0x3c072994	0.008249659
93	0xbc06b485	-0.00822175
94	0x3c07311a	0.008251453
95	0x3c085714	0.008321542
96	0xb9a1bca1	-0.00030848852
97	0xb9a27d14	-0.00030992238
98	0x39a19b59	0.00030824056
99	0x39a123d6	0.00030735013
100	0xb9a289cd	-0.00031001717
101	0x39a120d8	0.00030732783
102	0x39a16758	0.0003078531
103	0xb9a2312e	-0.0003093569
104	0xbb809e2d	-0.003925106
105	0xbb823a06	-0.003974202
106	0x3b806a29	0.0039189053
107	0x3b80b5dd	0.00392793
108	0xbb80ce02	-0.003930808
109	0xbb80e89c	-0.003933979
110	0x3b820ff9	0.0039691892
111	0xbb7e848e	-0.0038836333
112	0xbc0d148c	-0.008610856
113	0xbc0dd20a	-0.008656034
114	0xbc0cf12e	-0.008602424
115	0xbc0ca241	-0.008583606
116	0xbc0e3226	-0.0086789485
117	0xbc0e2721	-0.008676321
118	0xbc0d02e8	-0.00860665
119	0x3c0ddb8a	0.008658299
120	0xbb2f5c0a	-0.002675774
121	0x3b2e7161	0.0026617872
122	0x3b2f24e7	0.0026724876
123	0xbb2f7207	-0.0026770846
124	0xbb2fae40	-0.0026806742
125	0xbb2ef49c	-0.0026696092
126	0x3b2ec487	0.0026667432
127	0x3b2f5872	0.0026755598
128	0x3cafc9ca	0.021458525
129	0xba0f85fc	-0.00054749823
130	0xb9d31fd9	-0.00040268785
131	0xb9d31ff0	-0.0004026885
132	0xba0a3a6d	-0.00052729883
133	0xb9d3200b	-0.0004026893
134	0xba0aa19f	-0.00052883656
135	0xb9d32001	-0.000402689
136	0xbc67a2f6	-0.014137974
137	0x3c757c22	0.014983209
138	0x3c675842	0.014120163
139	0x3cb6bd49	0.022307055
140	0x3c757c2c	0.014983218
141	0xbc678507	-0.014130837
142	0xbcb6bd40	-0.022307038
143	0xbc66ed4d	-0.014094663
144	0x3cb64d84	0.02225376
145	0x3cb64d86	0.022253763
146	0xbcb64d8a	-0.02225377
147	0x3cb64d8c	0.022253774
148	0xbcb64d86	-0.022253763
149	0x3c6e03ef	0.014527305
150	0x3cb64d8a	0.02225377
151	0xbcb64d87	-0.022253765
152	0xb8568863	-5.1148596e-05
153	0xb85688c9	-5.1148967e-05
154	0xb8568906	-5.114919e-05
155	0xb856888e	-5.1148752e-05
156	0xb776d062	-1.47112605e-05
157	0x38568956	5.114948e-05
158	0xb85687f5	-5.1148196e-05
159	0xb8568963	-5.1149527e-05
160	0xbcb10a3f	-0.021611331
161	0xbcb12a98	-0.021626756
162	0xbcb12a92	-0.021626744
163	0xbcb12a96	-0.021626752
164	0x3cb12a93	0.021626746
165	0x3cb0ba41	0.021573188
166	0xbcb12a98	-0.021626756
167	0xbcb12a94	-0.021626748
168	0xba7778ce	-0.00094403035
169	0xba9d02fa	-0.0011979036
170	0xba9da074	-0.0012025968
171	0x3a7778d8	0.00094403094
172	0xba7778ca	-0.0009440301
173	0xba70fa0e	-0.00091925345
174	0x3a7778ca	0.0009440301
175	0xba7778ca	-0.0009440301
176	0x39745647	0.00023301794
177	0xb9745662	-0.00023301833
178	0xb9c0372d	-0.00036662203
179	0x39745612	0.00023301717
180	0x3974564c	0.00023301801
181	0xbc8fc254	-0.017548718
182	0xb9c0375a	-0.00036662334
183	0x3c8fbeba	0.017547
184	0xbc9f0f9e	-0.019416627
185	0x3cb36820	0.021900237
186	0x3c84e009	0.01622011
187	0xbc84ce2c	-0.016211592
188	0x3c84d3bf	0.01621425
189	0xbcb36822	-0.02190024
190	0x3c73b022	0.014873536
191	0x3cab7702	0.02093077

transformer.layers.0.self_attn.out_proj.weight f4 [64, 64]
0	0xbd7b7362	-0.061389334
1	0x3d2d7c5f	0.042354938
2	0x3d04ac4a	0.03239087
3	0x3d04ac4a	0.03239087
4	0x3d287f9f	0.041137334
5	0x3d04ac47	0.03239086
6	0x3d28fb78	0.041255444
7	0x3d04ac4a	0.03239087
8	0x3dbbc479	0.091683336
9	0xbcda5e2a	-0.026656229
10	0xbdbbd44e	-0.09171353
11	0x3d67712d	0.056504417
12	0xbcda5e28	-0.026656225
13	0x3dbbcb4d	0.09169636
14	0xbd67af49	-0.05656365
15	0x3dbbe7a4	0.09175041
16	0x3d5af528	0.053456455
17	0x3d5af525	0.053456444
18	0xbd5af52c	-0.05345647
19	0x3d5af52b	0.053456467
20	0xbd5af529	-0.05345646
21	0xbc7f6039	-0.015586906
22	0x3d5af526	0.053456448
23	0xbd5af52b	-0.053456467
24	0x3b10c90d	0.0022092492
25	0x3b10c924	0.0022092545
26	0x3b10c906	0.0022092476
27	0x3b10c913	0.0022092506
28	0x3c1a35ac	0.00941221
29	0xbb10ca20	-0.0022093132
30	0x3b10c8e5	0.0022092399
31	0x3b10c941	0.0022092613
32	0xbd52f0ff	-0.051499363
33	0xbd531e2e	-0.051542453
34	0xbd531e2b	-0.051542442
35	0xbd531e28	-0.05154243
36	0x3d531e25	0.05154242
37	0x3d528192	0.0513931
38	0xbd531e2f	-0.051542457
39	0xbd531e2e	-0.051542453
40	0x3d16bf86	0.036803745
41	0x3d082d56	0.03324636
42	0x3d08a4f9	0.033360455
43	0xbd16bf87	-0.03680375
44	0x3d16bf86	0.036803745
45	0x3d11d323	0.035601746
46	0xbd16bf86	-0.036803745
47	0x3d16bf86	0.036803745
48	0x3c048f18	0.008090757
49	0xbc048f1a	-0.008090759
50	0xbc4e0e27	-0.012576616
51	0x3c048f17	0.008090756
52	0x3c048f1a	0.008090759
53	0x3d870e5e	0.06594537
54	0xbc4e0e09	-0.012576588
55	0xbd871177	-0.06595128
56	0xbda0a7d7	-0.07844513
57	0x3d638d36	0.05555459
58	0xbd9cf50e	-0.07663928
59	0x3d9b7005	0.075897254
60	0xbd9bcc33	-0.07607307
61	0xbd638d88	-0.055554897
62	0xbcc8d84f	-0.024517206
63	0x3d94ab5d	0.072592475
64	0xbdc28a76	-0.094990656
65	0xbb71b383	-0.003688068
66	0xbcd186e7	-0.025577022
67	0xbcd186ee	-0.025577035
68	0xbb7ca2f4	-0.0038549276
69	0xbcd186ed	-0.025577033
70	0xbb78425a	-0.0037881345
71	0xbcd186ee	-0.025577035
72	0x3da942cd	0.08264694
73	0x3c881e56	0.016616028
74	0xbda8da83	-0.08244803
75	0xbbf56201	-0.0074884896
76	0x3c881e5a	0.016616035
77	0x3da91aa4	0.082570344
78	0x3bf354ab	0.0074258647
79	0x3da83e39	0.08214993
80	0xbc0e01e6	-0.008667445
81	0xbc0e01e3	-0.008667442
82	0x3c0e01d9	0.008667433
83	0xbc0e01da	-0.008667434
84	0x3c0e01e1	0.00866744
85	0x3c0601ae	0.008179111
86	0xbc0e01e6	-0.008667445
87	0x3c0e01d9	0.008667433
88	0x3d10c5f2	0.035345025
89	0x3d10c5f7	0.035345044
90	0x3d10c5f4	0.035345033
91	0x3d10c5f5	0.035345037
92	0xbcf188a0	-0.029484093
93	0xbd10c5d1	-0.035344902
94	0x3d10c5f8	0.035345048
95	0x3d10c5ee	0.03534501
96	0x3c1a2dab	0.009410302
97	0x3c19df8d	0.009391678
98	0x3c19df98	0.009391688
99	0x3c19df92	0.009391682
100	0xbc19df96	-0.009391686
101	0xbc1aee2c	-0.009456199
102	0x3c19df90	0.00939168
103	0x3c19df90	0.00939168
104	0x3d18112c	0.03712575
105	0x3d26d541	0.04073072
106	0x3d2732a7	0.04081979
107	0xbd18112a	-0.037125744
108	0x3d18112b	0.037125748
109	0x3d19c1e4	0.037538424
110	0xbd18112d	-0.037125755
111	0x3d18112a	0.037125744
112	0xbd052828	-0.032509
113	0x3d05282b	0.03250901
114	0x3c867237	0.016411884
115	0xbd052828	-0.032509
116	0xbd052828	-0.032509
117	0x3df2b750	0.1185137
118	0x3c867244	0.016411908
119	0xbdf2bc76	-0.11852352
120	0xbca18e3d	-0.019721145
121	0xbc10f10b	-0.008846532
122	0xbddb75e9	-0.10715849
123	0x3ddb9779	0.107222505
124	0xbddb929e	-0.107213244
125	0x3c10f0c4	0.0088464655
126	0x3c4517b1	0.012029574
127	0x3c3474cd	0.011014176
128	0xbd0bfdbf	-0.034177538
129	0xbc9b4d5f	-0.018957792
130	0xbd905f14	-0.07049385
131	0xbd905f14	-0.07049385
132	0xbc3c0cfc	-0.011477705
133	0xbd905f15	-0.070493855
134	0xbc440c6e	-0.011965854
135	0xbd905f14	-0.07049385
136	0x3d0fa63f	0.035070654
137	0xbd948c91	-0.072533734
138	0xbd10b807	-0.035331752
139	0x3bd11389	0.0063805026
140	0xbd948c90	-0.07253373
141	0x3d10085e	0.03516423
142	0xbbd0e3c7	-0.0063748094
143	0x3d12707f	0.035751816
144	0x3c0c294b	0.008554767
145	0x3c0c2941	0.008554758
146	0xbc0c2927	-0.008554733
147	0x3c0c2923	0.00855473
148	0xbc0c2933	-0.0085547445
149	0xbd1e4c0c	-0.038646743
150	0x3c0c2946	0.008554762
151	0xbc0c2928	-0.008554734
152	0x3d0cf3ba	0.034412123
153	0x3d0cf3bc	0.03441213
154	0x3d0cf3be	0.03441214
155	0x3d0cf3bc	0.03441213
156	0x3c7d43c0	0.015458047
157	0xbd0cf3ce	-0.034412198
158	0x3d0cf3bd	0.034412134
159	0x3d0cf3c3	0.034412157
160	0xbc2e3c83	-0.010634544
161	0xbc2c4f55	-0.010516961
162	0xbc2c4f7b	-0.0105169965
163	0xbc2c4f64	-0.010516975
164	0x3c2c4f74	0.01051699
165	0x3c32fc32	0.010924386
166	0xbc2c4f4d	-0.010516954
167	0xbc2c4f59	-0.010516965
168	0x3c3e3741	0.011609853
169	0x3c2a035d	0.010376778
170	0x3c2b1867	0.01044283
171	0xbc3e373d	-0.0116098495
172	0x3c3e373e	0.01160985
173	0x3c305fbe	0.010765014
174	0xbc3e373c	-0.011609849
175	0x3c3e373e	0.01160985
176	0xbd78e039	-0.06076071
177	0x3d78e039	0.06076071
178	0x3c269505	0.010167365
179	0xbd78e039	-0.06076071
180	0xbd78e038	-0.060760707
181	0x3d08567e	0.03328561
182	0x3c2694e4	0.010167334
183	0xbd085576	-0.033284627
184	0x3d5cee33	0.053938102
185	0xbd1ff84e	-0.03905516
186	0x3d2ccd32	0.042187877
187	0xbd3804fd	-0.044926632
188	0x3d357663	0.044302355
189	0x3d1ff704	0.03905393
190	0xbd84a048	-0.06475884
191	0xbd2d3e7a	-0.04229591
192	0xbde69ecf	-0.11260759
193	0xbbd304a5	-0.0064397627
194	0xbd3617d6	-0.044456325
195	0xbd3617d7	-0.04445633
196	0xbb8d14c8	-0.004305456
197	0xbd3617d7	-0.04445633
198	0xbb8fb0d4	-0.004385093
199	0xbd3617d5	-0.04445632
200	0x3ddaad15	0.10677544
201	0xbcdc536b	-0.026895246
202	0xbdda6487	-0.10663705
203	0xbba9f022	-0.0051860968
204	0xbcdc5363	-0.02689523
205	0x3dda8fbc	0.106719464
206	0x3ba7c603	0.0051200404
207	0x3dd9fe7d	0.10644243
208	0xbc03cce6	-0.008044457
209	0xbc03cce9	-0.00804446
210	0x3c03cceb	0.008044462
211	0xbc03ccec	-0.008044463
212	0x3c03cce8	0.008044459
213	0xbc572f37	-0.0131338155
214	0xbc03cce5	-0.008044456
215	0x3c03cceb	0.008044462
216	0x3d381cf0	0.044949472
217	0x3d381cf0	0.044949472
218	0x3d381cf1	0.044949476
219	0x3d381cf3	0.044949483
220	0xbcc71eed	-0.024306739
221	0xbd381cd2	-0.04494936
222	0x3d381cf1	0.044949476
223	0x3d381ced	0.04494946
224	0x3c0f0895	0.008730073
225	0x3c0f114b	0.00873215
226	0x3c0f114c	0.008732151
227	0x3c0f114d	0.008732152
228	0xbc0f114e	-0.008732153
229	0xbc0ef2ce	-0.008724881
230	0x3c0f114d	0.008732152
231	0x3c0f114b	0.00873215
232	0x3d3c928d	0.0460382
233	0x3d5b8b8b	0.053599875
234	0x3d5c1109	0.053727183
235	0xbd3c928c	-0.046038195
236	0x3d3c928b	0.04603819
237	0x3d3db39d	0.04631387
238	0xbd3c928e	-0.046038203
239	0x3d3c928e	0.046038203
240	0xbd5f04a1	-0.054447774
241	0x3d5f04a5	0.05444779
242	0x3caec000	0.021331787
243	0xbd5f04a4	-0.054447785
244	0xbd5f04a1	-0.054447774
245	0x3e123370	0.14277434
246	0x3caec00a	0.021331806
247	0xbe123706	-0.14278802
248	0xbc415f94	-0.011802573
249	0xbc83fe1b	-0.016112378
250	0xbde9b216	-0.1141092
251	0x3de88fa9	0.11355526
252	0xbde8d5f3	-0.113689326
253	0x3c83fd5a	0.016112018
254	0xbcc6e338	-0.024278268
255	0x3b9884fc	0.004654525

transformer.layers.0.self_attn.out_proj.bias f4 [64]
0	0xbc47827e	-0.012177108
1	0xbaadd8bf	-0.0013263448
2	0xbcc32a4d	-0.023823882
3	0xbc5e9509	-0.013585337
4	0xbcb222f2	-0.021745179
5	0xbc887ee9	-0.016662078
6	0xbc8730dd	-0.016502792
7	0xbcb5ebc2	-0.022207145
8	0x3c8b5add	0.0170111
9	0xbd06491a	-0.03278456
10	0x3cdc7090	0.026909143
11	0xbd315d57	-0.043301906
12	0xbc90d649	-0.017680304
13	0xbd531c84	-0.051540866
14	0xbc8898f8	-0.016674504
15	0xbd488709	-0.048956905
16	0xbcc9ba6d	-0.024625028
17	0x3c561e0b	0.013068686
18	0xbc6b0a43	-0.014345708
19	0x3c52f53e	0.012875853
20	0xbb1c30ba	-0.0023832754
21	0x3c05821b	0.008148695
22	0xbb96126f	-0.004579834
23	0xbd0ece6f	-0.03486484
24	0x3aba50e9	0.0014214787
25	0x3bce7649	0.006300722
26	0xbbaffa43	-0.0053704097
27	0xbc5a4225	-0.013321434
28	0x3bedb14f	0.007253803
29	0xbbfdede8	-0.007749308
30	0x3b80e4d2	0.0039335275
31	0x3c83b248	0.016076222
32	0x3b39ab9c	0.0028331047
33	0x3bd1dac2	0.006404252
34	0x3b4d01d3	0.0031281605
35	0x3b8f6edd	0.0043772296
36	0x3bd7b27f	0.0065825577
37	0xbd72e7d0	-0.059303105
38	0xbafecbf8	-0.001943945
39	0xbd80d332	-0.06290282
40	0x3b715c9a	0.0036828876
41	0x3c27b13b	0.010235126
42	0x3ac30c27	0.0014880941
43	0x3b92a02f	0.004474662
44	0x3af760d8	0.0018873466
45	0x3b8bad9b	0.0042626387
46	0x3ac42305	0.001496405
47	0x3c2467fe	0.010034559
48	0xba800c5f	-0.0009769312
49	0x3c06ba58	0.008223139
50	0xbabd70d9	-0.0014453187
51	0x3b7db1de	0.0038710753
52	0x3bdf1b62	0.006808684
53	0x3c0fedee	0.008784754
54	0x3b028b18	0.0019919332
55	0x3be7cb6d	0.007073811
56	0xba1ef497	-0.00060636684
57	0x3af0ca0f	0.0018370765
58	0x3b834160	0.004005596
59	0x3a474479	0.0007601451
60	0x3ad3667d	0.0016128566
61	0x3c2ef382	0.010678174
62	0x3b2659cf	0.002538312
63	0x3be966eb	0.0071228645

transformer.layers.0.multihead_attn.in_proj_weight f4 [192, 64]
0	0xbe601f6b	-0.21886985
1	0xbe7337c8	-0.23751748
2	0xbe70ea86	-0.23526964
3	0xbe72fe4c	-0.23729819
4	0xbe6e91f6	-0.23297867
5	0xbe76116b	-0.24030082
6	0xbe6ff165	-0.23431928
7	0xbe773a8f	-0.24143432
8	0xbe76795d	-0.24069734
9	0xbe75b4e7	-0.2399479
10	0xbe79612e	-0.24353477
11	0xbe752f9b	-0.23943941
12	0xbe738440	-0.23780918
13	0xbe7582f8	-0.23975742
14	0xbe724e60	-0.2366271
15	0xbe743dcf	-0.23851703
16	0xbe81a922	-0.2532435
17	0xbe7599ed	-0.239845
18	0xbe799ed4	-0.24376994
19	0xbe7472ca	-0.23871914
20	0xbe7d4f01	-0.24737169
21	0xbe751422	-0.23933461
22	0xbe894b5e	-0.26815313
23	0xbe73a1ea	-0.23792234
24	0xbe7b9aa2	-0.24570706
25	0xbe73a9bb	-0.23795216
26	0xbe7e094e	-0.24808237
27	0xbe74d2de	-0.23908564
28	0xbe70887d	-0.23489566
29	0xbe78296c	-0.24234551
30	0xbe6ad29b	-0.22931902
31	0xbe79eac3	-0.2440596
32	0xbe6dbb8b	-0.23216073
33	0xbe75f20e	-0.24018118
34	0xbe7b539e	-0.24543616
35	0xbe78a717	-0.2428249
36	0xbe744b9d	-0.23856969
37	0xbe65ca4d	-0.22440453
38	0xbe85fa8a	-0.2616771
39	0xbe709b53	-0.23496751
40	0xbe804108	-0.25049615
41	0xbe746461	-0.23866417
42	0xbe4966dc	-0.19668144
43	0xbe79acfd	-0.24382396
44	0xbe624232	-0.22095564
45	0xbe73690d	-0.23770542
46	0xbe5eb84c	-0.21749991
47	0xbe75e37a	-0.24012557
48	0xbe872857	-0.26397964
49	0xbe752d98	-0.23943174
50	0xbe85392a	-0.26020175
51	0xbe764a9a	-0.24051896
52	0xbe7af319	-0.24506797
53	0xbe7a330d	-0.24433537
54	0xbe5d8880	-0.21634102
55	0xbe778a0f	-0.24173759
56	0xbe86a695	-0.26298967
57	0xbe76f24b	-0.24115865
58	0xbe7b72ab	-0.24555461
59	0xbe779d30	-0.24181056
60	0xbe490db9	-0.19634141
61	0xbe7733be	-0.24140832
62	0xbe796bee	-0.24357578
63	0xbe79fcc4	-0.24412829
64	0x3e601f6c	0.21886986
65	0x3e7337c8	0.23751748
66	0x3e70ea86	0.23526964
67	0x3e72fe50	0.23729825
68	0x3e6e91f7	0.23297869
69	0x3e76116d	0.24030085
70	0x3e6ff164	0.23431927
71	0x3e773a8e	0.2414343
72	0x3e76795e	0.24069735
73	0x3e75b4e6	0.23994789
74	0x3e79612e	0.24353477
75	0x3e752f9c	0.23943943
76	0x3e738441	0.2378092
77	0x3e7582fa	0.23975745
78	0x3e724e60	0.2366271
79	0x3e743dcf	0.23851703
80	0x3e81a922	0.2532435
81	0x3e7599ed	0.239845
82	0x3e799ed4	0.24376994
83	0x3e7472c9	0.23871912
84	0x3e7d4eff	0.24737166
85	0x3e751423	0.23933463
86	0x3e894b5d	0.2681531
87	0x3e73a1e8	0.23792231
88	0x3e7b9aa0	0.24570704
89	0x3e73a9b8	0.23795211
90	0x3e7e094c	0.24808234
91	0x3e74d2de	0.23908564
92	0x3e708880	0.2348957
93	0x3e78296d	0.24234553
94	0x3e6ad29b	0.22931902
95	0x3e79eac1	0.24405958
96	0x3e6dbb8d	0.23216076
97	0x3e75f20f	0.2401812
98	0x3e7b539d	0.24543615
99	0x3e78a716	0.24282488
100	0x3e744b9d	0.23856969
101	0x3e65ca4d	0.22440453
102	0x3e85fa8a	0.2616771
103	0x3e709b52	0.2349675
104	0x3e804108	0.25049615
105	0x3e746461	0.23866417
106	0x3e4966dd	0.19668145
107	0x3e79acfe	0.24382398
108	0x3e62422f	0.2209556
109	0x3e73690b	0.2377054
110	0x3e5eb84c	0.21749991
111	0x3e75e37c	0.2401256
112	0x3e872856	0.2639796
113	0x3e752d97	0.23943172
114	0x3e85392a	0.26020175
115	0x3e764a9a	0.24051896
116	0x3e7af31a	0.24506798
117	0x3e7a330c	0.24433535
118	0x3e5d8880	0.21634102
119	0x3e778a10	0.2417376
120	0x3e86a693	0.2629896
121	0x3e76f24a	0.24115863
122	0x3e7b72a9	0.24555458
123	0x3e779d2e	0.24181053
124	0x3e490db9	0.19634141
125	0x3e7733bc	0.24140829
126	0x3e796bed	0.24357577
127	0x3e79fcc5	0.2441283
128	0xbe601f6a	-0.21886984
129	0xbe7337c8	-0.23751748
130	0xbe70ea87	-0.23526965
131	0xbe72fe4d	-0.2372982
132	0xbe6e91f5	-0.23297866
133	0xbe76116b	-0.24030082
134	0xbe6ff164	-0.23431927
135	0xbe773a8d	-0.24143429
136	0xbe76795d	-0.24069734
137	0xbe75b4e7	-0.2399479
138	0xbe79612b	-0.24353473
139	0xbe752f9d	-0.23943944
140	0xbe738440	-0.23780918
141	0xbe7582fa	-0.23975745
142	0xbe724e63	-0.23662715
143	0xbe743dd0	-0.23851705
144	0xbe81a922	-0.2532435
145	0xbe7599ed	-0.239845
146	0xbe799ed5	-0.24376996
147	0xbe7472cb	-0.23871915
148	0xbe7d4eff	-0.24737166
149	0xbe751423	-0.23933463
150	0xbe894b5e	-0.26815313
151	0xbe73a1e8	-0.23792231
152	0xbe7b9aa0	-0.24570704
153	0xbe73a9b8	-0.23795211
154	0xbe7e094e	-0.24808237
155	0xbe74d2df	-0.23908566
156	0xbe70887f	-0.23489569
157	0xbe78296e	-0.24234554
158	0xbe6ad29b	-0.22931902
159	0xbe79eac1	-0.24405958
160	0xbe6dbb8a	-0.23216072
161	0xbe75f210	-0.24018121
162	0xbe7b539f	-0.24543618
163	0xbe78a715	-0.24282487
164	0xbe744b9d	-0.23856969
165	0xbe65ca4d	-0.22440453
166	0xbe85fa8a	-0.2616771
167	0xbe709b53	-0.23496751
168	0xbe80410a	-0.2504962
169	0xbe746461	-0.23866417
170	0xbe4966de	-0.19668147
171	0xbe79acfc	-0.24382395
172	0xbe624230	-0.22095561
173	0xbe73690a	-0.23770538
174	0xbe5eb84c	-0.21749991
175	0xbe75e37b	-0.24012558
176	0xbe872857	-0.26397964
177	0xbe752d98	-0.23943174
178	0xbe85392a	-0.26020175
179	0xbe764a9b	-0.24051897
180	0xbe7af31b	-0.245068
181	0xbe7a330e	-0.24433538
182	0xbe5d8881	-0.21634103
183	0xbe778a12	-0.24173763
184	0xbe86a693	-0.2629896
185	0xbe76f24a	-0.24115863
186	0xbe7b72a9	-0.24555458
187	0xbe779d2f	-0.24181055
188	0xbe490db8	-0.1963414
189	0xbe7733be	-0.24140832
190	0xbe796bed	-0.24357577
191	0xbe79fcc5	-0.2441283
192	0xbe601f6b	-0.21886985
193	0xbe7337ca	-0.2375175
194	0xbe70ea85	-0.23526962
195	0xbe72fe4d	-0.2372982
196	0xbe6e91f7	-0.23297869
197	0xbe76116a	-0.2403008
198	0xbe6ff163	-0.23431925
199	0xbe773a90	-0.24143434
200	0xbe767961	-0.2406974
201	0xbe75b4e6	-0.23994789
202	0xbe79612c	-0.24353474
203	0xbe752f9b	-0.23943941
204	0xbe738441	-0.2378092
205	0xbe7582fa	-0.23975745
206	0xbe724e61	-0.23662712
207	0xbe743dcf	-0.23851703
208	0xbe81a922	-0.2532435
209	0xbe7599ed	-0.239845
210	0xbe799ed5	-0.24376996
211	0xbe7472c8	-0.2387191
212	0xbe7d4f01	-0.24737169
213	0xbe751423	-0.23933463
214	0xbe894b5c	-0.26815307
215	0xbe73a1ea	-0.23792234
216	0xbe7b9aa0	-0.24570704
217	0xbe73a9ba	-0.23795214
218	0xbe7e094e	-0.24808237
219	0xbe74d2de	-0.23908564
220	0xbe70887e	-0.23489568
221	0xbe78296f	-0.24234556
222	0xbe6ad297	-0.22931896
223	0xbe79eac3	-0.2440596
224	0xbe6dbb8a	-0.23216072
225	0xbe75f20f	-0.2401812
226	0xbe7b539e	-0.24543616
227	0xbe78a714	-0.24282485
228	0xbe744b9c	-0.23856968
229	0xbe65ca4d	-0.22440453
230	0xbe85fa8a	-0.2616771
231	0xbe709b52	-0.2349675
232	0xbe804109	-0.25049618
233	0xbe746461	-0.23866417
234	0xbe4966de	-0.19668147
235	0xbe79acfa	-0.24382392
236	0xbe62422f	-0.2209556
237	0xbe73690a	-0.23770538
238	0xbe5eb84c	-0.21749991
239	0xbe75e37a	-0.24012557
240	0xbe872857	-0.26397964
241	0xbe752d97	-0.23943172
242	0xbe85392a	-0.26020175
243	0xbe764a99	-0.24051894
244	0xbe7af31a	-0.24506798
245	0xbe7a330c	-0.24433535
246	0xbe5d8881	-0.21634103
247	0xbe778a10	-0.2417376
248	0xbe86a693	-0.2629896
249	0xbe76f24a	-0.24115863
250	0xbe7b72ac	-0.24555463
251	0xbe779d2d	-0.24181052
252	0xbe490db7	-0.19634138
253	0xbe7733bb	-0.24140827
254	0xbe796bed	-0.24357577
255	0xbe79fcc2	-0.24412826

transformer.layers.0.multihead_attn.in_proj_bias f4 [192]
0	0x3e73ed88	0.2382108
1	0xbe73ed88	-0.2382108
2	0x3e73ed87	0.23821078
3	0x3e73ed88	0.2382108
4	0x3e73ed86	0.23821077
5	0x3e73ed88	0.2382108
6	0x3e73ed8a	0.23821083
7	0x3e73ed88	0.2382108
8	0xbd1477a1	-0.0362469
9	0x3d1477a1	0.0362469
10	0xbd1477a1	-0.0362469
11	0xbd1477a1	-0.0362469
12	0xbd1477a1	-0.0362469
13	0x3d1477a1	0.0362469
14	0xbd1477a1	-0.0362469
15	0x3d1477a1	0.0362469
16	0x3e75e22f	0.24012063
17	0xbe75e22e	-0.24012062
18	0xbe75e22d	-0.2401206
19	0x3e75e22e	0.24012062
20	0x3e75e22e	0.24012062
21	0xbe75e22d	-0.2401206
22	0x3e75e22e	0.24012062
23	0xbe75e22d	-0.2401206
24	0xbd363716	-0.044486128
25	0xbd363717	-0.04448613
26	0xbd363715	-0.044486124
27	0xbd363717	-0.04448613
28	0x3d363714	0.04448612
29	0x3d363716	0.044486128
30	0x3d363715	0.044486124
31	0x3d363716	0.044486128
32	0xbdd1683e	-0.10224961
33	0x3dd16841	0.10224963
34	0xbdd16841	-0.10224963
35	0xbdd1683e	-0.10224961
36	0x3dd1683f	0.102249615
37	0x3dd16841	0.10224963
38	0xbdd1683f	-0.102249615
39	0xbdd16840	-0.10224962
40	0x3e6fd300	0.23420334
41	0x3e6fd300	0.23420334
42	0x3e6fd2ff	0.23420332
43	0xbe6fd300	-0.23420334
44	0x3e6fd300	0.23420334
45	0x3e6fd300	0.23420334
46	0xbe6fd2fe	-0.23420331
47	0xbe6fd300	-0.23420334
48	0xbcf9d0e3	-0.030495113
49	0xbcf9d0e7	-0.03049512
50	0xbcf9d0e5	-0.030495116
51	0xbcf9d0e9	-0.030495124
52	0xbcf9d0e5	-0.030495116
53	0xbcf9d0ec	-0.03049513
54	0xbcf9d0e7	-0.03049512
55	0x3cf9d0e7	0.03049512
56	0x3d37cd40	0.044873476
57	0xbd37cd41	-0.04487348
58	0x3d37cd41	0.04487348
59	0xbd37cd3f	-0.044873472
60	0x3d37cd41	0.04487348
61	0x3d37cd40	0.044873476
62	0xbd37cd41	-0.04487348
63	0x3d37cd40	0.044873476
64	0x3a8fb765	0.001096469
65	0xba8f4ec3	-0.0010933507
66	0x3a92672b	0.0011169662
67	0x3a8fa17b	0.0010958159
68	0x3a9020c3	0.0010996092
69	0x3a906bbb	0.0011018434
70	0x3a9156c3	0.0011088479
71	0x3a8f6f86	0.0010943271
72	0x37022779	7.757794e-06
73	0xb7019e5c	-7.72587e-06
74	0x37022350	7.756826e-06
75	0x3701dab1	7.739917e-06
76	0x37022e9d	7.759457e-06
77	0xb702040a	-7.749544e-06
78	0x37023909	7.761883e-06
79	0xb7025d61	-7.770345e-06
80	0x3aa6de80	0.0012731105
81	0xbaa911a7	-0.0012898938
82	0xbaaa5340	-0.0012994781
83	0x3aa76302	0.0012770595
84	0x3aa825d6	0.0012828659
85	0xbaa65512	-0.0012690148
86	0x3aa82692	0.0012828878
87	0xbaa8f3d7	-0.0012890053
88	0x3718900b	9.093444e-06
89	0x37195aba	9.140635e-06
90	0x3718fb0b	9.1183565e-06
91	0x37185640	9.079988e-06
92	0xb716bb8b	-8.9843625e-06
93	0xb71962cd	-9.1425145e-06
94	0xb718b79b	-9.102655e-06
95	0xb717e124	-9.052721e-06
96	0x3690587e	4.3018363e-06
97	0xb6a06463	-4.780058e-06
98	0x36b0def2	5.271163e-06
99	0x36967abd	4.484637e-06
100	0xb68914e0	-4.0853483e-06
101	0xb6989098	-4.546786e-06
102	0x369bf56b	4.6479304e-06
103	0x3694a70a	4.4301896e-06
104	0x3a84ebb1	0.0010141042
105	0x3a8697da	0.0010268644
106	0x3a87b230	0.0010352787
107	0xba86f10d	-0.0010295227
108	0x3a876929	0.0010331023
109	0x3a87ab63	0.001035076
110	0xba88fca5	-0.001045127
111	0xba87bb09	-0.0010355423
112	0x37057e97	7.956892e-06
113	0x37053775	7.94033e-06
114	0x3705f688	7.984818e-06
115	0x37053eb3	7.942016e-06
116	0x370627f4	7.996325e-06
117	0x3705ec91	7.982498e-06
118	0x37050a31	7.929791e-06
119	0xb705a3e7	-7.965579e-06
120	0xb7078234	-8.076942e-06
121	0x37053d11	7.941636e-06
122	0xb7080a16	-8.10858e-06
123	0x37087868	8.134266e-06
124	0xb7058c13	-7.960031e-06
125	0xb706c2a6	-8.0323425e-06
126	0x3706d557	8.036694e-06
127	0xb707fdbd	-8.105705e-06
128	0xb9baa4d2	-0.00035599485
129	0x381cfb38	3.7427264e-05
130	0xb9f393e1	-0.0004645875
131	0x3a7daed5	0.0009677236
132	0x382d7494	4.1354986e-05
133	0xba02f003	-0.0004994871
134	0xb989e6cf	-0.00026302642
135	0x38e8f743	0.00011108678
136	0x39e9e55d	0.00044612112
137	0xb94f6027	-0.00019776878
138	0x3a16cb3a	0.0005752329
139	0xba12a7e8	-0.0005594478
140	0xb9dac797	-0.00041728906
141	0x3931e8ab	0.00016966711
142	0xb82e6cdc	-4.1586216e-05
143	0xba9d7d0a	-0.0012015414
144	0x389ade47	7.3846946e-05
145	0x39f4e08e	0.00046706613
146	0x3a1ec86d	0.00060570874
147	0xb99c79ad	-0.00029845294
148	0x393482dc	0.00017214887
149	0xb9ba941c	-0.00035587035
150	0x396f3ebe	0.0002281619
151	0xb995b8e1	-0.0002855724
152	0xb95ac399	-0.00020862966
153	0xbb1d1822	-0.0023970683
154	0xb8bfecec	-9.15172e-05
155	0xba8af15f	-0.0010600499
156	0x39c40e72	0.00037394796
157	0xb9231933	-0.00015554279
158	0x3a9d686f	0.0012009273
159	0xb9b21908	-0.00033969455
160	0x388f299d	6.8265224e-05
161	0xba461bf2	-0.0007557265
162	0x3b592c2b	0.0033137898
163	0x3a2f1cb6	0.00066799985
164	0x3a04d01f	0.0005066413
165	0xba0605c9	-0.00051125564
166	0x388ab7a1	6.614556e-05
167	0xba98895f	-0.001163762
168	0xba18fbec	-0.0005835879
169	0x38200b59	3.815754e-05
170	0x38f6f820	0.00011776411
171	0xb9c27fd5	-0.00037097806
172	0x3a57037a	0.0008202117
173	0x38f6f5f4	0.000117760064
174	0x39a29915	0.00031013103
175	0xb81eec05	-3.7889946e-05
176	0x3a1ecb1a	0.0006057486
177	0x3a13b1ed	0.0005634118
178	0x37ec8d18	2.8199094e-05
179	0x3a219559	0.0006163917
180	0xba48c517	-0.0007658763
181	0xb92f1fc1	-0.0001670113
182	0x39cd5c38	0.00039169355
183	0x3a3c5155	0.000718375
184	0x38bc38a0	8.975086e-05
185	0x39b11271	0.0003377381
186	0x3a704992	0.0009166236
187	0xbb3b800c	-0.0028610257
188	0xb9359378	-0.00017316442
189	0x3984222f	0.0002520247
190	0x39b1da3f	0.00033922677
191	0xb9359a12	-0.00017318901
