decisionmaking/trained_models/env=claude_dim2_model=transformer_num_episodes1000000_num_hidden=8_lr0.0003_num_layers=2_d_model=64_num_head=8_noise0.0_shuffleTrue_pairedTrue_lossnll_ess9.4_std0.1_run=1_essinit0.001_annealed_schedulefree.pt (torch, 928558 bytes, 121 tensors)

embedding.weight f4 [64, 3]
000000 a3 91 2b 3a 28 8b 4c b9 75 7e 95 3d 88 18 c9 ba
       0.0006544834 -0.00019506796 0.072995104 -0.0015342394
000010 cc 07 f9 b9 b0 e1 9e bd ea 09 61 ba dc 6b 55 ba
       -0.0004749879 -0.0775789 -0.0008584546 -0.00081413775
000020 e2 75 92 bd d3 79 1d ba f7 6d dc b7 6f 2f a0 bd
       -0.071513906 -0.0006007228 -2.627725e-05 -0.07821547
000030 63 74 dd ba 45 1f 80 ba 20 aa 8d bd cc 4e 0e bb
       -0.0016895648 -0.0009774944 -0.069172144 -0.0021714447
000040 09 ad 46 ba b5 1e 98 bd 07 01 0b b8 1c 19 c9 39
       -0.0007578885 -0.07427732 -3.314114e-05 0.00038356415
000050 65 58 9f bd f7 a1 62 bb ab 8f 13 bb 88 18 91 bd
       -0.07780532 -0.0034581402 -0.0022516053 -0.07084757
000060 21 86 1b 3a 24 89 82 3a 02 6a a2 bd 19 7c 0a bb
       0.00059327675 0.0009959084 -0.07930376 -0.0021131097
000070 eb bc 98 ba 60 6c 9d bd 3a f4 d1 39 eb cf 7c 3a
       -0.0011652982 -0.076866865 0.0004004555 0.00096440193
000080 d4 01 a4 bd 2d ce 43 ba 63 f4 56 39 78 54 a4 bd
       -0.08008161 -0.0007469382 0.00020499672 -0.08023924
000090 01 cd 84 ba 3a f3 f8 b9 4c 56 9c 3d 7a ac f8 ba
       -0.0010131897 -0.00047483464 0.07633647 -0.00189723
0000a0 1d 3e e9 ba 96 92 a5 3d c2 b6 74 ba 49 66 99 b9
       -0.0017795 0.080846 -0.00093350944 -0.00029258642
0000b0 9a eb 9a 3d c3 a0 8e 38 ac 24 20 3a 27 c9 a4 bd
       0.07564469 6.801032e-05 0.000610898 -0.08046179
0000c0 65 17 27 3a be 99 6f 3a db 9f 9e bd 4d 8e 09 3a
       0.00063740305 0.0009140036 -0.07745334 0.000524734
0000d0 f1 bf 76 3a 1a af a4 bd 09 7e 4b 3a ba ce 88 3a
       0.0009412757 -0.080412105 0.0007762616 0.0010437586
0000e0 0e 14 9b bd 47 6e 5f 3a ea f0 85 3a a6 66 a5 bd
       -0.075721845 0.00085232075 0.0010218893 -0.08076219
0000f0 a3 f7 0e bb ad 16 04 bb 84 7a 63 3d e6 97 d7 ba
       -0.0021815083 -0.0020155117 0.055536762 -0.0016448468
000100 3b 26 d1 ba dd 6f a4 3d c4 73 81 b9 ec 6b fc 38
       -0.0015956828 0.08029149 -0.0002469105 0.000120363984
000110 94 b9 8b bd c9 84 14 3a 8e 80 93 3a de 37 a7 bd
       -0.068225056 0.00056655385 0.0011253522 -0.08164953
000120 03 89 67 3b 1a eb 36 3b 0a 87 74 3d f1 9d 35 3a
       0.0035329468 0.0027911128 0.059699096 0.0006928137
000130 54 78 92 3a 50 e2 a5 bd 09 93 e0 bb fb 9e a4 bb
       0.0011174777 -0.08099806 -0.0068534655 -0.0050238348
000140 60 a5 1e bd e3 be c6 39 81 01 2c 3a 3d fb a6 bd
       -0.038731933 0.00037907725 0.00065615034 -0.08153389
000150 b6 40 da 3a 08 96 92 3a 65 2d 56 bd 77 84 bf ba
       0.0016651365 0.0011183629 -0.052289385 -0.0014611621
000160 e5 77 ad ba 0f 20 a4 3d c8 99 60 ba 52 a9 4e ba
       -0.0013234584 0.08013927 -0.0008567837 -0.0007883507
000170 d8 14 41 bd b4 62 94 39 b5 e7 40 3a f3 d2 a7 bd
       -0.04713902 0.000283023 0.0007358746 -0.08194532
000180 0c a9 a7 3c 76 37 63 3c 15 6c 0e 3d f0 dd e5 39
       0.02046635 0.013868203 0.034771044 0.0004384364
000190 1f 80 3b 3a 9b e0 a4 bd e5 f5 a9 3b f2 86 41 3b
       0.00071525754 -0.080506526 0.0051867836 0.0029529897
0001a0 ce bf 09 bd bd 59 1a 3a 0e 5d 44 3a fe 32 a4 bd
       -0.033630185 0.0005888006 0.0007490673 -0.080175385
0001b0 b5 b0 bd ba 9b 85 00 bb f4 98 20 3d e1 db d9 39
       -0.0014472218 -0.0019610885 0.039208367 0.00041553288
0001c0 2a 02 6d 3a b5 6c a6 bd 1e 8e 95 3a 1e a9 af 39
       0.0009041155 -0.08126203 0.0011410152 0.00033504603
0001d0 87 2e 23 bd 79 83 ac b9 a9 1c 12 ba 02 28 a3 3d
       -0.039839294 -0.0003290435 -0.00055737287 0.07966615
0001e0 ab 6b 82 bd e2 8e 34 bd 33 84 46 bb 7d 78 ea ba
       -0.06368192 -0.044081576 -0.00302912 -0.0017888692
0001f0 b8 c1 d8 ba b1 43 a4 3d 69 9a d3 3b a3 a2 66 3b
       -0.0016537225 0.080207236 0.006457616 0.0035192154
000200 5d 7a 2f bd 02 20 c5 ba a4 19 d5 ba b7 54 a4 3d
       -0.042841304 -0.0015039446 -0.0016258252 0.080239706
000210 3d 19 48 bb 4d ad 23 bb 92 41 37 bd 57 de 13 3a
       -0.0030532621 -0.0024975121 -0.044740267 0.0005640736
000220 c7 72 5b 3a 50 47 a6 bd c1 f0 91 3d 55 94 60 3d
       0.000837129 -0.081190705 0.07125998 0.05482896
000230 51 de 66 bb a4 ac ab 39 66 79 4f 3a 34 33 a6 bd
       -0.0035227726 0.0003274429 0.0007914513 -0.08115235
000240 ca 14 88 bd 00 5f 44 bd e4 f4 29 bb 70 11 13 39
       -0.0664459 -0.04794216 -0.002593332 0.00014025508
000250 17 71 54 3a 36 49 a4 bd ce 5c 91 3d ab e3 60 3d
       0.000810401 -0.080217764 0.07097779 0.05490462
000260 47 73 51 bb 06 93 e6 39 04 d9 3d 3a 61 2a a6 bd
       -0.003195958 0.0004397856 0.00072421157 -0.08113552
000270 3c 28 8d bd d6 9f 4f bd d7 c2 43 3c a1 74 ec 39
       -0.0689244 -0.05068954 0.011948309 0.00045100323
000280 50 24 79 3a 97 10 a5 bd dc 1b b3 bb ef 1a 8c bb
       0.0009504007 -0.08059805 -0.0054659676 -0.0042756717
000290 f0 4e 29 bd bc 9e cf ba 56 37 c0 ba 3c 91 a6 3d
       -0.041335046 -0.0015840153 -0.0014664929 0.0813317
0002a0 e8 2e 92 3d 8f 00 63 3d 00 3f 70 bb 00 21 d1 ba
       0.07137853 0.055420455 -0.0036658645 -0.0015955269
0002b0 4e 6b ce ba 47 03 a5 3d a5 37 91 3d 42 c4 5f 3d
       -0.0015748532 0.08057266 0.070906915 0.054630525
0002c0 87 86 cc bb 03 eb a8 ba ce c6 a8 ba 3e a4 a3 3d
       -0.006241623 -0.0012887422 -0.0012876631 0.07990311
0002d0 0f ca 90 bd 09 ef 59 bd 93 59 c8 3b 72 d3 af ba
       -0.070697896 -0.053206477 0.0061141937 -0.0013414456
0002e0 d3 f4 9d ba 60 80 a3 3d 56 11 92 bd 9a 97 5c bd
       -0.0012051113 0.0798347 -0.07132213 -0.053855516
0002f0 fc be 9b 3b bd 30 a9 ba 1c 80 ab ba 56 2d a5 3d
       0.0047529917 -0.0012908202 -0.0013084444 0.08065288

embedding.bias f4 [64]
000000 15 26 14 3c 56 69 28 bc 5d 6a 2b 39 41 2d a6 bb
       0.009042283 -0.01027902 0.00016347454 -0.0050713127
000010 7c 24 04 3b f8 24 a1 bb 52 9d 9a 3b 8a 0a 74 bb
       0.0020163348 -0.004917737 0.004718461 -0.0037237727
000020 21 13 ee ba e4 47 c0 bb 86 fa 5d bb 5b b1 63 3c
       -0.001816366 -0.005867945 -0.0033871247 0.013897265
000030 dd 12 0e ba 31 c2 80 3b f5 13 a1 b9 58 3d 71 3b
       -0.0005419681 0.0039293994 -0.00030723182 0.0036810245
000040 d2 43 a0 ba 1f 83 ed ba 09 06 0b ba 26 f1 98 bb
       -0.0012227243 -0.0018120742 -0.00053033285 -0.004667419
000050 ee b2 06 bb 15 b2 d0 bb a1 9d 41 ba f4 3f 13 bc
       -0.0020553428 -0.0063688853 -0.0007385854 -0.008987416
000060 94 4c 0d bb bb fc 2a bc 92 b6 b6 ba 64 78 30 bc
       -0.0021560537 -0.010436232 -0.0013939908 -0.010770891
000070 cb 20 e8 37 5a ab dd bb 53 63 59 b9 ca e8 1d bc
       2.7671826e-05 -0.0067648115 -0.00020731734 -0.009638021
000080 83 92 e3 b9 54 67 2c bc 44 0d a6 39 f2 2c 18 bc
       -0.00043405974 -0.010522682 0.0003167187 -0.00928806
000090 bc 6a 22 ba 70 cd 29 bc 7c fd 7e 3a 91 81 14 bc
       -0.0006195714 -0.0103639215 0.0009727103 -0.009064094
0000a0 9b fe ea 3a ea f0 03 bc 14 e3 1f 3a 95 70 09 bc
       0.0017928662 -0.008053044 0.0006099206 -0.008388658
0000b0 86 c0 30 3a 78 04 1d bc f2 d2 cf 39 da 77 20 bc
       0.00067425554 -0.009583585 0.00039639283 -0.0097942
0000c0 f2 1f d8 3a 02 a9 3d bc 66 bc 20 39 82 e0 2c bc
       0.0016489013 -0.011575939 0.00015328973 -0.010551574
0000d0 4b 2c a9 39 2b 03 02 bc 85 c8 ec 39 39 3e fb bb
       0.00032267193 -0.007935326 0.00045162826 -0.0076673296
0000e0 90 8e 87 39 4e 8f f6 bb be ff 8f 39 a2 dd ed bb
       0.00025855424 -0.0075244075 0.00027465628 -0.0072590867
0000f0 f9 52 f2 39 04 de d5 bb bb 60 ae 39 ed c6 e3 bb
       0.00046219656 -0.0065267105 0.00033259936 -0.006951204

pos_encoder.pe f4 [1, 10, 64]
000000 00 00 00 00 00 00 80 3f 00 00 00 00 00 00 80 3f
       0.0 1.0 0.0 1.0
000010 00 00 00 00 00 00 80 3f 00 00 00 00 00 00 80 3f
       0.0 1.0 0.0 1.0
000020 00 00 00 00 00 00 80 3f 00 00 00 00 00 00 80 3f
       0.0 1.0 0.0 1.0
000030 00 00 00 00 00 00 80 3f 00 00 00 00 00 00 80 3f
       0.0 1.0 0.0 1.0
000040 00 00 00 00 00 00 80 3f 00 00 00 00 00 00 80 3f
       0.0 1.0 0.0 1.0
000050 00 00 00 00 00 00 80 3f 00 00 00 00 00 00 80 3f
       0.0 1.0 0.0 1.0
000060 00 00 00 00 00 00 80 3f 00 00 00 00 00 00 80 3f
       0.0 1.0 0.0 1.0
000070 00 00 00 00 00 00 80 3f 00 00 00 00 00 00 80 3f
       0.0 1.0 0.0 1.0
000080 00 00 00 00 00 00 80 3f 00 00 00 00 00 00 80 3f
       0.0 1.0 0.0 1.0
000090 00 00 00 00 00 00 80 3f 00 00 00 00 00 00 80 3f
       0.0 1.0 0.0 1.0
0000a0 00 00 00 00 00 00 80 3f 00 00 00 00 00 00 80 3f
       0.0 1.0 0.0 1.0
0000b0 00 00 00 00 00 00 80 3f 00 00 00 00 00 00 80 3f
       0.0 1.0 0.0 1.0
0000c0 00 00 00 00 00 00 80 3f 00 00 00 00 00 00 80 3f
       0.0 1.0 0.0 1.0
0000d0 00 00 00 00 00 00 80 3f 00 00 00 00 00 00 80 3f
       0.0 1.0 0.0 1.0
0000e0 00 00 00 00 00 00 80 3f 00 00 00 00 00 00 80 3f
       0.0 1.0 0.0 1.0
0000f0 00 00 00 00 00 00 80 3f 00 00 00 00 00 00 80 3f
       0.0 1.0 0.0 1.0
000100 a4 6a 57 3f 41 51 0a 3f ce 7a 2e 3f b0 54 3b 3f
       0.84147096 0.54030234 0.68156135 0.731761
000110 ba 7d 08 3f 0d 94 58 3f f0 90 d1 3e c7 92 69 3f
       0.53316844 0.8460091 0.4093089 0.9123959
000120 3e 39 9f 3e 6b 4e 73 3f 25 8f 70 3e f1 d5 78 3f
       0.3109836 0.9504153 0.23492105 0.9720145
000130 3a 23 35 3e 83 f6 7b 3f f3 25 08 3e 28 ba 7d 3f
       0.17689219 0.9842302 0.13295726 0.99112177
000140 76 75 cc 3d 98 b8 7e 3f 36 6f 99 3d d1 47 7f 3f
       0.099833414 0.9950042 0.07491915 0.9971896
000150 ae 36 66 3d 68 98 7f 3f fb ac 2c 3d bd c5 7f 3f
       0.05620449 0.9984193 0.042157155 0.999111
000160 5b 81 01 3d 3c df 7f 3f a5 3e c2 3c 93 ed 7f 3f
       0.031617504 0.99950004 0.023711512 0.99971884
000170 42 ab 91 3c a3 f5 7f 3f 49 7a 5a 3c 2c fa 7f 3f
       0.017781857 0.99984187 0.013334819 0.99991107
000180 57 d6 23 3c b9 fc 7f 3f 16 b9 f5 3b 28 fe 7f 3f
       0.009999833 0.99995 0.0074988706 0.99997187
000190 5a 44 b8 3b f7 fe 7f 3f 5a 2e 8a 3b 6b ff 7f 3f
       0.0056233825 0.9999842 0.0042169513 0.9999911
0001a0 1c 3e 4f 3b ac ff 7f 3f 03 69 1b 3b d1 ff 7f 3f
       0.0031622713 0.999995 0.0023713715 0.9999972
0001b0 20 15 e9 3a e6 ff 7f 3f 8b c9 ae 3a f1 ff 7f 3f
       0.0017782785 0.99999845 0.0013335211 0.9999991
0001c0 6d 12 83 3a f8 ff 7f 3f 89 94 44 3a fb ff 7f 3f
       0.0009999998 0.9999995 0.000749894 0.9999997
0001d0 13 6a 13 3a fd ff 7f 3f 21 17 dd 39 ff ff 7f 3f
       0.0005623411 0.9999998 0.00042169637 0.99999994
0001e0 61 cb a5 39 ff ff 7f 3f 0d a8 78 39 00 00 80 3f
       0.00031622782 0.99999994 0.00023713727 1.0
0001f0 53 77 3a 39 00 00 80 3f 6d d4 0b 39 00 00 80 3f
       0.00017782794 1.0 0.00013335208 1.0
000200 b7 c7 68 3f 33 11 d5 be d9 5a 7f 3f 53 4d 91 3d
       0.9092974 -0.41614684 0.99748 0.070948265
000210 0a f2 66 3f b2 e8 dc 3e 11 35 3f 3f 03 39 2a 3f
       0.9021307 0.43146282 0.7469035 0.6649324
000220 1b 54 17 3f ec 7b 4e 3f b5 d3 e9 3e 69 be 63 3f
       0.5911271 0.8065784 0.45669332 0.8896242
000230 f6 47 b2 3e a6 fa 6f 3f 82 f0 86 3e f5 f2 76 3f
       0.34820527 0.93741834 0.26355368 0.96464473
000240 f8 6f 4b 3e a5 e5 7a 3f d3 00 19 3e 4f 20 7d 3f
       0.19866931 0.9800666 0.1494172 0.98877424
000250 86 d9 e5 3d f3 61 7e 3f af 85 ac 3d 0e 17 7f 3f
       0.1122313 0.9936821 0.084239356 0.99644554
000260 c8 70 81 3d f9 7c 7f 3f aa 30 42 3d 4e b6 7f 3f
       0.063203394 0.9980007 0.04740969 0.9988755
000270 5c a5 11 3d 8e d6 7f 3f 50 75 da 3c b1 e8 7f 3f
       0.03555809 0.9993676 0.026667267 0.99964434
000280 3e d4 a3 3c e5 f2 7f 3f 51 b7 75 3c a1 f8 7f 3f
       0.019998666 0.9998 0.014997319 0.9998875
000290 9b 43 38 3c db fb 7f 3f 0a 2e 0a 3c ab fd 7f 3f
       0.011246587 0.99993676 0.008433828 0.9999644
0002a0 d8 3d cf 3b b1 fe 7f 3f e7 68 9b 3b 43 ff 7f 3f
       0.006324511 0.99998003 0.00474273 0.99998873
0002b0 08 15 69 3b 96 ff 7f 3f 80 c9 2e 3b c4 ff 7f 3f
       0.0035565514 0.9999937 0.0026670396 0.9999964
0002c0 68 12 03 3b df ff 7f 3f 85 94 c4 3a ed ff 7f 3f
       0.0019999985 0.99999803 0.0014997876 0.99999887
0002d0 12 6a 93 3a f5 ff 7f 3f 1f 17 5d 3a fa ff 7f 3f
       0.0011246821 0.99999934 0.0008433926 0.99999964
0002e0 60 cb 25 3a fd ff 7f 3f 0c a8 f8 39 fe ff 7f 3f
       0.0006324556 0.9999998 0.0004742745 0.9999999
0002f0 53 77 ba 39 ff ff 7f 3f 6d d4 8b 39 00 00 80 3f
       0.00035565588 0.99999994 0.00026670416 1.0
000300 c3 81 10 3e 26 70 7d bf de 3c 47 3f ce bf 20 bf
       0.14112 -0.9899925 0.7782725 -0.6279267
000310 d7 45 7e 3f ab 7f ed bd 63 21 74 3f 63 18 9a 3e
       0.9932532 -0.11596616 0.95363444 0.3009673
000320 c2 09 50 3f 58 2f 15 3f b7 24 27 3f a2 e7 41 3f
       0.8126489 0.58275366 0.652904 0.7574407
000330 6c 2f 02 3f 29 6d 5c 3f a7 68 c7 3e 37 c9 6b 3f
       0.5085361 0.86104065 0.3894703 0.92103904
000340 6c 4e 97 3e ef 90 74 3f e2 6d 64 3e 92 8c 79 3f
       0.2955202 0.9553365 0.22307542 0.9748012
000350 d7 ee 2b 3e 9e 5d 7c 3f 2c 33 01 3e 43 f4 7d 3f
       0.16790329 0.9858035 0.12617177 0.9920084
000360 c0 ff c1 3d 4f d9 7e 3f 06 93 91 3d 3a 5a 7f 3f
       0.094726086 0.99550337 0.071081206 0.9974705
000370 4e 69 5a 3d c3 a2 7f 3f c5 d1 23 3d 90 cb 7f 3f
       0.053323083 0.9985773 0.039994974 0.99919987
000380 1f b9 f5 3c 83 e2 7f 3f 47 47 b8 3c 6b ef 7f 3f
       0.0299955 0.99955004 0.022494925 0.999747
000390 c6 31 8a 3c ad f6 7f 3f 46 44 4f 3c c1 fa 7f 3f
       0.016869437 0.9998577 0.012650555 0.99991995
0003a0 0d 6e 1b 3c 0d fd 7f 3f 13 1d e9 3b 58 fe 7f 3f
       0.009486687 0.999955 0.0071140616 0.9999747
0003b0 a8 cf ae 3b 11 ff 7f 3f 13 17 83 3b 7a ff 7f 3f
       0.005334813 0.99998575 0.0040005534 0.999992
0003c0 92 9b 44 3b b5 ff 7f 3f 60 6f 13 3b d6 ff 7f 3f
       0.0029999954 0.9999955 0.0022496805 0.9999975
0003d0 17 1f dd 3a e8 ff 7f 3f 56 d1 a5 3a f3 ff 7f 3f
       0.0016870227 0.99999857 0.0012650888 0.9999992
0003e0 10 b1 78 3a f9 ff 7f 3f 09 7e 3a 3a fc ff 7f 3f
       0.00094868336 0.9999996 0.00071141176 0.99999976
0003f0 7e d9 0b 3a fe ff 7f 3f a4 be d1 39 ff ff 7f 3f
       0.0005334838 0.9999999 0.00040005625 0.99999994

transformer.layers.0.self_attn.in_proj_weight f4 [192, 64]
000000 0f d0 6a bd ce 36 60 3d 50 8f 8a 3c 8b 59 02 3d
       -0.057327326 0.054739766 0.01691404 0.031823676
000010 77 ce 58 bc 5e 61 8b 3d bf 2b 9b bd 0f b1 84 3d
       -0.013232819 0.06805681 -0.07576703 0.06479084
000020 37 aa 9d bd c2 77 17 3d 56 f4 9b bd 1b 7d 93 bd
       -0.076984815 0.036979444 -0.07614963 -0.07201596
000030 28 b4 9b bd 66 39 a1 bd 93 4a 9b bd bb 4b a0 bd
       -0.076027215 -0.07872276 -0.07582583 -0.078269444
000040 14 68 9a bd d1 aa 9f bd 13 dd 99 bd 8e 24 a0 bd
       -0.075393826 -0.077962525 -0.0751287 -0.07819472
000050 04 64 99 bd da 63 9f bd 57 65 98 bd d7 44 9f bd
       -0.074897796 -0.07782717 -0.07441204 -0.07776802
000060 30 09 99 bd 2c 21 9f bd 19 c5 96 bd 1d 18 9f bd
       -0.074724555 -0.07769999 -0.07361812 -0.07768271
000070 84 5d 94 bd 3d 2d 9f bd 70 94 91 bd ff 6c 9f bd
       -0.07244399 -0.077723004 -0.0710839 -0.07784461
000080 08 c3 94 bd bb 83 9f bd e2 83 89 bd f8 23 9f bd
       -0.07263762 -0.077887975 -0.06714608 -0.07770532
000090 b6 0a 94 bd 28 3a 9f bd d9 b6 21 bd 17 67 9f bd
       -0.072286054 -0.07774764 -0.039481018 -0.07783335
0000a0 01 59 07 bd a2 04 9f bd 0f a2 33 3d 6f fd 9e bd
       -0.033043865 -0.077645555 0.043855723 -0.07763182
0000b0 61 f5 6d 3d 71 b8 9f bd 01 9e 28 bc f1 1c 9f bd
       0.05809534 -0.07798851 -0.010291577 -0.07769192
0000c0 02 a1 3e bc b0 f7 9e bd 1d 78 7c bb 13 2d 9f bd
       -0.011635067 -0.077620864 -0.0038523742 -0.07772269
0000d0 27 61 8c bc bd ef 9e bd b3 e5 82 3d c5 3e 9f bd
       -0.01713617 -0.0776057 0.06391468 -0.07775644
0000e0 cf 6f cd 39 b4 58 9f bd 7d 48 77 3b d7 8b 9f bd
       0.0003918395 -0.07780591 0.0037732415 -0.07790344
0000f0 ad 6e 1b bc 35 27 9f bd 09 89 d7 bb 1c 1e 9f bd
       -0.009486836 -0.0777115 -0.006577615 -0.07769415
000100 10 d0 6a bd ce 36 60 3d 50 8f 8a 3c 8d 59 02 3d
       -0.05732733 0.054739766 0.01691404 0.031823684
000110 77 ce 58 bc 5f 61 8b 3d be 2b 9b bd 0f b1 84 3d
       -0.013232819 0.068056814 -0.075767025 0.06479084
000120 36 aa 9d bd c4 77 17 3d 55 f4 9b bd 1c 7d 93 bd
       -0.07698481 0.03697945 -0.07614962 -0.07201597
000130 28 b4 9b bd 64 39 a1 bd 91 4a 9b bd bc 4b a0 bd
       -0.076027215 -0.078722745 -0.07582582 -0.07826945
000140 11 68 9a bd d1 aa 9f bd 13 dd 99 bd 8f 24 a0 bd
       -0.0753938 -0.077962525 -0.0751287 -0.07819473
000150 05 64 99 bd d9 63 9f bd 58 65 98 bd d7 44 9f bd
       -0.0748978 -0.07782716 -0.07441205 -0.07776802
000160 30 09 99 bd 2e 21 9f bd 19 c5 96 bd 1c 18 9f bd
       -0.074724555 -0.077700004 -0.07361812 -0.077682704
000170 84 5d 94 bd 3e 2d 9f bd 70 94 91 bd 00 6d 9f bd
       -0.07244399 -0.07772301 -0.0710839 -0.07784462
000180 08 c3 94 bd bb 83 9f bd e2 83 89 bd f7 23 9f bd
       -0.07263762 -0.077887975 -0.06714608 -0.077705316
000190 b7 0a 94 bd 29 3a 9f bd d6 b6 21 bd 18 67 9f bd
       -0.07228606 -0.07774765 -0.039481007 -0.077833354
0001a0 01 59 07 bd a3 04 9f bd 11 a2 33 3d 6f fd 9e bd
       -0.033043865 -0.07764556 0.04385573 -0.07763182
0001b0 64 f5 6d 3d 71 b8 9f bd 00 9e 28 bc f0 1c 9f bd
       0.05809535 -0.07798851 -0.010291576 -0.07769191
0001c0 fa a0 3e bc b0 f7 9e bd 27 78 7c bb 12 2d 9f bd
       -0.0116350595 -0.077620864 -0.0038523765 -0.07772268
0001d0 25 61 8c bc bf ef 9e bd b4 e5 82 3d c4 3e 9f bd
       -0.017136166 -0.07760572 0.06391469 -0.077756435
0001e0 c8 6f cd 39 b5 58 9f bd 77 48 77 3b d6 8b 9f bd
       0.0003918393 -0.077805914 0.0037732401 -0.077903435
0001f0 ad 6e 1b bc 36 27 9f bd 13 89 d7 bb 1c 1e 9f bd
       -0.009486836 -0.07771151 -0.00657762 -0.07769415
000200 11 d0 6a 3d cf 36 60 bd 55 8f 8a bc 8a 59 02 bd
       0.057327334 -0.05473977 -0.01691405 -0.031823672
000210 78 ce 58 3c 5e 61 8b bd bf 2b 9b 3d 0f b1 84 bd
       0.01323282 -0.06805681 0.07576703 -0.06479084
000220 36 aa 9d 3d c1 77 17 bd 56 f4 9b 3d 19 7d 93 3d
       0.07698481 -0.03697944 0.07614963 0.07201595
000230 28 b4 9b 3d 61 39 a1 3d 91 4a 9b 3d bb 4b a0 3d
       0.076027215 0.07872272 0.07582582 0.078269444
000240 11 68 9a 3d d1 aa 9f 3d 13 dd 99 3d 8e 24 a0 3d
       0.0753938 0.077962525 0.0751287 0.07819472
000250 06 64 99 3d d9 63 9f 3d 58 65 98 3d d5 44 9f 3d
       0.07489781 0.07782716 0.07441205 0.077768005
000260 2f 09 99 3d 2f 21 9f 3d 19 c5 96 3d 1c 18 9f 3d
       0.07472455 0.07770001 0.07361812 0.077682704
000270 84 5d 94 3d 3e 2d 9f 3d 70 94 91 3d fe 6c 9f 3d
       0.07244399 0.07772301 0.0710839 0.077844605
000280 08 c3 94 3d bc 83 9f 3d e3 83 89 3d f8 23 9f 3d
       0.07263762 0.07788798 0.067146085 0.07770532
000290 b7 0a 94 3d 29 3a 9f 3d d7 b6 21 3d 16 67 9f 3d
       0.07228606 0.07774765 0.03948101 0.07783334
0002a0 01 59 07 3d a2 04 9f 3d 0e a2 33 bd 6f fd 9e 3d
       0.033043865 0.077645555 -0.04385572 0.07763182
0002b0 61 f5 6d bd 71 b8 9f 3d 03 9e 28 3c f2 1c 9f 3d
       -0.05809534 0.07798851 0.010291579 0.07769193
0002c0 01 a1 3e 3c b0 f7 9e 3d 1a 78 7c 3b 13 2d 9f 3d
       0.011635066 0.077620864 0.0038523735 0.07772269
0002d0 26 61 8c 3c bd ef 9e 3d b3 e5 82 bd c4 3e 9f 3d
       0.017136168 0.0776057 -0.06391468 0.077756435
0002e0 1a 70 cd b9 b2 58 9f 3d 79 48 77 bb d6 8b 9f 3d
       -0.0003918417 0.07780589 -0.0037732406 0.077903435
0002f0 b0 6e 1b 3c 36 27 9f 3d 10 89 d7 3b 1b 1e 9f 3d
       0.009486839 0.07771151 0.0065776184 0.07769414
000300 0f d0 6a bd cd 36 60 3d 51 8f 8a 3c 88 59 02 3d
       -0.057327326 0.054739762 0.016914042 0.031823665
000310 77 ce 58 bc 60 61 8b 3d bf 2b 9b bd 0e b1 84 3d
       -0.013232819 0.06805682 -0.07576703 0.06479083
000320 36 aa 9d bd c2 77 17 3d 57 f4 9b bd 1c 7d 93 bd
       -0.07698481 0.036979444 -0.076149635 -0.07201597
000330 28 b4 9b bd 66 39 a1 bd 92 4a 9b bd bc 4b a0 bd
       -0.076027215 -0.07872276 -0.075825825 -0.07826945
000340 11 68 9a bd d1 aa 9f bd 12 dd 99 bd 8f 24 a0 bd
       -0.0753938 -0.077962525 -0.07512869 -0.07819473
000350 05 64 99 bd d9 63 9f bd 58 65 98 bd d6 44 9f bd
       -0.0748978 -0.07782716 -0.07441205 -0.07776801
000360 2f 09 99 bd 2b 21 9f bd 18 c5 96 bd 1c 18 9f bd
       -0.07472455 -0.07769998 -0.073618114 -0.077682704
000370 84 5d 94 bd 3f 2d 9f bd 6f 94 91 bd 00 6d 9f bd
       -0.07244399 -0.07772302 -0.071083896 -0.07784462
000380 08 c3 94 bd bc 83 9f bd e3 83 89 bd f9 23 9f bd
       -0.07263762 -0.07788798 -0.067146085 -0.07770533
000390 b6 0a 94 bd 28 3a 9f bd d9 b6 21 bd 15 67 9f bd
       -0.072286054 -0.07774764 -0.039481018 -0.07783333
0003a0 02 59 07 bd a3 04 9f bd 0e a2 33 3d 70 fd 9e bd
       -0.03304387 -0.07764556 0.04385572 -0.07763183
0003b0 63 f5 6d 3d 70 b8 9f bd ff 9d 28 bc ef 1c 9f bd
       0.058095347 -0.077988505 -0.010291575 -0.077691905
0003c0 ff a0 3e bc b1 f7 9e bd 13 78 7c bb 11 2d 9f bd
       -0.011635064 -0.07762087 -0.0038523718 -0.077722676
0003d0 24 61 8c bc bd ef 9e bd b4 e5 82 3d c4 3e 9f bd
       -0.017136164 -0.0776057 0.06391469 -0.077756435
0003e0 bd 6f cd 39 b1 58 9f bd 7a 48 77 3b d7 8b 9f bd
       0.00039183898 -0.077805884 0.0037732408 -0.07790344
0003f0 a8 6e 1b bc 36 27 9f bd 07 89 d7 bb 1d 1e 9f bd
       -0.009486832 -0.07771151 -0.006577614 -0.077694155

transformer.layers.0.self_attn.in_proj_bias f4 [192]
000000 df cd 9f bd e0 cd 9f bd df cd 9f 3d e1 cd 9f bd
       -0.07802939 -0.078029394 0.07802939 -0.0780294
000010 e1 cd 9f bd e1 cd 9f bd e1 cd 9f bd e0 cd 9f bd
       -0.0780294 -0.0780294 -0.0780294 -0.078029394
000020 fd 15 9f 3d fd 15 9f 3d fd 15 9f bd fd 15 9f bd
       0.07767866 0.07767866 -0.07767866 -0.07767866
000030 fd 15 9f 3d fd 15 9f bd fd 15 9f bd fd 15 9f bd
       0.07767866 -0.07767866 -0.07767866 -0.07767866
000040 fe 9b 17 3d fd 9b 17 bd fc 9b 17 bd fb 9b 17 3d
       0.037014 -0.037013996 -0.037013993 0.03701399
000050 fb 9b 17 bd fe 9b 17 3d fc 9b 17 3d fe 9b 17 3d
       -0.03701399 0.037014 0.037013993 0.037014
000060 13 31 1b 3d 14 31 1b bd 14 31 1b bd 13 31 1b 3d
       0.037888598 -0.0378886 -0.0378886 0.037888598
000070 13 31 1b 3d 14 31 1b 3d 15 31 1b bd 13 31 1b bd
       0.037888598 0.0378886 -0.037888605 -0.037888598
000080 cf 00 9e 3d cf 00 9e bd cf 00 9e 3d cf 00 9e 3d
       0.07714998 -0.07714998 0.07714998 0.07714998
000090 cf 00 9e 3d cf 00 9e 3d cf 00 9e bd cf 00 9e 3d
       0.07714998 0.07714998 -0.07714998 0.07714998
0000a0 e6 1f 9f bd e5 1f 9f bd e4 1f 9f 3d e5 1f 9f bd
       -0.07769756 -0.07769755 0.077697545 -0.07769755
0000b0 e5 1f 9f 3d e6 1f 9f 3d e6 1f 9f bd e5 1f 9f bd
       0.07769755 0.07769756 -0.07769756 -0.07769755
0000c0 a9 c9 9e bd a9 c9 9e 3d a8 c9 9e 3d a9 c9 9e 3d
       -0.07753307 0.07753307 0.077533066 0.07753307
0000d0 a9 c9 9e 3d aa c9 9e bd a9 c9 9e 3d a9 c9 9e 3d
       0.07753307 -0.07753308 0.07753307 0.07753307
0000e0 8d bf 18 3d 8e bf 18 bd 90 bf 18 bd 8f bf 18 bd
       0.037292052 -0.037292056 -0.037292063 -0.03729206
0000f0 8f bf 18 bd 90 bf 18 bd 90 bf 18 bd 90 bf 18 3d
       -0.03729206 -0.037292063 -0.037292063 0.037292063
000100 4e 40 c9 b8 a9 83 ca b8 4e 0c c9 38 07 b4 c9 b8
       -9.5964046e-05 -9.656634e-05 9.586719e-05 -9.6179596e-05
000110 71 b9 c9 b8 c1 d1 c9 b8 6a 4e ca b8 91 80 c9 b8
       -9.618968e-05 -9.6234966e-05 -9.646716e-05 -9.608374e-05
000120 06 1e a3 38 e1 eb a1 38 ed ef a1 b8 92 2b a2 b8
       7.778038e-05 7.721014e-05 -7.721768e-05 -7.7328776e-05
000130 af d7 a2 38 1b fb a2 b8 92 dc a2 b8 72 6b a1 b8
       7.764936e-05 -7.771534e-05 -7.7658464e-05 -7.6970915e-05
000140 d5 53 4d 36 0f a8 4c b6 c0 f6 4c b6 a8 e7 4c 36
       3.0596177e-06 -3.0496192e-06 -3.0541996e-06 3.053321e-06
000150 57 ae 4c b6 45 cc 4b 36 c6 9a 4c 36 fd c1 4c 36
       -3.0499848e-06 3.0368258e-06 3.0488459e-06 3.0511285e-06
000160 aa b9 67 36 50 a3 67 b6 50 8f 67 b6 9b ab 68 36
       3.4529753e-06 -3.4516743e-06 -3.4505101e-06 3.4670581e-06
000170 05 6c 67 36 52 04 68 36 60 bf 67 b6 7e 42 67 b6
       3.4484558e-06 3.4573209e-06 -3.4533077e-06 -3.4460386e-06
000180 97 9c 98 38 64 2e 99 b8 23 d9 98 38 4a a2 99 38
       7.277092e-05 -7.3042494e-05 7.28837e-05 7.325837e-05
000190 94 30 99 38 87 a8 98 38 80 0f 99 b8 56 d7 98 38
       7.304657e-05 7.2793155e-05 -7.2984956e-05 7.288034e-05
0001a0 d9 73 c5 b8 c2 0d c6 b8 c2 16 c7 38 15 cc c5 b8
       -9.41527e-05 -9.443938e-05 9.4932984e-05 -9.431705e-05
0001b0 4b bc c7 38 e0 a3 c5 38 8f de c7 b8 82 f2 c5 b8
       9.524132e-05 9.424216e-05 -9.530514e-05 -9.4388626e-05
0001c0 a1 c1 98 b8 ad 6b 99 38 20 6c 99 38 5d 16 99 38
       -7.283991e-05 7.315665e-05 7.3157484e-05 7.299774e-05
0001d0 88 5c 99 38 6c cf 98 b8 90 b3 98 38 06 42 99 38
       7.312844e-05 -7.28656e-05 7.281371e-05 7.307906e-05
0001e0 3f 76 7d 36 f8 9e 7d b6 d5 78 7d b6 3a 37 7e b6
       3.7768766e-06 -3.779247e-06 -3.7770271e-06 -3.7881096e-06
0001f0 26 ce 7d b6 08 e1 7d b6 f6 35 7e b6 6e a0 7d 36
       -3.7819932e-06 -3.7830923e-06 -3.7880359e-06 3.779332e-06
000200 b3 35 d5 b9 c4 35 d5 39 b7 35 d5 b9 c6 35 d5 39
       -0.00040666535 0.00040666584 -0.00040666547 0.0004066659
000210 b4 35 d5 b9 b7 35 d5 b9 b8 35 d5 39 b9 35 d5 39
       -0.00040666538 -0.00040666547 0.0004066655 0.00040666552
000220 89 a8 12 3a 84 a8 12 ba 86 a8 12 ba 98 a8 12 3a
       0.00055945717 -0.0005594569 -0.000559457 0.00055945804
000230 7e a8 12 ba 86 a8 12 ba 83 a8 12 ba 88 a8 12 3a
       -0.00055945653 -0.000559457 -0.0005594568 0.0005594571
000240 50 97 b7 bc 51 97 b7 bc 50 97 b7 bc 52 97 b7 3c
       -0.022411019 -0.02241102 -0.022411019 0.022411022
000250 4f 97 b7 bc 50 97 b7 bc 4f 97 b7 bc 52 97 b7 bc
       -0.022411017 -0.022411019 -0.022411017 -0.022411022
000260 70 e4 c0 bc 72 e4 c0 bc 77 e4 c0 3c 73 e4 c0 bc
       -0.023546427 -0.023546431 0.02354644 -0.023546433
000270 6f e4 c0 3c 75 e4 c0 3c 6c e4 c0 bc 6f e4 c0 bc
       0.023546426 0.023546437 -0.02354642 -0.023546426
000280 6f 38 fb 39 67 38 fb b9 6d 38 fb 39 71 38 fb 39
       0.00047916497 -0.00047916474 0.0004791649 0.00047916503
000290 5b 38 fb 39 75 38 fb b9 77 38 fb b9 67 38 fb 39
       0.0004791644 -0.00047916514 -0.0004791652 0.00047916474
0002a0 c7 f5 b3 39 cb f5 b3 b9 c8 f5 b3 39 c5 f5 b3 b9
       0.0003432466 -0.0003432467 0.00034324662 -0.00034324653
0002b0 c8 f5 b3 b9 c5 f5 b3 b9 c7 f5 b3 39 c7 f5 b3 39
       -0.00034324662 -0.00034324653 0.0003432466 0.0003432466
0002c0 07 c7 11 3a 05 c7 11 ba 0a c7 11 ba 06 c7 11 ba
       0.00055609684 -0.0005560967 -0.000556097 -0.0005560968
0002d0 04 c7 11 ba 0f c7 11 ba 07 c7 11 ba 0d c7 11 ba
       -0.00055609667 -0.0005560973 -0.00055609684 -0.0005560972
0002e0 df 33 bf 3c d4 33 bf 3c d5 33 bf bc d8 33 bf 3c
       0.023340164 0.023340143 -0.023340145 0.02334015
0002f0 da 33 bf 3c dc 33 bf bc d8 33 bf 3c d4 33 bf bc
       0.023340154 -0.023340158 0.02334015 -0.023340143

transformer.layers.0.self_attn.out_proj.weight f4 [64, 64]
000000 4d 20 67 bd 4e 20 67 3d 4d 20 67 bd 4f 20 67 3d
       -0.05642729 0.056427293 -0.05642729 0.056427296
000010 4e 20 67 bd 4d 20 67 bd 4d 20 67 3d 4e 20 67 3d
       -0.056427293 -0.05642729 0.05642729 0.056427293
000020 19 07 24 3d 1b 07 24 bd 19 07 24 bd 1b 07 24 3d
       0.04004583 -0.04004584 -0.04004583 0.04004584
000030 1a 07 24 bd 1a 07 24 bd 1a 07 24 bd 19 07 24 3d
       -0.040045835 -0.040045835 -0.040045835 0.04004583
000040 b9 d8 bd bb bd d8 bd bb c1 d8 bd bb ba d8 bd 3b
       -0.0057936576 -0.0057936595 -0.0057936613 0.005793658
000050 c0 d8 bd bb bd d8 bd bb bd d8 bd bb bf d8 bd bb
       -0.005793661 -0.0057936595 -0.0057936595 -0.0057936604
000060 a1 05 be bb a4 05 be bb a3 05 be 3b a5 05 be bb
       -0.005799011 -0.0057990123 0.005799012 -0.0057990127
000070 a2 05 be 3b a6 05 be 3b a7 05 be bb a5 05 be bb
       0.0057990113 0.005799013 -0.0057990137 -0.0057990127
000080 14 26 1a 3d 16 26 1a bd 14 26 1a 3d 16 26 1a 3d
       0.03763397 -0.037633978 0.03763397 0.037633978
000090 13 26 1a 3d 13 26 1a bd 13 26 1a bd 13 26 1a 3d
       0.037633967 -0.037633967 -0.037633967 0.037633967
0000a0 f3 ca 62 3d f4 ca 62 bd f3 ca 62 3d f4 ca 62 bd
       0.05536933 -0.055369332 0.05536933 -0.055369332
0000b0 f4 ca 62 bd f0 ca 62 bd f5 ca 62 3d f3 ca 62 3d
       -0.055369332 -0.055369318 0.055369336 0.05536933
0000c0 35 13 20 3d 34 13 20 bd 37 13 20 bd 35 13 20 bd
       0.039080817 -0.039080814 -0.039080825 -0.039080817
0000d0 37 13 20 bd 37 13 20 bd 36 13 20 bd 35 13 20 bd
       -0.039080825 -0.039080825 -0.03908082 -0.039080817
0000e0 a1 e7 c0 3b a1 e7 c0 3b a0 e7 c0 bb a1 e7 c0 3b
       0.0058869873 0.0058869873 -0.005886987 0.0058869873
0000f0 9c e7 c0 3b a1 e7 c0 bb a3 e7 c0 3b a1 e7 c0 bb
       0.005886985 -0.0058869873 0.0058869882 -0.0058869873
000100 96 b0 62 bd 98 b0 62 3d 94 b0 62 bd 99 b0 62 3d
       -0.055344187 0.055344194 -0.05534418 0.055344198
000110 92 b0 62 bd 93 b0 62 bd 91 b0 62 3d 95 b0 62 3d
       -0.05534417 -0.055344176 0.055344168 0.055344183
000120 71 7e 3b 3d 71 7e 3b bd 71 7e 3b bd 72 7e 3b 3d
       0.04577488 -0.04577488 -0.04577488 0.045774885
000130 71 7e 3b bd 72 7e 3b bd 6f 7e 3b bd 70 7e 3b 3d
       -0.04577488 -0.045774885 -0.045774873 0.045774877
000140 3f 50 d2 bb 42 50 d2 bb 3d 50 d2 bb 42 50 d2 3b
       -0.0064182575 -0.006418259 -0.0064182566 0.006418259
000150 43 50 d2 bb 3e 50 d2 bb 3f 50 d2 bb 42 50 d2 bb
       -0.0064182593 -0.006418257 -0.0064182575 -0.006418259
000160 66 22 d7 bb 66 22 d7 bb 65 22 d7 3b 66 22 d7 bb
       -0.00656538 -0.00656538 0.0065653794 -0.00656538
000170 66 22 d7 3b 66 22 d7 3b 66 22 d7 bb 64 22 d7 bb
       0.00656538 0.00656538 -0.00656538 -0.006565379
000180 40 d6 32 3d 40 d6 32 bd 40 d6 32 3d 3f d6 32 3d
       0.043661356 -0.043661356 0.043661356 0.043661352
000190 3f d6 32 3d 3e d6 32 bd 3f d6 32 bd 3f d6 32 3d
       0.043661352 -0.04366135 -0.043661352 0.043661352
0001a0 7e 00 5d 3d 7c 00 5d bd 7c 00 5d 3d 7d 00 5d bd
       0.053955548 -0.05395554 0.05395554 -0.053955544
0001b0 7c 00 5d bd 80 00 5d bd 7e 00 5d 3d 7d 00 5d 3d
       -0.05395554 -0.053955555 0.053955548 0.053955544
0001c0 b2 da 39 3d b2 da 39 bd b2 da 39 bd b0 da 39 bd
       0.04537458 -0.04537458 -0.04537458 -0.045374572
0001d0 b0 da 39 bd b2 da 39 bd ae da 39 bd ad da 39 bd
       -0.045374572 -0.04537458 -0.045374565 -0.04537456
0001e0 a9 c0 d5 3b a8 c0 d5 3b ad c0 d5 bb ab c0 d5 3b
       0.006523211 0.0065232106 -0.006523213 0.006523212
0001f0 a7 c0 d5 3b aa c0 d5 bb ac c0 d5 3b a9 c0 d5 bb
       0.00652321 -0.0065232115 0.0065232124 -0.006523211
000200 d9 36 79 bd da 36 79 3d d9 36 79 bd d7 36 79 3d
       -0.060843322 0.060843326 -0.060843322 0.060843315
000210 db 36 79 bd db 36 79 bd db 36 79 3d d9 36 79 3d
       -0.06084333 -0.06084333 0.06084333 0.060843322
000220 f4 7b 51 3d f6 7b 51 bd f6 7b 51 bd f7 7b 51 3d
       0.0511436 -0.05114361 -0.05114361 0.051143613
000230 f6 7b 51 bd f3 7b 51 bd f4 7b 51 bd f2 7b 51 3d
       -0.05114361 -0.051143598 -0.0511436 0.051143594
000240 4f bb eb bb 4d bb eb bb 4d bb eb bb 52 bb eb 3b
       -0.00719396 -0.007193959 -0.007193959 0.007193961
000250 4d bb eb bb 50 bb eb bb 4f bb eb bb 50 bb eb bb
       -0.007193959 -0.0071939602 -0.00719396 -0.0071939602
000260 f0 b2 eb bb ee b2 eb bb ee b2 eb 3b ef b2 eb bb
       -0.007192962 -0.007192961 0.007192961 -0.0071929614
000270 ed b2 eb 3b ee b2 eb 3b ed b2 eb bb ea b2 eb bb
       0.0071929605 0.007192961 -0.0071929605 -0.007192959
000280 89 b9 4b 3d 8a b9 4b bd 88 b9 4b 3d 8a b9 4b 3d
       0.049737487 -0.04973749 0.049737483 0.04973749
000290 86 b9 4b 3d 89 b9 4b bd 89 b9 4b bd 86 b9 4b 3d
       0.049737476 -0.049737487 -0.049737487 0.049737476
0002a0 f5 1b 74 3d f6 1b 74 bd f4 1b 74 3d f5 1b 74 bd
       0.059596974 -0.059596978 0.05959697 -0.059596974
0002b0 f5 1b 74 bd f5 1b 74 bd f5 1b 74 3d f4 1b 74 3d
       -0.059596974 -0.059596974 0.059596974 0.05959697
0002c0 ec 5b 50 3d eb 5b 50 bd ec 5b 50 bd eb 5b 50 bd
       0.050868914 -0.05086891 -0.050868914 -0.05086891
0002d0 ea 5b 50 bd ee 5b 50 bd eb 5b 50 bd ea 5b 50 bd
       -0.050868906 -0.05086892 -0.05086891 -0.050868906
0002e0 5a c7 eb 3b 5d c7 eb 3b 5e c7 eb bb 53 c7 eb 3b
       0.0071953954 0.007195397 -0.0071953973 0.007195392
0002f0 59 c7 eb 3b 57 c7 eb bb 57 c7 eb 3b 5a c7 eb bb
       0.007195395 -0.007195394 0.007195394 -0.0071953954
000300 50 de 62 bd 53 de 62 3d 52 de 62 bd 56 de 62 3d
       -0.055387795 0.055387806 -0.055387802 0.055387817
000310 50 de 62 bd 51 de 62 bd 50 de 62 3d 50 de 62 3d
       -0.055387795 -0.0553878 0.055387795 0.055387795
000320 7b fa 3a 3d 7b fa 3a bd 7d fa 3a bd 7d fa 3a 3d
       0.045649033 -0.045649033 -0.04564904 0.04564904
000330 7b fa 3a bd 7d fa 3a bd 7c fa 3a bd 7a fa 3a 3d
       -0.045649033 -0.04564904 -0.045649037 0.04564903
000340 f7 83 02 bc f2 83 02 bc f2 83 02 bc f3 83 02 3c
       -0.007966033 -0.0079660285 -0.0079660285 0.007966029
000350 ef 83 02 bc f2 83 02 bc f7 83 02 bc f5 83 02 bc
       -0.007966026 -0.0079660285 -0.007966033 -0.007966031
000360 b0 cf 03 bc b0 cf 03 bc b4 cf 03 3c b1 cf 03 bc
       -0.008045122 -0.008045122 0.008045126 -0.008045123
000370 b4 cf 03 3c ae cf 03 3c ad cf 03 bc b3 cf 03 bc
       0.008045126 0.00804512 -0.008045119 -0.008045125
000380 50 95 31 3d 4f 95 31 bd 50 95 31 3d 4e 95 31 3d
       0.043355286 -0.043355282 0.043355286 0.04335528
000390 4f 95 31 3d 4f 95 31 bd 4f 95 31 bd 4c 95 31 3d
       0.043355282 -0.043355282 -0.043355282 0.04335527
0003a0 ae 32 5d 3d af 32 5d bd b1 32 5d 3d af 32 5d bd
       0.05400341 -0.054003414 0.05400342 -0.054003414
0003b0 b1 32 5d bd ae 32 5d bd b0 32 5d 3d af 32 5d 3d
       -0.05400342 -0.05400341 0.054003417 0.054003414
0003c0 75 4c 39 3d 75 4c 39 bd 74 4c 39 bd 74 4c 39 bd
       0.04523893 -0.04523893 -0.045238927 -0.045238927
0003d0 75 4c 39 bd 73 4c 39 bd 74 4c 39 bd 75 4c 39 bd
       -0.04523893 -0.045238923 -0.045238927 -0.04523893
0003e0 6b 18 03 3c 6a 18 03 3c 69 18 03 bc 6c 18 03 3c
       0.008001427 0.008001426 -0.008001425 0.008001428
0003f0 69 18 03 3c 6e 18 03 bc 6b 18 03 3c 6b 18 03 bc
       0.008001425 -0.00800143 0.008001427 -0.008001427

transformer.layers.0.self_attn.out_proj.bias f4 [64]
000000 af 03 a1 3b ee 67 c6 3b bf bc cb 3b ca 00 f9 3b
       0.004913769 0.00605487 0.0062175686 0.007598971
000010 54 62 30 3b bf 3c 56 3c b5 26 a2 bb 5d e5 61 3c
       0.0026914077 0.013076006 -0.004948462 0.013787595
000020 58 2a 18 bc ed 4e 18 3c e1 1f 26 bc f3 a3 b4 3a
       -0.009287439 0.009296161 -0.010139436 0.0013781771
000030 95 47 22 bc 59 b9 dd bb ac 1d 07 bc 20 ce 17 bc
       -0.009904762 -0.00676648 -0.00824682 -0.009265453
000040 8d e8 b0 bb c7 4a 41 bc 5a 24 80 bb 20 cf 58 bc
       -0.005398816 -0.011797613 -0.0039105834 -0.013232976
000050 f6 31 a8 b9 8a de 77 bc 81 c2 81 ba d1 59 68 bc
       -0.0003208068 -0.015128741 -0.0009899886 -0.01418157
000060 0a 20 21 39 e4 23 74 bc ab d3 3d 3a f0 4d 70 bc
       0.00015366092 -0.014901135 0.0007241319 -0.014667019
000070 f0 68 cf 39 0d fb 85 bc be 60 cf 39 c7 9f 74 bc
       0.000395603 -0.016355062 0.00039554195 -0.014930672
000080 dc fc c2 b8 00 35 70 bc 01 28 ce b9 84 9d 72 bc
       -9.2977396e-05 -0.014661074 -0.00039321187 -0.014808062
000090 30 91 47 3a d4 76 73 bc bf f6 59 39 3f e2 a4 bc
       0.0007612882 -0.014859874 0.00020786653 -0.020127414
0000a0 3b db 62 3a 32 9d 84 bc 56 e0 cb 39 19 70 84 bc
       0.00086538837 -0.016188238 0.0003888632 -0.016166734
0000b0 52 1c 0c 3a 97 2b 76 bc a1 e7 c8 39 e8 dd 72 bc
       0.0005344796 -0.015025041 0.0003831955 -0.014823414
0000c0 a7 cb a3 3a 05 fd 73 bc 70 53 b6 39 2c b8 71 bc
       0.0012496606 -0.0148918675 0.0003477591 -0.014753383
0000d0 b3 bd d2 38 df 12 79 bc d5 ab 36 3a 69 7a 83 bc
       0.000100489146 -0.015202253 0.0006968354 -0.01604958
0000e0 c9 fb 8f 39 31 0f 83 bc 70 ec de 39 7a d0 87 bc
       0.0002746268 -0.015998455 0.000425193 -0.016578902
0000f0 72 0d 3e 38 c9 b1 85 bc c1 d1 1b 39 ad ea 85 bc
       4.5312052e-05 -0.016320126 0.00014860091 -0.016347254

transformer.layers.0.multihead_attn.in_proj_weight f4 [192, 64]
000000 ae 5d df 3b be 5e d0 3b 4f 04 db 3b 85 8e d3 3b
       0.0068165874 0.0063589504 0.0066838632 0.0064561986
000010 4d d8 ea 3b b8 bd d4 3b 10 6d d8 3b 99 d3 d8 3b
       0.0071668983 0.006492343 0.006604798 0.0066170213
000020 2e d2 e0 3b da 69 d0 3b 50 21 ce 3b ce 8a de 3b
       0.006860993 0.0063602747 0.0062905923 0.006791449
000030 12 9c ce 3b 80 3e e1 3b cd b5 e5 3b dc 64 e3 3b
       0.006305226 0.0068739057 0.0070101977 0.0069395136
000040 cc 4b e6 3b 7b 63 db 3b bf 98 09 3c dc 7f d3 3b
       0.0070280787 0.0066952086 0.008398234 0.006454451
000050 1b 95 df 3b d1 a8 df 3b 88 ce f4 3b f5 d2 fa 3b
       0.0068231947 0.0068255444 0.0074709095 0.0076545426
000060 61 32 3d 3c 8f bb d7 3b c0 ba eb 3b d4 43 d4 3b
       0.011547656 0.006583638 0.007193893 0.0064778123
000070 e3 35 6d 3c 6c 5b db 3b af ca 09 3c c2 d1 c6 3b
       0.01447818 0.006694248 0.00841014 0.0060674855
000080 46 08 90 3c e9 37 dd 3b ce 56 64 3c 18 b9 dc 3b
       0.01758207 0.00675105 0.0139367115 0.006735932
000090 43 3f 03 3c 84 5c d6 3b 94 44 51 3c 2e df 0d 3c
       0.008010688 0.0065417904 0.012772698 0.008659167
0000a0 6e bb 4b 3c 7e b8 f1 3b 3a 46 83 3c f0 7b d4 3b
       0.012434823 0.0073767295 0.016024698 0.006484501
0000b0 06 65 0c 3c f7 a2 da 3b c1 32 d6 3b 4f 48 da 3b
       0.008569008 0.006672259 0.006536812 0.006661452
0000c0 0c 00 45 3c 5a ad c8 3b 37 07 dc 3b 43 5d dc 3b
       0.012023937 0.0061241807 0.0067147273 0.006724985
0000d0 4f 1d 5f 3c f4 82 da 3b 76 99 e5 3b 8a a5 e3 3b
       0.013617828 0.006668443 0.0070068194 0.006947224
0000e0 60 05 da 3b d3 11 da 3b 88 85 16 3c 87 bc d6 3b
       0.006653473 0.006654957 0.00918711 0.006553236
0000f0 8b 37 17 3c 79 e5 e2 3b 40 9c 15 3c 4c ce d4 3b
       0.009229551 0.006924328 0.009131491 0.006494319
000100 af 5d df 3b bd 5e d0 3b 4f 04 db 3b 87 8e d3 3b
       0.006816588 0.00635895 0.0066838632 0.0064561996
000110 4d d8 ea 3b b7 bd d4 3b 12 6d d8 3b 9a d3 d8 3b
       0.0071668983 0.0064923423 0.006604799 0.0066170217
000120 2f d2 e0 3b d9 69 d0 3b 50 21 ce 3b ce 8a de 3b
       0.0068609933 0.0063602743 0.0062905923 0.006791449
000130 12 9c ce 3b 80 3e e1 3b ca b5 e5 3b db 64 e3 3b
       0.006305226 0.0068739057 0.0070101963 0.006939513
000140 cc 4b e6 3b 7a 63 db 3b be 98 09 3c dc 7f d3 3b
       0.0070280787 0.006695208 0.008398233 0.006454451
000150 1a 95 df 3b cf a8 df 3b 88 ce f4 3b f3 d2 fa 3b
       0.006823194 0.0068255435 0.0074709095 0.0076545416
000160 61 32 3d 3c 90 bb d7 3b c0 ba eb 3b d4 43 d4 3b
       0.011547656 0.0065836385 0.007193893 0.0064778123
000170 e1 35 6d 3c 6c 5b db 3b af ca 09 3c c2 d1 c6 3b
       0.014478178 0.006694248 0.00841014 0.0060674855
000180 46 08 90 3c e9 37 dd 3b cd 56 64 3c 18 b9 dc 3b
       0.01758207 0.00675105 0.013936711 0.006735932
000190 43 3f 03 3c 83 5c d6 3b 93 44 51 3c 30 df 0d 3c
       0.008010688 0.00654179 0.012772697 0.008659169
0001a0 6e bb 4b 3c 7c b8 f1 3b 3b 46 83 3c f2 7b d4 3b
       0.012434823 0.0073767286 0.0160247 0.006484502
0001b0 06 65 0c 3c fa a2 da 3b bf 32 d6 3b 4f 48 da 3b
       0.008569008 0.0066722604 0.006536811 0.006661452
0001c0 0e 00 45 3c 5b ad c8 3b 38 07 dc 3b 42 5d dc 3b
       0.012023939 0.006124181 0.0067147277 0.0067249844
0001d0 4f 1d 5f 3c f2 82 da 3b 74 99 e5 3b 8e a5 e3 3b
       0.013617828 0.006668442 0.0070068184 0.006947226
0001e0 60 05 da 3b d6 11 da 3b 87 85 16 3c 86 bc d6 3b
       0.006653473 0.0066549582 0.009187109 0.0065532355
0001f0 8b 37 17 3c 7b e5 e2 3b 40 9c 15 3c 4a ce d4 3b
       0.009229551 0.006924329 0.009131491 0.006494318
000200 af 5d df 3b bd 5e d0 3b 4f 04 db 3b 86 8e d3 3b
       0.006816588 0.00635895 0.0066838632 0.006456199
000210 4d d8 ea 3b b9 bd d4 3b 12 6d d8 3b 9a d3 d8 3b
       0.0071668983 0.0064923433 0.006604799 0.0066170217
000220 2d d2 e0 3b d9 69 d0 3b 4e 21 ce 3b ce 8a de 3b
       0.0068609924 0.0063602743 0.0062905913 0.006791449
000230 11 9c ce 3b 7f 3e e1 3b c9 b5 e5 3b dc 64 e3 3b
       0.0063052257 0.006873905 0.007010196 0.0069395136
000240 cb 4b e6 3b 7b 63 db 3b bf 98 09 3c da 7f d3 3b
       0.007028078 0.0066952086 0.008398234 0.00645445
000250 1b 95 df 3b cf a8 df 3b 88 ce f4 3b f3 d2 fa 3b
       0.0068231947 0.0068255435 0.0074709095 0.0076545416
000260 61 32 3d 3c 90 bb d7 3b be ba eb 3b d2 43 d4 3b
       0.011547656 0.0065836385 0.0071938923 0.0064778114
000270 e4 35 6d 3c 6c 5b db 3b af ca 09 3c c2 d1 c6 3b
       0.014478181 0.006694248 0.00841014 0.0060674855
000280 48 08 90 3c e7 37 dd 3b ce 56 64 3c 18 b9 dc 3b
       0.017582074 0.006751049 0.0139367115 0.006735932
000290 42 3f 03 3c 82 5c d6 3b 93 44 51 3c 2f df 0d 3c
       0.008010687 0.0065417895 0.012772697 0.008659168
0002a0 6e bb 4b 3c 7e b8 f1 3b 3c 46 83 3c f1 7b d4 3b
       0.012434823 0.0073767295 0.016024701 0.0064845015
0002b0 05 65 0c 3c f8 a2 da 3b bf 32 d6 3b 50 48 da 3b
       0.008569007 0.0066722594 0.006536811 0.0066614524
0002c0 10 00 45 3c 5a ad c8 3b 37 07 dc 3b 43 5d dc 3b
       0.012023941 0.0061241807 0.0067147273 0.006724985
0002d0 51 1d 5f 3c f5 82 da 3b 73 99 e5 3b 8d a5 e3 3b
       0.013617829 0.0066684433 0.007006818 0.0069472254
0002e0 60 05 da 3b d4 11 da 3b 88 85 16 3c 87 bc d6 3b
       0.006653473 0.0066549573 0.00918711 0.006553236
0002f0 8c 37 17 3c 7b e5 e2 3b 3f 9c 15 3c 4b ce d4 3b
       0.009229552 0.006924329 0.00913149 0.0064943186
000300 af 5d df bb bd 5e d0 bb 4d 04 db bb 88 8e d3 bb
       -0.006816588 -0.00635895 -0.0066838623 -0.0064562
000310 4e d8 ea bb b6 bd d4 bb 10 6d d8 bb 9a d3 d8 bb
       -0.007166899 -0.006492342 -0.006604798 -0.0066170217
000320 2d d2 e0 bb da 69 d0 bb 50 21 ce bb ce 8a de bb
       -0.0068609924 -0.0063602747 -0.0062905923 -0.006791449
000330 12 9c ce bb 80 3e e1 bb cb b5 e5 bb db 64 e3 bb
       -0.006305226 -0.0068739057 -0.007010197 -0.006939513
000340 cc 4b e6 bb 79 63 db bb be 98 09 bc dc 7f d3 bb
       -0.0070280787 -0.0066952077 -0.008398233 -0.006454451
000350 1b 95 df bb cd a8 df bb 87 ce f4 bb f3 d2 fa bb
       -0.0068231947 -0.0068255425 -0.007470909 -0.0076545416
000360 60 32 3d bc 90 bb d7 bb bf ba eb bb d1 43 d4 bb
       -0.011547655 -0.0065836385 -0.0071938927 -0.006477811
000370 e2 35 6d bc 6d 5b db bb af ca 09 bc c2 d1 c6 bb
       -0.014478179 -0.0066942484 -0.00841014 -0.0060674855
000380 46 08 90 bc e7 37 dd bb cf 56 64 bc 18 b9 dc bb
       -0.01758207 -0.006751049 -0.013936712 -0.006735932
000390 43 3f 03 bc 81 5c d6 bb 92 44 51 bc 31 df 0d bc
       -0.008010688 -0.006541789 -0.012772696 -0.00865917
0003a0 6d bb 4b bc 80 b8 f1 bb 3c 46 83 bc f0 7b d4 bb
       -0.0124348225 -0.0073767304 -0.016024701 -0.006484501
0003b0 06 65 0c bc f8 a2 da bb be 32 d6 bb 4f 48 da bb
       -0.008569008 -0.0066722594 -0.0065368107 -0.006661452
0003c0 0c 00 45 bc 59 ad c8 bb 37 07 dc bb 43 5d dc bb
       -0.012023937 -0.0061241803 -0.0067147273 -0.006724985
0003d0 4f 1d 5f bc f3 82 da bb 75 99 e5 bb 8f a5 e3 bb
       -0.013617828 -0.0066684424 -0.007006819 -0.0069472264
0003e0 5f 05 da bb d3 11 da bb 88 85 16 bc 89 bc d6 bb
       -0.0066534723 -0.006654957 -0.00918711 -0.006553237
0003f0 89 37 17 bc 79 e5 e2 bb 3f 9c 15 bc 4a ce d4 bb
       -0.009229549 -0.006924328 -0.00913149 -0.006494318

transformer.layers.0.multihead_attn.in_proj_bias f4 [192]
000000 47 2d 4b bd 45 2d 4b bd 46 2d 4b bd 47 2d 4b 3d
       -0.049603727 -0.04960372 -0.049603723 0.049603727
000010 48 2d 4b bd 45 2d 4b 3d 46 2d 4b 3d 44 2d 4b bd
       -0.04960373 0.04960372 0.049603723 -0.049603716
000020 d3 ec 46 bd d2 ec 46 3d d3 ec 46 bd d4 ec 46 3d
       -0.048565697 0.048565693 -0.048565697 0.0485657
000030 d3 ec 46 3d d5 ec 46 3d d4 ec 46 3d d1 ec 46 bd
       0.048565697 0.048565704 0.0485657 -0.04856569
000040 1a 92 4d 3d 1a 92 4d bd 1a 92 4d bd 1a 92 4d bd
       0.05018816 -0.05018816 -0.05018816 -0.05018816
000050 1a 92 4d bd 1a 92 4d bd 1b 92 4d bd 1a 92 4d 3d
       -0.05018816 -0.05018816 -0.050188165 0.05018816
000060 58 95 4a 3d 58 95 4a bd 56 95 4a 3d 55 95 4a 3d
       0.04945883 -0.04945883 0.049458824 0.04945882
000070 56 95 4a 3d 58 95 4a 3d 55 95 4a bd 56 95 4a 3d
       0.049458824 0.04945883 -0.04945882 0.049458824
000080 d3 e9 52 3d d3 e9 52 bd d3 e9 52 bd d4 e9 52 bd
       0.051492523 -0.051492523 -0.051492523 -0.051492527
000090 d2 e9 52 3d d3 e9 52 3d d3 e9 52 bd d3 e9 52 bd
       0.05149252 0.051492523 -0.051492523 -0.051492523
0000a0 04 d9 4d bd 04 d9 4d bd 03 d9 4d bd 04 d9 4d bd
       -0.05025579 -0.05025579 -0.050255787 -0.05025579
0000b0 05 d9 4d bd 03 d9 4d 3d 03 d9 4d bd 05 d9 4d bd
       -0.050255794 0.050255787 -0.050255787 -0.050255794
0000c0 92 3c 50 bd 92 3c 50 bd 94 3c 50 bd 94 3c 50 bd
       -0.050839014 -0.050839014 -0.05083902 -0.05083902
0000d0 93 3c 50 bd 93 3c 50 3d 91 3c 50 bd 93 3c 50 3d
       -0.050839018 0.050839018 -0.05083901 0.050839018
0000e0 f8 f6 45 3d f9 f6 45 bd f8 f6 45 3d fa f6 45 3d
       0.04833123 -0.048331235 0.04833123 0.04833124
0000f0 f9 f6 45 3d f9 f6 45 bd f8 f6 45 3d f9 f6 45 3d
       0.048331235 -0.048331235 0.04833123 0.048331235
000100 41 73 99 b4 b5 10 99 b4 24 05 96 b4 43 f0 99 34
       -2.858233e-07 -2.8510627e-07 -2.7943418e-07 2.8673284e-07
000110 67 3e 99 b4 cf 99 9a 34 01 e3 98 34 9c dc 97 b4
       -2.8543874e-07 2.8796646e-07 2.8477373e-07 -2.8286456e-07
000120 33 ed 64 b4 ad 63 65 34 4a ae 66 b4 19 a3 66 34
       -2.1320447e-07 2.1363549e-07 -2.1483825e-07 2.1479754e-07
000130 11 db 66 34 ab ac 65 34 5f 2d 66 34 72 42 66 b4
       2.1500115e-07 2.1390103e-07 2.1436925e-07 -2.1444592e-07
000140 c4 ab 8d 34 15 8c 8d b4 25 62 8d b4 17 c8 8d b4
       2.6388273e-07 -2.636522e-07 -2.6334706e-07 -2.640888e-07
000150 59 c6 8c b4 8d a5 8d b4 90 7d 8c b4 29 22 8d 34
       -2.622135e-07 -2.638375e-07 -2.616839e-07 2.628815e-07
000160 e5 73 8e 34 39 8e 89 b4 c1 87 8a 34 79 bf 8b 34
       2.6533885e-07 -2.562172e-07 2.5803277e-07 2.6030082e-07
000170 97 cd 8b 34 85 e6 8d 34 8b 75 8b b4 7c 40 8b 34
       2.6040354e-07 2.6431022e-07 -2.597629e-07 2.5937686e-07
000180 8e 9e 91 34 a9 65 91 b4 31 98 92 b4 03 fe 8e b4
       2.7123718e-07 -2.7082322e-07 -2.7305353e-07 -2.663438e-07
000190 c6 53 8f 34 4f 22 8f 34 25 2b 92 b4 9d 8e 91 b4
       2.669678e-07 2.6660788e-07 -2.722601e-07 -2.711212e-07
0001a0 42 82 88 b4 fd f6 85 b4 d6 fa 87 b4 51 a9 86 b4
       -2.542675e-07 -2.4952888e-07 -2.5328217e-07 -2.508264e-07
0001b0 23 e3 86 b4 e1 83 87 34 3c 65 86 b4 4e 76 88 b4
       -2.512471e-07 2.5241664e-07 -2.5033103e-07 -2.5418052e-07
0001c0 80 c2 8a b4 c4 93 8a b4 63 7d 8b b4 92 ce 89 b4
       -2.584602e-07 -2.5812017e-07 -2.5981998e-07 -2.5668538e-07
0001d0 f5 a1 89 b4 cf 93 89 34 ee 96 8a b4 51 0b 8b 34
       -2.5636078e-07 2.5625783e-07 -2.581432e-07 2.5899e-07
0001e0 b2 10 83 34 87 ff 83 b4 62 05 83 34 21 c6 85 34
       2.44128e-07 -2.4586572e-07 2.4404568e-07 2.4917338e-07
0001f0 4c 49 83 34 c9 c6 82 b4 1a 87 83 34 05 45 82 34
       2.4453982e-07 -2.4359022e-07 2.449895e-07 2.4264605e-07
000200 13 c0 5c 39 de eb 21 ba 31 c0 5c 39 23 4a 21 ba
       0.00021052388 -0.00061768095 0.00021052432 -0.000615271
000210 ec 46 21 ba ee bf 5c 39 48 47 21 ba 0e c0 5c 39
       -0.0006152231 0.00021052334 -0.00061522843 0.00021052381
000220 81 40 2f 3a 24 ca 38 b9 74 3e 2f 3a f8 61 05 ba
       0.0006685332 -0.0001762291 0.00066850265 -0.0005088146
000230 d2 3e 2f ba 14 80 05 3a 44 ca 38 b9 42 ca 38 b9
       -0.0006685081 0.00050926325 -0.00017622957 -0.00017622954
000240 6d 60 1d ba bd d8 2f 3a 29 22 4a b9 fd 21 4a b9
       -0.0006003443 0.0006708017 -0.00019276947 -0.00019276883
000250 32 22 4a 39 ca d8 2f 3a 7b d0 1c 3a 19 22 4a 39
       0.0001927696 0.00067080243 0.0005981994 0.00019276924
000260 a4 38 6d 39 0e c7 24 ba c0 38 6d b9 b7 38 6d b9
       0.00022623182 -0.0006285765 -0.00022623222 -0.00022623209
000270 fb c6 24 ba da 61 32 ba db c7 24 ba 9e 38 6d b9
       -0.0006285754 -0.0006804742 -0.00062858843 -0.00022623173
000280 a0 b2 37 ba fa ee 6a 39 e8 ee 6a 39 a0 b2 37 3a
       -0.0007007513 0.00022405005 0.00022404979 0.0007007513
000290 02 ef 6a b9 f6 ee 6a b9 e8 ee 6a b9 ba 43 31 ba
       -0.00022405016 -0.00022404999 -0.00022404979 -0.0006762106
0002a0 5d 2c 35 3a 15 95 2f 39 92 a0 18 3a ff 94 2f b9
       0.00069112127 0.00016744838 0.00058222667 -0.00016744806
0002b0 20 95 2f 39 ff c1 18 ba 0a 95 2f b9 6a 2c 35 ba
       0.00016744854 -0.00058272475 -0.00016744822 -0.000691122
0002c0 13 26 31 ba 37 00 81 b9 18 26 31 3a ce 6b 30 ba
       -0.00067576877 -0.00024604957 0.00067576906 -0.00067299313
0002d0 3c 00 81 39 5b 00 81 b9 45 00 81 b9 50 00 81 39
       0.00024604972 -0.00024605062 -0.00024604998 0.0002460503
0002e0 0b e9 5c b9 05 e9 5c b9 ed 08 1c ba 75 78 13 3a
       -0.0002106765 -0.00021067642 -0.0005952258 0.00056255545
0002f0 9e 18 1c ba ea e8 5c b9 7e 60 1b ba 50 f6 1b ba
       -0.0005954596 -0.00021067602 -0.0005927159 -0.0005949484
