decisionmaking/trained_models/env=claude_dim2_model=transformer_num_episodes1000000_num_hidden=8_lr0.0003_num_layers=2_d_model=64_num_head=8_noise0.0_shuffleTrue_pairedTrue_lossnll_ess1.1_std0.1_run=1_essinit0.001_annealed.pt (torch, 942445 bytes, 121 tensors)

embedding.weight f4 [64, 3]
00000000: d89b a3bc d5e0 543d a871 763c 2dd3 e73c
00000010: 1d09 83bc 1c03 18be f10c 683c 9f70 acbc
00000020: 7f02 d93b 573e 013d b44c 3bbd b3de 09be
00000030: b46e 3a3c 3715 dfbb bc73 57bc 58fd 023d
00000040: 0ab5 08bd c5c2 27be 8530 233c 8fe8 ccbc
00000050: 89fb 473c 5091 be3c 7011 96bc 3ac9 5abe
00000060: ea3a 25bb f8ef fb39 9ec0 02bd a27a 863c
00000070: 04e6 7bbc 77ad 8cbe e018 febb 5739 463c
00000080: 7a6f 26bd d852 bf3b 5eba b6ba cf67 aabe
00000090: c974 93bb 4761 0d3c a74e 36bd 16c5 7c3b
000000a0: 9fa2 6abb b7b8 bebe 8b2c 0ebc 3aa4 943c
000000b0: e2cf 15bd 509f dc3a ea3f 213b 7e20 bdbe
000000c0: de45 513d 2da7 20be 1451 43bc 3fab d73c
000000d0: e63b 0fbd 388b 7e3e 88af 7cbd 9d90 3a3e
000000e0: 063d 603a 4abb 5cbb f5c7 3638 d9b4 bbbe
000000f0: 4be8 7c3b cc35 a73c fbe3 babc 79f3 bcba
00000100: da2a 243c 5fb1 adbe 213c 473d fd15 51be
00000110: fb61 4abc 5967 3abb 578d e43b 303d a0be
00000120: fffc c03b 38ef f13c 748f 42bc ca4d 38bb
00000130: 8d28 3e3c e9bb b5be 6fb1 3a3b 8c0a 313c
00000140: 8936 1abd 722f 44ba 49cf 713b daee a9be
00000150: d2bc 083d cd9a 85bd 4ba0 04bc 9f3c abbb
00000160: 8d11 4a3c dcd7 a9be 3515 3f3b 62a9 0dbc
00000170: 335a cdbe 83fa 273d 9f7e 5cbd 60c9 583e
00000180: ade9 b13c ba6f 7bbd 6f3e cf3e 3d59 04ba
00000190: a2c6 c53b 25cb a8be 83d9 d63d 0048 933d
000001a0: 2f37 873b 750e 18bb f109 d23b 6afa a4be
000001b0: 9386 b53d bc88 0f3d f4ce 83bb 84c0 0dbb
000001c0: ae36 d03a 7a1e b3be be94 c23d 32d5 7a3d
000001d0: f8d4 22bb 4124 03bc 8ea6 173c f29d a3be
000001e0: 2a4f 213e 1351 a63d a265 6bb9 31ad 0fbc
000001f0: 0c10 2a3c 2ba2 b0be 08f6 c5bd a0be 51bd
00000200: bdd6 b53a 4057 bbbb 53e1 f53b 8498 a8be
00000210: 9107 ebbc 509a 503e e29c f53b 6817 c43c
00000220: f4c9 23bd 08f9 573e c240 1dbe 58ce 9cbd
00000230: d44d 9eba e0d2 f1bb 37fd d03b 1289 babe
00000240: fa36 213e 0630 a93d eed3 843a 4370 98bb
00000250: af17 b23b 35d0 b7be 0196 95ba 9f7e d23a
00000260: 03ee d33e 54e1 ddbb 4fda 803b 811b aebe
00000270: 6705 833b 5666 65bb 2b2f d0be f94e f03c
00000280: 3e94 85bd c80f 3e3e 7a07 1bbe cf44 a6bd
00000290: d03b bfba 26c0 b1bb 3a73 153c bc38 b0be
000002a0: fa7b b63b 5351 3cbb 4ff0 cdbe 316c 0e3d
000002b0: 1cd7 5abd 911b 583e e72d d13d 0870 353d
000002c0: 4bdc e5ba d4fe d2bb ef5f 033c 17ae b9be
000002d0: 813f 233e 8bf7 a13d 57ab f339 f78c c4bb
000002e0: 9ce2 34bb acb5 b3be ef0c fcbc 550a 4f3e
000002f0: f941 063c d6dc c7bb 93f0 413c 8e26 aabe
-0.019971773 0.05197223 0.015041746 0.028298939 -0.015995556 -0.14844936 0.014163242 -0.021049796
0.006622612 0.031553593 -0.045727447 -0.1346386 0.011378933 -0.006807949 -0.013150152 0.03197989
-0.033375777 -0.16382892 0.009960298 -0.025013236 0.012205967 0.02326265 -0.018318862 -0.21365824
-0.0025212117 0.0004805324 -0.031921975 0.016415898 -0.015374664 -0.27476093 -0.00775443 0.012098632
-0.040633656 0.005838733 -0.001394104 -0.33282325 -0.004500006 0.00862915 -0.044508602 0.003856962
-0.0035802496 -0.372503 -0.008677612 0.018144716 -0.036575206 0.0016832147 0.0024604746 -0.36938852
0.05109202 -0.15688772 -0.011921186 0.026326774 -0.034969233 0.24857795 -0.061690837 0.18219228
0.0008554015 -0.003368097 4.3578406e-05 -0.36661413 0.0038590606 0.020411395 -0.022813788 -0.0014415822
0.010019982 -0.33924386 0.048641328 -0.20418544 -0.012352462 -0.0028442948 0.006974857 -0.31296682
0.0058895345 0.029533014 -0.011875022 -0.0028122538 0.011606348 -0.35494927 0.0028487106 0.010805737
-0.037649665 -0.00074838765 0.0036897233 -0.33190042 0.033383198 -0.065236665 -0.008094857 -0.0052257325
0.012333286 -0.331725 0.0029156927 -0.008646341 -0.4010788 0.04101039 -0.053831693 0.21170568
0.02171787 -0.061385848 0.4047732 -0.0005048698 0.0060356418 -0.32967487 0.10490706 0.07191467
0.0041264514 -0.0023201976 0.0064098765 -0.322223 0.088635586 0.03504251 -0.0040224735 -0.002162964
0.0015885436 -0.3498419 0.095010266 0.061238475 -0.0024846178 -0.008004249 0.009256018 -0.3195644
0.15752855 0.081209324 -0.00022449208 -0.008769319 0.010379802 -0.34498724 -0.09666067 -0.051207185
0.0013873201 -0.005717188 0.0075036674 -0.3292886 -0.028690131 0.20371366 0.0074955085 0.023936942
-0.03998752 0.21091092 -0.15356734 -0.076565444 -0.0012077638 -0.0073798746 0.006377842 -0.364327
0.15743628 0.08261113 0.0010133961 -0.0046520545 0.005434952 -0.35901037 -0.0011412502 0.0016059465
0.41392526 -0.006771246 0.0039322744 -0.3400536 0.0039984467 -0.0035003624 -0.40660986 0.029334532
-0.065224156 0.18560708 -0.15139571 -0.08118593 -0.0014589969 -0.005424517 0.00912171 -0.34418285
0.0055689784 -0.0028734996 -0.40222403 0.034771148 -0.0534278 0.21104266 0.10213833 0.044296294
-0.0017536966 -0.0064390693 0.008018478 -0.36265633 0.15942194 0.07908543 0.0004647623 -0.0059982496
-0.002760089 -0.35099542 -0.030767886 0.20218785 0.00819444 -0.0060993237 0.0118371425 -0.3323254

embedding.bias f4 [64]
00000000: d081 31bd 50df 16bd de92 2cbd 4242 57bd
00000010: 6b5f 3cbd c9ef adbd 47d2 1ebd 49f9 fabd
00000020: 1e67 24bd b5ef 11be 63e5 13bd 5e45 1abe
00000030: 9037 fbbc 83fc 32be 4b7f ddbc fc87 34be
00000040: 9c7c c0bc 49ea 1fbe c970 aebc 88f1 35be
00000050: e0d4 2bbc 6dd7 2ebe 9151 acbc 9f8e 21be
00000060: 09fd 9bbb 7993 35be 44b9 42bb 4c9a 22be
00000070: 0a09 83bb eb3c 25be 1c7b 0e3c 1bac 26be
00000080: aa14 c6bb 0639 22be db8b 1439 f636 30be
00000090: 9b73 7a3a 24b0 33be 7bb0 46bb 8140 20be
000000a0: 393a a339 c306 24be 8ebc 2d3a f0fa 2dbe
000000b0: f8a0 12bb fa46 13be b5c3 e53a 09b6 3ebe
000000c0: 7ee4 c73a 6ce8 3dbe 0762 a2bc 70a1 36be
000000d0: 8e79 c53c 53a3 27be a29c 173b 1722 24be
000000e0: d4cb c53c 472d 28be 0999 0c3b 8117 2ebe
000000f0: a1d1 98b9 c5e8 2abe 41fd ce3a dc3b 21be
-0.04333669 -0.03683406 -0.04213225 -0.052553423 -0.045989435 -0.08493001 -0.038774755 -0.122545786
-0.040137403 -0.14251597 -0.036107432 -0.15065524 -0.030666143 -0.17479138 -0.027038237 -0.17629999
-0.023496918 -0.15616716 -0.021294015 -0.17767918 -0.010487765 -0.17074366 -0.021034988 -0.15777062
-0.0047603888 -0.17732038 -0.0029712478 -0.15879172 -0.0039988803 -0.1613652 0.008696344 -0.1627659
-0.006044944 -0.15842065 0.0001416648 -0.17208466 0.000955397 -0.17547661 -0.0030317593 -0.15649606
0.00031133162 -0.16018204 0.0006627523 -0.16990256 -0.0022373777 -0.14382544 0.0017529639 -0.18624128
0.0015250591 -0.18545693 -0.019822134 -0.17835021 0.024105813 -0.16370897 0.0023134132 -0.16028629
0.024145044 -0.16423522 0.002145352 -0.17001154 -0.00029147885 -0.16690357 0.0015792028 -0.15745491

pos_encoder.pe f4 [1, 10, 64]
00000000: 0000 0000 0000 803f 0000 0000 0000 803f
00000010: 0000 0000 0000 803f 0000 0000 0000 803f
00000020: 0000 0000 0000 803f 0000 0000 0000 803f
00000030: 0000 0000 0000 803f 0000 0000 0000 803f
00000040: 0000 0000 0000 803f 0000 0000 0000 803f
00000050: 0000 0000 0000 803f 0000 0000 0000 803f
00000060: 0000 0000 0000 803f 0000 0000 0000 803f
00000070: 0000 0000 0000 803f 0000 0000 0000 803f
00000080: 0000 0000 0000 803f 0000 0000 0000 803f
00000090: 0000 0000 0000 803f 0000 0000 0000 803f
000000a0: 0000 0000 0000 803f 0000 0000 0000 803f
000000b0: 0000 0000 0000 803f 0000 0000 0000 803f
000000c0: 0000 0000 0000 803f 0000 0000 0000 803f
000000d0: 0000 0000 0000 803f 0000 0000 0000 803f
000000e0: 0000 0000 0000 803f 0000 0000 0000 803f
000000f0: 0000 0000 0000 803f 0000 0000 0000 803f
00000100: a46a 573f 4151 0a3f ce7a 2e3f b054 3b3f
00000110: ba7d 083f 0d94 583f f090 d13e c792 693f
00000120: 3e39 9f3e 6b4e 733f 258f 703e f1d5 783f
00000130: 3a23 353e 83f6 7b3f f325 083e 28ba 7d3f
00000140: 7675 cc3d 98b8 7e3f 366f 993d d147 7f3f
00000150: ae36 663d 6898 7f3f fbac 2c3d bdc5 7f3f
00000160: 5b81 013d 3cdf 7f3f a53e c23c 93ed 7f3f
00000170: 42ab 913c a3f5 7f3f 497a 5a3c 2cfa 7f3f
00000180: 57d6 233c b9fc 7f3f 16b9 f53b 28fe 7f3f
00000190: 5a44 b83b f7fe 7f3f 5a2e 8a3b 6bff 7f3f
000001a0: 1c3e 4f3b acff 7f3f 0369 1b3b d1ff 7f3f
000001b0: 2015 e93a e6ff 7f3f 8bc9 ae3a f1ff 7f3f
000001c0: 6d12 833a f8ff 7f3f 8994 443a fbff 7f3f
000001d0: 136a 133a fdff 7f3f 2117 dd39 ffff 7f3f
000001e0: 61cb a539 ffff 7f3f 0da8 7839 0000 803f
000001f0: 5377 3a39 0000 803f 6dd4 0b39 0000 803f
00000200: b7c7 683f 3311 d5be d95a 7f3f 534d 913d
00000210: 0af2 663f b2e8 dc3e 1135 3f3f 0339 2a3f
00000220: 1b54 173f ec7b 4e3f b5d3 e93e 69be 633f
00000230: f647 b23e a6fa 6f3f 82f0 863e f5f2 763f
00000240: f86f 4b3e a5e5 7a3f d300 193e 4f20 7d3f
00000250: 86d9 e53d f361 7e3f af85 ac3d 0e17 7f3f
00000260: c870 813d f97c 7f3f aa30 423d 4eb6 7f3f
00000270: 5ca5 113d 8ed6 7f3f 5075 da3c b1e8 7f3f
00000280: 3ed4 a33c e5f2 7f3f 51b7 753c a1f8 7f3f
00000290: 9b43 383c dbfb 7f3f 0a2e 0a3c abfd 7f3f
000002a0: d83d cf3b b1fe 7f3f e768 9b3b 43ff 7f3f
000002b0: 0815 693b 96ff 7f3f 80c9 2e3b c4ff 7f3f
000002c0: 6812 033b dfff 7f3f 8594 c43a edff 7f3f
000002d0: 126a 933a f5ff 7f3f 1f17 5d3a faff 7f3f
000002e0: 60cb 253a fdff 7f3f 0ca8 f839 feff 7f3f
000002f0: 5377 ba39 ffff 7f3f 6dd4 8b39 0000 803f
00000300: c381 103e 2670 7dbf de3c 473f cebf 20bf
00000310: d745 7e3f ab7f edbd 6321 743f 6318 9a3e
00000320: c209 503f 582f 153f b724 273f a2e7 413f
00000330: 6c2f 023f 296d 5c3f a768 c73e 37c9 6b3f
00000340: 6c4e 973e ef90 743f e26d 643e 928c 793f
00000350: d7ee 2b3e 9e5d 7c3f 2c33 013e 43f4 7d3f
00000360: c0ff c13d 4fd9 7e3f 0693 913d 3a5a 7f3f
00000370: 4e69 5a3d c3a2 7f3f c5d1 233d 90cb 7f3f
00000380: 1fb9 f53c 83e2 7f3f 4747 b83c 6bef 7f3f
00000390: c631 8a3c adf6 7f3f 4644 4f3c c1fa 7f3f
000003a0: 0d6e 1b3c 0dfd 7f3f 131d e93b 58fe 7f3f
000003b0: a8cf ae3b 11ff 7f3f 1317 833b 7aff 7f3f
000003c0: 929b 443b b5ff 7f3f 606f 133b d6ff 7f3f
000003d0: 171f dd3a e8ff 7f3f 56d1 a53a f3ff 7f3f
000003e0: 10b1 783a f9ff 7f3f 097e 3a3a fcff 7f3f
000003f0: 7ed9 0b3a feff 7f3f a4be d139 ffff 7f3f
0.0 1.0 0.0 1.0 0.0 1.0 0.0 1.0
0.0 1.0 0.0 1.0 0.0 1.0 0.0 1.0
0.0 1.0 0.0 1.0 0.0 1.0 0.0 1.0
0.0 1.0 0.0 1.0 0.0 1.0 0.0 1.0
0.0 1.0 0.0 1.0 0.0 1.0 0.0 1.0
0.0 1.0 0.0 1.0 0.0 1.0 0.0 1.0
0.0 1.0 0.0 1.0 0.0 1.0 0.0 1.0
0.0 1.0 0.0 1.0 0.0 1.0 0.0 1.0
0.84147096 0.54030234 0.68156135 0.731761 0.53316844 0.8460091 0.4093089 0.9123959
0.3109836 0.9504153 0.23492105 0.9720145 0.17689219 0.9842302 0.13295726 0.99112177
0.099833414 0.9950042 0.07491915 0.9971896 0.05620449 0.9984193 0.042157155 0.999111
0.031617504 0.99950004 0.023711512 0.99971884 0.017781857 0.99984187 0.013334819 0.99991107
0.009999833 0.99995 0.0074988706 0.99997187 0.0056233825 0.9999842 0.0042169513 0.9999911
0.0031622713 0.999995 0.0023713715 0.9999972 0.0017782785 0.99999845 0.0013335211 0.9999991
0.0009999998 0.9999995 0.000749894 0.9999997 0.0005623411 0.9999998 0.00042169637 0.99999994
0.00031622782 0.99999994 0.00023713727 1.0 0.00017782794 1.0 0.00013335208 1.0
0.9092974 -0.41614684 0.99748 0.070948265 0.9021307 0.43146282 0.7469035 0.6649324
0.5911271 0.8065784 0.45669332 0.8896242 0.34820527 0.93741834 0.26355368 0.96464473
0.19866931 0.9800666 0.1494172 0.98877424 0.1122313 0.9936821 0.084239356 0.99644554
0.063203394 0.9980007 0.04740969 0.9988755 0.03555809 0.9993676 0.026667267 0.99964434
0.019998666 0.9998 0.014997319 0.9998875 0.011246587 0.99993676 0.008433828 0.9999644
0.006324511 0.99998003 0.00474273 0.99998873 0.0035565514 0.9999937 0.0026670396 0.9999964
0.0019999985 0.99999803 0.0014997876 0.99999887 0.0011246821 0.99999934 0.0008433926 0.99999964
0.0006324556 0.9999998 0.0004742745 0.9999999 0.00035565588 0.99999994 0.00026670416 1.0
0.14112 -0.9899925 0.7782725 -0.6279267 0.9932532 -0.11596616 0.95363444 0.3009673
0.8126489 0.58275366 0.652904 0.7574407 0.5085361 0.86104065 0.3894703 0.92103904
0.2955202 0.9553365 0.22307542 0.9748012 0.16790329 0.9858035 0.12617177 0.9920084
0.094726086 0.99550337 0.071081206 0.9974705 0.053323083 0.9985773 0.039994974 0.99919987
0.0299955 0.99955004 0.022494925 0.999747 0.016869437 0.9998577 0.012650555 0.99991995
0.009486687 0.999955 0.0071140616 0.9999747 0.005334813 0.99998575 0.0040005534 0.999992
0.0029999954 0.9999955 0.0022496805 0.9999975 0.0016870227 0.99999857 0.0012650888 0.9999992
0.00094868336 0.9999996 0.00071141176 0.99999976 0.0005334838 0.9999999 0.00040005625 0.99999994

transformer.layers.0.self_attn.in_proj_weight f4 [192, 64]
00000000: 11fa c1bc 6e59 efbc 252a 93bd 3c15 2bbd
00000010: 23eb 8abd cf03 d1bd 7c02 fcbc cf7b 04be
00000020: 119f 3cbc 105c 21be 2e72 ec39 f202 3cbe
00000030: 10e0 0abb d293 41be 164d a23b 3b00 29be
00000040: 26de fe3b d546 aebb dc5d be3c 3853 0cbe
00000050: e3e7 9c3b 1de8 f5bd 3a11 cfbb 7b00 dbbd
00000060: 042d e93b 4331 f3bd 84c0 39bd 800a e5bd
00000070: e024 46bc f934 dcbd ac5b 4bbe 1896 2fbc
00000080: 9820 1d3e d954 e4bd de65 a939 7fca ddbd
00000090: 8f56 6abc fe27 e6bd 80c6 c3bb 0e6b d9bd
000000a0: e5e7 e4bb a142 e0bd e390 a13c cada d6bd
000000b0: 10bd 373c a112 40bc 94d6 2d3c b5d5 f1bd
000000c0: f118 2bbc dd92 f6bd 3747 3a3e 6ac0 e1bd
000000d0: 5bb4 39be 8af2 82bc d1d2 323c 5117 e2bd
000000e0: da39 39be 6f5b 4dbc 737a 54bc 7055 e7bd
000000f0: 63c0 6abc 4712 f0bd ef72 833c 1783 e1bd
00000100: b8fc 2a3d 872e dfbd e88b d13c febd eabd
00000110: b34b 5b3d a152 36be 0f67 1a3e 01d0 46be
00000120: 82a0 413e 3e32 29be 8d7c 533e 2d8a c1bd
00000130: 4093 533e 23dd 0fbd c503 593e 2148 ac3c
00000140: b6cb 433e 00bb 533e c7bc 333e 9ba9 893d
00000150: 64da 543e 7776 ae3d e9ae c13d 745b d93d
00000160: ea5e 553e 4bbc b43d 89f9 003e 47b1 c63d
00000170: be1a e13d 3756 d43d 5e98 abbe 4dca 563e
00000180: 21cc ae3e 36a8 c83d 5805 0a3d 296f cc3d
00000190: cc2a 813c e42a c93d aa08 d63b 5b02 d03d
000001a0: 9e87 bc3b b149 d43d d0e3 fc3c 5d7a d33d
000001b0: af0a 543c 270d 5b3e 6534 613c a5b2 b83d
000001c0: eb78 e1bb 8283 b03d 9f92 ad3e 4234 c63d
000001d0: bc38 afbe 26e5 553e 682a 3e3c 5aaa c53d
000001e0: ec32 acbe c25e 573e a457 54bc d0b4 b63d
000001f0: a817 febb 8928 bb3d ad6d bb3c b610 ca3d
00000200: 1dc6 c23c 1b31 ee3c 286e 933d ab88 2a3d
00000210: 2f40 8b3d 56a7 d03d 003f fe3c e849 043e
00000220: ab67 413c 1a3c 213e ea68 24b9 5f0f 3c3e
00000230: 3cd5 1d3b 08c2 413e 30d7 98bb 3e3f 293e
00000240: 4464 f6bb c649 ba3b 705e bcbc 6098 0c3e
00000250: c788 93bb 7176 f63d 46cb d33b ad98 db3d
00000260: d58c dfbb 87bf f33d 7391 3a3d 039c e53d
00000270: 53e5 483c 89c9 dc3d 7303 4b3e 7785 353c
00000280: 37b9 1cbe e9e5 e43d 5e6c 89b9 2b5c de3d
00000290: 1919 6b3c dfb9 e63d be6e c43b 0efd d93d
000002a0: 1888 e53b 95d6 e03d 8350 a1bc 136e d73d
000002b0: 0592 37bc 8d29 463c daa7 2dbc ce62 f23d
000002c0: a41d 2b3c 7a1e f73d 0eeb 39be d94f e23d
000002d0: a857 393e b1f0 853c 15b5 32bc bda7 e23d
000002e0: 61df 383e bf60 533c a25f 543c 82e0 e73d
000002f0: 5bd2 6a3c dca0 f03d 8047 83bc f813 e23d
00000300: 0340 c23c fcf3 ee3c 7641 933d d2e4 2a3d
00000310: 4408 8b3d 0ce4 d03d 1ec7 fc3c 966a 043e
00000320: ca42 3e3c 2651 213e d690 b7b9 2007 3c3e
00000330: e75f 113b 94a3 413e ac0e 9fbb cd15 293e
00000340: ecf5 fbbb c664 b23b 7cae bdbc 106b 0c3e
00000350: 1bb1 99bb ca18 f63d e4af d03b a134 db3d
00000360: 69e0 e5bb e761 f33d 3008 3a3d 3c3c e53d
00000370: 5716 473c d467 dc3d 933d 4b3e eb9e 313c
00000380: d9fc 1cbe 8286 e43d be6f 9eb9 63fc dd3d
00000390: 0b99 6a3c 245a e63d 0e00 c43b f79c d93d
000003a0: e51e e53b 5575 e03d eb7a a1bc 370d d73d
000003b0: 6dae 37bc 1129 423c 59c6 2dbc 2506 f23d
000003c0: 871a 2b3c 8ec2 f63d 8627 3abe b9f1 e13d
000003d0: 7794 393e 32f9 833c c4c8 32bc f248 e23d
000003e0: e71a 393e fb6b 4f3c 7671 543c 6585 e73d
000003f0: 62c6 6a3c 3243 f03d 1c64 83bc e7b4 e13d
-0.023678811 -0.029217448 -0.07185773 -0.041768298 -0.0678313 -0.102058046 -0.030762903 -0.12937854
-0.011512534 -0.15757775 0.00045098498 -0.18360499 -0.002119068 -0.18904045 0.004953037 -0.16503994
0.007777947 -0.0053185024 0.023238115 -0.1370362 0.0047883852 -0.12007163 -0.0063191922 -0.10693451
0.007115962 -0.1187463 -0.045349613 -0.11183643 -0.012093753 -0.10752291 -0.19859189 -0.0107169375
0.15344465 -0.11148996 0.0003231009 -0.10829639 -0.014302864 -0.11238097 -0.005974591 -0.10616122
-0.006985652 -0.109502085 0.019722408 -0.104909495 0.01121451 -0.0117231915 0.010610241 -0.118083395
-0.010442958 -0.12039731 0.18191229 -0.11023028 -0.18135206 -0.015984792 0.01091452 -0.110396035
-0.18088475 -0.0125340065 -0.012968647 -0.11295593 -0.014328095 -0.11722236 0.016046016 -0.110113315
0.041744918 -0.10897546 0.025579408 -0.114620194 0.05353899 -0.17804958 0.15078376 -0.19415285
0.18908885 -0.16523072 0.20652981 -0.09450183 0.2066164 -0.035123 0.21192844 0.021030487
0.19120678 0.20676804 0.17552482 0.06721803 0.20786434 0.08518689 0.094571896 0.106131464
0.20836988 0.088249765 0.1259519 0.09701782 0.10991429 0.10368007 -0.33514684 0.20975609
0.34140113 0.09797709 0.033696502 0.099821396 0.015767477 0.09822634 0.0065317946 0.10156699
0.0057534715 0.10365618 0.030870348 0.10326073 0.012942 0.21391736 0.013745402 0.09018449
-0.0068808696 0.08618833 0.33900926 0.09677936 -0.34222972 0.20888194 0.01160679 0.096516326
-0.336326 0.21032241 -0.012960348 0.08921206 -0.007754285 0.09138591 0.022879446 0.098664686
0.023776108 0.02907615 0.07198745 0.041634243 0.067993514 0.10188167 0.0310359 0.12918818
0.0118045015 0.15745583 -0.00015679342 0.18365239 0.0024083396 0.18921673 -0.004664324 0.16528031
-0.007519277 0.005685064 -0.02299425 0.13730001 -0.004502389 0.1203431 0.006463441 0.1072248
-0.0068222084 0.11901765 0.045548867 0.112113975 0.012261706 0.10780627 0.19825535 0.011079184
-0.15305029 0.111766644 -0.00026211416 0.108574234 0.0143492455 0.11265921 0.005994647 0.106439695
0.007004749 0.10978428 -0.019691711 0.10519042 -0.011204247 0.012094867 -0.010599101 0.11835252
0.010444079 0.1206636 -0.18156072 0.11050386 0.18099844 0.016350122 -0.010907431 0.1106715
0.18053962 0.012901484 0.012962254 0.11322118 0.014332379 0.117494315 -0.016025305 0.11038965
0.023712164 0.029169075 0.0719022 0.041722126 0.06788686 0.101997465 0.030856665 0.12931284
0.011612603 0.15753612 -0.0003501239 0.18362093 0.0022182406 0.18910056 -0.004854044 0.16512223
-0.0076892283 0.005444142 -0.02315449 0.13712716 -0.004690302 0.12016447 0.006368624 0.107033975
-0.007015277 0.11883908 0.045417964 0.111931294 0.012151322 0.10761991 0.19847707 0.010841112
-0.15330829 0.11158468 -0.00030219363 0.108391546 0.014318715 0.11247662 0.005981452 0.10625642
0.0069922083 0.10959879 -0.019711932 0.105005674 -0.01121102 0.011850611 -0.010606372 0.11817578
0.010443336 0.12048827 -0.1817914 0.11032433 0.18123041 0.016110037 -0.010912124 0.110490695
0.18076669 0.012660022 0.012966504 0.1130474 0.014329525 0.117315665 -0.016038947 0.110208325

transformer.layers.0.self_attn.in_proj_bias f4 [192]
00000000: 9ba7 21bd 0baa 4c3e c234 233d af2f 223d
00000010: ecc9 27bd eb6a 393e a14f 3c3e 1ba5 39be
00000020: 1506 3ebd e68b b8bd d3e3 a9ba 4fa3 b8bd
00000030: 3908 343d eabd 2cbd 958b b8bd ecf5 bbbd
00000040: b5e0 413e 81eb 393e ea05 42be c1b6 183d
00000050: f31c 3bbe fbe2 17bd 4ff9 143d 0e85 1abd
00000060: 8acb f33d b67e e9bd 259e bbba 6330 e3bd
00000070: 6d40 8d3b e055 933a 91b7 95ba af70 e73d
00000080: c19b 9b3d c09b 9bbd bf9b 9bbd c39b 9bbd
00000090: c29b 9b3d c19b 9b3d c19b 9b3d c09b 9bbd
000000a0: 347c 563d 2e7c 56bd 337c 563d 307c 563d
000000b0: 317c 563d 317c 563d 307c 563d 327c 563d
000000c0: 70d1 18bc d270 2cbe 43bf 29be c41c 3fbc
000000d0: e126 473e 2fd1 13be 2ab1 35be bd4d 203e
000000e0: dda2 5cbd dea2 5c3d dca2 5c3d dea2 5c3d
000000f0: dda2 5cbd dfa2 5c3d dca2 5cbd dea2 5cbd
00000100: 518c 3fbc d232 493c 7dc6 403c ff9d 413c
00000110: ea66 45bc 6514 293c 4ffc 2b3c 8a00 26bc
00000120: 7d94 20bb 27cb 9fbb 65eb 62b9 529c a1bb
00000130: 6f67 123b ef52 0ebb 0c9c 9fbb 798a a0bb
00000140: 6843 473c 7684 3c3c cf0c 4dbc 3a3c 4f3c
00000150: fb41 38bc 9df7 4cbc 0e31 4b3c c484 4fbc
00000160: 0475 033c d8f5 f6bb d6d0 e739 ada2 f1bb
00000170: 32a2 b4b9 24d2 06ba 0578 f539 3349 fa3b
00000180: 6e6c f039 9489 ebb9 fcee ebb9 6eb1 eeb9
00000190: 4728 ef39 31eb ed39 11d0 ef39 0f3d ebb9
000001a0: 0d68 9439 1b6f 95b9 734b 9339 4b02 9739
000001b0: c87b 9439 33d3 9439 48d5 9139 ba7f 9539
000001c0: ff25 003b e382 99bb 04b3 9cbb 97a8 ff3a
000001d0: c24f 8b3b 49ab 92bb 0542 a3bb 28b6 953b
000001e0: 98c2 74b9 94f7 6f39 4686 7339 1ac7 7239
000001f0: fb66 6eb9 98f1 7239 7ca7 6fb9 65c6 6fb9
00000200: 3b69 0f3a 60c6 02bb 2c69 0f3a b5c6 02bb
00000210: 2f69 0fba 2d12 03bb 2369 0fba e36b 02bb
00000220: 66d3 833b 9c40 383a a540 38ba 7e40 383a
00000230: 5bd3 83bb 9e40 383a 87d3 833b c0d5 833b
00000240: 253d 5b3a d169 373b fc3c 5b3a 5e3d 36bb
00000250: b86b 373b 163d 5bba 6466 373b 063d 5b3a
00000260: 6335 78b9 fb34 7839 4a35 7839 0fa8 883b
00000270: 0ea8 883b 0fa8 883b 9834 78b9 ed34 78b9
00000280: a9ea 89bc 7ebd 8d3c 9861 abba 5e9a 97b7
00000290: 4479 89bc dbb2 8abc df41 8fbc b430 8fbc
000002a0: be14 e9bc 1ff3 0fbc 534d 813a 51bf fcbb
000002b0: 4f8d c6bb 3a01 bf3b 862e 8f3c e8ec 1ebb
000002c0: 232b 153a 49ed 72bb 4a2b 153a 2a2b 15ba
000002d0: 7fe7 72bb ee2a 153a 82e1 723b 2f2b 153a
000002e0: 99e8 6f3c a79d 863c 9cda d6bb 4495 d53b
000002f0: e583 d43b fd40 2d39 1ce5 9cbc ccdc 803c
-0.03946648 0.19986741 0.039845236 0.039596256 -0.040964052 0.18107192 0.18389751 -0.18129389
-0.04639252 -0.090110585 -0.0012961574 -0.09015524 0.043953154 -0.042173304 -0.09010998 -0.09177765
0.18933375 0.18156244 -0.18947569 0.037283663 -0.18272762 -0.0370817 0.03637057 -0.037724547
0.11904056 -0.11401121 -0.0014314099 -0.110932134 0.0043106587 0.0011240803 -0.0011422505 0.113007896
0.07598067 -0.07598066 -0.075980656 -0.075980686 0.07598068 0.07598067 0.07598067 -0.07598066
0.052364543 -0.05236452 0.05236454 0.05236453 0.052364532 0.052364532 0.05236453 0.052364536
-0.009327278 -0.16839913 -0.16576867 -0.011664573 0.19448425 -0.14435266 -0.17743364 0.15654655
-0.053866256 0.05386626 0.053866252 0.05386626 -0.053866256 0.053866263 -0.053866252 -0.05386626
-0.011691169 0.012280183 0.011766073 0.011817454 -0.012048462 0.010319804 0.010497167 -0.010131964
-0.0024502568 -0.0048765126 -0.00021640731 -0.004931965 0.0022339483 -0.0021716913 -0.004870897 -0.0048993197
0.012162067 0.0115061905 -0.012515261 0.0126486365 -0.0112462 -0.0125102075 0.012401832 -0.012665931
0.008023504 -0.007536631 0.00044215348 -0.007374129 -0.0003445312 -0.0005143008 0.00046819463 0.0076381206
0.00045857154 -0.00044925197 -0.0004500075 -0.00045527093 0.0004561564 0.00045379394 0.00045740654 -0.00044868185
0.00028306284 -0.00028502275 0.0002809424 0.00028802673 0.00028320984 0.00028386115 0.00027815462 0.00028514658
0.0019553897 -0.0046847924 -0.0047820825 0.00195052 0.004251451 -0.004475985 -0.0049822354 0.004568834
-0.00023342145 0.00022885046 0.00023224307 0.0002315309 -0.00022735812 0.00023168919 -0.00022855209 -0.00022866724
0.00054706977 -0.0019954666 0.0005470689 -0.0019954864 -0.00054706907 -0.0019999847 -0.00054706837 -0.0019900731
0.0040230034 0.00070286705 -0.0007028676 0.0007028653 -0.0040229983 0.00070286717 0.0040230188 0.0040232837
0.0008363298 0.0027986655 0.00083632744 -0.0027807574 0.002798779 -0.00083632895 0.0027984614 0.000836328
-0.00023671011 0.0002367086 0.00023670975 0.004170425 0.0041704243 0.004170425 -0.00023670716 -0.0002367084
-0.016835527 0.017302271 -0.001307535 -1.8072486e-05 -0.016781457 -0.016930988 -0.017487464 -0.017479278
-0.028452273 -0.008785992 0.0009864963 -0.0077132364 -0.0060593258 0.0058290036 0.017478239 -0.0024250094
0.0005690327 -0.0037067703 0.00056903495 -0.0005690331 -0.0037064252 0.0005690296 0.0037060683 0.0005690334
0.014642858 0.016432596 -0.006556822 0.006518038 0.0064854496 0.00016522776 -0.019152217 0.015730284

transformer.layers.0.self_attn.out_proj.weight f4 [64, 64]
00000000: f7c6 e73a b192 e3bd 06c7 e73a cb92 e3bd
00000010: 1ec7 e7ba 10af e3bd f9c6 e7ba 0f70 e3bd
00000020: ccd1 7e3d 9cbb b3bb 9fbb b33b 9ebb b3bb
00000030: acd1 7ebd b0bb b3bb 4dd2 7e3d b4d8 7e3d
00000040: cda8 103c fd02 e33d cda8 103c de78 e2bd
00000050: d603 e33d d5a8 10bc 3f01 e33d d3a8 103c
00000060: cd51 013c d451 01bc ca51 01bc 8c2f b43d
00000070: 892f b43d 8b2f b43d ca51 013c ca51 013c
00000080: 09c1 febb c0e9 293c 86c9 85bd 220d 793d
00000090: 2593 f6bb 6acc a0bc 013c 46bc 2ecf 7ebc
000000a0: c19b 70bc fd09 7cbd c38b 1d3d 54f5 413c
000000b0: 918c 63bd a6ff 603d 5133 a13a 0a0c 34bd
000000c0: 0abc c0bb ca53 6ebd fcbb c0bb f4bb c03b
000000d0: 7d50 6ebd 08bc c0bb c84c 6e3d 0cbc c0bb
000000e0: b676 ea38 d7a8 073b 096a 60bd 7f07 603d
000000f0: 58b4 5f3d d561 0e3d ca3b 94bb fcfd ae3a
00000100: bda3 a0bb ac07 dcbd d3a3 a0bb f607 dcbd
00000110: c8a3 a03b 3a61 dcbd c6a3 a03b 699c dbbd
00000120: 62f0 b83d b60c b5bb b60c b53b c20c b5bb
00000130: 56f0 b8bd b60c b5bb c0f0 b83d a1f4 b83d
00000140: f259 04bc 26a5 dc3d f959 04bc 2f4d dbbd
00000150: 72a7 dc3d fb59 043c 1fa1 dc3d ff59 04bc
00000160: cc06 1f3c da06 1fbc d206 1fbc 5f43 ec3d
00000170: 5a43 ec3d 5a43 ec3d d506 1f3c ca06 1f3c
00000180: d4b0 b7bc 1823 bb3c 353d c4bc bfc0 7e3c
00000190: 3159 b7bc 7639 c7bc c65a bdbc 05c9 c1bc
000001a0: a2e3 e2bc 3dd1 3cbd b2dc 8aba 05f1 96bc
000001b0: 6ed1 f0bc a13f e33c ff59 bc3c d145 bebb
000001c0: cd82 b9bb cf84 4abd c082 b9bb c482 b93b
000001d0: 487e 4abd f082 b9bb 2b77 4a3d e682 b9bb
000001e0: 458c a93c 4455 af3c 2d9d 2dbd 9ca0 2c3d
000001f0: bdca 2b3d fcc8 253b 934d b6bc fb31 ad3c
00000200: 0f6e 8dbb a123 ddbd 0a6e 8dbb ce23 ddbd
00000210: 0a6e 8d3b 9e4d ddbd 0f6e 8d3b fdf0 dcbd
00000220: eba9 c03d e681 063b f081 06bb f981 063b
00000230: d4a9 c0bd c381 063b 79aa c03d 1eb0 c03d
00000240: d15b a4ba 9e79 d93d eb5b a4ba 87e4 d8bd
00000250: 527a d93d b55b a43a 8a77 d93d c35b a4ba
00000260: 4d27 d7b9 ab26 d739 6428 d739 cec5 fa3d
00000270: cdc5 fa3d cdc5 fa3d 8027 d7b9 4728 d7b9
00000280: 32f6 61bb ad6d c33b f0ea 72bd a6cb 613d
00000290: 1d56 52bb e4f7 7abc 0588 fbbb 80e6 36bc
000002a0: 0b0a 35bc e296 82bd 8864 343d 3d53 a43c
000002b0: 2631 6dbd e0f4 6a3d 01e5 a6bb 0e62 46bd
000002c0: 2eb4 ee3a bb46 a5bd 90b4 ee3a 9ab4 eeba
000002d0: 0243 a5bd 11b4 ee3a da3e a53d 23b4 ee3a
000002e0: 24f7 dbbb 2d1a 8ebb 8d9c 68bd 2b37 683d
000002f0: 9ee1 673d 4c89 213d 67ee 9a3a a2c4 abbb
00000300: 9205 91bb 8f7b dfbd 9705 91bb e17b dfbd
00000310: 9a05 913b 44d1 dfbd 9c05 913b 2f15 dfbd
00000320: a45b d53d 025c d0bb 065c d03b 155c d0bb
00000330: 995b d5bd 015c d0bb 025c d53d f15e d53d
00000340: 5025 d2bb 0f76 e33d 4f25 d2bb 5425 e2bd
00000350: 3978 e33d 5125 d23b 1b72 e33d 5325 d2bb
00000360: baa1 db3b d2a1 dbbb caa1 dbbb 0cb3 0a3e
00000370: 0ab3 0a3e 0ab3 0a3e d4a1 db3b bca1 db3b
00000380: 8923 cabc 1040 d23c 3d20 8dbd 84d0 753d
00000390: 7255 c9bc 333d edbc 4b6d d7bc e276 e1bc
000003a0: b112 02bd abca b1bd f8bc c93c d53c 64bc
000003b0: 03da a1bd 7f2e 9e3d 23c4 c03c 32d6 22bd
000003c0: 2914 21bc 49d9 98bd 2614 21bc 2414 213c
000003d0: 0fd7 98bd 3314 21bc d2d4 983d 2c14 21bc
000003e0: 4732 b33c b593 be3c 1f48 b4bd a510 b43d
000003f0: 76df b33d a319 db3c 2a05 ccbc 4462 ba3c
0.0017683198 -0.111119635 0.0017683215 -0.11111983 -0.0017683243 -0.11117375 -0.00176832 -0.11105358
0.062211797 -0.0054850113 0.0054850127 -0.005485012 -0.062211677 -0.0054850206 0.062212277 0.062218383
0.008829308 0.11084554 0.008829308 -0.1105821 0.11084716 -0.008829315 0.11084222 0.008829313
0.007893038 -0.0078930445 -0.007893035 0.08798131 0.08798129 0.087981306 0.007893035 0.007893035
-0.0077744764 0.010370672 -0.06532578 0.06080354 -0.007524865 -0.019628722 -0.012099267 -0.015552325
-0.014685572 -0.061532963 0.038463365 0.011838276 -0.055553976 0.054931305 0.0012298619 -0.043956794
-0.005881791 -0.058185376 -0.0058817845 0.0058817808 -0.05818223 -0.00588179 0.058178693 -0.005881792
0.00011180101 0.0020700002 -0.054788623 0.05469465 0.05461535 0.03476127 -0.004523729 0.001335084
-0.0049023316 -0.10743651 -0.004902342 -0.10743706 0.0049023367 -0.10760732 0.004902336 -0.10723192
0.090302244 -0.005525197 0.005525197 -0.0055252025 -0.090302154 -0.005525197 0.090302944 0.09031034
-0.008078085 0.10773687 -0.008078092 -0.10708081 0.10774125 0.008078094 0.10772919 -0.008078097
0.00970621 -0.009706223 -0.009706216 0.115362875 0.11536284 0.11536284 0.009706219 0.0097062085
-0.022423185 0.022843882 -0.023954967 0.015548884 -0.022381397 -0.024319392 -0.023114573 -0.023655424
-0.027696434 -0.046097983 -0.0010594337 -0.018425474 -0.029396739 0.027740302 0.022992132 -0.0058066626
-0.0056613446 -0.049443062 -0.0056613386 0.0056613404 -0.049436837 -0.005661361 0.049430054 -0.0056613563
0.020696769 0.021402963 -0.042386223 0.042145357 0.041941393 0.0025296798 -0.022253787 0.021141997
-0.0043160985 -0.10797811 -0.004316096 -0.10797845 0.004316096 -0.1080582 0.0043160985 -0.10788152
0.09407409 0.0020524203 -0.0020524226 0.0020524247 -0.09407392 0.0020524121 0.09407515 0.09408592
-0.001253957 0.106189 -0.0012539601 -0.10590463 0.10619034 0.0012539538 0.106185034 -0.0012539554
-0.00041037277 0.00041036805 0.0004103809 0.122447595 0.12244759 0.12244759 -0.00041037425 -0.00041038005
-0.003447902 0.005964002 -0.059306085 0.055125855 -0.0032094785 -0.015317891 -0.007676127 -0.011163354
-0.011049758 -0.06376435 0.044041187 0.020059222 -0.0579082 0.057362437 -0.0050932174 -0.048433356
0.0018211657 -0.080701314 0.0018211771 -0.0018211782 -0.08069421 0.0018211623 0.080686286 0.0018211644
-0.006712811 -0.0043366165 -0.056789923 0.056693237 0.05661165 0.039437577 0.0011820317 -0.0052419463
-0.004425713 -0.10912239 -0.004425715 -0.109123 0.0044257166 -0.10928586 0.0044257175 -0.10892712
0.1041787 -0.0063586244 0.0063586263 -0.0063586333 -0.104178615 -0.006358624 0.1041794 0.10418499
-0.0064131394 0.11106502 -0.006413139 -0.11042276 0.11106915 0.00641314 0.11105748 -0.006413141
0.006702629 -0.00670264 -0.0067026364 0.13544863 0.1354486 0.1354486 0.006702641 0.00670263
-0.024675148 0.025665313 -0.068909146 0.06001331 -0.024576876 -0.028959846 -0.026297232 -0.027522508
-0.031756107 -0.08681234 0.02462624 -0.013930519 -0.079029106 0.07723712 0.023531025 -0.039755054
-0.009831467 -0.07463319 -0.009831464 0.009831462 -0.07462894 -0.009831476 0.07462467 -0.0098314695
0.02187456 0.023263792 -0.088028185 0.08792237 0.08782856 0.026745623 -0.024904806 0.022751935

transformer.layers.0.self_attn.out_proj.bias f4 [64]
00000000: 5572 87bc da10 9f3c 4783 8dbc 1a71 8a3c
00000010: d826 bfbc d9c1 a23c cbb9 17bd 3b3a 1e3c
00000020: 5927 e6bc e9d1 47bb 1d74 aebc 1bee 42bc
00000030: 5f95 64bc bc90 95bc 8e64 a4bc a4e7 abbc
00000040: 29ef 6fbc 58ae 67bd 450b 1cbc da17 ccbc
00000050: 4799 593b 592c e8bc 93a0 e8bb 3833 04bd
00000060: 5fbc c23a 4ac9 eabc 233e 09ba 22ec 04bd
00000070: 2264 c13a 9e48 f9bc d914 9f3b 5381 6dbd
00000080: f0e0 acbc 9286 01bd ade4 2b3c 8bb6 07bd
00000090: 2d49 2fbb cafc fdbc 8586 4f3b f7a3 09bd
000000a0: 1bbc cc3b b607 c3bc 70e7 a2ba 725c 05bd
000000b0: a2e7 acbb f293 75bd b1a4 6a3b 1d84 e9bc
000000c0: bf2b de3b 49aa f3bc 6317 9bbc 71a2 efbc
000000d0: eafe f33b 3d7a 74bd 5894 603b dfda f2bc
000000e0: b8fd ea3b 94b9 75bd a1c4 21bb 253f ecbc
000000f0: dc68 c83b ca43 dabc f327 debb 2945 fbbc
-0.01653401 0.019417215 -0.017274512 0.016899634 -0.023333952 0.019867824 -0.03704242 0.009657438
-0.028094934 -0.0030490106 -0.021295602 -0.011897589 -0.0139516285 -0.018257491 -0.02006748 -0.020984478
-0.014644423 -0.05656275 -0.009524171 -0.024913717 0.0033202933 -0.02834146 -0.00709922 -0.03227541
0.0014857164 -0.028660435 -0.00052353943 -0.032451756 0.0014754573 -0.030430134 0.00485478 -0.05798466
-0.021103352 -0.031622477 0.010491532 -0.03313307 -0.0026746497 -0.031004328 0.0031665873 -0.033603635
0.00624801 -0.023807388 -0.0012428593 -0.032558866 -0.005276636 -0.059955545 0.003580373 -0.02850538
0.0067801173 -0.029744284 -0.01893205 -0.029252263 0.0074461596 -0.059686888 0.0034268107 -0.029645381
0.007171359 -0.059991434 -0.002468385 -0.028838703 0.006116016 -0.026643652 -0.0067796647 -0.030672627

transformer.layers.0.multihead_attn.in_proj_weight f4 [192, 64]
00000000: 3ba0 9e3e da69 b33e c033 a43e 5edb b53e
00000010: 8bb1 a83e 8c55 b83e 5b7a b73e f16a b53e
00000020: d174 ab3e 788e b63e 06c8 6cbc 5b48 b83e
00000030: 4118 4cbe b26b b73e 7d8a b63e d314 b73e
00000040: 5019 b23e 4ad1 b63e 0c7f ba3e 0a6d b73e
00000050: 8596 8f3d 4f41 b73e 87ee b63e a284 b73e
00000060: 40e4 4b3e 9d14 b83e 0b26 913e e92a b73e
00000070: a3ac 6b3e 7830 b73e 1928 b43e 76b7 b63e
00000080: 1684 b13e 5ba3 b83e 6cd0 5f3e afa7 a93e
00000090: 0030 8b3e 3094 b73e fa46 8f3e 31de b73e
000000a0: 6526 2b3e 20c7 b73e 6fdc 853e 5d12 b83e
000000b0: 89c8 b63e 09ad b43e 006c 053e d095 b63e
000000c0: c8b8 293e 2119 b93e 648f b73e ac51 b83e
000000d0: 6fae b23e bc5c b73e bf56 ff3d 345c b73e
000000e0: 68c5 b23e 359d b83e 3106 883e 2096 b83e
000000f0: 8452 2c3e 9d7b b73e 65f9 b43e db78 b83e
00000100: 3da0 9ebe db69 b3be be33 a4be 5adb b5be
00000110: 8cb1 a8be 8c55 b8be 5c7a b7be f06a b5be
00000120: d174 abbe 768e b6be 05c8 6c3c 5e48 b8be
00000130: 3f18 4c3e b16b b7be 7d8a b6be d514 b7be
00000140: 4f19 b2be 49d1 b6be 0b7f babe 0c6d b7be
00000150: 8896 8fbd 5241 b7be 87ee b6be a284 b7be
00000160: 3de4 4bbe 9e14 b8be 0c26 91be e92a b7be
00000170: a2ac 6bbe 7930 b7be 1728 b4be 75b7 b6be
00000180: 1684 b1be 58a3 b8be 6cd0 5fbe b0a7 a9be
00000190: 0130 8bbe 2f94 b7be f946 8fbe 31de b7be
000001a0: 6226 2bbe 1fc7 b7be 6ddc 85be 5d12 b8be
000001b0: 88c8 b6be 0aad b4be 016c 05be d095 b6be
000001c0: cab8 29be 2119 b9be 638f b7be af51 b8be
000001d0: 6eae b2be bc5c b7be c356 ffbd 345c b7be
000001e0: 66c5 b2be 349d b8be 3006 88be 2096 b8be
000001f0: 8252 2cbe 9c7b b7be 66f9 b4be d878 b8be
00000200: 3ba0 9ebe da69 b3be c133 a4be 59db b5be
00000210: 8cb1 a8be 8c55 b8be 5c7a b7be f26a b5be
00000220: d174 abbe 788e b6be 01c8 6c3c 5c48 b8be
00000230: 4218 4c3e b06b b7be 7c8a b6be d714 b7be
00000240: 5019 b2be 49d1 b6be 0b7f babe 0b6d b7be
00000250: 8696 8fbd 5141 b7be 85ee b6be a484 b7be
00000260: 3ee4 4bbe 9f14 b8be 0b26 91be ec2a b7be
00000270: a3ac 6bbe 7a30 b7be 1828 b4be 76b7 b6be
00000280: 1584 b1be 5aa3 b8be 6dd0 5fbe afa7 a9be
00000290: 0130 8bbe 3094 b7be fa46 8fbe 32de b7be
000002a0: 6726 2bbe 1fc7 b7be 6ddc 85be 5b12 b8be
000002b0: 88c8 b6be 0bad b4be fe6b 05be d395 b6be
000002c0: c9b8 29be 2019 b9be 638f b7be ad51 b8be
000002d0: 6eae b2be bb5c b7be c156 ffbd 345c b7be
000002e0: 67c5 b2be 359d b8be 3206 88be 2096 b8be
000002f0: 8552 2cbe 9c7b b7be 66f9 b4be d778 b8be
00000300: 3ba0 9e3e db69 b33e be33 a43e 5bdb b53e
00000310: 8bb1 a83e 8d55 b83e 5c7a b73e f26a b53e
00000320: d274 ab3e 778e b63e fdc7 6cbc 5b48 b83e
00000330: 4318 4cbe b26b b73e 7d8a b63e d714 b73e
00000340: 5019 b23e 49d1 b63e 0c7f ba3e 0b6d b73e
00000350: 8496 8f3d 4d41 b73e 86ee b63e a584 b73e
00000360: 40e4 4b3e 9e14 b83e 0926 913e ea2a b73e
00000370: a3ac 6b3e 7d30 b73e 1928 b43e 76b7 b63e
00000380: 1884 b13e 5ba3 b83e 6cd0 5f3e afa7 a93e
00000390: 0130 8b3e 3094 b73e fc46 8f3e 30de b73e
000003a0: 6626 2b3e 1ec7 b73e 6ddc 853e 5f12 b83e
000003b0: 86c8 b63e 0bad b43e 006c 053e d595 b63e
000003c0: ccb8 293e 2119 b93e 648f b73e ad51 b83e
000003d0: 6dae b23e bb5c b73e c156 ff3d 345c b73e
000003e0: 67c5 b23e 349d b83e 2e06 883e 2096 b83e
000003f0: 8252 2c3e 9a7b b73e 65f9 b43e da78 b83e
0.3098162 0.35041696 0.32070732 0.35518926 0.32947955 0.36002767 0.35835537 0.35433152
0.3348756 0.3565557 -0.014451986 0.35992703 -0.19931127 0.35824353 0.35652533 0.35758075
0.34784937 0.3570655 0.36425054 0.35825378 0.07011131 0.35792014 0.35728857 0.35843378
0.19911289 0.35953227 0.28349337 0.35774925 0.23015074 0.35779166 0.35186842 0.35686845
0.34671086 0.3606213 0.2185685 0.33135745 0.2718506 0.35855246 0.27983838 0.35911706
0.16713865 0.35894108 0.2614474 0.3595151 0.3569987 0.35288265 0.1302948 0.35661173
0.16574395 0.36151984 0.35851586 0.3599981 0.34898707 0.35812938 0.124677174 0.35812533
0.34916234 0.3605744 0.26567224 0.36052036 0.16828352 0.35836497 0.35346523 0.36029705
-0.30981627 -0.350417 -0.32070726 -0.35518914 -0.32947958 -0.36002767 -0.3583554 -0.3543315
-0.3348756 -0.35655564 0.014451985 -0.35992712 0.19931124 -0.3582435 -0.35652533 -0.3575808
-0.34784934 -0.35706547 -0.3642505 -0.35825384 -0.070111334 -0.35792023 -0.35728857 -0.35843378
-0.19911285 -0.3595323 -0.2834934 -0.35774925 -0.23015073 -0.3577917 -0.35186836 -0.35686842
-0.34671086 -0.3606212 -0.2185685 -0.33135748 -0.27185062 -0.35855243 -0.27983835 -0.35911706
-0.1671386 -0.35894105 -0.26144734 -0.3595151 -0.35699868 -0.35288268 -0.13029481 -0.35661173
-0.16574398 -0.36151984 -0.35851583 -0.3599982 -0.34898704 -0.35812938 -0.1246772 -0.35812533
-0.34916228 -0.36057436 -0.2656722 -0.36052036 -0.16828349 -0.35836494 -0.35346526 -0.36029696
-0.3098162 -0.35041696 -0.32070735 -0.3551891 -0.32947958 -0.36002767 -0.3583554 -0.35433155
-0.3348756 -0.3565557 0.0144519815 -0.35992706 0.19931129 -0.35824347 -0.3565253 -0.35758087
-0.34784937 -0.35706547 -0.3642505 -0.3582538 -0.07011132 -0.3579202 -0.3572885 -0.35843384
-0.19911286 -0.35953233 -0.28349337 -0.35774934 -0.23015074 -0.35779172 -0.3518684 -0.35686845
-0.34671083 -0.36062127 -0.21856852 -0.33135745 -0.27185062 -0.35855246 -0.27983838 -0.3591171
-0.16713868 -0.35894105 -0.26144734 -0.35951504 -0.35699868 -0.3528827 -0.13029477 -0.35661182
-0.16574396 -0.3615198 -0.35851583 -0.35999814 -0.34898704 -0.35812935 -0.12467719 -0.35812533
-0.3491623 -0.3605744 -0.26567227 -0.36052036 -0.16828354 -0.35836494 -0.35346526 -0.36029693
0.3098162 0.350417 0.32070726 0.35518917 0.32947955 0.3600277 0.3583554 0.35433155
0.33487564 0.35655567 -0.014451978 0.35992703 -0.1993113 0.35824353 0.35652533 0.35758087
0.34784937 0.35706547 0.36425054 0.3582538 0.070111305 0.35792008 0.35728854 0.35843387
0.19911289 0.3595323 0.2834933 0.35774928 0.23015074 0.3577918 0.35186842 0.35686845
0.34671092 0.3606213 0.2185685 0.33135745 0.27185062 0.35855246 0.27983844 0.35911703
0.16713867 0.35894102 0.26144734 0.35951516 0.35699862 0.3528827 0.1302948 0.35661188
0.165744 0.36151984 0.35851586 0.35999814 0.348987 0.35812935 0.12467719 0.35812533
0.3491623 0.36057436 0.26567215 0.36052036 0.16828349 0.35836488 0.35346523 0.36029702

transformer.layers.0.multihead_attn.in_proj_bias f4 [192]
00000000: 911b b9be 931b b93e 921b b93e 921b b9be
00000010: 931b b9be 921b b93e 931b b93e 931b b93e
00000020: dd4d 6dbe de4d 6dbe dd4d 6d3e de4d 6dbe
00000030: de4d 6d3e de4d 6dbe de4d 6d3e dd4d 6dbe
00000040: eeb7 b6bc edb7 b6bc e8b7 b6bc efb7 b6bc
00000050: eeb7 b63c ebb7 b63c e8b7 b6bc efb7 b63c
00000060: a5f0 54bc b5f0 54bc aef0 543c aaf0 54bc
00000070: aef0 543c a8f0 54bc a8f0 54bc aaf0 54bc
00000080: 49f3 553c 4af3 55bc 47f3 55bc 43f3 55bc
00000090: 43f3 55bc 46f3 553c 42f3 553c 47f3 55bc
000000a0: c178 763c c478 763c c578 76bc c478 76bc
000000b0: c478 763c c378 763c be78 763c c178 763c
000000c0: 1f44 ba3c 1e44 ba3c 1f44 ba3c 1d44 ba3c
000000d0: 1d44 ba3c 2244 ba3c 2144 babc 2044 ba3c
000000e0: 9c7c 94bc a17c 943c 9c7c 94bc 9f7c 943c
000000f0: a17c 943c a07c 94bc 9c7c 94bc 9d7c 94bc
00000100: 9f0f 38ba b156 373a d9e1 353a f45c 35ba
00000110: 1574 3aba 58cc 333a 8331 3c3a a23d 3a3a
00000120: 938f 10b8 8f44 1cb8 2911 0f38 c95f 24b8
00000130: 38fa 0638 ceb5 16b8 d799 1138 2de6 04b8
00000140: c26b 08b7 e108 f8b6 a4ea 09b7 bd75 06b7
00000150: 59bc fc36 c83e 0637 bcee 08b7 7f93 0037
00000160: a8a2 39b6 b6cf 48b6 5790 4d36 55da 55b6
00000170: 6dd4 5336 aefb 3db6 e5e5 45b6 3422 35b6
00000180: 59a7 5536 e045 4cb6 c00f 6cb6 746e 47b6
00000190: 33e6 37b6 5d03 4d36 d9c4 4f36 813a 4db6
000001a0: a890 b135 10bf bb35 c2dd e1b5 1a69 cdb5
000001b0: 42ef c235 b570 cf35 589c ba35 6883 cc35
000001c0: 5343 ab36 98db 9936 1ca7 b436 9411 a536
000001d0: d626 b436 fefe ac36 e5e7 a5b6 f65c ab36
000001e0: a226 fcb5 2999 fc35 2385 f3b5 ac60 0436
000001f0: 764b 0a36 7437 0eb6 10c4 ffb5 3cf2 18b6
00000200: 523e 503a b71c 8bb9 a2e2 ef39 4304 213a
00000210: 3d27 0b3b 6741 7639 81a3 69bb aa27 78ba
00000220: bea2 133a c57e d43a 3354 bf3b fa24 f2ba
00000230: 8217 09ba 5205 15bb b69f ae3a 8bda f9b9
00000240: a2b8 c4b8 61ec a439 b5ef c739 f74b 0b3a
00000250: 86af 113a 942b 6c39 a29e 21ba 1fbe 013a
00000260: ebf2 d239 ccfb 8db9 ff2f 85ba 946d 94ba
00000270: c153 6fb9 bcfa 57ba eb22 0038 8703 03b9
00000280: 2a4c 8aba 2a8e c039 e87e a5b9 f965 c0b6
00000290: 5854 35ba 7ccb 503a 40b1 a438 bc91 3c3a
000002a0: eede 96ba 36ee ac3a 5b4b a539 c47a f8b9
000002b0: 9fef 1a3a 92f9 5339 dac9 a8b9 b929 25ba
000002c0: 19bc 5c39 dcde 8dba 38e4 8dba 3317 0fba
000002d0: aa0b 20ba 6aef f239 829d d839 5fa3 3bb9
000002e0: 8b2e a1b8 3e87 6cb9 a48a 13ba 034d ee39
000002f0: 6e05 abb9 5ce6 253a e78b 313a 90b8 143a
-0.36153844 0.3615385 0.36153847 -0.36153847 -0.3615385 0.36153847 0.3615385 0.3615385
-0.23174234 -0.23174235 0.23174234 -0.23174235 0.23174235 -0.23174235 0.23174235 -0.23174234
-0.022304501 -0.0223045 -0.02230449 -0.022304503 0.022304501 0.022304496 -0.02230449 0.022304503
-0.012996827 -0.012996842 0.012996836 -0.012996832 0.012996836 -0.01299683 -0.01299683 -0.012996832
0.013058492 -0.013058493 -0.01305849 -0.013058486 -0.013058486 0.013058489 0.013058485 -0.01305849
0.015043438 0.015043441 -0.015043442 -0.015043441 0.015043441 0.01504344 0.015043436 0.015043438
0.02273756 0.022737559 0.02273756 0.022737557 0.022737557 0.022737566 -0.022737565 0.022737563
-0.018125825 0.018125834 -0.018125825 0.01812583 0.018125834 -0.018125832 -0.018125825 -0.018125826
-0.00070213707 0.0006993814 0.0006938256 -0.0006918453 -0.00071126345 0.00068587577 0.00071790087 0.0007104521
-3.446599e-05 -3.725715e-05 3.410984e-05 -3.9189854e-05 3.2181124e-05 -3.5932106e-05 3.471397e-05 -3.168562e-05
-8.131321e-06 -7.3920096e-06 -8.220468e-06 -8.0144355e-06 7.532112e-06 8.00164e-06 -8.161816e-06 7.663736e-06
-2.7661827e-06 -2.9923226e-06 3.0631397e-06 -3.186656e-06 3.1565098e-06 -2.8309692e-06 -2.9489104e-06 -2.699101e-06
3.1836882e-06 -3.0439041e-06 -3.5175908e-06 -2.9717603e-06 -2.7403119e-06 3.0549338e-06 3.0959984e-06 -3.0581434e-06
1.3229628e-06 1.3988192e-06 -1.6828346e-06 -1.5304279e-06 1.452376e-06 1.5455504e-06 1.3903582e-06 1.5237429e-06
5.1040347e-06 4.5853194e-06 5.383872e-06 4.9194296e-06 5.368939e-06 5.1556844e-06 -4.9443793e-06 5.107019e-06
-1.8786707e-06 1.8820039e-06 -1.8143659e-06 1.9725803e-06 2.0607526e-06 -2.1191927e-06 -1.9056042e-06 -2.2790764e-06
0.0007943857 -0.0002653354 0.00045754487 0.00061422976 0.0021233105 0.00023484752 -0.0035650434 -0.00094663596
0.00056318555 0.0016212097 0.0058388948 -0.0018474155 -0.0005229638 -0.0022738767 0.0013322744 -0.00047655808
-9.380399e-05 0.00031456634 0.00038134833 0.0005313749 0.0005557466 0.00022522948 -0.0006165301 0.000494929
0.0004023531 -0.0002708122 -0.0010161399 -0.0011324161 -0.00022824017 -0.00082389615 3.0550098e-05 -0.00012494448
-0.0010551263 0.00036727014 -0.00031565805 -5.733917e-06 -0.000691717 0.0007964892 7.853145e-05 0.0007193347
-0.001151053 0.0013193551 0.00031527397 -0.00047393714 0.000591034 0.000202155 -0.00032193848 -0.00063004676
0.00021050907 -0.0010823864 -0.0010825461 -0.0005458474 -0.00061052537 0.00046336214 0.00041316083 -0.0001789457
-7.6857476e-05 -0.00022557096 -0.0005628264 0.00045452276 -0.00032619707 0.0006328577 0.0006772861 0.0005673254

transformer.layers.0.multihead_attn.out_proj.weight f4 [64, 64]
00000000: 61d9 963c 9cb4 6e3b 069a 7b3b 09b6 343c
00000010: 5a6a 99bc bfb1 e939 e613 0fbc 5a53 033b
00000020: d110 723b 2a2d e93a c47a ad3c 9696 5aba
00000030: 1831 993a ef2f a03c 0b11 403b fca5 56bc
00000040: a5e6 c6ba c7bc 8d3c e584 a83b 363d 77bb
00000050: 4262 62bb 2b40 913b 3f27 053b f4b1 b63b
00000060: 55d6 a9b7 fd73 1cbb 8576 9abc 0cbe f7b9
00000070: ca7e 043b c3f3 31bb 9344 283b 07b2 b9ba
00000080: 3948 b5bb de10 85ba ef9e b4b8 f76c 88b9
00000090: 2aae 88bc 50e5 3d3b f5ea 40ba e4c6 213b
000000a0: a094 173a 01aa 3e3b 67a1 f73a 2523 c139
000000b0: 9881 893c 5a12 ec39 cca1 d6ba 973a 453b
000000c0: d297 05bb 71e7 a0bb 50d9 74bc 93db 223b
000000d0: 2ff1 083b 25c7 8d39 1eff 483a 5133 3c3b
000000e0: 874b daba 8f55 743c db48 2ebb bbf6 71ba
000000f0: d4fa 67bb e775 8c3b 7e51 b83b f87a 88bb
00000100: a5b8 e1bb a8ba 3d3b 52ef 163b 7757 a93b
00000110: 1365 e0bb 8f58 9b3a 69bf 32bc 636a be3a
00000120: ef6c b33a da2b 44ba 8c69 3e3c 4c78 e23b
00000130: e4f1 0d3a c39a 7d3c 5e93 b2bb 39a8 12bc
00000140: 7b4c 0fbb d0ca 80bb 97c5 623b fef7 873b
00000150: c386 303b f15c 5d3b 4b1b 85ba 1921 d03b
00000160: 7129 4b3b c49c 433b f0be 913b db89 5f3b
00000170: 9138 bbb8 e07c 303b f20b cc3a 5faf 5a3a
00000180: 0eae 66bb 4044 64bb 15b3 c6ba 2a56 51bb
00000190: 3843 db3b 44de 66bb ac0e 3abb 30a9 ed3a
000001a0: d248 7a39 eedd 2ab9 a166 c23a c64f 18bb
000001b0: 59f2 52bb 1ec5 1eba 3a1d 43bb 4e0e 383b
000001c0: 04d5 b73a 39f3 943b ddb3 863b 643a 073b
000001d0: d81d de3a 1bef 29bb 66e2 6a3a 31bf 533b
000001e0: 1c38 4dbb 06d1 75bb 1058 b0ba f7f7 1438
000001f0: 788c 223b 5e69 8d39 705e f939 831c 3a3b
00000200: 8d32 6a3c 0326 1c3b 749f b33a b5f1 dc3b
00000210: 4ec4 c2bc cdd7 a6ba 844e 98bc cd06 29ba
00000220: 470f 123b e725 00bb de32 be3c 4f1f a43b
00000230: 4450 9a3a 35ca a53c 37e6 ad3a d719 75bc
00000240: 7884 25bb eb80 8a3c 8d1c b13a 1f20 5dbb
00000250: b5f2 80ba ee39 f13a a39f 59ba 9185 3e3b
00000260: b6cc 263b b0a0 99bb 2344 97bc 583f 693a
00000270: a5d8 aaba 7fb2 5cbb 319d aa39 1f84 2ebb
00000280: 70d6 9cbb ce4e 2d3b 71af e6b9 a959 b039
00000290: 066e 81bc d24b b43b 33a6 0aba d0c1 7b3a
000002a0: 2f38 f2ba 1bea 073b 6d5a 063a 89f8 dbba
000002b0: 98cd 773c 9699 a3b9 5102 cdb8 9897 023b
000002c0: 1511 43ba f07c 063a 9ca7 7dbc 640c 403b
000002d0: a570 12ba ea6b 8dba 73a1 c83a c0a6 3c3a
000002e0: f852 2e3a cf58 753c da3f 0aba 8299 053b
000002f0: ce3d d3ba 9f4a aab9 6e2d c3b7 77d6 a3ba
00000300: e2d9 13bc fa58 f03a 3376 caba 8bc9 fd3a
00000310: 20bf 4ebc 5391 863a eb4f 85bc 8a87 3c3b
00000320: 49ee 313b 95de fc39 8f26 833c 8b5e 053b
00000330: 84ef 8d3a 219f 903c c711 43ba 9450 d2bb
00000340: b4a5 d2ba 1d68 2fbc b243 243b c23c e2ba
00000350: c3c9 58bb fd90 503b 6a3c a13b a40c 573b
00000360: b452 2f3b f0c7 1c3b 83f6 183c 297c af3a
00000370: 52cc 23ba 59d0 cc3a cd5e caba 0c7d 13b8
00000380: e70f b3bb 4f40 87ba f9f6 32b9 986c 133b
00000390: 07b3 2e3c e82f 08bb fbe6 013b 20be 353b
000003a0: 0750 ba3a a6ba 6ebb f4c3 0a3b b3b3 34b9
000003b0: c49a f7bb b9a0 633a f3c1 4cbb fe2e 353b
000003c0: 3dd2 d6bb 75a5 95bb c85f ea3b e7b0 9e38
000003d0: d0bd 71b7 b0ef 8fb9 5be4 593b d270 aab9
000003e0: 9150 80ba 1457 1abc 9b46 53b9 08cf 343b
000003f0: 6cce b2ba b9cc 283b 055e 9fba 87d4 14b9
0.018414201 0.003642357 0.0038391366 0.011029729 -0.01872747 0.00044573654 -0.0087327715 0.0020038695
0.0036936293 0.0017789949 0.021176703 -0.0008338479 0.0011687605 0.019554107 0.0029307033 -0.013101097
-0.0015174939 0.01730193 0.0051427954 -0.0037725694 -0.003454343 0.0044326982 0.0020317582 0.005575413
-2.0246176e-05 -0.0023872845 -0.018855343 -0.00047253107 0.0020217174 -0.002715335 0.002567564 -0.0014167436
-0.0055322913 -0.0010152122 -8.6126725e-05 -0.00026021127 -0.01668461 0.0028975792 -0.000735923 0.0024685198
0.000578234 0.002909303 0.0018892706 0.00036838013 0.016785428 0.000450271 -0.0016375124 0.0030094737
-0.0020384681 -0.0049104025 -0.014944389 0.0024850115 0.002089571 0.0002704199 0.000766741 0.002871711
-0.0016654589 0.014912977 -0.0026593718 -0.0009230186 -0.0035397308 0.004286516 0.005624949 -0.0041650496
-0.0068884664 0.0028950367 0.002303083 0.0051678973 -0.0068479865 0.0011851954 -0.010909894 0.0014527555
0.0013689081 -0.0007483341 0.011621844 0.006911313 0.00054147677 0.015478793 -0.0054496964 -0.00895124
-0.0021865654 -0.003930427 0.0034602636 0.004149436 0.0026935793 0.0033777321 -0.0010155229 0.006351602
0.0031000043 0.0029848078 0.0044478104 0.0034109268 -8.927391e-05 0.00269299 0.0015567525 0.00083421724
-0.003519896 -0.003483072 -0.0015159572 -0.0031942227 0.0066913627 -0.0035227695 -0.0028390093 0.0018132087
0.00023868986 -0.00016295139 0.0014831611 -0.0023240908 -0.0032187907 -0.00060565944 -0.002977206 0.0028084698
0.0014025276 0.004545596 0.004110797 0.0020634169 0.001694615 -0.0025929871 0.00089601276 0.0032310004
-0.0031313961 -0.003750862 -0.0013453979 3.5516885e-05 0.0024802964 0.0002697212 0.00047563342 0.0028398342
0.014294279 0.0023826368 0.0013704137 0.006742681 -0.023775246 -0.0012729109 -0.018592127 -0.0006447852
0.0022286938 -0.0019553842 0.023217615 0.005008615 0.0011773189 0.020238021 0.0013267462 -0.014959774
-0.002525596 0.016907176 0.0013512537 -0.003374107 -0.0009837957 0.0018404105 -0.0008301681 0.002907131
0.0025451607 -0.004688345 -0.018465107 0.00088976836 -0.0013034536 -0.0033675728 0.00032542043 -0.0026629043
-0.004786305 0.0026444676 -0.00043999733 0.00033636138 -0.015799534 0.0055022025 -0.0005289048 0.00096037704
-0.0018479879 0.0020738903 0.0005125169 -0.0016782443 0.015124701 -0.00031204213 -9.775593e-05 0.0019926783
-0.0007441205 0.00051303115 -0.015481856 0.002930426 -0.00055862434 -0.0010789607 0.0015306905 0.00071964785
0.00066499365 0.014974787 -0.0005273797 0.0020385687 -0.0016116442 -0.00032480524 -2.3266966e-05 -0.0012499829
-0.009024115 0.0018337064 -0.0015446603 0.0019362433 -0.01261881 0.0010266699 -0.01627346 0.002876731
0.0027150086 0.00048231022 0.016009597 0.0020350541 0.0010828828 0.017654004 -0.00074413087 -0.006418297
-0.0016071112 -0.010705975 0.0025064764 -0.0017260539 -0.0033079244 0.00318247 0.004920532 0.003281393
0.0026752176 0.0023922883 0.009336117 0.0013388443 -0.00062484026 0.0015626057 -0.001543963 -3.516399e-05
-0.005464542 -0.0010318848 -0.00017067407 0.0022495147 0.010662801 -0.0020780507 0.0019821513 0.0027731732
0.0014214524 -0.003642717 0.0021173926 -0.00017233081 -0.0075562913 0.00086833123 -0.0031243532 0.0027646418
-0.006555824 -0.004566843 0.0071525313 7.566978e-05 -1.4408914e-05 -0.00027453667 0.0033247683 -0.00032508984
-0.0009789636 -0.009420175 -0.0002014883 0.002758922 -0.0013641841 0.002575679 -0.0012158757 -0.00014193552
