decisionmaking/trained_models/env=claude_dim2_model=transformer_num_episodes1000000_num_hidden=8_lr0.0003_num_layers=2_d_model=64_num_head=8_noise0.0_shuffleTrue_pairedTrue_lossnll_ess0.1_std0.1_run=0.pt (torch, 938559 bytes, 121 tensors)

embedding.weight f4 [64, 3]
000000 2e 54 92 3c c9 07 d1 3b 9b 90 53 bd 5b 3e ff bc
       0.017862406 0.006379102 -0.05165158 -0.031157663
000010 2c 49 c9 39 f8 0e ae bd 51 f2 11 bd 18 90 75 3d
       0.00038392225 -0.08498949 -0.03563148 0.05995187
000020 a5 67 05 be db a7 7b bd 6f e2 12 bc 84 84 1f be
       -0.13027819 -0.061439376 -0.008965119 -0.15577894
000030 17 11 b3 3d 76 29 0a be 51 13 ed bd 32 ce c6 bc
       0.08743494 -0.13492379 -0.1157595 -0.024268243
000040 d2 6c 26 bc 4e 9a 47 be 65 47 c5 bd f0 ad 37 3e
       -0.010157781 -0.19492456 -0.09632758 0.17937446
000050 7f ea 92 bd fb 0c 85 bc 6b bb 1f bc 6a c0 91 bd
       -0.07173633 -0.016241541 -0.009749274 -0.07116778
000060 4f 08 d9 3c 31 35 4b bc 54 07 98 be 65 fc bb 3d
       0.02649322 -0.012402819 -0.2969309 0.09179
000070 4a 4b 51 be 77 e3 47 be be 23 f0 bd c4 7d bb 3e
       -0.20438877 -0.19520365 -0.11725567 0.3661939
000080 e1 77 06 bd ee 3c 1c be 89 45 94 be e1 5a b4 bd
       -0.03282917 -0.15257618 -0.289593 -0.08806396
000090 7c 28 0e 3e d9 44 c3 be c6 f3 f9 bd 20 9d da bc
       0.13882631 -0.38138464 -0.12204699 -0.026686251
0000a0 85 e5 59 bc ee e6 ef be 08 8d c7 be fb 0e e1 bd
       -0.013299351 -0.46855873 -0.38974786 -0.109891854
0000b0 06 87 01 bd 54 92 97 be ec 0c c2 3e fd ab 15 be
       -0.03162291 -0.29603827 0.37900484 -0.1461639
0000c0 90 e5 d9 be a0 28 b1 bd 7f 17 0c bd 80 7d 90 be
       -0.42557955 -0.08650327 -0.034202095 -0.2822075
0000d0 f6 9c f7 bd c3 b2 08 be 33 92 3f bd 07 ee e1 be
       -0.12090485 -0.13349442 -0.046770286 -0.44126913
0000e0 32 54 1b bd bc 6e 9d be bd 6b 13 be 15 99 e4 bd
       -0.03792209 -0.30748546 -0.14396568 -0.111620106
0000f0 69 44 bd 3e db 0f b1 3d 86 f2 2b bc 5e 49 95 be
       0.36966255 0.08645602 -0.010494834 -0.29157537
000100 d7 8c 34 be b2 e9 ee bd d5 5c f2 3e 12 d5 f1 bb
       -0.17631851 -0.116656676 0.4733645 -0.0073801363
000110 8a 04 de bc e8 57 33 be 4e cb 00 3f 47 93 f2 bd
       -0.027101774 -0.17514002 0.5031022 -0.11844497
000120 14 8d b7 be 6a d9 91 bd 28 8e a1 bb 74 1f ee bd
       -0.35849822 -0.071215466 -0.0049302764 -0.11627093
000130 88 bf c4 be d4 e1 97 bd cb 63 3f bb f8 28 1f bb
       -0.38427377 -0.0741612 -0.0029203768 -0.0024285894
000140 b4 1d 42 bf 7a 01 a4 3e 8f c8 bd be c2 cf 41 be
       -0.75826573 0.32032377 -0.37067077 -0.1892691
000150 c8 c6 29 be 02 df 30 be 5e d7 a2 bc 03 bc 4a 3c
       -0.16579735 -0.1727257 -0.019878086 0.012373927
000160 15 a3 1a 3b d5 03 18 bf b2 06 14 b8 f8 ab bb 3b
       0.002359574 -0.5938085 -3.5292185e-05 0.0057272874
000170 7d c4 7a 3f 47 cf da 3e 35 b2 e2 3c 83 39 d5 bd
       0.9795607 0.42736265 0.027672866 -0.1041136
000180 ad 0f 97 bb ef 66 81 bb 74 3a 91 bf ad fa 45 3b
       -0.004610023 -0.003949038 -1.1345963 0.003020923
000190 da c3 50 3c 55 57 15 bf 6f 45 2d 39 83 53 83 3b
       0.012742007 -0.58336383 0.00016524432 0.004007758
0001a0 24 33 74 3f e9 9e 20 bf e2 22 09 3d c3 2b b8 bd
       0.95390534 -0.6274248 0.033480532 -0.08992722
0001b0 10 b4 48 3e 5d 6f 0f 3e 2c 04 e4 b9 ac ca 21 bd
       0.19599938 0.14007325 -0.00043490657 -0.039499924
0001c0 6a 58 01 3f 24 dc da bd 74 c3 bd 3d d9 5f 16 be
       0.50525534 -0.1068652 0.09265795 -0.14685
0001d0 d1 94 0a 3f 32 2c 13 3f ea da df 3c 97 8a 8f bd
       0.54133326 0.5748931 0.027326066 -0.07008856
0001e0 5c 3e 2e bb 4b 37 70 bb e4 be 91 bf 6b 21 28 3c
       -0.0026587462 -0.003665405 -1.138638 0.010261874
0001f0 c2 90 1c 3a 1f 8b 1e bf d4 05 33 be a8 40 13 be
       0.00059724983 -0.6193103 -0.17482692 -0.14380133
000200 9e fe a4 bb 3c a6 f6 3e 32 92 8d 3d 32 c5 97 bd
       -0.0050352355 0.48173702 0.0691265 -0.07410659
000210 73 98 30 3e 87 93 1c 3e c6 a0 08 3b 7a a7 16 bf
       0.17245655 0.15290652 0.0020847782 -0.588493
000220 66 2d 70 3d 78 94 e4 bd df c3 bd 3d 11 7c 91 3e
       0.058637045 -0.11161131 0.09265875 0.28414968
000230 4e ba de 3b 89 2d d3 3b 69 b1 4f 3b 14 4b 12 bf
       0.0067971116 0.006444637 0.0031691438 -0.5714581
000240 3d e6 11 3e 83 d8 4a 3e 66 c5 98 3b e6 f1 2d 3e
       0.14247985 0.19809155 0.0046622036 0.16986808
000250 81 42 c4 3e 63 a4 5e bd 83 cf 5f 3e 15 50 eb 3d
       0.38331988 -0.05435599 0.21856503 0.11489884
000260 b7 4b ed 3a 74 bd 42 bd 7d 1a ef be 94 d2 ac bd
       0.001810423 -0.047543958 -0.46699896 -0.08438602
000270 b8 bc c9 3e 6b 8a 5b 3c b2 b5 a6 ba 29 ea c1 3c
       0.39401793 0.013399701 -0.0012718944 0.023671227
000280 cd 2f 6c 3c 42 74 14 bf 6c f8 15 3e a1 4f 63 3e
       0.0144156935 -0.57989895 0.14645547 0.22198345
000290 8b 57 48 3b b9 62 60 3e 54 98 79 3e cd 45 ba bd
       0.0030569758 0.2191266 0.24374515 -0.09095345
0002a0 4b 00 3b 3e 9b 05 13 3e 0f d0 6d ba 5e 71 e0 3e
       0.1826183 0.14357607 -0.00090718357 0.43836492
0002b0 a1 71 ae 3d 5e 44 c3 bd d8 c2 a9 3d 23 f6 35 3d
       0.08517767 -0.095345244 0.082891166 0.044424187
0002c0 e8 79 4a bf 99 74 dc b9 0a 13 74 3c ba 21 17 bf
       -0.79092264 -0.00042048542 0.014897117 -0.5903584
0002d0 33 3b 2d be 5b 64 0b be 08 14 6e bb c5 f1 31 be
       -0.16917114 -0.13612501 -0.0036327858 -0.17377384
0002e0 ce f2 7f be 53 ce 21 be 96 11 77 3b b0 56 9c 3b
       -0.24994966 -0.15801363 0.003769969 0.004771076
0002f0 b6 37 81 3f d1 4d 95 bd 70 ad d3 3e 7d 43 0b be
       1.0095127 -0.07290233 0.4134326 -0.13599963

embedding.bias f4 [64]
000000 dd ae 1a be 31 ce 61 bd 0e 9b f1 bd 68 53 dc bd
       -0.15105768 -0.05512828 -0.117971525 -0.10758096
000010 f6 48 f5 bd c9 cb 32 be 51 b5 de bd 1a 4c e5 bd
       -0.11976807 -0.1746055 -0.10874427 -0.11196156
000020 3a 9e da bd f8 88 94 be f2 8b a8 bd 97 e5 b7 be
       -0.106747106 -0.2901075 -0.082298175 -0.3591735
000030 89 ad 82 bd ae ec 48 be 11 12 88 bd c9 86 f4 be
       -0.063807555 -0.19621536 -0.06644071 -0.47759083
000040 7f cc 4b bd 4b 8d d4 be 40 34 1d bd 13 15 ef be
       -0.04975557 -0.41514048 -0.038379908 -0.46695766
000050 2b cd dd bc 6b 1e f4 be 74 f1 91 bc 6a c6 0b bf
       -0.02707537 -0.47679457 -0.01781533 -0.5459963
000060 ae 14 bf bc d8 cd 18 bf f9 9c ac bc 55 9f 07 bf
       -0.02332529 -0.5968909 -0.021070944 -0.52977496
000070 41 d2 79 bc fe 55 a2 be 81 84 31 bd 14 84 c9 be
       -0.015247882 -0.31706232 -0.043339256 -0.3935858
000080 56 a2 72 3b e5 0c ab be 9b a9 fc bc 1f b3 10 bf
       0.003702303 -0.33408275 -0.030842593 -0.5652332
000090 e7 4f 41 bb e9 89 15 bf 18 9d 6c bc 41 31 cc be
       -0.0029497088 -0.5841356 -0.014441751 -0.39881328
0000a0 b4 68 17 3c ec 73 9a be 5f 12 84 bb dd 5b e0 be
       0.009241272 -0.30166566 -0.0040305103 -0.43820086
0000b0 72 e6 09 ba 27 9d 11 bf 4a 3f 02 bb 0f 9e b8 be
       -0.0005260474 -0.5688042 -0.001987415 -0.3605809
0000c0 9c ab 05 bb f8 62 0b bf 64 69 e4 37 73 fe 13 bf
       -0.0020396477 -0.5444789 2.7228794e-05 -0.57810134
0000d0 cd ea 29 3a 23 1d af be df c3 d2 b8 a2 ee e4 be
       0.00064818264 -0.34201917 -0.00010050064 -0.44713312
0000e0 a1 65 8c 3a 3c af f7 be e6 fc 5a b9 82 74 a5 be
       0.001071144 -0.4837588 -0.00020884312 -0.3231545
0000f0 62 61 77 bb 34 48 da be d6 f6 b6 bc 72 f5 fa be
       -0.0037747254 -0.42633212 -0.022334497 -0.49015385

pos_encoder.pe f4 [1, 10, 64]
000000 00 00 00 00 00 00 80 3f 00 00 00 00 00 00 80 3f
       0.0 1.0 0.0 1.0
000010 00 00 00 00 00 00 80 3f 00 00 00 00 00 00 80 3f
       0.0 1.0 0.0 1.0
000020 00 00 00 00 00 00 80 3f 00 00 00 00 00 00 80 3f
       0.0 1.0 0.0 1.0
000030 00 00 00 00 00 00 80 3f 00 00 00 00 00 00 80 3f
       0.0 1.0 0.0 1.0
000040 00 00 00 00 00 00 80 3f 00 00 00 00 00 00 80 3f
       0.0 1.0 0.0 1.0
000050 00 00 00 00 00 00 80 3f 00 00 00 00 00 00 80 3f
       0.0 1.0 0.0 1.0
000060 00 00 00 00 00 00 80 3f 00 00 00 00 00 00 80 3f
       0.0 1.0 0.0 1.0
000070 00 00 00 00 00 00 80 3f 00 00 00 00 00 00 80 3f
       0.0 1.0 0.0 1.0
000080 00 00 00 00 00 00 80 3f 00 00 00 00 00 00 80 3f
       0.0 1.0 0.0 1.0
000090 00 00 00 00 00 00 80 3f 00 00 00 00 00 00 80 3f
       0.0 1.0 0.0 1.0
0000a0 00 00 00 00 00 00 80 3f 00 00 00 00 00 00 80 3f
       0.0 1.0 0.0 1.0
0000b0 00 00 00 00 00 00 80 3f 00 00 00 00 00 00 80 3f
       0.0 1.0 0.0 1.0
0000c0 00 00 00 00 00 00 80 3f 00 00 00 00 00 00 80 3f
       0.0 1.0 0.0 1.0
0000d0 00 00 00 00 00 00 80 3f 00 00 00 00 00 00 80 3f
       0.0 1.0 0.0 1.0
0000e0 00 00 00 00 00 00 80 3f 00 00 00 00 00 00 80 3f
       0.0 1.0 0.0 1.0
0000f0 00 00 00 00 00 00 80 3f 00 00 00 00 00 00 80 3f
       0.0 1.0 0.0 1.0
000100 a4 6a 57 3f 41 51 0a 3f ce 7a 2e 3f b0 54 3b 3f
       0.84147096 0.54030234 0.68156135 0.731761
000110 ba 7d 08 3f 0d 94 58 3f f0 90 d1 3e c7 92 69 3f
       0.53316844 0.8460091 0.4093089 0.9123959
000120 3e 39 9f 3e 6b 4e 73 3f 25 8f 70 3e f1 d5 78 3f
       0.3109836 0.9504153 0.23492105 0.9720145
000130 3a 23 35 3e 83 f6 7b 3f f3 25 08 3e 28 ba 7d 3f
       0.17689219 0.9842302 0.13295726 0.99112177
000140 76 75 cc 3d 98 b8 7e 3f 36 6f 99 3d d1 47 7f 3f
       0.099833414 0.9950042 0.07491915 0.9971896
000150 ae 36 66 3d 68 98 7f 3f fb ac 2c 3d bd c5 7f 3f
       0.05620449 0.9984193 0.042157155 0.999111
000160 5b 81 01 3d 3c df 7f 3f a5 3e c2 3c 93 ed 7f 3f
       0.031617504 0.99950004 0.023711512 0.99971884
000170 42 ab 91 3c a3 f5 7f 3f 49 7a 5a 3c 2c fa 7f 3f
       0.017781857 0.99984187 0.013334819 0.99991107
000180 57 d6 23 3c b9 fc 7f 3f 16 b9 f5 3b 28 fe 7f 3f
       0.009999833 0.99995 0.0074988706 0.99997187
000190 5a 44 b8 3b f7 fe 7f 3f 5a 2e 8a 3b 6b ff 7f 3f
       0.0056233825 0.9999842 0.0042169513 0.9999911
0001a0 1c 3e 4f 3b ac ff 7f 3f 03 69 1b 3b d1 ff 7f 3f
       0.0031622713 0.999995 0.0023713715 0.9999972
0001b0 20 15 e9 3a e6 ff 7f 3f 8b c9 ae 3a f1 ff 7f 3f
       0.0017782785 0.99999845 0.0013335211 0.9999991
0001c0 6d 12 83 3a f8 ff 7f 3f 89 94 44 3a fb ff 7f 3f
       0.0009999998 0.9999995 0.000749894 0.9999997
0001d0 13 6a 13 3a fd ff 7f 3f 21 17 dd 39 ff ff 7f 3f
       0.0005623411 0.9999998 0.00042169637 0.99999994
0001e0 61 cb a5 39 ff ff 7f 3f 0d a8 78 39 00 00 80 3f
       0.00031622782 0.99999994 0.00023713727 1.0
0001f0 53 77 3a 39 00 00 80 3f 6d d4 0b 39 00 00 80 3f
       0.00017782794 1.0 0.00013335208 1.0
000200 b7 c7 68 3f 33 11 d5 be d9 5a 7f 3f 53 4d 91 3d
       0.9092974 -0.41614684 0.99748 0.070948265
000210 0a f2 66 3f b2 e8 dc 3e 11 35 3f 3f 03 39 2a 3f
       0.9021307 0.43146282 0.7469035 0.6649324
000220 1b 54 17 3f ec 7b 4e 3f b5 d3 e9 3e 69 be 63 3f
       0.5911271 0.8065784 0.45669332 0.8896242
000230 f6 47 b2 3e a6 fa 6f 3f 82 f0 86 3e f5 f2 76 3f
       0.34820527 0.93741834 0.26355368 0.96464473
000240 f8 6f 4b 3e a5 e5 7a 3f d3 00 19 3e 4f 20 7d 3f
       0.19866931 0.9800666 0.1494172 0.98877424
000250 86 d9 e5 3d f3 61 7e 3f af 85 ac 3d 0e 17 7f 3f
       0.1122313 0.9936821 0.084239356 0.99644554
000260 c8 70 81 3d f9 7c 7f 3f aa 30 42 3d 4e b6 7f 3f
       0.063203394 0.9980007 0.04740969 0.9988755
000270 5c a5 11 3d 8e d6 7f 3f 50 75 da 3c b1 e8 7f 3f
       0.03555809 0.9993676 0.026667267 0.99964434
000280 3e d4 a3 3c e5 f2 7f 3f 51 b7 75 3c a1 f8 7f 3f
       0.019998666 0.9998 0.014997319 0.9998875
000290 9b 43 38 3c db fb 7f 3f 0a 2e 0a 3c ab fd 7f 3f
       0.011246587 0.99993676 0.008433828 0.9999644
0002a0 d8 3d cf 3b b1 fe 7f 3f e7 68 9b 3b 43 ff 7f 3f
       0.006324511 0.99998003 0.00474273 0.99998873
0002b0 08 15 69 3b 96 ff 7f 3f 80 c9 2e 3b c4 ff 7f 3f
       0.0035565514 0.9999937 0.0026670396 0.9999964
0002c0 68 12 03 3b df ff 7f 3f 85 94 c4 3a ed ff 7f 3f
       0.0019999985 0.99999803 0.0014997876 0.99999887
0002d0 12 6a 93 3a f5 ff 7f 3f 1f 17 5d 3a fa ff 7f 3f
       0.0011246821 0.99999934 0.0008433926 0.99999964
0002e0 60 cb 25 3a fd ff 7f 3f 0c a8 f8 39 fe ff 7f 3f
       0.0006324556 0.9999998 0.0004742745 0.9999999
0002f0 53 77 ba 39 ff ff 7f 3f 6d d4 8b 39 00 00 80 3f
       0.00035565588 0.99999994 0.00026670416 1.0
000300 c3 81 10 3e 26 70 7d bf de 3c 47 3f ce bf 20 bf
       0.14112 -0.9899925 0.7782725 -0.6279267
000310 d7 45 7e 3f ab 7f ed bd 63 21 74 3f 63 18 9a 3e
       0.9932532 -0.11596616 0.95363444 0.3009673
000320 c2 09 50 3f 58 2f 15 3f b7 24 27 3f a2 e7 41 3f
       0.8126489 0.58275366 0.652904 0.7574407
000330 6c 2f 02 3f 29 6d 5c 3f a7 68 c7 3e 37 c9 6b 3f
       0.5085361 0.86104065 0.3894703 0.92103904
000340 6c 4e 97 3e ef 90 74 3f e2 6d 64 3e 92 8c 79 3f
       0.2955202 0.9553365 0.22307542 0.9748012
000350 d7 ee 2b 3e 9e 5d 7c 3f 2c 33 01 3e 43 f4 7d 3f
       0.16790329 0.9858035 0.12617177 0.9920084
000360 c0 ff c1 3d 4f d9 7e 3f 06 93 91 3d 3a 5a 7f 3f
       0.094726086 0.99550337 0.071081206 0.9974705
000370 4e 69 5a 3d c3 a2 7f 3f c5 d1 23 3d 90 cb 7f 3f
       0.053323083 0.9985773 0.039994974 0.99919987
000380 1f b9 f5 3c 83 e2 7f 3f 47 47 b8 3c 6b ef 7f 3f
       0.0299955 0.99955004 0.022494925 0.999747
000390 c6 31 8a 3c ad f6 7f 3f 46 44 4f 3c c1 fa 7f 3f
       0.016869437 0.9998577 0.012650555 0.99991995
0003a0 0d 6e 1b 3c 0d fd 7f 3f 13 1d e9 3b 58 fe 7f 3f
       0.009486687 0.999955 0.0071140616 0.9999747
0003b0 a8 cf ae 3b 11 ff 7f 3f 13 17 83 3b 7a ff 7f 3f
       0.005334813 0.99998575 0.0040005534 0.999992
0003c0 92 9b 44 3b b5 ff 7f 3f 60 6f 13 3b d6 ff 7f 3f
       0.0029999954 0.9999955 0.0022496805 0.9999975
0003d0 17 1f dd 3a e8 ff 7f 3f 56 d1 a5 3a f3 ff 7f 3f
       0.0016870227 0.99999857 0.0012650888 0.9999992
0003e0 10 b1 78 3a f9 ff 7f 3f 09 7e 3a 3a fc ff 7f 3f
       0.00094868336 0.9999996 0.00071141176 0.99999976
0003f0 7e d9 0b 3a fe ff 7f 3f a4 be d1 39 ff ff 7f 3f
       0.0005334838 0.9999999 0.00040005625 0.99999994

transformer.layers.0.self_attn.in_proj_weight f4 [192, 64]
000000 01 fc b7 bc fc ec 55 bd f1 df 8f bd b4 b4 40 bd
       -0.022459032 -0.05222796 -0.07025135 -0.047047332
000010 c9 91 7d bd f9 f5 1d be 7a 36 69 bc 37 31 1c be
       -0.06190661 -0.15425862 -0.01423418 -0.15253149
000020 8d 03 77 3d 58 1e 39 be 0d 0e a9 3d 64 ed eb bd
       0.06030612 -0.18077981 0.08254633 -0.11519888
000030 fd a6 ac 3d 9c b0 aa bd 16 2a c4 3d 3e b1 66 bc
       0.08430288 -0.08334467 0.0957834 -0.014080344
000040 88 41 e1 3d 3f 10 21 bc 25 87 83 3d d7 12 cc 3b
       0.10998827 -0.0098305335 0.06422261 0.006227832
000050 b4 a0 73 3d 75 75 80 3c b6 c9 1c 3d d8 ef 06 3c
       0.05947943 0.015681008 0.038278304 0.008235894
000060 17 2e aa 3c 78 88 56 3d 68 ef 29 bd ec f2 81 3c
       0.02077393 0.05237624 -0.04148808 0.015862904
000070 33 5c bb 3c df b3 93 3c 52 d3 43 3d b1 3c 2d 3d
       0.022871112 0.018030105 0.047808953 0.042294208
000080 51 5c 46 bd 17 eb da 3c 4c d7 3b 3d 78 24 a4 3c
       -0.048427884 0.026723428 0.04585962 0.02003692
000090 da 85 97 3c 1b de 18 3c c1 27 85 3d f4 b0 04 3d
       0.018496443 0.009330298 0.06501723 0.03239532
0000a0 57 00 59 bd b4 66 4d 3c 14 8f 3f bc ab 18 c7 3b
       -0.05297884 0.012536693 -0.011691827 0.0060759387
0000b0 fb 38 70 bc d1 46 6a 3c 3e 2f d0 3b cd 24 22 bc
       -0.014662023 0.0142991105 0.006353288 -0.009896469
0000c0 9d d7 1c 3c d9 50 d9 3c 53 73 0c 3c ff 9e 49 3d
       0.009572891 0.026527809 0.008572417 0.049223896
0000d0 db 59 9e bb bd ec 98 3c 77 c8 ca bc cb 63 f7 3c
       -0.004832489 0.018667573 -0.024753792 0.030198952
0000e0 3e 37 e2 bc 8d a0 1b 3d 8d 10 80 bd 72 da 20 3c
       -0.027614232 0.03799491 -0.06253157 0.009817706
0000f0 e0 b9 53 bc dd 1e 9b 3c b5 35 3b 3d c8 b2 46 3d
       -0.012922734 0.018935615 0.045705516 0.048510343
000100 df b3 c1 bc c0 7e f3 bb c2 20 72 3d 0c 61 12 bc
       -0.02364534 -0.0074308813 0.05911327 -0.008934271
000110 22 bb 20 3d 54 a1 3e 3d 36 98 5f 3d 49 27 84 3d
       0.039240964 0.046540573 0.05458852 0.064528055
000120 a4 b3 1c b9 66 4f 43 3d 75 12 35 3d 8e 3c 6d 3d
       -0.0001494424 0.047683142 0.044207055 0.057919078
000130 51 54 71 bd 35 a1 44 3d 05 ad df 3c 3d 8d 91 3d
       -0.0589183 0.0480053 0.027304182 0.07107017
000140 34 b5 1b 3c 13 ad 67 3c e2 17 88 bd ca 1d b6 3c
       0.009503651 0.014140385 -0.0664518 0.022231001
000150 ef 8e a7 bc 32 c4 78 bb a2 a5 2d bd 62 3e 93 3d
       -0.020453898 -0.0037958738 -0.042394288 0.07189633
000160 d9 c2 80 3c d0 eb 18 bd 63 71 2c 3b ef ee ce bd
       0.01571791 -0.037334263 0.00263127 -0.10104167
000170 c1 60 b6 bc e3 62 f0 3b a9 71 0e bb 9b 8c f0 bc
       -0.022262933 0.007336007 -0.0021735227 -0.02936392
000180 dd 5c 22 bc fd a5 bc 3a a4 36 70 bc a2 60 a7 3d
       -0.009909836 0.001439273 -0.014661465 0.08172728
000190 34 38 27 ba 07 a9 2b 3d 40 f4 60 bd 4d 23 ec bc
       -0.00063789194 0.041909244 -0.054920435 -0.028825426
0001a0 85 38 ec b9 b1 5d 5e 3c 54 01 9b bb b8 df 7a b9
       -0.00045055538 0.013572142 -0.004730383 -0.000239252
0001b0 b6 32 25 3c e0 dc 00 3d 4f a7 8c 3d bf 8d c8 3b
       0.010082891 0.031460643 0.06867849 0.006120413
0001c0 aa 31 e0 3b 68 1f 17 3d 22 58 bd ba f9 65 37 bd
       0.006841858 0.036895186 -0.0014445821 -0.044774983
0001d0 a6 69 8c bd a0 74 af 3c 97 83 2f 3d 46 30 f1 bc
       -0.06856088 0.021417916 0.042850103 -0.029441964
0001e0 fa d6 72 3c dd aa b5 bc 65 c9 91 3c 54 a5 27 bd
       0.014821762 -0.0221762 0.017796228 -0.040929154
0001f0 2b 6f f1 3b 96 25 09 bc 37 74 dd bc 66 41 37 3d
       0.0073679886 -0.008370778 -0.027032955 0.044740103
000200 e4 a1 53 bd 7e fb 8a 3c 94 3b 27 bc 16 9b 3b bd
       -0.051668063 0.016965624 -0.010207076 -0.0458022
000210 a9 d4 42 3d 60 c5 15 bc d9 b4 ec 3c d7 4d 3f 3d
       0.04756609 -0.009141296 0.028894829 0.046705093
000220 4e 86 27 bd 8c 73 9e 3d 04 86 fb bc ee 3e 9d 3d
       -0.040899567 0.077368826 -0.030703552 0.076780185
000230 54 6a ae bc c7 73 55 3c 0d e5 2a bd 8b 06 e6 3b
       -0.021290936 0.013028092 -0.041722346 0.007019823
000240 5e 71 61 bb 25 36 85 bc 08 ea 89 bb 52 90 cc bc
       -0.0034399848 -0.01626117 -0.004208807 -0.024971161
000250 90 55 28 bd f6 a5 1e bd d9 66 8a bc 2f f6 23 bc
       -0.041097224 -0.03873249 -0.016894745 -0.010007425
000260 03 09 ff bc fe 01 70 3c a5 43 c8 bd 57 0f 67 3c
       -0.031132227 0.0146489125 -0.09778527 0.014102778
000270 9b 72 cf bb 40 c7 db bd c9 33 af 3d 95 33 3e bc
       -0.0063308007 -0.10731363 0.08554799 -0.011608978
000280 b1 a6 dc bd 8b 8b c9 bd 3a 7f ab 3d d2 5d b5 bb
       -0.10773981 -0.09841069 0.08373876 -0.005534866
000290 de 60 7f bb cf bf 4c bc 72 01 a9 3d 4a 36 36 bc
       -0.003896765 -0.012496903 0.08252229 -0.011121342
0002a0 48 a5 cf bd c3 fc db bd 09 77 c0 bb 2f 25 ed bc
       -0.10138947 -0.1074157 -0.005873565 -0.028948395
0002b0 20 c0 8c bc 6c 2a d4 bb fb 40 49 bc b6 2b f2 bd
       -0.017181456 -0.0064747836 -0.012283559 -0.118247434
0002c0 aa 96 91 3b 20 d4 be bc fd a3 fe 3b 60 1a 86 3c
       0.0044430094 -0.023294508 0.007771014 0.016369998
0002d0 dd 92 a4 3b 10 7d cb bd fa 53 bc bc c8 0a 9b bc
       0.0050223903 -0.09935963 -0.022989262 -0.01892604
0002e0 b6 53 d2 bc 62 11 07 bc 5b a6 cb bd c5 15 c9 bd
       -0.025674682 -0.0082438905 -0.09943839 -0.09818605
0002f0 71 20 c5 3b c1 9b 29 bd 8a 34 e0 3d 50 b2 83 bb
       0.00601583 -0.041408304 0.10947521 -0.0040190592
000300 65 d0 c4 3a 00 d5 77 3d 72 06 14 3d 78 8b be 3c
       0.001501572 0.060505867 0.03613896 0.023259863
000310 9c b9 7d 3d 35 cf ed 3d 9e 30 dd 3b ee e6 08 3e
       0.06194459 0.11611787 0.0067501804 0.13369343
000320 2d ef b2 bd b3 9f 41 3e c2 74 ee bd b2 bb 07 3e
       -0.087370254 0.18908577 -0.116433635 0.13255194
000330 5e f6 87 bd 24 69 89 3d 23 7b 06 be 17 c8 c3 bb
       -0.06638788 0.06709507 -0.1313291 -0.0059747803
000340 7e 1e db bd 23 cf 9e bb 21 aa 27 bd be 10 ea bc
       -0.10699175 -0.00484647 -0.040933732 -0.028572436
000350 55 e0 90 bd 59 55 1e bd b5 df 01 bd e2 7f 0d bd
       -0.07074038 -0.038655613 -0.031707484 -0.034545787
000360 70 37 25 bd 33 32 fd bc 13 ea 15 bc 89 6c 91 3c
       -0.040336072 -0.030907726 -0.009150046 0.017751949
000370 f1 8f b2 bc 7c 3d b0 bd 1c 5a 7a ba 98 a1 12 bd
       -0.021797152 -0.08605477 -0.00095501705 -0.03579864
000380 f5 d0 bc bb 89 0f b2 bd f3 82 23 3b 18 7e 33 bd
       -0.0057622143 -0.08694369 0.0024949878 -0.043821424
000390 7a 48 b3 bc 97 58 f1 bc f8 95 09 bb 37 8f e5 bc
       -0.021885145 -0.029461188 -0.002099393 -0.028022392
0003a0 7e 23 8d ba fb a5 aa bd 4b 27 25 3c 8d 5e ab bc
       -0.0010768024 -0.083324395 0.010080169 -0.020919109
0003b0 5b 9b 01 3b ac 29 cf bc 4d ca 05 bd c4 a6 84 bd
       0.0019776437 -0.025288425 -0.032663632 -0.064771205
0003c0 17 dc 1c bc 7d 19 45 bd e2 dd 90 bb 90 40 c4 bc
       -0.009573958 -0.04812001 -0.0044209817 -0.023956567
0003d0 ad 5b aa 3c 38 d8 af bd 60 b1 ea b9 0a 3b fa bc
       0.020795668 -0.08586162 -0.00044764113 -0.03054573
0003e0 8c 94 15 3c bc 11 06 bd 93 d4 be 3a 1a a7 6a bd
       0.009129655 -0.032731757 0.0014559202 -0.057288267
0003f0 99 be 85 3c d0 43 23 bd 53 dd 83 3c 48 66 78 bd
       0.016326236 -0.039859593 0.016096747 -0.060644418

transformer.layers.0.self_attn.in_proj_bias f4 [192]
000000 42 3e 8d 3d f9 0c f7 bb ed b9 99 bc c0 44 8c bd
       0.0689664 -0.0075393883 -0.018765414 -0.068490505
000010 09 93 83 3d e6 ee 3c bd 0d af 90 3d 73 f6 8d bd
       0.06424529 -0.04612627 0.07064638 -0.06931772
000020 5b 9b 17 be 87 c7 16 be 5d 38 00 3e 50 db 2d be
       -0.14805357 -0.14724551 0.12521501 -0.16978192
000030 77 54 f0 3d a5 44 27 be d7 fd f1 3d 00 6f 16 3e
       0.117348604 -0.1633478 0.11815994 0.1469078
000040 dd 74 1f bd 59 0a b5 3c da be 59 3d e1 1a b5 bc
       -0.03892981 0.02209966 0.053160526 -0.022107543
000050 f6 38 b4 bc f3 08 6e bd 20 63 75 3d af c3 b1 bc
       -0.021999817 -0.058114003 0.059908986 -0.021699755
000060 53 b2 3f 3d 0b 33 a2 bc 28 af a3 3c 71 3a 96 bd
       0.046800923 -0.01979973 0.019980982 -0.073353656
000070 c4 06 98 bd 1c cb a1 3c f5 69 9c 3c b4 6b 99 bc
       -0.074231654 0.01975017 0.019093493 -0.018728115
000080 66 9e 02 3e b8 8c 86 3d af 01 35 be 3a 0a 2c 3e
       0.12755737 0.06569809 -0.17676423 0.16800776
000090 c5 2a 16 3e f9 27 2c be 7c ae 1b be 02 1f e8 bd
       0.14664753 -0.16812123 -0.1520328 -0.11334039
0000a0 67 f4 85 bd 6d 8d cb bd c5 49 ca 3d 0a 4f ce bd
       -0.06540757 -0.09939084 0.09877352 -0.10073669
0000b0 7e 1a 3e 3d 5a 6d cc bd 00 ce b6 3d a1 c2 c3 3d
       0.046411984 -0.09981795 0.0892601 0.09558607
0000c0 f3 aa 37 3e ca bc 19 bc b5 16 4d be 32 7c 2b be
       0.17936306 -0.00938339 -0.20028193 -0.16746596
0000d0 7e 8b 2b be 4f ef 2c be e0 aa 7b 3b 3b 3f 31 3e
       -0.16752431 -0.16888164 0.003840141 0.17309277
0000e0 b3 93 9b be c1 a9 31 be 37 d5 30 3c c0 f3 07 3d
       -0.30386123 -0.17349912 0.010793022 0.033191442
0000f0 3f 4e b8 3e 2e 39 4b 3c ae 2c 38 3d 06 a5 35 3d
       0.35997197 0.012403769 0.044964485 0.04434683
000100 fd 1e b3 3a 79 e1 90 b9 99 64 f3 b9 2c 88 a2 ba
       0.0013665851 -0.0002763381 -0.00046423523 -0.0012400202
000110 fa 56 9b 3a a2 01 71 ba e2 61 9b 3a 19 dc a8 ba
       0.0011851483 -0.0009193664 0.0011854733 -0.0012882977
000120 ad 15 76 b9 8d e2 e2 b9 8a 73 73 3a 3c c3 f0 39
       -0.00023468463 -0.00043274873 0.0009286931 0.00045921828
000130 b2 78 7b 3a 89 ba e2 39 db 36 43 3a 87 ea c2 38
       0.0009592875 0.0004324506 0.0007446834 9.294325e-05
000140 c5 76 e1 ba 73 f5 32 3b 97 46 db 3a b8 4c 32 bb
       -0.0017201534 0.0027306944 0.0016729411 -0.0027206372
000150 a6 36 33 bb 09 25 bd ba 9b 56 eb 3a 0c aa 36 bb
       -0.0027345805 -0.0014430593 0.0017954888 -0.0027872352
000160 0d 95 7c 3a 3c db 0e bb 75 2b 0d 3b dc 95 8c ba
       0.00096352474 -0.0021798154 0.0021540795 -0.0010725814
000170 65 be 87 ba 4f 6e 0f 3b b9 60 10 3b 0f a8 12 bb
       -0.0010356425 0.0021885817 0.0022030307 -0.0022378003
000180 7a 6d 7b 3b e2 7d 24 3b 80 1f 9e bb 0f 91 cc 3b
       0.0038364814 0.0025099446 -0.0048255324 0.0062428783
000190 c6 7a 9c 3b 12 48 cd bb cf 44 a9 bb 24 9c 4c bb
       0.004775378 -0.006264695 -0.0051656733 -0.0031220997
0001a0 b2 55 1e 39 26 43 9c ba 60 fe 98 3a 7e 75 a8 ba
       0.00015099978 -0.0011921867 0.0011672489 -0.0012852398
0001b0 ad ac 16 39 20 cf a5 ba 08 36 5e 3a 1e e1 6a 3a
       0.00014369441 -0.0012650229 0.0008476679 0.00089599367
0001c0 45 28 1b 3b 51 f9 57 b9 0a 21 21 bb 73 c0 11 bb
       0.0023675126 -0.00020596875 -0.0024586343 -0.0022239953
0001d0 2e 37 06 bb e4 98 0b bb 91 b8 68 b8 a2 c1 12 3b
       -0.0020479667 -0.0021300847 -5.5485e-05 0.0022393246
0001e0 87 63 a7 bc db fa 94 bc 60 f9 1b bc 10 51 b0 bb
       -0.0204332 -0.018186023 -0.009519905 -0.005380757
0001f0 1a b7 d8 3c 7f 8b 6b 3c 16 55 55 bc 60 9f 27 bc
       0.026454497 0.01437652 -0.013020774 -0.010230869
000200 1f 57 1d bd 29 8d 97 3b 85 b4 0a bc df 82 1c bc
       -0.038413163 0.004624982 -0.008465891 -0.0095526865
000210 43 60 9b 3c 89 85 60 3b be 9e 8f 3b a4 af 34 bb
       0.0189668 0.003425928 0.004382937 -0.002757051
000220 39 2f 08 bb c1 54 11 bc 17 b1 1a bb f2 0d 82 bb
       -0.00207801 -0.008870305 -0.002360409 -0.0039689476
000230 cf 7a 51 bb 1e 5b f3 3b f7 4b 1e 3b 39 bc e3 bb
       -0.0031964069 0.0074266335 0.0024154165 -0.006949928
000240 50 be d9 bb a4 6a 4b 3b f4 35 bf 3c 83 08 2c 3c
       -0.0066450015 0.0031038905 0.023341157 0.010500076
000250 53 a7 88 bc df 5a 76 3c 4f 85 c3 3c 71 9e f6 3b
       -0.016681349 0.015036314 0.023867277 0.007526212
000260 2a 8c ae 3c 3f 1a 4f 3b 16 f4 8e 3c bf 31 90 3c
       0.02130707 0.0031601337 0.017450374 0.017601846
000270 5b 9d 35 3c 18 03 54 3c d7 f7 c7 ba 48 33 b3 3c
       0.01108488 0.012940191 -0.0015256357 0.021875039
000280 67 99 f0 ba 7d 6c 39 3c 38 34 2d 3c 2c 42 08 bb
       -0.0018356264 0.0113173695 0.010571532 -0.0020791395
000290 54 2e 4a 3c fd 4c f4 ba 55 65 c3 3b df 35 3b bb
       0.012340147 -0.0018638667 0.0059630075 -0.0028566045
0002a0 18 1c 04 bc f2 9e 52 bb 74 07 06 3c 34 f9 08 3c
       -0.008063339 -0.0032138196 0.008180488 0.008360196
0002b0 20 4b f8 3c 8e a1 99 3b 37 38 04 bc 5a 3f fd 3a
       0.03030926 0.0046884483 -0.008070043 0.0019321248
0002c0 3e 7c 1e 3d b0 e5 86 3c 8e 13 b3 3c 6d ed 41 bc
       0.038692705 0.016466945 0.02185991 -0.011836392
0002d0 84 ad 08 bc 46 ff a7 bc c8 01 33 3b 29 04 2c 3c
       -0.008342151 -0.020507466 0.0027314294 0.010499039
0002e0 02 40 13 bb d3 27 b5 bc 3a ed 8c 3b e7 69 94 bc
       -0.0022468572 -0.022113716 0.0043007405 -0.018116904
0002f0 1a 7a a5 bb 69 93 a5 3b 57 6f 24 3b 39 f6 0c bd
       -0.005049956 0.005052973 0.0025090778 -0.034414504

transformer.layers.0.self_attn.out_proj.weight f4 [64, 64]
000000 56 cf 78 bd b6 65 9d bc 0a 4f 22 bd 75 b1 86 3c
       -0.060744606 -0.019213539 -0.03962616 0.01644204
000010 16 15 f7 bc d5 6d f0 3c 5b d6 a5 bc 4e bb d9 bc
       -0.030161422 0.029349247 -0.020243814 -0.026578572
000020 cd 7a 32 bb 86 be 93 bc 0b e4 8c bb 68 45 74 3d
       -0.002723384 -0.018035185 -0.004299646 0.059636503
000030 15 76 02 3b 83 e8 04 3c d2 0c a5 3b dc b6 2d bd
       0.0019906808 0.008112076 0.0050369287 -0.042410716
000040 fa a1 a7 bb 9c bf c3 3d cf 43 0a 3d b9 65 10 3c
       -0.0051157447 0.09558031 0.033756074 0.008813315
000050 45 c6 dc 3b 27 b8 e6 3d d4 88 bf 3c a8 95 56 3d
       0.0067375028 0.11265593 0.023380674 0.052388817
000060 8e aa ce 3d 88 fb 94 3c 60 49 c3 3d 49 6b 67 3d
       0.100911245 0.018186346 0.095354795 0.0564988
000070 d6 78 5f bc cd 6b c2 3d fe 7f 32 3c c2 be 33 3d
       -0.013639649 0.094932176 0.0108947735 0.043883093
000080 f8 b5 5a 3d e8 45 c2 39 c5 b2 07 3d 35 df d9 3b
       0.053396195 0.00037054648 0.033129472 0.006648923
000090 07 e2 15 3d 29 f4 5a 3d 83 aa 33 3b 87 ca c5 bc
       0.03659251 0.053455506 0.0027414865 -0.024144424
0000a0 37 e0 9e bc f6 87 45 3c 43 42 ae 3c a4 55 bb 3c
       -0.019394023 0.012056341 0.02127183 0.022867985
0000b0 92 29 ff bc c0 0f 1e bc 0f 55 ac bc c0 13 2e bd
       -0.031147752 -0.00964731 -0.021036653 -0.042499304
0000c0 34 90 a2 bb 30 eb 35 bc dc 46 e3 bc b0 66 16 3b
       -0.004961038 -0.011103436 -0.02774375 0.002294939
0000d0 e8 1f 59 3c 23 48 6e 3d a2 06 85 bd 67 8b 56 bc
       0.013252236 0.058174264 -0.06495406 -0.01309476
0000e0 cc ee b8 bc dd 4b 1c 3d 9e 03 d2 3c 27 b9 4d be
       -0.022574805 0.038158286 0.02563649 -0.20090161
0000f0 fe 2b e6 bc 60 07 52 3b f0 ce 3e 3d c9 78 e2 39
       -0.028097149 0.0032047853 0.04658407 0.0004319607
000100 c6 12 d0 3b d0 62 7b bc d4 e7 9a 3c b3 1e ed 3c
       0.006349894 -0.015343383 0.018909372 0.028945303
000110 4b f6 cd 3d b4 63 b1 bc de c2 7e bc 2c 15 f4 3c
       0.10056742 -0.021653987 -0.01554939 0.029795252
000120 8a a6 94 bc e0 37 f8 bc d3 39 a2 bc 70 e7 8e bd
       -0.018145818 -0.03030008 -0.019802963 -0.06977737
000130 c7 1c ad bc 18 1b 27 bd c2 3e 9f 3c 87 91 28 3c
       -0.021131886 -0.040797323 0.019439105 0.010288603
000140 3e 7d 26 3d 8f 18 e4 bd 7a 3b 6d 3b ff a6 19 3a
       0.040646784 -0.11137497 0.003619878 0.0005861371
000150 80 6a 10 3d 12 0c 70 bd fd 68 ae b8 a8 90 68 3b
       0.035257816 -0.05860526 -8.316522e-05 0.0035486612
000160 3d df 2c bd 7e eb f1 3c a1 28 17 bd cf 49 9b bc
       -0.042205084 0.029531237 -0.03690398 -0.018956093
000170 d7 e6 a2 3c 38 9b 88 bd 22 95 1e bd 12 18 8a ba
       0.019885464 -0.066702306 -0.038716443 -0.0010535738
000180 3e 5d 5e bb f7 cf a3 bd d4 86 6d 3d 6a 66 f7 b7
       -0.0033930088 -0.079986505 0.05798991 -2.9492385e-05
000190 f6 e2 5c 3d f9 b6 61 bb da 0c 10 bc 82 a8 b0 bb
       0.053927384 -0.0034441336 -0.008792127 -0.0053911814
0001a0 65 ae 34 bd c2 88 c6 ba 6c 77 38 3d ab de 38 3d
       -0.044111628 -0.0015146958 0.045035765 0.045134228
0001b0 58 21 c2 3d ce d1 d3 3b fa d9 36 bd b4 04 87 3c
       0.09479016 0.0064642197 -0.044641472 0.016481735
0001c0 46 59 9b 3d 46 a6 c0 bb 6f e4 18 bc 60 24 96 bd
       0.07585387 -0.0058791963 -0.009331807 -0.07331157
0001d0 28 d5 99 3c b3 c5 cc bd 42 be e1 3b 89 db 5e bd
       0.018778399 -0.09998646 0.0068891356 -0.054408584
0001e0 ce f5 c8 bb 53 f8 0f bd e5 62 00 3c 62 12 90 bc
       -0.006132818 -0.03514893 0.007836078 -0.01758689
0001f0 6c 3c 02 bc 20 f8 80 bb 41 f0 cc bb 25 73 fa bc
       -0.007948976 -0.003935829 -0.0062542264 -0.030572483
000200 29 00 a2 bd 12 a7 20 3c 27 41 08 bd ec cd 74 bd
       -0.07910187 0.009805458 -0.03326526 -0.059766695
000210 af 98 82 bd 71 e9 bc 3c d0 07 1a 3c 44 31 ed bc
       -0.06376778 0.023060532 0.009401277 -0.028954156
000220 24 67 d5 ba 8b 46 7a bb 3a 5d 06 bb 55 6a 92 3d
       -0.0016281349 -0.003818902 -0.0020502345 0.071491875
000230 b2 b8 e6 3a 8d c8 0a 3d a5 a0 32 3b 6b 94 26 bd
       0.0017602651 0.033882666 0.0027256396 -0.040668886
000240 88 80 9f bd 6a 60 0e 3e 0e c2 2b 3d 03 7f 75 3d
       -0.07788187 0.13903967 0.04193311 0.05993558
000250 92 32 a4 bc 9b 8d 15 3e 16 2e aa 3d b2 de 87 3d
       -0.020043645 0.146048 0.083095714 0.06634273
000260 82 9e 07 3e 80 cb 07 3d cd 54 6a 3d cc 57 49 3b
       0.1324406 0.033153057 0.05720978 0.0030722497
000270 4e 35 9e 3d 36 18 04 3e 58 d7 f4 bc c6 9a 0b bc
       0.07725011 0.1289986 -0.02988784 -0.008520788
000280 ed 7a e7 3c de d3 56 bc 6e df fc 3c 49 b4 fe bb
       0.028256858 -0.0131120365 0.030868258 -0.0077729565
000290 cd 6e 01 3d c3 de e5 3c da 11 7d 3c c4 9b 25 bb
       0.03159981 0.028060323 0.015446151 -0.0025269846
0002a0 e4 31 07 bb 84 6a 48 3b c5 96 56 3b 1c b5 82 3b
       -0.0020629102 0.0030581066 0.0032743674 0.003988875
0002b0 c1 5e d2 bc 2f dc 06 3c 0d ee 34 bb a8 e8 8b bd
       -0.025679948 0.008231207 -0.002760771 -0.06831485
0002c0 cf 84 5d bd 15 93 61 3c 24 f6 f9 3b 3c 49 27 3d
       -0.054081734 0.013767977 0.007628219 0.040841326
0002d0 bf b5 6c bc da 75 a0 3d 44 b0 03 bd 18 de bc 3d
       -0.0144476285 0.078349784 -0.032150522 0.092220485
0002e0 d3 38 b3 bc e1 33 b7 3c 1a dc 8b 3c 1c fa 29 be
       -0.021877682 0.022363605 0.017072726 -0.16599315
0002f0 72 f4 7a bc 1a a8 ca bc 3c 9f 72 3b cf c7 4b 3d
       -0.015317069 -0.02473836 0.003702118 0.0497511
000300 6c c4 5f bd 5b 4f 7f 3c 1a d6 75 bb 30 20 d9 3c
       -0.054630682 0.015582885 -0.0037511648 0.026504606
000310 5f fe 57 3d f2 f5 ce bb f1 e5 6c 3c ae 4a 6a 3c
       0.05273282 -0.00631594 0.014459119 0.014300032
000320 63 9e e3 bc c5 05 84 bd dd 35 03 bd 03 cc 33 bd
       -0.027785486 -0.06446413 -0.03203379 -0.043895733
000330 bf ad dd bc a9 2e 41 bd 65 57 05 3d 94 f1 e8 bc
       -0.027060388 -0.04716364 0.03255405 -0.028435506
000340 01 42 9a 3b e6 10 df bd 63 db 94 3d 4b 42 3c 3d
       0.0047075753 -0.10891895 0.07268407 0.04596166
000350 0c a1 4c bc 3f d0 e4 bb b3 3c a7 3d f1 55 9c 3c
       -0.012489568 -0.0069828327 0.08165874 0.019083949
000360 7c 4f 6b 3c ea 96 a3 3d 95 ea 89 3c 6d 01 d7 3c
       0.014362212 0.07987769 0.01683549 0.026245797
000370 59 b2 51 3d 33 4c 02 bd ff 08 e7 bc 0f 02 48 3d
       0.051195476 -0.03181095 -0.028202532 0.04883009
000380 4e 4f a6 3c b1 c1 d6 bb f2 bb 82 3d b3 19 cf bc
       0.020301487 -0.0065538515 0.06383504 -0.025280809
000390 34 1f 90 3d 93 f9 a2 3c c6 15 17 3d d4 1b 63 3a
       0.070372015 0.019894397 0.036886 0.00086635095
0003a0 d4 d9 61 bd 17 c0 bf 3c 60 74 75 3d 10 a1 82 3d
       -0.055139378 0.023407025 0.059925437 0.063783765
0003b0 b8 5a 12 3e 98 e2 8b bc 16 87 71 bd dc 5a 1d bc
       0.14292419 -0.017075822 -0.05896672 -0.009604182
0003c0 78 47 14 3e 0f 0e bd bc 9f a0 0d 3d e3 1b 5e bd
       0.14480388 -0.023077993 0.03457701 -0.054225814
0003d0 f5 5c 92 3d 34 d8 d8 bd 86 a2 61 3c db 49 d5 bc
       0.071466364 -0.105881125 0.013771659 -0.026036194
0003e0 e3 54 f9 3c 8f 31 72 bd 32 2b d6 bc 8c df 5b 3c
       0.030435985 -0.059129294 -0.026143644 0.013419997
0003f0 f7 69 ce 3c 59 cc b1 3c 5e 17 d1 bc 4e f6 3e bd
       0.025197012 0.021703886 -0.025523838 -0.046621613

transformer.layers.0.self_attn.out_proj.bias f4 [64]
000000 7c e6 bc bc 44 04 91 3d 5e 39 7c bc 8f 5a 28 3e
       -0.023059122 0.07080892 -0.015394537 0.16440795
000010 20 7f eb bc ea e8 a9 3d 13 c4 8e bd ff c6 61 3c
       -0.028747141 0.08296378 -0.06970992 0.0137803545
000020 ef 57 24 bd d8 04 79 3b b4 2b c0 bd 12 26 b4 37
       -0.040122923 0.0037997272 -0.09383336 2.14754e-05
000030 ed 72 e7 bc c2 72 ba 3a 9c 9c 8d bc 3a 53 91 bb
       -0.028253043 0.0014224874 -0.017286591 -0.00443497
000040 57 e7 66 bc 1d 6b 08 bc e4 2d 4d bb 51 96 8d bc
       -0.014093242 -0.008326319 -0.003130787 -0.01728359
000050 79 1b c3 3b d5 f5 fe bb ef a9 53 3c 11 33 b0 bb
       0.0059542027 -0.0077807703 0.012918933 -0.0053771813
000060 5a f9 46 bd f4 8e d4 bb d8 f1 34 3d d3 a0 ae bb
       -0.048577644 -0.006486768 0.044175953 -0.0053292303
000070 af 00 4a 3c 49 12 be 3b 50 aa d0 bc 7d d8 14 bc
       0.012329265 0.0058005196 -0.025471836 -0.009084818
000080 51 6d b1 3d f3 65 ff bb 0a 45 3b bd f2 69 ca bb
       0.086634286 -0.0077941357 -0.045720138 -0.0061771804
000090 4a 0f bb 3c 8f 5a 8d bb 55 53 b4 bd d0 5c 8c 3d
       0.022834439 -0.004313774 -0.08804957 0.0685364
0000a0 14 de c9 3d 75 8e b5 bc 85 a3 48 bc a2 a7 7a 3b
       0.09856811 -0.022162655 -0.012246017 0.003824689
0000b0 ef 6f 44 3c c2 80 26 bc 6e a6 49 3c 29 b7 cf 3a
       0.011989578 -0.010162534 0.012307746 0.0015847433
0000c0 4f 5b 2d 3c 9d 95 83 bb 77 95 06 3c 0a 29 f3 bb
       0.010580852 -0.004015638 0.008214346 -0.0074206637
0000d0 72 12 d6 3b 2b 43 b0 3b c2 a4 1b 3c f2 05 3e bb
       0.0065329606 0.005379101 0.009499731 -0.0028995243
0000e0 31 3f 9a 3b 00 15 97 b9 ed bf 45 3d dc 40 c0 3c
       0.00470724 -0.0002881661 0.048278738 0.023468427
0000f0 97 55 96 bb bb 9b 3c bc ea ae 0d bd 4f 3a b4 bb
       -0.00458784 -0.011511738 -0.03459064 -0.005500115

transformer.layers.0.multihead_attn.in_proj_weight f4 [192, 64]
000000 97 ea 84 bd 72 e4 47 3d 69 95 8d bd 3a 0b 59 be
       -0.06490057 0.048801847 -0.06913263 -0.21195689
000010 a8 a6 d9 3c 90 5b db 3d 15 18 64 bb bd 5b a0 3d
       0.026568726 0.107108235 -0.0034804393 0.07829998
000020 b8 f4 42 bd 57 73 81 3d 9f af b9 bd bc 28 8e 3e
       -0.047596663 0.063208275 -0.090667 0.27765453
000030 f8 29 df bd 0e 27 87 3d 31 fe 46 be 80 3e 03 be
       -0.10896677 0.06599246 -0.19432904 -0.1281681
000040 60 a2 72 be 76 80 90 3e d6 da bf bd 14 88 38 3d
       -0.23694754 0.28223008 -0.093679115 0.04505165
000050 de a5 f5 bd 97 0b a1 3d e1 ca 30 bd e9 c0 c4 bd
       -0.11994527 0.07863539 -0.04316223 -0.09607107
000060 c8 ec 47 3d a9 08 70 be 39 a5 7a 3d 43 42 d9 3d
       0.048809797 -0.23440804 0.061192725 0.106083415
000070 3b 05 eb 3c 2d 25 bd 3d 25 9c 2b 3c f9 e4 94 be
       0.028689018 0.09235606 0.0104742395 -0.29080942
000080 17 1b ad 3d 3c 98 da bd 12 de 44 3e fa 74 04 be
       0.084524326 -0.10673568 0.19225338 -0.12935248
000090 d5 c9 95 3d de 3d d3 bc b9 e8 83 3d cd a7 32 be
       0.07313887 -0.025786337 0.06440873 -0.17446823
0000a0 65 96 aa 3d f2 13 b3 bd a7 2b 0e 3e f7 60 74 bd
       0.08329467 -0.08744039 0.1388384 -0.059662785
0000b0 be 6e ac 3d 22 d4 8a bc 2b 0c 3b bd 46 a8 6f 3e
       0.0841956 -0.016946856 -0.0456659 0.23404035
0000c0 ba e8 ed 3c de 1b 06 be b0 04 12 bd c0 9f 36 be
       0.029041637 -0.13096568 -0.035649 -0.17834377
0000d0 88 89 67 3d 83 1f 0f be f7 84 32 3d 51 a8 c0 3d
       0.056527644 -0.13976865 0.043583836 0.09407104
0000e0 7a b4 8d 3e 1a c1 df bd 94 81 51 3d 3d 49 d1 3d
       0.27676755 -0.10925503 0.051148966 0.10219047
0000f0 07 d6 ea 3c f3 63 47 3e d8 d5 6b bc 9a 6d a4 be
       0.02866651 0.19471721 -0.014394246 -0.3211487
000100 6d 3b c1 bd ff 34 22 bd c7 a9 2a 3c da a7 09 be
       -0.09435163 -0.039601322 0.010416455 -0.13442937
000110 1f 45 00 3e 58 cc 2d 3d 0b 9f fa 3c ed 75 96 3c
       0.12526368 0.042431206 0.030593416 0.018366778
000120 dd 25 bd bc 41 93 9f 3d 9c 8f 09 bc 81 8f 66 3d
       -0.023089344 0.07791758 -0.008396056 0.0562892
000130 ce f1 72 bd 86 c9 d7 bd ae 82 40 bd 5a 1b 05 3d
       -0.059312634 -0.105364844 -0.046999626 0.032496788
000140 22 31 15 be b8 de 47 3d 3e e0 d2 bd 2c 47 b5 3d
       -0.14569524 0.048796386 -0.10296677 0.088514656
000150 d4 cf e1 3c 33 12 94 3d 43 ee 92 bd e7 21 92 3b
       0.02756492 0.07230034 -0.07174351 0.004459608
000160 aa e6 27 3e 41 1c a1 bd 13 07 86 3d 65 f5 80 bd
       0.16396585 -0.07866717 0.06544318 -0.06296805
000170 99 15 a5 bd af 9c a7 3c 70 61 2b bd a3 a1 52 bc
       -0.0806076 0.020460455 -0.04184097 -0.01285592
000180 07 c6 41 3d dc 24 a4 bc 9b 03 94 bc d0 7b 28 bb
       0.047307994 -0.020037107 -0.018068125 -0.0025708564
000190 4a 0d c4 bb 51 f7 56 bc f7 e5 1b bc 6e 07 aa bd
       -0.0059830295 -0.013120488 -0.009515277 -0.08302198
0001a0 89 ec 16 3d 7f ce b7 3c 1a ba 2e 3e c3 95 1d 3e
       0.03684667 0.022437332 0.1706318 0.15389161
0001b0 83 4c 74 3d 20 27 38 bd 59 7b 8b 3b 28 1e 39 bc
       0.05964328 -0.044959188 0.0042566475 -0.011298694
0001c0 4b 69 08 bd bc 96 96 3c 43 92 80 bc cb e1 6d bd
       -0.03330354 0.018382423 -0.015694743 -0.05807666
0001d0 65 8c d3 3c b2 5f b4 bd cc 4f 95 3d e6 b5 04 be
       0.025823781 -0.08807315 0.07290611 -0.12960014
0001e0 b6 7a 2d 3e 62 c2 93 bd 3d 91 e1 3d b6 c0 0f be
       0.16941342 -0.0721481 0.1101403 -0.14038357
0001f0 83 15 3f bd 4e ce e7 3c 08 10 91 bd 7c d2 4e bd
       -0.046651375 0.028296616 -0.07083136 -0.050493702
000200 f8 dc 35 bd 91 3b e7 3d 2b cc 01 be 6a d6 57 be
       -0.044400185 0.11290658 -0.1267554 -0.21077886
000210 f0 69 48 bd f2 bb 09 3e 4f c4 61 bd 4a fe 99 3d
       -0.048929155 0.13450602 -0.055118855 0.07519205
000220 14 b4 6a bd 41 0e 26 3d 6b 93 0a be 05 46 9a 3e
       -0.057300642 0.040540937 -0.13532798 0.30131546
000230 09 21 c5 bd f4 f7 44 3e 24 64 fa bd 1e 09 3d be
       -0.096254416 0.19235212 -0.122261316 -0.18460509
000240 0b 90 27 be 50 fd a9 3e da 19 48 bd 9e be ce bb
       -0.16363542 0.33201075 -0.04885278 -0.0063093444
000250 56 43 05 be 1b a8 be 3c f9 a5 54 bb c3 f8 ce bd
       -0.13013968 0.023273518 -0.003244756 -0.10106041
000260 9c 44 a3 bc 84 3c 62 be 9c 6b 40 3d cf 60 c5 3d
       -0.019930176 -0.22093397 0.046977624 0.096376054
000270 8d f0 f4 3d 80 63 04 3e dd 51 5f 3d dc 5e b4 be
       0.11959944 0.12928581 0.05452143 -0.35228622
000280 e8 43 86 3d a7 08 1c be b3 01 7a 3e 18 e0 d0 bd
       0.06555921 -0.15237676 0.2441471 -0.101989925
000290 9c d2 f5 3d 95 dd d9 bc 6a 86 90 3d 95 43 3a be
       0.12003061 -0.026594916 0.070568874 -0.18189843
0002a0 d4 f8 aa 3d 9f 24 20 be 9a 37 67 3d 51 ef 3f be
       0.083482414 -0.1563897 0.05644951 -0.18743636
0002b0 17 63 95 3d e5 b6 89 3c ba fe ee bc e5 db a7 3e
       0.072942905 0.016810844 -0.029174197 0.32784954
0002c0 f1 98 79 3d 69 ae 1d be 12 aa 65 bc 1a c2 36 be
       0.060936872 -0.15398563 -0.014017599 -0.17847481
0002d0 3e 79 3d 3d 8a fe d5 bd 6f 89 ad 3c c8 af eb 3d
       0.046258204 -0.1044894 0.021183698 0.11508137
0002e0 b0 91 48 3e 01 aa a7 bd 87 41 12 3d e2 47 f7 3d
       0.19586825 -0.081867225 0.035707023 0.120742574
0002f0 27 0f a5 3d d6 97 82 3e 7f 66 b6 3c 84 89 ab be
       0.08059531 0.25506467 0.02226567 -0.33503354
000300 7a 7a 83 bd 6e 28 07 bd c6 0f 9d 3c 53 e7 0f be
       -0.06419845 -0.03299754 0.01917256 -0.14053087
000310 a9 99 c9 3d d3 b2 2d 3d d9 fc 3b 3d 59 ec 1e 3d
       0.098437615 0.04240687 0.04589543 0.038799617
000320 4a 2f 98 bc 3e 27 93 3d e8 4f 69 bc 48 24 c7 3d
       -0.018577237 0.07185219 -0.014240243 0.09723717
000330 b0 ac 9d bd 64 42 a9 bd 88 9a 28 be cf 85 09 3c
       -0.07698953 -0.08264616 -0.16465199 0.008393719
000340 90 c2 4a be 6f 0e c9 3d 52 a5 cd bd 5c 15 a6 3d
       -0.19800782 0.09817206 -0.10041298 0.08109543
000350 bf e2 44 bd 9e b7 cc 3d 9e 83 90 bd a8 aa 4d bd
       -0.048067804 0.0999596 -0.07056354 -0.05021158
000360 d6 74 e5 3d 80 6b c9 bd ca 92 7a 3d fa 29 a0 3d
       0.11203925 -0.09834957 0.061175145 0.078205064
000370 a5 f7 8b bd 2a b4 db 3c 11 bd 44 bd dc 6b 3a bd
       -0.06834344 0.026819307 -0.04803187 -0.04551302
000380 e4 5f 93 3d 3b 71 96 bc 1d d6 9c 3c 3a d6 ca bd
       0.07196024 -0.01836454 0.019145066 -0.09904142
000390 9f 77 a2 bb b2 7f 81 bc 70 6a 11 3d a0 51 d6 bd
       -0.0049581076 -0.01580796 0.035501897 -0.104647875
0003a0 a7 b5 54 3d 1f 6d 63 3c 57 45 35 3e dd 8a d4 3d
       0.05193105 0.013880997 0.17702232 0.103780486
0003b0 a7 44 6e 3d 91 2a 5d bd a3 cd 2d bd 32 bb 0c 3d
       0.05817094 -0.053995673 -0.04243244 0.03435821
0003c0 c2 9e a2 bc 1e 50 64 bd 29 93 1f bd 7f 20 8c bd
       -0.019851092 -0.05574047 -0.038958702 -0.06842136
0003d0 a5 2a 3a 3d 91 64 d7 bd a3 83 53 3d 34 78 03 3d
       0.045450825 -0.105172284 0.05163921 0.032097057
0003e0 fe d6 49 3e a2 48 b5 bd 26 d4 64 3d 3f c6 17 3d
       0.1971092 -0.08851744 0.055866383 0.037054297
0003f0 78 f7 2c bd 8d c1 73 3d 91 30 58 bd fa e2 b9 bd
       -0.042228192 0.059510756 -0.05278069 -0.090764955

transformer.layers.0.multihead_attn.in_proj_bias f4 [192]
000000 5a b7 f2 bd 6d cf a5 bc d0 ef 27 be 2f 3a 02 bd
       -0.11851378 -0.02024051 -0.16400075 -0.03179377
000010 61 ae cd bb ee 83 0c be 9c fe 21 3d 17 b8 37 be
       -0.006276891 -0.13722202 0.039549455 -0.17941318
000020 db a1 ce 3b 83 73 14 3c 70 ef 7a be f3 17 7b 3e
       0.006305916 0.009060743 -0.245054 0.24520855
000030 84 37 41 3c e8 2e 29 be 10 8e c0 b9 0f 15 7c be
       0.011793021 -0.165218 -0.0003672694 -0.24617408
000040 d5 d9 c0 3d 0d 92 28 bd 17 35 eb bd 3b ae b8 bd
       0.09416548 -0.04115491 -0.114847355 -0.09017607
000050 d9 d6 b0 3d 50 6b 2d bd 13 53 b6 bd 5d bb b2 3d
       0.08634729 -0.04233867 -0.08902564 0.08727143
000060 26 e6 9b 3d 6f eb 83 bd fa d3 12 3d 5c d5 b4 3c
       0.07612257 -0.0644139 0.035846688 0.022074394
000070 74 e8 a2 bd 1b c2 d7 3c e2 b7 a6 bd 4b 23 73 3d
       -0.07954493 0.026337674 -0.081405416 0.05935983
000080 1a dc 35 be cc 77 3d be 18 c2 24 3e 6d e7 99 bd
       -0.17759743 -0.1850273 0.16089666 -0.07514844
000090 47 7f 26 3e 0b ce c1 bd ce d4 7e be 5d 7b de bc
       0.1625949 -0.09463128 -0.24885866 -0.027158434
0000a0 1b b2 d1 3b fe 0d 85 3d 55 22 de ba 4b f7 1f 3d
       0.0063994057 0.064968094 -0.0016947488 0.039054196
0000b0 f7 60 ea bc 01 15 d3 39 83 e1 27 b9 86 97 90 3b
       -0.02861069 0.00040260705 -0.00016010371 0.0044125943
0000c0 da fa 72 be 39 99 06 3e 60 23 8d 3c 34 db a8 3e
       -0.23728505 0.13144387 0.017228782 0.3297974
0000d0 12 f6 ae bc b9 57 8b bc 94 f4 bd be a7 0c 19 bb
       -0.02135757 -0.017009603 -0.3710066 -0.0023353489
0000e0 1d 5e d4 bd dd a7 b9 3d 09 42 0b 3e 04 05 85 3d
       -0.10369513 0.090652205 0.13599409 0.06495097
0000f0 7e fb d7 3d b4 3d 04 3e 1b 16 06 3e e6 6f 36 be
       0.10546015 0.12914163 0.1309437 -0.17816123
000100 10 f6 2c ba 84 c2 46 b9 de fd 5b ba f4 6f 85 b9
       -0.00065979455 -0.00018955214 -0.0008392016 -0.00025451148
000110 5c cf c4 b8 2e bc 3b ba 4a 56 b6 39 4b 29 5a ba
       -9.384632e-05 -0.0007161525 0.00034778035 -0.0008322193
000120 98 54 3b b9 de ad f9 38 12 fd 90 bb 9a f9 9c 3b
       -0.00017865223 0.000119056305 -0.0044246996 0.004790497
000130 e4 20 3b b8 37 b9 20 bb 27 c0 6e b8 10 84 9b bb
       -4.4614906e-05 -0.002452446 -5.6922578e-05 -0.0047459677
000140 72 44 22 3b 5e 0b 71 3a da 72 40 bb 24 15 1b bb
       0.0024760035 0.0009195114 -0.0029365332 -0.0023663724
000150 da e9 18 3b 39 5c 65 3a c6 05 1c bb ea 4b 1a 3b
       0.0023332746 0.0008749399 -0.0023807152 0.0023543783
000160 2b 1a 66 39 0b 56 81 b9 48 96 54 b9 fd 2a 64 39
       0.00021944258 -0.00024668904 -0.0002027388 0.00021759789
000170 3c a4 5f b9 97 a1 ca b8 0a f1 4e b9 1c 95 4f 39
       -0.0002132812 -9.662209e-05 -0.00019735485 0.00019796606
000180 e7 51 02 39 ce ca 01 39 c5 4f ab b8 b5 11 5d b9
       0.00012428277 0.0001237795 -8.168774e-05 -0.00021082799
000190 7e 2a e2 b8 55 c2 5d b8 00 e3 f7 38 bb 31 14 b9
       -0.000107844346 -5.287149e-05 0.0001182016 -0.00014132906
0001a0 fd 71 66 39 06 83 47 3b 32 97 33 b8 a6 16 89 3a
       0.00021976973 0.0030443086 -4.2817737e-05 0.001045902
0001b0 e2 66 8d ba f7 ba c2 37 02 1a af b6 ac d5 d9 38
       -0.0010788108 2.3213664e-05 -5.218434e-06 0.00010387166
0001c0 2f f3 87 3a 55 9e 9e 3b 40 2e 63 3a f3 b6 f5 b9
       0.0010372157 0.004840652 0.00086662546 -0.0004686635
0001d0 0c 16 c3 bb 79 a0 07 3a 40 d8 2e bc 9b 2c 4f 38
       -0.005953556 0.00051737536 -0.010671675 4.9394188e-05
0001e0 ff 66 15 ba d2 72 06 3a 0e 28 25 3a a2 69 be 38
       -0.00056992465 0.0005128804 0.0006300219 9.079582e-05
0001f0 82 28 18 3a d6 05 b5 39 5e 07 28 3a 8b c4 30 ba
       0.0005804376 0.00034527358 0.0006409789 -0.00067431544
000200 39 63 fd ba 79 bd 47 bb 83 94 40 38 01 a5 d3 3b
       -0.0019331939 -0.0030477925 4.591468e-05 0.006458879
000210 94 4c 18 3b da 3e e9 37 bc 49 f0 3b e4 60 71 bc
       0.0023239003 2.7805032e-05 0.0073330086 -0.014732573
000220 54 a1 e7 ba f2 e9 1c bb 3a 6a 37 bb 99 28 63 bc
       -0.0017671981 -0.0023943153 -0.00279869 -0.01386466
000230 81 7e 8e bb be fc 47 3c b5 59 92 bb 81 4d 3e 3c
       -0.0043485765 0.0122062545 -0.0044662603 0.011615158
000240 00 fa 11 bc 39 10 96 bb e2 8c b9 bb e0 57 0f b8
       -0.008909702 -0.0045795706 -0.0056625465 -3.4175697e-05
000250 16 80 80 3c fa c9 c2 bb 09 1f c9 bb 09 61 42 bc
       0.015686076 -0.0059444876 -0.006137733 -0.011863955
000260 d2 de d9 bb ff 9c 81 bb c0 a6 7c 3b 74 fe 2f 3c
       -0.0066488767 -0.003955483 0.003855154 0.010741819
000270 c9 6b e8 bb 9d 92 d5 ba 21 07 3c bc d6 ee fe bb
       -0.007092927 -0.0016294305 -0.011476309 -0.0077799363
000280 ba 54 e2 b7 c8 f1 66 3b e9 9f 1c bc df c7 b8 3b
       -2.6980753e-05 0.0035239328 -0.00955961 0.005639061
000290 98 aa ec 3b 38 80 61 39 29 53 d9 bb e4 28 23 bc
       0.007222485 0.00021505437 -0.006632228 -0.00995848
0002a0 d4 92 91 bb ee c0 3a 3b 06 82 34 3b ad 50 16 3a
       -0.004442552 0.0028496343 0.002754332 0.00057340675
0002b0 41 78 bd 3a 51 12 37 3b 78 cd 97 3a f2 60 88 3c
       0.0014455394 0.0027934501 0.001158162 0.01664779
0002c0 88 fe 79 3b c0 4f d3 39 54 58 a1 bb 14 d5 5a 3b
       0.0038146097 0.00040304475 -0.0049238596 0.0033391165
0002d0 6a 1b 11 bc 12 76 01 3c 53 e3 a5 bb ca 2b 7a ba
       -0.008856634 0.007901685 -0.0050624995 -0.0009543268
0002e0 92 e2 60 b9 af 07 7b 3b d8 fa 32 bb 33 65 a5 bb
       -0.00021446709 0.003830414 -0.002731016 -0.0050474643
0002f0 88 0b 59 3b 9d bf 31 3b 9a 5b e0 bb e6 b7 fb 3a
       0.0033118445 0.0027122267 -0.0068468573 0.0019204586
