decisionmaking/trained_models/env=claude_dim2_model=transformer_num_episodes1000000_num_hidden=8_lr0.0003_num_layers=2_d_model=64_num_head=8_noise0.0_shuffleTrue_pairedTrue_lossnll_ess12.5_std0.1_run=1_essinit0.001_annealed_schedulefree.pt (torch, 928683 bytes, 121 tensors)

embedding.weight f4 [64, 3]
3.1115953e-05 -0.000105761996 0.00012068086 -6.333317e-05 -7.089734e-05 0.00013879233 -2.7146642e-05 -7.747007e-05
8.933346e-05 -2.323868e-05 -1.2123146e-05 0.0001475499 -3.4851924e-05 -8.117051e-05 0.00012319315 -5.6187964e-05
9.082893e-05 0.00024582443 -3.3600372e-05 -8.106401e-05 0.00014833586 -0.00020824984 -5.9854825e-05 0.00014238259
-3.5516994e-05 -8.5945605e-05 0.00014195313 -8.734826e-05 -6.3694315e-05 0.00019194609 -0.0002825394 0.00045499302
0.00033265867 8.578853e-06 -8.096381e-05 0.00014613067 -2.3240882e-05 -0.00013168396 0.00012214507 -2.5499334e-05
-0.00011291663 0.00014054199 2.7146846e-06 -8.684167e-05 0.00011855738 -5.4014872e-05 -0.00013146743 0.00015046385
-1.0463681e-05 -1.6928676e-06 9.8859426e-05 4.2096217e-05 -0.00012381835 0.0001420528 4.0234227e-05 -1.1118316e-05
0.00011481949 -5.3967455e-07 -8.163926e-05 0.00014501589 -7.490257e-05 -1.3609383e-06 0.00010226481 -6.41025e-06
-9.938836e-05 0.00015684911 -4.863518e-05 -1.6975147e-05 6.409202e-05 -7.7558616e-05 -0.00020487196 0.00017647906
-1.9235309e-05 -2.071294e-05 6.0752896e-05 3.6376878e-05 -8.582451e-05 0.00017820972 -2.3351954e-06 3.6292506e-05
6.262088e-05 3.0436917e-05 -0.00014267456 0.00016546997 -5.104981e-05 2.6284474e-06 4.7287107e-05 -1.2876978e-05
-0.00010589804 0.00016892901 -3.697693e-05 4.523422e-06 5.348325e-05 -0.000107950415 -0.00019398941 0.00016239459
-2.9703442e-05 -1.5897092e-05 5.0391525e-05 -4.656887e-05 -0.00025054207 0.00013953334 -3.6672416e-05 0.00018645448
0.0001259487 2.110472e-05 -0.0001553274 0.00015097257 -1.7028422e-05 3.0728545e-05 4.8919195e-05 -3.7045676e-05
-0.00015862833 0.00018491189 -5.210767e-06 -4.390407e-06 4.50952e-05 -1.5951344e-05 -0.00014597924 0.00016722894
-4.742756e-05 1.96876e-05 3.802542e-05 3.3754084e-05 -0.00011706692 0.00016231368 -3.8582402e-05 6.321994e-06
4.6741145e-05 0.00047730043 0.00062019564 0.00055474206 -3.2934662e-05 3.255786e-05 2.9654648e-05 1.6291058e-05
-0.00012746808 0.00017609062 -4.287044e-05 2.225046e-05 4.904033e-05 6.094233e-06 -0.00015628146 0.0001575552
-2.757998e-05 2.2774691e-05 5.802418e-05 -4.4205076e-06 -0.00011566559 0.00017099606 -3.827071e-05 3.159699e-06
3.7912792e-05 -2.7070448e-05 -0.00018682529 0.0001475532 -5.0144958e-05 3.733981e-05 1.6105349e-06 -2.2571126e-05
-7.7294724e-05 0.00017730615 -2.1209304e-05 2.8349119e-05 2.9616644e-05 7.76631e-06 -0.0001345374 0.00016556297
-5.1185605e-05 -1.5946353e-06 5.088186e-05 -2.9364011e-05 -0.00011840752 0.00014686708 -5.814345e-05 7.036579e-06
6.495736e-05 -3.8612114e-05 -0.00012532462 0.000117079304 -4.7447353e-05 1.781613e-05 3.4694254e-05 2.1603799e-05
-0.00018802936 0.00016862103 -4.596023e-05 5.4807566e-05 7.3897776e-05 1.1531898e-05 -0.00025857668 0.00017459414
00000000: 8082 0238 8acc ddb8 0b16 fd38 bdd1 84b8
00000010: b8ae 94b8 c888 1139 f8b8 e3b7 6d77 a2b8
00000020: 8958 bb38 aff0 c2b7 8464 4bb7 a0b7 1a39
00000030: f82d 12b8 163a aab8 692d 0139 5eab 6bb8
00000040: 697b be38 ffe1 8039 20ee 0cb8 e900 aab8
00000050: 9b8a 1b39 a45d 5ab9 a10c 7bb8 894c 1539
00000060: 15f8 14b8 b23d b4b8 41d9 1439 bd2e b7b8
00000070: a093 85b8 2345 4939 cc21 94b9 218c ee39
00000080: b168 ae39 e5ed 0f37 1dcb a9b8 a73a 1939
00000090: 6af5 c2b7 a514 0ab9 1114 0039 67e7 d5b7
000000a0: a7cd ecb8 745e 1339 ed2d 3636 c41e b6b8
000000b0: 02a2 f838 078e 62b8 85da 09b9 d5c5 1d39
000000c0: 2b8d 2fb7 7d36 e3b5 c052 cf38 7890 3038
000000d0: 3cd5 01b9 02f4 1439 2cc1 2838 ce88 3ab7
000000e0: 3fcb f038 27de 10b5 be35 abb8 680f 1839
000000f0: 0315 9db8 7ca9 b6b5 0077 d638 a117 d7b6
00000100: b86e d0b8 dd77 2439 a0fd 4bb8 da65 8eb7
00000110: 2469 8638 f7a6 a2b8 e6d2 56b9 3d0d 3939
00000120: 835b a1b7 b3c0 adb7 edd0 7e38 6093 1838
00000130: affc b3b8 cfdd 3a39 5ab6 1cb6 c838 1838
00000140: 5453 8338 c852 ff37 e99a 15b9 0282 2d39
00000150: 511e 56b8 6264 3036 2556 4638 330a 58b7
00000160: 9415 deb8 8922 3139 ad17 1bb8 e6c7 9736
00000170: 3453 6038 7063 e2b8 a369 4bb9 7748 2a39
00000180: a82b f9b7 bf5a 85b7 7d5b 5338 f252 43b8
00000190: 305b 83b9 b24f 1239 b5d0 19b8 fe82 4339
000001a0: 1911 0439 0b0a b137 62df 22b9 644e 1e39
000001b0: 42d8 8eb7 86e2 0038 962e 4d38 7e61 1bb8
000001c0: 7855 26b9 e8e4 4139 26d8 aeb6 4f51 93b6
000001d0: 9a24 3d38 40cf 85b7 0112 19b9 2d5a 2f39
000001e0: f4ec 46b8 cd26 a537 7c7d 1f38 2c93 0d38
000001f0: d381 f5b8 bf32 2a39 8ad3 21b8 8421 d436
00000200: ec0b 4438 2e3e fa39 a094 223a 1c6c 113a
00000210: 5323 0ab8 bc8e 0838 dfc2 f837 c8a8 8837
00000220: f4a8 05b9 f7a4 3839 c9cf 33b8 80a6 ba37
00000230: a7b0 4d38 107d cc36 7cdf 23b9 6735 2539
00000240: 8e5b e7b7 470c bf37 fd5e 7338 df53 94b6
00000250: 7e91 f2b8 684d 3339 dd84 20b8 370b 5436
00000260: 8d04 1f38 5815 e3b7 88e6 43b9 83b8 1a39
00000270: bd52 52b8 519d 1c38 8f29 d835 2057 bdb7
00000280: 4a19 a2b8 42eb 3939 a2ea b1b7 45cf ed37
00000290: 4271 f837 0c4c 0237 9c12 0db9 f99a 2d39
000002a0: 20b0 56b8 4007 d6b5 fb69 5538 bc52 f6b7
000002b0: 8e51 f8b8 5500 1a39 0edf 73b8 c11b ec36
000002c0: b839 8838 71f3 21b8 9269 03b9 7988 f538
000002d0: 3502 47b8 d973 9537 ac84 1138 ce39 b537
000002e0: bf29 45b9 ddcf 3039 6cc5 40b8 2de1 6538
000002f0: 91f9 9a38 2079 4137 9391 87b9 4213 3739

embedding.bias f4 [64]
0.00021268873 0.00019106857 0.00015618397 0.00023518295 0.00021260008 0.00026094052 0.00023582255 0.00028260206
0.00021549925 0.0003001429 0.0004296043 0.00021601349 0.00019848168 0.0002196654 0.00018178481 0.00022424197
0.0001769064 0.00022163373 0.00017336383 0.000224712 0.00016020211 0.00023126049 0.00011767037 0.00024040199
9.689109e-05 0.000246799 0.00014751987 0.0002397418 9.1694725e-05 0.00024386673 8.750511e-05 0.00025566283
9.486982e-05 0.00020480552 0.00033436724 0.0002233332 9.087083e-05 0.00023201844 0.000107539265 0.0002398144
8.72551e-05 0.00024676547 9.3720824e-05 0.0007931137 8.109124e-05 0.00027000607 0.00011448917 0.00026546943
0.000115970804 0.00026627 0.00010706905 0.00023100214 5.427189e-05 0.0002524388 0.000100574354 0.0002724255
0.00011338439 0.0002285227 0.00013678218 0.00018017937 0.00010285496 0.00023774963 0.00018173191 0.00025738994
00000000: 3205 5f39 9459 4839 51c5 2339 719b 7639
00000010: 66ed 5e39 d8ce 8839 2247 7739 352a 9439
00000020: a4f7 6139 805c 9d39 833c e139 ae81 6239
00000030: 851f 5039 fb55 6639 7d9d 3e39 7f22 6b39
00000040: f37f 3939 5a66 6839 00c9 3539 aba0 6b39
00000050: edfb 2739 847e 7239 cdc5 f638 6b14 7c39
00000060: 0232 cb38 cd64 8139 90af 1a39 3363 7b39
00000070: 3b4c c038 7ab6 7f39 f382 b738 7c0a 8639
00000080: d9f4 c638 10c1 5639 034e af39 8d2e 6a39
00000090: e891 be38 fa49 7339 b486 e138 b076 7b39
000000a0: bafc b638 4d60 8139 fc8b c438 f6e8 4f3a
000000b0: 870f aa38 9a8f 8d39 e819 f038 b42e 8b39
000000c0: 5a35 f338 289a 8b39 428a e038 2a39 7239
000000d0: 00a2 6338 c359 8439 72eb d238 55d4 8e39
000000e0: c8c8 ed38 989f 6f39 306d 0f39 88ee 3c39
000000f0: d6b3 d738 6e4c 7939 4a8f 3e39 4bf2 8639

pos_encoder.pe f4 [1, 10, 64]
0.0 1.0 0.0 1.0 0.0 1.0 0.0 1.0
0.0 1.0 0.0 1.0 0.0 1.0 0.0 1.0
0.0 1.0 0.0 1.0 0.0 1.0 0.0 1.0
0.0 1.0 0.0 1.0 0.0 1.0 0.0 1.0
0.0 1.0 0.0 1.0 0.0 1.0 0.0 1.0
0.0 1.0 0.0 1.0 0.0 1.0 0.0 1.0
0.0 1.0 0.0 1.0 0.0 1.0 0.0 1.0
0.0 1.0 0.0 1.0 0.0 1.0 0.0 1.0
0.84147096 0.54030234 0.68156135 0.731761 0.53316844 0.8460091 0.4093089 0.9123959
0.3109836 0.9504153 0.23492105 0.9720145 0.17689219 0.9842302 0.13295726 0.99112177
0.099833414 0.9950042 0.07491915 0.9971896 0.05620449 0.9984193 0.042157155 0.999111
0.031617504 0.99950004 0.023711512 0.99971884 0.017781857 0.99984187 0.013334819 0.99991107
0.009999833 0.99995 0.0074988706 0.99997187 0.0056233825 0.9999842 0.0042169513 0.9999911
0.0031622713 0.999995 0.0023713715 0.9999972 0.0017782785 0.99999845 0.0013335211 0.9999991
0.0009999998 0.9999995 0.000749894 0.9999997 0.0005623411 0.9999998 0.00042169637 0.99999994
0.00031622782 0.99999994 0.00023713727 1.0 0.00017782794 1.0 0.00013335208 1.0
0.9092974 -0.41614684 0.99748 0.070948265 0.9021307 0.43146282 0.7469035 0.6649324
0.5911271 0.8065784 0.45669332 0.8896242 0.34820527 0.93741834 0.26355368 0.96464473
0.19866931 0.9800666 0.1494172 0.98877424 0.1122313 0.9936821 0.084239356 0.99644554
0.063203394 0.9980007 0.04740969 0.9988755 0.03555809 0.9993676 0.026667267 0.99964434
0.019998666 0.9998 0.014997319 0.9998875 0.011246587 0.99993676 0.008433828 0.9999644
0.006324511 0.99998003 0.00474273 0.99998873 0.0035565514 0.9999937 0.0026670396 0.9999964
0.0019999985 0.99999803 0.0014997876 0.99999887 0.0011246821 0.99999934 0.0008433926 0.99999964
0.0006324556 0.9999998 0.0004742745 0.9999999 0.00035565588 0.99999994 0.00026670416 1.0
0.14112 -0.9899925 0.7782725 -0.6279267 0.9932532 -0.11596616 0.95363444 0.3009673
0.8126489 0.58275366 0.652904 0.7574407 0.5085361 0.86104065 0.3894703 0.92103904
0.2955202 0.9553365 0.22307542 0.9748012 0.16790329 0.9858035 0.12617177 0.9920084
0.094726086 0.99550337 0.071081206 0.9974705 0.053323083 0.9985773 0.039994974 0.99919987
0.0299955 0.99955004 0.022494925 0.999747 0.016869437 0.9998577 0.012650555 0.99991995
0.009486687 0.999955 0.0071140616 0.9999747 0.005334813 0.99998575 0.0040005534 0.999992
0.0029999954 0.9999955 0.0022496805 0.9999975 0.0016870227 0.99999857 0.0012650888 0.9999992
0.00094868336 0.9999996 0.00071141176 0.99999976 0.0005334838 0.9999999 0.00040005625 0.99999994
00000000: 0000 0000 0000 803f 0000 0000 0000 803f
00000010: 0000 0000 0000 803f 0000 0000 0000 803f
00000020: 0000 0000 0000 803f 0000 0000 0000 803f
00000030: 0000 0000 0000 803f 0000 0000 0000 803f
00000040: 0000 0000 0000 803f 0000 0000 0000 803f
00000050: 0000 0000 0000 803f 0000 0000 0000 803f
00000060: 0000 0000 0000 803f 0000 0000 0000 803f
00000070: 0000 0000 0000 803f 0000 0000 0000 803f
00000080: 0000 0000 0000 803f 0000 0000 0000 803f
00000090: 0000 0000 0000 803f 0000 0000 0000 803f
000000a0: 0000 0000 0000 803f 0000 0000 0000 803f
000000b0: 0000 0000 0000 803f 0000 0000 0000 803f
000000c0: 0000 0000 0000 803f 0000 0000 0000 803f
000000d0: 0000 0000 0000 803f 0000 0000 0000 803f
000000e0: 0000 0000 0000 803f 0000 0000 0000 803f
000000f0: 0000 0000 0000 803f 0000 0000 0000 803f
00000100: a46a 573f 4151 0a3f ce7a 2e3f b054 3b3f
00000110: ba7d 083f 0d94 583f f090 d13e c792 693f
00000120: 3e39 9f3e 6b4e 733f 258f 703e f1d5 783f
00000130: 3a23 353e 83f6 7b3f f325 083e 28ba 7d3f
00000140: 7675 cc3d 98b8 7e3f 366f 993d d147 7f3f
00000150: ae36 663d 6898 7f3f fbac 2c3d bdc5 7f3f
00000160: 5b81 013d 3cdf 7f3f a53e c23c 93ed 7f3f
00000170: 42ab 913c a3f5 7f3f 497a 5a3c 2cfa 7f3f
00000180: 57d6 233c b9fc 7f3f 16b9 f53b 28fe 7f3f
00000190: 5a44 b83b f7fe 7f3f 5a2e 8a3b 6bff 7f3f
000001a0: 1c3e 4f3b acff 7f3f 0369 1b3b d1ff 7f3f
000001b0: 2015 e93a e6ff 7f3f 8bc9 ae3a f1ff 7f3f
000001c0: 6d12 833a f8ff 7f3f 8994 443a fbff 7f3f
000001d0: 136a 133a fdff 7f3f 2117 dd39 ffff 7f3f
000001e0: 61cb a539 ffff 7f3f 0da8 7839 0000 803f
000001f0: 5377 3a39 0000 803f 6dd4 0b39 0000 803f
00000200: b7c7 683f 3311 d5be d95a 7f3f 534d 913d
00000210: 0af2 663f b2e8 dc3e 1135 3f3f 0339 2a3f
00000220: 1b54 173f ec7b 4e3f b5d3 e93e 69be 633f
00000230: f647 b23e a6fa 6f3f 82f0 863e f5f2 763f
00000240: f86f 4b3e a5e5 7a3f d300 193e 4f20 7d3f
00000250: 86d9 e53d f361 7e3f af85 ac3d 0e17 7f3f
00000260: c870 813d f97c 7f3f aa30 423d 4eb6 7f3f
00000270: 5ca5 113d 8ed6 7f3f 5075 da3c b1e8 7f3f
00000280: 3ed4 a33c e5f2 7f3f 51b7 753c a1f8 7f3f
00000290: 9b43 383c dbfb 7f3f 0a2e 0a3c abfd 7f3f
000002a0: d83d cf3b b1fe 7f3f e768 9b3b 43ff 7f3f
000002b0: 0815 693b 96ff 7f3f 80c9 2e3b c4ff 7f3f
000002c0: 6812 033b dfff 7f3f 8594 c43a edff 7f3f
000002d0: 126a 933a f5ff 7f3f 1f17 5d3a faff 7f3f
000002e0: 60cb 253a fdff 7f3f 0ca8 f839 feff 7f3f
000002f0: 5377 ba39 ffff 7f3f 6dd4 8b39 0000 803f
00000300: c381 103e 2670 7dbf de3c 473f cebf 20bf
00000310: d745 7e3f ab7f edbd 6321 743f 6318 9a3e
00000320: c209 503f 582f 153f b724 273f a2e7 413f
00000330: 6c2f 023f 296d 5c3f a768 c73e 37c9 6b3f
00000340: 6c4e 973e ef90 743f e26d 643e 928c 793f
00000350: d7ee 2b3e 9e5d 7c3f 2c33 013e 43f4 7d3f
00000360: c0ff c13d 4fd9 7e3f 0693 913d 3a5a 7f3f
00000370: 4e69 5a3d c3a2 7f3f c5d1 233d 90cb 7f3f
00000380: 1fb9 f53c 83e2 7f3f 4747 b83c 6bef 7f3f
00000390: c631 8a3c adf6 7f3f 4644 4f3c c1fa 7f3f
000003a0: 0d6e 1b3c 0dfd 7f3f 131d e93b 58fe 7f3f
000003b0: a8cf ae3b 11ff 7f3f 1317 833b 7aff 7f3f
000003c0: 929b 443b b5ff 7f3f 606f 133b d6ff 7f3f
000003d0: 171f dd3a e8ff 7f3f 56d1 a53a f3ff 7f3f
000003e0: 10b1 783a f9ff 7f3f 097e 3a3a fcff 7f3f
000003f0: 7ed9 0b3a feff 7f3f a4be d139 ffff 7f3f

transformer.layers.0.self_attn.in_proj_weight f4 [192, 64]
1.7798585e-09 -1.8811808e-09 -1.1014943e-09 -3.7556977e-10 -4.0175133e-10 -3.5635055e-09 3.625445e-09 -3.6694403e-09
4.269201e-09 -2.2494715e-09 4.3314565e-09 3.3340006e-09 4.334281e-09 4.144354e-09 4.3335104e-09 4.3101864e-09
4.298487e-09 4.3481467e-09 4.323267e-09 4.3790145e-09 4.238506e-09 4.373318e-09 4.2054085e-09 4.3688826e-09
4.2968415e-09 4.370051e-09 4.091867e-09 4.370724e-09 4.0017656e-09 4.369174e-09 3.8815093e-09 4.3888617e-09
4.197655e-09 4.3797748e-09 3.3911294e-09 4.3792423e-09 2.6519569e-09 4.3874073e-09 1.0580048e-09 4.3554005e-09
2.609044e-09 4.3888098e-09 1.6536598e-09 4.382167e-09 3.1340293e-09 4.3830126e-09 3.7581263e-09 4.3887147e-09
1.1018516e-09 4.3765414e-09 6.114775e-10 4.376542e-09 -2.8591138e-09 4.3742685e-09 1.8004168e-09 4.382799e-09
-8.3457646e-10 4.3780526e-09 -4.2029188e-10 4.380739e-09 3.7070937e-09 4.3773127e-09 9.118086e-10 4.3738293e-09
1.7799157e-09 -1.88112e-09 -1.1014557e-09 -3.755095e-10 -4.0170306e-10 -3.563415e-09 3.625551e-09 -3.6693122e-09
4.2691943e-09 -2.2494469e-09 4.3314565e-09 3.3340857e-09 4.3342983e-09 4.144442e-09 4.3335104e-09 4.3103165e-09
4.298487e-09 4.3482347e-09 4.323202e-09 4.379089e-09 4.238506e-09 4.3733666e-09 4.2054085e-09 4.3688604e-09
4.2968757e-09 4.370051e-09 4.091854e-09 4.3708295e-09 4.0017563e-09 4.3692494e-09 3.881447e-09 4.388911e-09
4.1975223e-09 4.3797748e-09 3.3910743e-09 4.379268e-09 2.6519225e-09 4.3874677e-09 1.0580258e-09 4.355431e-09
2.6090206e-09 4.3888573e-09 1.6537034e-09 4.3822417e-09 3.1340293e-09 4.3831077e-09 3.7581307e-09 4.3887627e-09
1.1019488e-09 4.376591e-09 6.114729e-10 4.3766097e-09 -2.8591338e-09 4.37429e-09 1.8004468e-09 4.3827617e-09
-8.346838e-10 4.37816e-09 -4.2031953e-10 4.380793e-09 3.7069656e-09 4.3773727e-09 9.1178926e-10 4.3738337e-09
-1.7797978e-09 1.8811537e-09 1.1015138e-09 3.755626e-10 4.0175424e-10 3.563515e-09 -3.6255203e-09 3.6693935e-09
-4.26917e-09 2.2494808e-09 -4.331495e-09 -3.3340204e-09 -4.3342983e-09 -4.1443275e-09 -4.3334896e-09 -4.3101864e-09
-4.298487e-09 -4.3481467e-09 -4.323249e-09 -4.3790327e-09 -4.2384514e-09 -4.373298e-09 -4.205354e-09 -4.3688826e-09
-4.2968757e-09 -4.3700457e-09 -4.091854e-09 -4.370724e-09 -4.001696e-09 -4.3691717e-09 -3.881462e-09 -4.3888617e-09
-4.1976036e-09 -4.3797748e-09 -3.3911824e-09 -4.379217e-09 -2.6519569e-09 -4.3873953e-09 -1.058159e-09 -4.3553485e-09
-2.6090197e-09 -4.3888027e-09 -1.6536663e-09 -4.382157e-09 -3.1340293e-09 -4.3830366e-09 -3.7581893e-09 -4.3887147e-09
-1.1019727e-09 -4.376591e-09 -6.114529e-10 -4.3765933e-09 2.8591636e-09 -4.3742685e-09 -1.8004667e-09 -4.3827617e-09
8.346201e-10 -4.3780677e-09 4.202799e-10 -4.3807344e-09 -3.7070522e-09 -4.3773754e-09 -9.1182706e-10 -4.3738337e-09
-1.7798046e-09 1.8811808e-09 1.1015545e-09 3.7557363e-10 4.0178036e-10 3.5635082e-09 -3.6254335e-09 3.6694863e-09
-4.2691672e-09 2.2495221e-09 -4.331384e-09 -3.3339784e-09 -4.3342827e-09 -4.1442596e-09 -4.3335104e-09 -4.310218e-09
-4.2984993e-09 -4.3481454e-09 -4.323249e-09 -4.3789905e-09 -4.238506e-09 -4.373321e-09 -4.205424e-09 -4.3688457e-09
-4.2968757e-09 -4.370051e-09 -4.091867e-09 -4.3706807e-09 -4.0018078e-09 -4.3691344e-09 -3.881462e-09 -4.3888617e-09
-4.1975468e-09 -4.3797597e-09 -3.3911294e-09 -4.3792334e-09 -2.6519569e-09 -4.3873953e-09 -1.0580538e-09 -4.3553365e-09
-2.6090359e-09 -4.3888098e-09 -1.6537254e-09 -4.3821706e-09 -3.1340293e-09 -4.3830366e-09 -3.758119e-09 -4.3886965e-09
-1.1019518e-09 -4.376533e-09 -6.114802e-10 -4.37653e-09 2.85915e-09 -4.3742685e-09 -1.8004845e-09 -4.382799e-09
8.346201e-10 -4.3781045e-09 4.203342e-10 -4.380739e-09 -3.7069996e-09 -4.377273e-09 -9.1178926e-10 -4.3737702e-09
00000000: 349f f430 1546 01b1 6363 97b0 bf78 ceaf
00000010: 79dd dcaf dae1 74b1 8123 7931 7a29 7cb1
00000020: 4ab0 9231 1f95 1ab1 e5d3 9431 5c1c 6531
00000030: bdec 9431 2066 8e31 f6e5 9431 cd18 9431
00000040: e4b1 9331 b466 9531 dc8b 9431 3876 9631
00000050: 4ba2 9131 1d44 9631 2a7f 9031 191d 9631
00000060: 6ba3 9331 6027 9631 7198 8c31 4b2d 9631
00000070: e77f 8931 a91f 9631 1e5e 8531 d6cc 9631
00000080: f73a 9031 e87c 9631 6109 6931 3978 9631
00000090: b83d 3631 0bc0 9631 3c69 9130 82a6 9531
000000a0: ca4a 3331 61cc 9631 fb46 e330 f391 9631
000000b0: 6d5e 5731 6399 9631 d420 8131 8bcb 9631
000000c0: f56f 9730 7760 9631 e714 2830 7860 9631
000000d0: 107a 44b1 794c 9631 8972 f730 8297 9631
000000e0: 1968 65b0 c26d 9631 d30e e7af 6385 9631
000000f0: e2bf 7e31 4067 9631 d3a2 7a30 9c48 9631
00000100: 37a1 f430 0345 01b1 0762 97b0 4470 ceaf
00000110: aed6 dcaf 42e0 74b1 5e25 7931 3927 7cb1
00000120: 3bb0 9231 b094 1ab1 e5d3 9431 db1d 6531
00000130: e4ec 9431 e666 8e31 f6e5 9431 f219 9431
00000140: e4b1 9331 7a67 9531 498b 9431 e076 9631
00000150: 4ba2 9131 8a44 9631 2a7f 9031 e71c 9631
00000160: b8a3 9331 6027 9631 5498 8c31 392e 9631
00000170: d27f 8931 5320 9631 925d 8531 45cd 9631
00000180: cc39 9031 e87c 9631 6908 6931 7378 9631
00000190: 1d3d 3631 93c0 9631 f969 9130 c7a6 9531
000001a0: 604a 3331 cccc 9631 8448 e330 9b92 9631
000001b0: 6d5e 5731 399a 9631 de20 8131 f7cb 9631
000001c0: 6073 9730 e760 9631 9414 2830 1161 9631
000001d0: 6a7a 44b1 a94c 9631 9773 f730 2e97 9631
000001e0: a76f 65b0 b46e 9631 b712 e7af dd85 9631
000001f0: a1bd 7e31 c767 9631 77a1 7a30 a648 9631
00000200: 119d f4b0 9b45 0131 1264 9730 bd77 ce2f
00000210: e2dd dc2f 05e2 7431 d424 79b1 a728 7c31
00000220: 04b0 92b1 4995 1a31 3cd4 94b1 b51c 65b1
00000230: e4ec 94b1 e465 8eb1 c7e5 94b1 cd18 94b1
00000240: e4b1 93b1 b466 95b1 b38b 94b1 6176 96b1
00000250: d0a1 91b1 f043 96b1 af7e 90b1 191d 96b1
00000260: b8a3 93b1 5427 96b1 5498 8cb1 4b2d 96b1
00000270: 4a7f 89b1 a41f 96b1 b35d 85b1 d6cc 96b1
00000280: 833a 90b1 e87c 96b1 500a 69b1 0078 96b1
00000290: b83d 36b1 f0bf 96b1 a96e 91b0 0da6 95b1
000002a0: 5c4a 33b1 51cc 96b1 3647 e3b0 dc91 96b1
000002b0: 6d5e 57b1 9999 96b1 6221 81b1 8bcb 96b1
000002c0: 3874 97b0 e760 96b1 2c13 28b0 ec60 96b1
000002d0: f07a 4431 794c 96b1 4a74 f7b0 2e97 96b1
000002e0: 2b6b 6530 e46d 96b1 230d e72f 5985 96b1
000002f0: 27bf 7eb1 cd67 96b1 20a4 7ab0 a648 96b1
00000300: 4f9d f4b0 1546 0131 8165 9730 4a79 ce2f
00000310: 8fe1 dc2f e6e1 7431 4d23 79b1 492a 7c31
00000320: feaf 92b1 0396 1a31 42d3 94b1 f81b 65b1
00000330: c1ec 94b1 4b65 8eb1 f6e5 94b1 1419 94b1
00000340: 00b2 93b1 b166 95b1 b38b 94b1 0276 96b1
00000350: 4ba2 91b1 2344 96b1 4d7f 90b1 c61c 96b1
00000360: b8a3 93b1 6027 96b1 7198 8cb1 ea2c 96b1
00000370: 4680 89b1 501f 96b1 b35d 85b1 d6cc 96b1
00000380: 033a 90b1 c67c 96b1 6109 69b1 2578 96b1
00000390: b83d 36b1 f0bf 96b1 f56a 91b0 f2a5 95b1
000003a0: a54a 33b1 61cc 96b1 4a49 e3b0 fb91 96b1
000003b0: 6d5e 57b1 9999 96b1 c420 81b1 62cb 96b1
000003c0: 7b73 97b0 6460 96b1 1815 28b0 5d60 96b1
000003d0: b37a 4431 794c 96b1 eb74 f7b0 8297 96b1
000003e0: 2b6b 6530 376e 96b1 c814 e72f 6385 96b1
000003f0: 3abe 7eb1 e766 96b1 77a1 7ab0 1748 96b1

transformer.layers.0.self_attn.in_proj_bias f4 [192]
4.4224753e-09 4.4225312e-09 -4.422434e-09 -4.4224064e-09 -4.4223785e-09 -4.422216e-09 -4.4225312e-09 4.422468e-09
4.4914747e-09 4.4916293e-09 -4.4916684e-09 4.491564e-09 -4.49165e-09 4.491771e-09 -4.49172e-09 4.49161e-09
-8.9921326e-10 -8.992274e-10 -8.992103e-10 8.992275e-10 8.99241e-10 8.992103e-10 -8.9917934e-10 -8.992103e-10
-1.0405773e-09 -1.040933e-09 1.0404249e-09 -1.0409607e-09 1.0402926e-09 1.0406774e-09 1.0400703e-09 1.0418558e-09
4.40174e-09 4.4014374e-09 -4.401548e-09 4.4013175e-09 4.401543e-09 -4.4016026e-09 4.4015254e-09 -4.40174e-09
4.4425463e-09 -4.44255e-09 -4.4425725e-09 4.442537e-09 4.4425175e-09 4.442579e-09 4.44255e-09 -4.442437e-09
-1.0689248e-09 -1.0688564e-09 -1.0689671e-09 -1.0689797e-09 -1.0689258e-09 -1.0688287e-09 1.0689586e-09 1.0689883e-09
4.508588e-09 -4.5084887e-09 4.508719e-09 4.508535e-09 4.5086597e-09 4.50866e-09 4.508719e-09 -4.508719e-09
4.0572875e-12 4.031382e-12 -4.0307384e-12 -4.0600266e-12 -4.0090743e-12 -4.0127467e-12 -4.020399e-12 4.042941e-12
3.3014533e-12 3.3028992e-12 -3.3162112e-12 3.2968938e-12 -3.2885823e-12 3.29532e-12 -3.306588e-12 3.3016712e-12
-6.2067315e-14 -6.2134156e-14 -6.198862e-14 6.205238e-14 6.189749e-14 6.185909e-14 -6.165895e-14 -6.208221e-14
-4.577162e-14 -4.4347074e-14 4.5160602e-14 -4.5802453e-14 4.6179013e-14 4.536057e-14 4.639443e-14 4.8024352e-14
4.0888165e-12 4.0767554e-12 -4.0689266e-12 4.0634328e-12 4.0679166e-12 -4.0687206e-12 4.0753217e-12 -4.087023e-12
3.460664e-12 -3.4951673e-12 -3.4965585e-12 3.4668652e-12 3.4822167e-12 3.4686637e-12 3.502165e-12 -3.4981566e-12
-5.228559e-14 -5.1895957e-14 -5.2639225e-14 -5.281064e-14 -5.262608e-14 -5.1513556e-14 5.2545885e-14 5.2471116e-14
3.2975406e-12 -3.3481748e-12 3.3139659e-12 3.2740492e-12 3.3090965e-12 3.316376e-12 3.3259595e-12 -3.3202328e-12
-2.8825435e-11 2.8678162e-11 2.8683753e-11 2.9370808e-11 -2.8827147e-11 2.8509105e-11 2.8794196e-11 2.645248e-11
-3.5518654e-11 -3.3435324e-11 -3.3955824e-11 -3.2600443e-11 -3.5470238e-11 3.5248637e-11 3.4925552e-11 -3.462625e-11
1.4973495e-09 1.4977708e-09 1.4982937e-09 -1.496328e-09 -1.4957814e-09 -1.4955933e-09 -1.4968382e-09 1.4983133e-09
-1.4876684e-09 1.1921262e-09 1.5196528e-09 1.467901e-09 1.3241244e-09 1.4609189e-09 -1.4284686e-09 1.5092794e-09
-2.5712904e-11 2.6018887e-11 2.568083e-11 2.5841487e-11 -2.5574678e-11 -2.593313e-11 2.58842e-11 -2.5777346e-11
-3.3003652e-11 -3.1728883e-11 3.339339e-11 -3.2905168e-11 -3.177932e-11 3.1630424e-11 3.2236956e-11 -3.2322284e-11
1.5142992e-09 -1.5612873e-09 -1.5769891e-09 -1.3737825e-09 1.5397584e-09 1.448225e-09 1.5547661e-09 -1.5548792e-09
-3.273726e-11 -3.1132777e-11 -3.4044368e-11 -3.3876554e-11 3.3384812e-11 -3.3213807e-11 -3.1122566e-11 3.1479968e-11
00000000: 81f4 9731 fff4 9731 24f4 97b1 e6f3 97b1
00000010: a7f3 97b1 39f2 97b1 fff4 97b1 71f4 9731
00000020: 6e53 9a31 ca54 9a31 2255 9ab1 3754 9a31
00000030: f954 9ab1 0956 9a31 9655 9ab1 9f54 9a31
00000040: 822c 77b0 812d 77b0 4d2c 77b0 832d 7730
00000050: 762e 7730 4d2c 7730 1f2a 77b0 4d2c 77b0
00000060: 0f04 8fb0 9310 8fb0 b2fe 8e30 8c11 8fb0
00000070: 0bfa 8e30 9507 8f30 38f2 8e30 0b31 8f30
00000080: 1d3e 9731 743b 9731 6d3c 97b1 663a 9731
00000090: 623c 9731 e83c 97b1 3a3c 9731 1d3e 97b1
000000a0: 0da5 9831 15a5 98b1 48a5 98b1 f8a4 9831
000000b0: cca4 9831 57a5 9831 15a5 9831 17a4 98b1
000000c0: 73e9 92b0 0be7 92b0 f0ea 92b0 61eb 92b0
000000d0: 7ce9 92b0 11e6 92b0 a3ea 9230 afeb 9230
000000e0: f6e9 9a31 16e9 9ab1 1deb 9a31 7ee9 9a31
000000f0: 97ea 9a31 98ea 9a31 1deb 9a31 1deb 9ab1
00000100: ccc0 8e2c 76d7 8d2c aad1 8dac 78d9 8eac
00000110: 880e 8dac 9c2f 8dac 8974 8dac 933f 8e2c
00000120: b251 682c be6b 682c 8d5b 69ac 8fff 672c
00000130: d569 67ac 35e3 672c 32ae 68ac 9f55 682c
00000140: 5fc3 8ba9 e7e9 8ba9 0296 8ba9 c3ba 8b29
00000150: 7961 8b29 564b 8b29 f7d7 8aa9 f5cb 8ba9
00000160: 1623 4ea9 b2b8 47a9 a162 4b29 a246 4ea9
00000170: c7f8 4f29 2d49 4c29 23f1 5029 4f48 5829
00000180: c9dc 8f2c 2670 8f2c a229 8fac 26f8 8e2c
00000190: 8920 8f2c c727 8fac 3c63 8f2c a1cc 8fac
000001a0: c885 732c 56f3 75ac 660c 76ac 7ef5 732c
000001b0: 0a0a 752c e415 742c 6571 762c 3029 76ac
000001c0: 2e79 6ba9 f7b7 69a9 e510 6da9 86d6 6da9
000001d0: bd01 6da9 16ff 67a9 48a5 6c29 144f 6c29
000001e0: 360b 682c 5b9b 6bac 1a33 692c 0764 662c
000001f0: 62db 682c 855e 692c 290b 6a2c ffa3 69ac
00000200: 1c8d fdad 7b41 fc2d 124e fc2d 972c 012e
00000210: f790 fdad ccc4 fa2d c446 fd2d b1ad e82d
00000220: 7336 1cae d40c 13ae dc56 15ae d660 0fae
00000230: f0ff 1bae 7006 1b2e ad9a 192e b149 18ae
00000240: 4dcb cd30 20da cd30 86ec cd30 5ca7 cdb0
00000250: 2194 cdb0 838d cdb0 50b9 cdb0 36ed cd30
00000260: ae76 ccb0 36d8 a330 08dc d030 2dbf c930
00000270: 7cfc b530 84c9 c830 c553 c4b0 0c6f cf30
00000280: 502c e2ad 53dd e42d 17e4 e12d db4d e32d
00000290: 0ef5 e0ad 381c e4ad 09ae e32d 6cbd e2ad
000002a0: cf26 11ae 8c8b 0bae 9ddd 122e edb7 10ae
000002b0: 55c4 0bae b11c 0b2e 96c7 0d2e a827 0eae
000002c0: ab1f d030 ea94 d6b0 5fbd d8b0 adcf bcb0
000002d0: 6f9f d330 e30a c730 78af d530 73b3 d5b0
000002e0: e1fa 0fae 64ec 08ae 8dba 15ae 9cfd 14ae
000002f0: f5d3 122e 6c13 12ae e5e0 08ae 4b73 0a2e

transformer.layers.0.self_attn.out_proj.weight f4 [64, 64]
-2.13683e-09 2.1301103e-09 2.1302353e-09 2.1633635e-09 -2.1371938e-09 2.1212097e-09 2.1357254e-09 1.5045433e-09
-2.0433792e-09 -2.0359898e-09 -1.9402344e-09 -2.0136095e-09 -2.0443913e-09 2.045775e-09 2.0461826e-09 -2.0509352e-09
4.4161674e-10 4.415613e-10 4.414832e-10 -4.4165482e-10 -4.4177692e-10 -4.4185255e-10 -4.4164286e-10 4.415194e-10
-4.4213122e-10 4.516244e-10 4.5350187e-10 4.634209e-10 4.4691717e-10 4.420674e-10 -4.425705e-10 4.5504706e-10
-2.0707451e-09 2.0855497e-09 2.0700435e-09 2.0778497e-09 -2.0646866e-09 -2.0818904e-09 2.0794235e-09 -2.0744906e-09
-2.0758444e-09 -2.0975153e-09 1.7293862e-09 -2.0667847e-09 -2.0969722e-09 2.099447e-09 2.0924686e-09 -2.080043e-09
4.4394835e-10 -4.43784e-10 -4.5340176e-10 -4.4839688e-10 4.419217e-10 4.4577678e-10 4.41768e-10 -4.4179513e-10
-2.07539e-09 -2.0430975e-09 -2.0622657e-09 -2.071507e-09 2.0784887e-09 -2.0432485e-09 -2.0416757e-09 2.0535116e-09
-2.3194486e-09 2.3117663e-09 2.3125666e-09 2.3452953e-09 -2.318821e-09 2.3042017e-09 2.3172735e-09 1.6878857e-09
-2.0456314e-09 -2.057905e-09 -1.9485624e-09 -2.046977e-09 -2.047175e-09 2.0497481e-09 2.0524622e-09 -2.0603481e-09
2.7390315e-10 2.739761e-10 2.7394217e-10 -2.73929e-10 -2.741863e-10 -2.7424496e-10 -2.7397662e-10 2.7378128e-10
-2.723837e-10 2.8111566e-10 2.821253e-10 2.9022215e-10 2.769322e-10 2.7252053e-10 -2.73128e-10 2.837569e-10
-2.256927e-09 2.2722462e-09 2.2570943e-09 2.2654985e-09 -2.2519242e-09 -2.2687137e-09 2.2666684e-09 -2.2614595e-09
-2.0857738e-09 -2.1158553e-09 1.767314e-09 -2.0765227e-09 -2.1147413e-09 2.1187034e-09 2.1066962e-09 -2.092874e-09
2.713904e-10 -2.7205377e-10 -2.8100344e-10 -2.7641373e-10 2.703377e-10 2.7356944e-10 2.6989744e-10 -2.6988334e-10
-2.0866375e-09 -2.0733424e-09 -2.0646185e-09 -2.0748079e-09 2.084783e-09 -2.0488393e-09 -2.0714275e-09 2.0790176e-09
-2.7122695e-09 2.7076188e-09 2.7068088e-09 2.7366196e-09 -2.714118e-09 2.6981313e-09 2.7126577e-09 1.9432216e-09
-2.5348763e-09 -2.5433637e-09 -2.4430136e-09 -2.5238214e-09 -2.5362945e-09 2.5397404e-09 2.5429325e-09 -2.5496751e-09
3.719241e-10 3.7212672e-10 3.7184364e-10 -3.7186693e-10 -3.7236178e-10 -3.7215578e-10 -3.71926e-10 3.7177497e-10
-3.8007314e-10 3.9508638e-10 3.8925624e-10 3.9921663e-10 3.8765782e-10 3.8077594e-10 -3.82062e-10 3.9090278e-10
-2.6722364e-09 2.6850535e-09 2.6709488e-09 2.6778948e-09 -2.6662197e-09 -2.6816978e-09 2.6795388e-09 -2.6751596e-09
-2.5611324e-09 -2.588128e-09 2.2263102e-09 -2.5552067e-09 -2.587589e-09 2.589236e-09 2.5810871e-09 -2.571903e-09
3.7696263e-10 -3.7588055e-10 -3.8408604e-10 -3.842387e-10 3.7498474e-10 3.8007414e-10 3.742287e-10 -3.7420808e-10
-2.6062017e-09 -2.5843567e-09 -2.5805529e-09 -2.5902238e-09 2.6017852e-09 -2.572125e-09 -2.5838556e-09 2.5941331e-09
-2.266778e-09 2.2592603e-09 2.2597273e-09 2.2947853e-09 -2.266818e-09 2.2506326e-09 2.2652415e-09 1.6513465e-09
-2.054185e-09 -2.0595161e-09 -1.959945e-09 -2.045774e-09 -2.055459e-09 2.0574844e-09 2.059167e-09 -2.0654853e-09
2.6573987e-10 2.657542e-10 2.655514e-10 -2.6576882e-10 -2.659896e-10 -2.660497e-10 -2.6577818e-10 2.6562968e-10
-2.686846e-10 2.790904e-10 2.7641528e-10 2.837113e-10 2.7255798e-10 2.6883612e-10 -2.689959e-10 2.7774e-10
-2.1859217e-09 2.20151e-09 2.185225e-09 2.193381e-09 -2.1798117e-09 -2.197519e-09 2.1949609e-09 -2.1898319e-09
-2.08877e-09 -2.1144586e-09 1.7822879e-09 -2.081045e-09 -2.1136157e-09 2.1170121e-09 2.107077e-09 -2.09518e-09
2.605995e-10 -2.6262892e-10 -2.6969083e-10 -2.674162e-10 2.6011462e-10 2.6376862e-10 2.592858e-10 -2.5918986e-10
-2.1080864e-09 -2.089661e-09 -2.0907769e-09 -2.1000448e-09 2.1083104e-09 -2.074616e-09 -2.0880961e-09 2.096488e-09
00000000: 83d7 12b1 4c61 1231 7f63 1231 4baa 1431
00000010: e9dd 12b1 b7c4 1131 14c4 1231 69c8 ce30
00000020: 826b 0cb1 83e9 0bb1 f754 05b1 cb5f 0ab1
00000030: 507d 0cb1 a895 0c31 d39c 0c31 6ff0 0cb1
00000040: 08c8 f22f 3ac0 f22f 3db5 f22f 64cd f2af
00000050: 93de f2af 38e9 f2af b5cb f2af 55ba f22f
00000060: 7010 f3af 7c48 f82f b750 f92f b2c4 fe2f
00000070: 00b2 f52f 7507 f32f 434e f3af 2e2a fa2f
00000080: ef4c 0eb1 6151 0f31 9740 0e31 ebc9 0e31
00000090: 5ae2 0db1 0111 0fb1 9be5 0e31 d38e 0eb1
000000a0: a4a6 0eb1 e123 10b1 5eaf ed30 4307 0eb1
000000b0: 531a 10b1 dd45 1031 19cb 0f31 81f0 0eb1
000000c0: 2d10 f42f 0cf9 f3af a042 f9af 4082 f6af
000000d0: f3f2 f22f 8111 f52f 52dd f22f 23e1 f2af
000000e0: a69e 0eb1 8d66 0cb1 c3b7 0db1 565a 0eb1
000000f0: 29d5 0e31 3569 0cb1 8a4d 0cb1 c21d 0d31
00000100: 2c64 1fb1 06dd 1e31 1aeb 1e31 df2a 2131
00000110: 2159 1fb1 f257 1e31 e83d 1f31 33fb e730
00000120: 2193 0cb1 0c6b 0db1 79e7 05b1 cdaa 0cb1
00000130: 49ae 0cb1 8ddb 0c31 4c0b 0d31 0796 0db1
00000140: 7194 962f b59e 962f ef99 962f 1498 96af
00000150: 4bbc 96af 8cc4 96af c89e 96af 4a83 962f
00000160: 99be 95af 838b 9a2f 9b19 9b2f 238d 9f2f
00000170: be3e 982f dbd1 952f 5927 96af 3cff 9b2f
00000180: 4818 1bb1 c725 1c31 391b 1b31 12af 1b31
00000190: 45c0 1ab1 a2e7 1bb1 a7c3 1b31 0468 1bb1
000001a0: 5255 0fb1 8566 11b1 d5e5 f230 93b2 0eb1
000001b0: ec52 11b1 a098 1131 64c5 1031 3bd2 0fb1
000001c0: ce32 952f 2a90 95af b87b 9aaf c6f5 97af
000001d0: a69e 942f 7a65 962f b060 942f b45e 94af
000001e0: 8464 0fb1 a07a 0eb1 27e1 0db1 6894 0eb1
000001f0: e443 0f31 90cb 0cb1 f058 0eb1 77de 0e31
00000200: c062 3ab1 ef10 3a31 af02 3a31 1f0f 3c31
00000210: 4583 3ab1 076a 3931 9469 3a31 8489 0531
00000220: 0432 2eb1 54c7 2eb1 f3e1 27b1 896f 2db1
00000230: f74a 2eb1 9687 2e31 bebf 2e31 5c36 2fb1
00000240: aa77 cc2f 2e94 cc2f 576c cc2f 9e6f ccaf
00000250: 43b5 ccaf 4598 ccaf ee77 ccaf ad62 cc2f
00000260: 8af2 d0af 7733 d92f f2fe d52f bf78 db2f
00000270: fd1d d52f 7355 d12f 720a d2af ade6 d62f
00000280: 7ba2 37b1 f683 3831 d48b 3731 0606 3831
00000290: a238 37b1 ed48 38b1 f222 3831 e8d5 37b1
000002a0: ebff 2fb1 d4da 31b1 aafd 1831 ac97 2fb1
000002b0: 59d1 31b1 52ee 3131 f75e 3131 65bd 30b1
000002c0: c63c cf2f 7ca4 ceaf 4e27 d3af ca3c d3af
000002d0: 6926 ce2f aef2 d02f 02bc cd2f 1bb9 cdaf
000002e0: c918 33b1 7c98 31b1 9155 31b1 b3ff 31b1
000002f0: 17cb 3231 4dc1 30b1 ab8f 31b1 7944 3231
00000300: 95c5 1bb1 5441 1b31 8b49 1b31 4ab2 1d31
00000310: 49c6 1bb1 8ca9 1a31 8daa 1b31 97f5 e230
00000320: 9b29 0db1 6487 0db1 b8af 06b1 a395 0cb1
00000330: 0440 0db1 a663 0d31 4081 0d31 67f0 0db1
00000340: 9017 922f 9419 922f 09fd 912f a31b 92af
00000350: b53a 92af 2b43 92af f41c 92af 0e08 922f
00000360: ffb5 93af 7b6e 992f fef5 972f d1f8 9b2f
00000370: 20d7 952f 52cb 932f cfe1 93af 6eb0 982f
00000380: 2437 16b1 6049 1731 e22a 1631 5eba 1631
00000390: a7cb 15b1 2a03 17b1 29d6 1631 ee7b 16b1
000003a0: 088a 0fb1 f34d 11b1 aef4 f430 2102 0fb1
000003b0: 1f3f 11b1 df7a 1131 17cc 1031 ccfa 0fb1
000003c0: 1e44 8f2f bc61 90af 9c43 94af 7c03 93af
000003d0: e1ff 8e2f 2202 912f 3b8b 8e2f bb7d 8eaf
000003e0: d9dd 10b1 b599 0fb1 56ad 0fb1 6150 10b1
000003f0: cae1 1031 0891 0eb1 2d7e 0fb1 cf11 1031

transformer.layers.0.self_attn.out_proj.bias f4 [64]
0.00011498038 9.470125e-05 8.066665e-05 0.00010102255 6.689314e-05 0.00014766339 0.00010063959 -4.1173334e-05
5.271596e-05 7.224712e-05 0.00033498977 3.491906e-05 6.656284e-05 -3.2841326e-05 8.230853e-05 -2.6767868e-05
0.000121073375 -3.7646027e-05 0.00012303985 -1.1524999e-05 0.00011944429 -1.0066573e-05 0.00012865354 -3.518727e-05
0.00011853813 -7.6307293e-07 0.00014372187 -3.211247e-05 0.000116744566 2.655224e-06 9.826062e-05 -1.8344024e-05
9.356141e-05 -2.5001907e-05 0.00031377407 -2.4375102e-05 9.687551e-05 9.44701e-06 8.8096655e-05 -2.680511e-05
8.929695e-05 -3.7375237e-05 0.00010844629 0.0006599336 9.494176e-05 -2.856654e-05 0.00010060164 -3.7133532e-06
0.00012152666 2.8997642e-06 9.686667e-05 2.1992144e-05 3.931167e-05 -1.8359833e-06 8.877419e-05 4.5213696e-06
0.00012205593 -3.9035487e-05 0.0001329129 -5.658641e-05 9.120909e-05 -8.8984725e-06 0.00017536632 8.045532e-05
00000000: 9f21 f138 599a c638 942b a938 12dc d338
00000010: fb48 8c38 17d6 1a39 780e d338 88b1 2cb8
00000020: 551b 5d38 6183 9738 91a1 af39 0e76 1238
00000030: a797 8b38 1bbf 09b8 0e9d ac38 8f8b e0b7
00000040: c6e8 fd38 1de6 1db8 4204 0139 7e5b 41b7
00000050: 2a7e fa38 9ae3 28b7 2ce7 0639 0b96 13b8
00000060: ad97 f838 f9d5 4cb5 0cb4 1639 81b0 06b8
00000070: c3d4 f438 6730 3236 4511 ce38 7ee1 99b7
00000080: 6636 c438 30bb d1b7 0b82 a439 2279 ccb7
00000090: a529 cb38 997e 1e37 88c0 b838 89db e0b7
000000a0: ef44 bb38 5bc3 1cb8 a96d e338 65ff 2c3a
000000b0: 781b c738 2da2 efb7 18fa d238 ec32 79b6
000000c0: 21dc fe38 9299 4236 e624 cb38 c57b b837
000000d0: 96e2 2438 e86b f6b5 482c ba38 45b6 9736
000000e0: 47f8 ff38 09ba 23b8 895e 0b39 3257 6db8
000000f0: 8247 bf38 a64a 15b7 8ae2 3739 1fba a838

transformer.layers.0.multihead_attn.in_proj_weight f4 [192, 64]
-2.6427355e-10 -2.6549848e-10 -2.5016061e-10 -3.0450756e-10 -2.621865e-10 -2.4578162e-10 -2.7313e-10 -2.8802605e-10
-2.9587666e-10 -2.6430444e-10 -3.0593816e-10 -2.8366057e-10 -2.6694946e-10 -3.0201103e-10 -3.0251354e-10 -3.222585e-10
-3.6119538e-10 -2.888467e-10 -3.4186737e-10 -3.3266773e-10 -5.0317167e-10 -2.9569838e-10 -7.4876344e-10 -2.8560504e-10
-4.7367327e-10 -2.9102745e-10 -2.521699e-10 -2.8880084e-10 -2.437314e-10 -2.944281e-10 -2.854341e-10 -3.1370345e-10
-5.891493e-10 -2.9859792e-10 -7.430449e-10 -2.5910082e-10 -9.790562e-10 -2.7603342e-10 -6.4520855e-10 -2.9547328e-10
-7.181131e-10 -2.9252145e-10 -5.642872e-10 -2.5295238e-10 -9.533833e-10 -2.9117125e-10 -3.4675593e-10 -2.9403427e-10
-5.755665e-10 -3.1558997e-10 -5.7015376e-10 -2.9062955e-10 -3.671927e-10 -2.4531044e-10 -6.5312605e-10 -3.0753686e-10
-3.4883185e-10 -2.815684e-10 -6.249077e-10 -2.6016458e-10 -3.141902e-10 -2.9601696e-10 -5.8577254e-10 -2.8679165e-10
2.642566e-10 2.6552788e-10 2.5014893e-10 3.0449965e-10 2.6216646e-10 2.458073e-10 2.7307315e-10 2.8802752e-10
2.9584735e-10 2.643078e-10 3.0588931e-10 2.8367386e-10 2.6695252e-10 3.0203248e-10 3.024923e-10 3.2229774e-10
3.6122155e-10 2.888706e-10 3.4183967e-10 3.326315e-10 5.031585e-10 2.9570016e-10 7.4876344e-10 2.8566097e-10
4.736603e-10 2.910023e-10 2.521879e-10 2.8879965e-10 2.4376928e-10 2.9442793e-10 2.853819e-10 3.1372738e-10
5.8914795e-10 2.9863745e-10 7.4305057e-10 2.5911173e-10 9.790498e-10 2.7602645e-10 6.452352e-10 2.9549468e-10
7.180994e-10 2.925546e-10 5.642751e-10 2.5292013e-10 9.533716e-10 2.9119412e-10 3.4675107e-10 2.9404523e-10
5.7557487e-10 3.1561181e-10 5.7016897e-10 2.9060218e-10 3.6723374e-10 2.4531516e-10 6.530849e-10 3.075e-10
3.4879585e-10 2.8158156e-10 6.2487465e-10 2.6020644e-10 3.1418537e-10 2.960278e-10 5.8574673e-10 2.867927e-10
-2.642275e-10 -2.6545646e-10 -2.5013194e-10 -3.0450334e-10 -2.6215274e-10 -2.4579147e-10 -2.7306754e-10 -2.8800007e-10
-2.9585054e-10 -2.6429334e-10 -3.059003e-10 -2.836947e-10 -2.6692643e-10 -3.020114e-10 -3.0251432e-10 -3.2232306e-10
-3.6120562e-10 -2.888642e-10 -3.4183653e-10 -3.326155e-10 -5.0315463e-10 -2.9565994e-10 -7.487309e-10 -2.85634e-10
-4.736317e-10 -2.9101643e-10 -2.5217786e-10 -2.8878872e-10 -2.4377958e-10 -2.9442088e-10 -2.8533864e-10 -3.137191e-10
-5.891495e-10 -2.9861574e-10 -7.42997e-10 -2.5908392e-10 -9.789987e-10 -2.7601543e-10 -6.452125e-10 -2.9544778e-10
-7.180855e-10 -2.9250533e-10 -5.6426125e-10 -2.5292599e-10 -9.533268e-10 -2.911564e-10 -3.467465e-10 -2.940324e-10
-5.7557853e-10 -3.1560907e-10 -5.701401e-10 -2.9059863e-10 -3.672142e-10 -2.4528027e-10 -6.530631e-10 -3.0750003e-10
-3.4876352e-10 -2.815364e-10 -6.2487626e-10 -2.6013708e-10 -3.14163e-10 -2.9600397e-10 -5.8570354e-10 -2.8671532e-10
-2.6424096e-10 -2.654669e-10 -2.5015306e-10 -3.0450037e-10 -2.6219166e-10 -2.4579838e-10 -2.7311928e-10 -2.8801353e-10
-2.958696e-10 -2.643876e-10 -3.0591635e-10 -2.8369634e-10 -2.669284e-10 -3.0203076e-10 -3.0250363e-10 -3.2232575e-10
-3.612277e-10 -2.8885877e-10 -3.4190642e-10 -3.3266323e-10 -5.0313437e-10 -2.957386e-10 -7.4875633e-10 -2.856509e-10
-4.7370685e-10 -2.910252e-10 -2.5220542e-10 -2.8882266e-10 -2.4379077e-10 -2.9444477e-10 -2.8540922e-10 -3.1375283e-10
-5.8916655e-10 -2.9869732e-10 -7.430914e-10 -2.5908634e-10 -9.790498e-10 -2.7602645e-10 -6.4522854e-10 -2.9549455e-10
-7.180969e-10 -2.925513e-10 -5.6431126e-10 -2.5290678e-10 -9.533554e-10 -2.9118252e-10 -3.4675973e-10 -2.9405686e-10
-5.7560423e-10 -3.156106e-10 -5.7017546e-10 -2.9064443e-10 -3.6726064e-10 -2.452723e-10 -6.5316114e-10 -3.0753933e-10
-3.488255e-10 -2.8163982e-10 -6.2490885e-10 -2.6021818e-10 -3.142241e-10 -2.9606476e-10 -5.858085e-10 -2.8678362e-10
00000000: 3249 91af 97f5 91af fa86 89af a167 a7af
00000010: 7823 90af b01e 87af a127 96af 1058 9eaf
00000020: f0a8 a2af 8b4d 91af f830 a8af adf1 9baf
00000030: ccc1 92af 4608 a6af ff4e a6af da29 b1af
00000040: bb91 c6af 8fcb 9eaf 8ef1 bbaf d2e2 b6af
00000050: 8f4f 0ab0 d98f a2af 8bd1 4db0 5603 9daf
00000060: cb33 02b0 79fe 9faf c2a1 8aaf 1bc5 9eaf
00000070: 25fe 85af 12dd a1af 47eb 9caf d675 acaf
00000080: b2f1 21b0 ec27 a4af 233f 4cb0 3371 8eaf
00000090: 7a8f 86b0 40c0 97af 845a 31b0 2b70 a2af
000000a0: b864 45b0 bcd0 a0af 2e1c 1bb0 e20f 8baf
000000b0: 3108 83b0 b612 a0af 8fa1 beaf a5a5 a1af
000000c0: e435 1eb0 577f adaf 01b9 1cb0 79c6 9faf
000000d0: c7dd c9af 60dc 86af a987 33b0 f711 a9af
000000e0: b8c5 bfaf 3bcb 9aaf f8c5 2bb0 e906 8faf
000000f0: 57ba acaf afbc a2af 1404 21b0 56aa 9daf
00000100: cf46 912f baf9 912f 5585 892f 8466 a72f
00000110: a620 902f 4d22 872f a11f 962f 4558 9e2f
00000120: d0a4 a22f 044e 912f 182a a82f 8cf3 9b2f
00000130: 3ac2 922f 4b0b a62f 024c a62f 602f b12f
00000140: 6a95 c62f ecce 9e2f a8ed bb2f b9dd b62f
00000150: a24e 0a30 1990 a22f 8bd1 4d30 350b 9d2f
00000160: e132 0230 effa 9f2f 4ba4 8a2f f0c4 9e2f
00000170: 7a03 862f 0cdd a12f efe3 9c2f 3479 ac2f
00000180: 9af1 2130 7c2d a42f 893f 4c30 bc72 8e2f
00000190: 418f 8630 45bf 972f 645c 3130 2e73 a22f
000001a0: c163 4530 66d5 a02f 551b 1b30 580b 8b2f
000001b0: c807 8330 ee15 a02f e0a0 be2f 30a7 a12f
000001c0: 7b36 1e30 6a82 ad2f 13ba 1c30 9fc2 9f2f
000001d0: 8ee3 c92f 0add 862f c484 3330 c70c a92f
000001e0: a7c0 bf2f 15cd 9a2f a5c3 2b30 cd0c 8f2f
000001f0: a9b9 ac2f 36be a22f 4302 2130 7caa 9d2f
00000200: b742 91af adef 91af f182 89af 0967 a7af
00000210: b81e 90af 1320 87af d71e 96af 6854 9eaf
00000220: 43a5 a2af fb4b 91af a42b a8af 7bf6 9baf
00000230: 8ebe 92af 5308 a6af 1b4f a6af f032 b1af
00000240: 2c93 c6af 06ce 9eaf 37ed bbaf 78db b6af
00000250: 5c4e 0ab0 708a a2af 41cf 4db0 6907 9daf
00000260: de30 02b0 ecfc 9faf e1a2 8aaf 66c3 9eaf
00000270: ed04 86af 0edc a1af d8dd 9caf 0a78 acaf
00000280: b6f1 21b0 6e2a a4af c43b 4cb0 d26e 8eaf
00000290: 748d 86b0 b8bd 97af cb5a 31b0 946c a2af
000002a0: c662 45b0 77ce a0af 5b1a 1bb0 2b0c 8baf
000002b0: 3406 83b0 9f10 a0af 3ba0 beaf 62a5 a1af
000002c0: bd36 1eb0 0782 adaf 0bb8 1cb0 1fc2 9faf
000002d0: cee0 c9af 21d8 86af 3b83 33b0 c80c a9af
000002e0: 1abc bfaf bac6 9aaf c2c3 2bb0 0a03 8faf
000002f0: 83b6 acaf dbba a2af 39ff 20b0 989f 9daf
00000300: 9c44 91af 25f1 91af ea85 89af 9e66 a7af
00000310: 3224 90af 0c21 87af 1f26 96af 4d56 9eaf
00000320: f2a7 a2af 3f59 91af e62d a8af b6f6 9baf
00000330: d5be 92af 0d0b a6af 9a4d a6af 5133 b1af
00000340: 4796 c6af 42cd 9eaf 0df7 bbaf 30e2 b6af
00000350: ef4c 0ab0 8295 a2af 0bd1 4db0 ca09 9daf
00000360: 2836 02b0 28fe 9faf c2a6 8aaf 2dc8 9eaf
00000370: 8006 86af 6bdf a1af c7e7 9caf c97c acaf
00000380: e9f2 21b0 e935 a4af 6942 4cb0 296f 8eaf
00000390: 418f 86b0 45bf 97af ec5b 31b0 2973 a2af
000003a0: 9463 45b0 efd4 a0af e01d 1bb0 7709 8baf
000003b0: 3607 83b0 4c14 a0af 18a2 beaf d3a8 a1af
000003c0: 8c38 1eb0 3e82 adaf 88ba 1cb0 91c8 9faf
000003d0: 57e7 c9af 02d7 86af 218a 33b0 5012 a9af
000003e0: d3c4 bfaf 48d5 9aaf 0dc6 2bb0 740e 8faf
000003f0: 1cbf acaf 69c3 a2af 9c06 21b0 35a9 9daf

transformer.layers.0.multihead_attn.in_proj_bias f4 [192]
2.7397056e-09 -2.7396445e-09 2.7397313e-09 2.7396951e-09 2.739705e-09 -2.7397162e-09 2.7396323e-09 -2.739782e-09
2.6999316e-09 -2.699934e-09 2.6998643e-09 -2.6999316e-09 -2.699909e-09 -2.699916e-09 2.699928e-09 -2.699928e-09
2.7510487e-09 2.7510485e-09 -2.7510487e-09 -2.750936e-09 -2.7510176e-09 -2.7509701e-09 -2.7510472e-09 -2.7510176e-09
-2.5866207e-09 2.5866032e-09 -2.5865499e-09 2.5865747e-09 -2.5865308e-09 2.5866698e-09 2.5865827e-09 -2.5865288e-09
2.6650542e-09 2.6649931e-09 2.6650262e-09 -2.6649976e-09 2.664965e-09 2.6649931e-09 2.664965e-09 2.6649705e-09
-2.761573e-09 -2.7615574e-09 -2.7614524e-09 -2.7614597e-09 -2.761561e-09 -2.7614335e-09 -2.7614233e-09 -2.761573e-09
-2.505543e-09 2.5055826e-09 -2.5057574e-09 -2.5055513e-09 2.5054212e-09 -2.505742e-09 2.5055964e-09 2.5054614e-09
2.5481361e-09 -2.5479985e-09 2.547181e-09 -2.5483935e-09 -2.5481164e-09 2.5479985e-09 2.548321e-09 -2.5479985e-09
1.5636897e-14 -1.5179334e-14 1.5140136e-14 1.5484762e-14 1.5422047e-14 -1.5747467e-14 1.5336973e-14 -1.5442212e-14
1.6547192e-14 -1.6558371e-14 1.6728699e-14 -1.6718696e-14 -1.6393094e-14 -1.646022e-14 1.6970774e-14 -1.6767913e-14
1.6316889e-14 1.6054427e-14 -1.7088392e-14 -1.5771037e-14 -1.6097807e-14 -1.5245883e-14 -1.6147557e-14 -1.671859e-14
-1.558995e-14 1.5739263e-14 -1.5949529e-14 1.5106907e-14 -1.4975468e-14 1.5833612e-14 1.5201223e-14 -1.4811792e-14
1.4301182e-14 1.4599536e-14 1.4180164e-14 -1.4261309e-14 1.452261e-14 1.4688114e-14 1.4669282e-14 1.4682505e-14
-1.6534378e-14 -1.6817206e-14 -1.6900254e-14 -1.707054e-14 -1.6888854e-14 -1.6975133e-14 -1.7070277e-14 -1.679916e-14
-1.1857881e-14 1.1484009e-14 -1.2104124e-14 -1.21795155e-14 1.1786016e-14 -1.2309301e-14 1.2145019e-14 1.1814972e-14
1.3807091e-14 -1.3377214e-14 1.3700675e-14 -1.3306375e-14 -1.3788609e-14 1.3808417e-14 1.3291729e-14 -1.3452822e-14
-6.071953e-07 6.957251e-07 6.6155064e-07 -6.063048e-07 6.087569e-07 -6.034401e-07 -6.189114e-07 -6.061726e-07
-9.831209e-07 8.520634e-07 8.5274735e-07 -3.5397702e-06 1.0219247e-06 -6.977033e-07 1.1078316e-06 6.7917057e-07
7.0724457e-07 -7.06887e-07 9.1932304e-07 8.386424e-07 7.069372e-07 -8.9908457e-07 7.068292e-07 -7.072815e-07
-7.3820564e-07 -2.9589617e-07 8.7261833e-07 -7.850815e-07 -6.72857e-07 -7.6555045e-07 -7.4729087e-07 -7.808146e-07
3.9944888e-07 -2.3785012e-06 1.0109229e-06 2.6264027e-07 9.734241e-07 -1.0632175e-06 -7.2147867e-07 -7.2819313e-07
9.0684154e-07 -9.078952e-07 -5.1136972e-08 9.00941e-07 8.7837657e-07 8.703059e-07 8.842975e-07 -8.9484155e-07
-7.888046e-07 7.9078166e-07 7.618123e-07 7.8637646e-07 7.9133537e-07 -7.912888e-07 -7.882699e-07 7.6650844e-07
-6.940655e-08 -1.4249085e-06 -5.5504535e-07 -1.1020198e-07 7.026994e-08 1.7080996e-08 -9.566562e-07 -2.9729808e-06
00000000: 6945 3c31 5644 3cb1 dd45 3c31 3a45 3c31
00000010: 6645 3c31 9945 3cb1 1f44 3c31 c146 3cb1
00000020: b389 3931 be89 39b1 8488 3931 b389 39b1
00000030: 4d89 39b1 6d89 39b1 a389 3931 a389 39b1
00000040: f60c 3d31 f50c 3d31 f60c 3db1 fa0a 3db1
00000050: 6a0c 3db1 940b 3db1 ef0c 3db1 6a0c 3db1
00000060: 50c0 31b1 01c0 3131 11bf 31b1 81bf 3131
00000070: bbbe 31b1 2dc1 3131 a5bf 3131 b2be 31b1
00000080: 2124 3731 0e23 3731 a323 3731 2223 37b1
00000090: 8f22 3731 0e23 3731 8f22 3731 a822 3731
000000a0: 1bc6 3db1 d5c5 3db1 fcc3 3db1 1dc4 3db1
000000b0: e5c5 3db1 a7c3 3db1 79c3 3db1 1bc6 3db1
000000c0: fb2d 2cb1 ad2e 2c31 c031 2cb1 202e 2cb1
000000d0: d62b 2c31 7b31 2cb1 eb2e 2c31 8b2c 2c31
000000e0: 491b 2f31 dd18 2fb1 7b0a 2f31 d01f 2fb1
000000f0: f01a 2fb1 dd18 2f31 8a1e 2f31 dd18 2fb1
00000100: 3bd8 8c28 29b9 88a8 c75e 8828 6e79 8b28
00000110: d2e8 8a28 30d7 8da8 a724 8a28 5117 8ba8
00000120: 3a0b 9528 0125 95a8 c1ad 9628 b096 96a8
00000130: e7a7 93a8 af42 94a8 f1db 9828 2d08 97a8
00000140: 2ff8 9228 fd9a 9028 26eb 99a8 890d 8ea8
00000150: 04ff 90a8 9d52 89a8 bb71 91a8 7296 96a8
00000160: fa6b 8ca8 45c4 8d28 1ca9 8fa8 2812 8828
00000170: 14e3 86a8 d39d 8e28 a2eb 8828 ab69 85a8
00000180: 48d0 8028 3d80 8328 7772 7f28 5774 80a8
00000190: dcce 8228 7c4c 8428 1021 8428 8d3f 8428
000001a0: aeed 94a8 d679 97a8 5539 98a8 fcc1 99a8
000001b0: 0c1f 98a8 fee5 98a8 61c1 99a8 3a50 97a8
000001c0: d39c 55a8 a5e0 4e28 6b0c 5aa8 1a68 5ba8
000001d0: 6851 5428 a2be 5da8 04c9 5a28 f1d6 5428
000001e0: f8b9 7828 83fb 70a8 36cf 7628 d3b4 6fa8
000001f0: bc64 78a8 15c0 7828 4871 6f28 3158 72a8
00000200: 25fe 22b5 ddc1 3a35 6a95 3135 f3c0 22b5
00000210: 7569 2335 17fc 21b5 4423 26b5 ddb7 22b5
00000220: c7f3 83b5 5ab9 6435 5ae8 6435 ca8c 6db6
00000230: 1129 8935 ce49 3bb5 ceb0 9435 3f50 3635
00000240: 7ad9 3d35 e8c0 3db5 66c7 7635 111f 6135
00000250: 5bc4 3d35 9f58 71b5 efbc 3d35 04dc 3db5
00000260: 1b29 46b5 a9db 9eb4 e03d 6a35 64be 52b5
00000270: 629e 34b5 3a80 4db5 7099 48b5 2c99 51b5
00000280: d673 d634 579e 1fb6 0caf 8735 0101 8d34
00000290: 99a6 8235 e0b3 8eb5 a3ab 41b5 0d79 43b5
000002a0: ad6d 7335 15b6 73b5 b2a1 5bb3 32d8 7135
000002b0: 94c9 6b35 f79e 6935 7660 6d35 0b35 70b5
000002c0: 3dbe 53b5 1a46 5435 587f 4c35 6117 5335
000002d0: 276c 5435 f468 54b5 7f99 53b5 0fc2 4d35
000002e0: a80c 95b3 7c3f bfb5 6dfe 14b5 2ea8 ecb3
000002f0: 4fe7 9633 82b9 9232 7566 80b5 6c83 47b6
