decisionmaking/trained_models/env=claude_dim2_model=transformer_num_episodes1000000_num_hidden=8_lr0.0003_num_layers=2_d_model=64_num_head=8_noise0.0_shuffleTrue_pairedTrue_lossnll_ess0.9_std0.1_run=1_essinit0.001_annealed.pt (torch, 942445 bytes, 121 tensors)

embedding.weight f4 [64, 3]
000000 ae 16 6a bc a1 28 38 3d eb c2 ca 3d 0d f9 d1 3c
       -0.014287634 0.04496062 0.09900459 0.025631452
000010 a1 0d 8a bc e0 7c 08 be c0 ea 64 3c 55 91 89 bc
       -0.016852202 -0.13328886 0.013971984 -0.016792933
000020 ff a9 dc 3c f1 09 05 3d 78 2a 8b bc 43 a9 30 be
       0.02693653 0.032480184 -0.016988024 -0.17252068
000030 bc 91 15 3c 4f 1c 53 bc a2 34 9e 3c 75 ed e3 3c
       0.009128984 -0.012885167 0.019312207 0.02782319
000040 19 be ae bc 03 a4 6d be c2 24 e7 ba 2e 54 85 bb
       -0.02133088 -0.23207097 -0.0017634856 -0.004068873
000050 2f 91 3c 3c 4d 36 8d 3c 34 9f 98 bc b8 7c 91 be
       0.011509224 0.017237807 -0.018630601 -0.28415465
000060 0a 9f 55 bc 74 88 27 3c ed 3e 3b 3d c9 35 50 3c
       -0.013038406 0.010225404 0.045714308 0.012708136
000070 99 36 18 bc b4 83 a4 be 1c 12 07 bc e3 d0 72 3c
       -0.009290361 -0.32131732 -0.008244064 0.01482031
000080 53 51 61 bc 6a a4 a9 3b c2 d5 36 bc 67 f2 ba be
       -0.013752299 0.0051770704 -0.011159362 -0.36513063
000090 31 63 2e bc 00 80 ca 3b 45 b8 8f bc 6a 17 8c 3b
       -0.010643766 0.0061798096 -0.017543921 0.004275252
0000a0 d6 f4 75 3a de 9c c3 be ca df 5e bb 90 2e 5d 3c
       0.00093824917 -0.38205618 -0.00340079 0.013499871
0000b0 7e 19 5d bd 70 1b b9 3c 9a 38 fb bc 29 78 9f 3e
       -0.05397939 0.022596091 -0.030666638 0.31146362
0000c0 ae 5c d8 bc 9b 43 3b bc 74 57 90 bc 9d c0 2c 3b
       -0.02641138 -0.011429693 -0.017619826 0.0026359924
0000d0 19 6d 2f 3b a5 b9 c8 be fb 56 26 bd b8 e2 3c 3e
       0.0026767908 -0.39204136 -0.040610295 0.18445861
0000e0 7a a3 bf 3b 4d 4f 13 ba 80 29 3e 3c 50 a8 c8 be
       0.0058483453 -0.0005619422 0.011606574 -0.39190912
0000f0 ff 2b 84 3b e2 3c 33 bb f4 d8 d2 be 7b 4a f8 3c
       0.004033565 -0.0027349521 -0.41181147 0.030308953
000100 90 df f8 bc b7 44 8a 3e f5 d1 bc 3c 52 2d 57 be
       -0.03038004 0.2700555 0.023049334 -0.21013382
000110 7b a4 f0 ba fb 98 05 3d 44 50 d0 bc 95 ad 85 3e
       -0.0018359566 0.032616597 -0.025428899 0.26108995
000120 b1 f8 8d 3c 78 e6 a9 bb 62 a3 97 bd 0b 8a 32 ba
       0.0173305 -0.0051849447 -0.0740421 -0.0006810731
000130 c1 77 5f 3c 26 98 a5 be 22 17 99 3c 80 ac 55 be
       0.013639391 -0.32342643 0.018687788 -0.20866585
000140 cc 50 c6 bb 97 05 f3 3c 87 77 04 bd 74 b2 86 3e
       -0.006052112 0.029665751 -0.032340553 0.26308024
000150 f6 5d d5 3d ef 76 39 3c 85 d9 df bb a1 3c 18 bb
       0.10418312 0.01131986 -0.0068313503 -0.0023229497
000160 a9 aa f3 3b 4e 06 b9 be a6 cf 09 3d c1 25 bd bd
       0.0074361158 -0.36137623 0.033645295 -0.092357166
000170 39 7d 17 bc 40 05 02 3d 78 d7 33 bd 98 29 7c 3e
       -0.009246164 0.031743288 -0.04390666 0.24625242
000180 0e 63 2b 3e 56 ba a7 3d a7 95 8b bb 7f f4 1d 3d
       0.16737005 0.08189838 -0.0042597833 0.038563248
000190 26 52 12 bd 69 bd 59 3e a2 c3 05 3e b3 77 5b 3d
       -0.035722874 0.2126366 0.13062909 0.05358095
0001a0 35 e1 5d bb 34 c0 41 3d 20 08 14 bd d5 25 76 3e
       -0.0033856158 0.04730244 -0.03614056 0.2403787
0001b0 97 8d ef 3d 79 38 5e 3d dc 6c 3d bb e2 11 1a 3b
       0.11696928 0.054253075 -0.0028903997 0.0023509194
0001c0 38 e4 40 3c f7 1b a9 be 02 0b 2d 3b db 14 3f bb
       0.011773162 -0.33029148 0.0026404266 -0.0029156718
0001d0 a1 e6 d2 be 3e 6b 36 bb 26 45 42 3c 37 2f c4 be
       -0.4119158 -0.0027834917 0.011857307 -0.38317272
0001e0 15 ab 6d 3d 99 10 b9 bc 2d 45 86 bc 21 a6 ac 3a
       0.058024485 -0.022590922 -0.016390407 0.0013172069
0001f0 cf 31 2c 3c 22 c3 c2 be cc a7 8d 3b 16 c0 25 ba
       0.010509922 -0.380395 0.0043229815 -0.00063228735
000200 f6 b3 dc be 2b 68 83 bb 95 1a 66 3c 81 f1 b8 be
       -0.4310605 -0.0040102205 0.014044424 -0.36121753
000210 b0 04 de bd ee 64 a7 bd 3c 5a e6 ba e5 28 82 ba
       -0.10840738 -0.08173548 -0.0017574499 -0.00099304
000220 9f 28 73 3c a4 49 ab be be 52 04 3e d9 5c 6a 3d
       0.014841228 -0.3345462 0.12922189 0.057217453
000230 ba f2 ad ba 98 2f c3 bb ff 17 74 3c be 92 a8 be
       -0.0013271191 -0.0059566014 0.014898299 -0.32924455
000240 4a a2 f7 3d 55 ac 6a 3d 31 f4 e6 3a fd 3e 8d bb
       0.12091501 0.057293255 0.0017620382 -0.0043104873
000250 70 cd 60 3c 0f 85 b3 be b2 4a 0b 3e 0f 25 69 3d
       0.013720855 -0.35062453 0.13602713 0.056920107
000260 f0 71 10 ba 63 86 1a 3d ed df 41 bd 7e 9c 6c 3e
       -0.0005510142 0.037725817 -0.047332693 0.23106572
000270 fd fd 4d 3a c1 26 81 bb 64 24 d4 be fc c0 56 bb
       0.00078579766 -0.0039413874 -0.41434014 -0.0032768836
000280 51 47 20 3c b2 50 bb be 7a 47 3c 3c 9b 9b 55 3e
       0.009782628 -0.36585003 0.011491651 0.2086014
000290 69 ef 92 3b a5 df c7 ba 91 26 2d 3c 9a 50 c6 be
       0.0044841063 -0.0015249146 0.010568277 -0.3873337
0002a0 4d 15 2a 3e a8 3f a6 3d f0 4b 33 bb 25 fa a5 ba
       0.16609688 0.0811761 -0.0027358495 -0.001266305
0002b0 52 4e a2 3c 0d 13 a2 be 5e 80 5b 3d f9 4d 3f bd
       0.019812737 -0.3165516 0.053589217 -0.04670522
0002c0 be c3 70 bc 93 d5 7e bb 93 a2 2e 3c 06 54 b5 be
       -0.014695106 -0.0038884624 0.010658878 -0.35415667
0002d0 5d cb 14 be 4b ec b4 bd d6 e0 15 ba 86 18 1d 3d
       -0.14530702 -0.08834132 -0.0005717402 0.038353465
0002e0 82 74 f6 bc 03 93 83 3e 07 0f 48 3c 75 35 4e be
       -0.030084852 0.256981 0.012210614 -0.2013758
0002f0 88 de 46 bb 16 60 3e 3b 3e 0e 02 3c 67 4f bd be
       -0.0030345041 0.002904897 0.007937966 -0.36974642

embedding.bias f4 [64]
000000 9c 44 3e bd 9c 8f 2a bd a8 eb 50 bd 8f 5b 73 bd
       -0.04645215 -0.041640863 -0.05100599 -0.05941349
000010 20 27 70 bd c1 98 a6 bd 8b ab 6a bd 0c a1 05 be
       -0.058631063 -0.08134604 -0.057292502 -0.13049716
000020 03 d1 67 bd 99 59 0f be 95 c1 3d bd c8 5b 20 be
       -0.056595813 -0.13999023 -0.046327192 -0.15660012
000030 34 be 22 bd 10 27 26 be 71 90 12 bd 13 8a 31 be
       -0.039732173 -0.16225839 -0.03578228 -0.17337827
000040 58 23 eb bc ee 65 37 be 0f 0e d9 bc c5 3e 32 be
       -0.028703377 -0.17909977 -0.026495961 -0.17406757
000050 11 11 ff bc 5e 73 32 be 56 ad 7c bc 02 14 3e be
       -0.031136068 -0.17426822 -0.015422186 -0.1856232
000060 bb ba 21 bc 1f 6c 24 be 8b b4 47 bc a3 b4 38 be
       -0.00987118 -0.1605687 -0.012189041 -0.18037657
000070 53 83 e3 bb d6 3f 34 be e8 98 6d bb 47 ff 3b be
       -0.0069431453 -0.17602476 -0.003625447 -0.183591
000080 c2 a3 d5 bb 6a d1 29 be 97 1c dd bb 16 26 39 be
       -0.0065197656 -0.16583791 -0.006747793 -0.18080935
000090 f8 25 10 bb 75 40 20 be 73 2a 94 3c 90 64 2f be
       -0.0021995287 -0.15649588 0.018086648 -0.17128205
0000a0 98 4e cc 3b b3 a1 3f be a6 7f fb 3c 12 2b 26 be
       0.006234955 -0.18714027 0.030700516 -0.16227368
0000b0 b2 bb af 3b 67 52 2e be f4 83 8b ba 73 c2 2f be
       0.005362951 -0.17023621 -0.0010644183 -0.1716402
0000c0 88 87 ed b8 bd 5a 30 be 54 e7 0f 3a fc c3 27 be
       -0.00011326285 -0.17222114 0.00054894877 -0.16383356
0000d0 16 61 0d 3d bb 60 3b be dd 69 4e bb 62 8c 3a be
       0.034516416 -0.18298618 -0.0031496205 -0.18217614
0000e0 d0 55 24 b8 56 0d 29 be 99 f4 09 3c 85 cb 30 be
       -3.9180566e-05 -0.16508994 0.008420133 -0.17265137
0000f0 48 a5 7a 3a b7 46 34 be 9f df c2 ba 1f f5 36 be
       0.0009561372 -0.176051 -0.001486767 -0.17866944

pos_encoder.pe f4 [1, 10, 64]
000000 00 00 00 00 00 00 80 3f 00 00 00 00 00 00 80 3f
       0.0 1.0 0.0 1.0
000010 00 00 00 00 00 00 80 3f 00 00 00 00 00 00 80 3f
       0.0 1.0 0.0 1.0
000020 00 00 00 00 00 00 80 3f 00 00 00 00 00 00 80 3f
       0.0 1.0 0.0 1.0
000030 00 00 00 00 00 00 80 3f 00 00 00 00 00 00 80 3f
       0.0 1.0 0.0 1.0
000040 00 00 00 00 00 00 80 3f 00 00 00 00 00 00 80 3f
       0.0 1.0 0.0 1.0
000050 00 00 00 00 00 00 80 3f 00 00 00 00 00 00 80 3f
       0.0 1.0 0.0 1.0
000060 00 00 00 00 00 00 80 3f 00 00 00 00 00 00 80 3f
       0.0 1.0 0.0 1.0
000070 00 00 00 00 00 00 80 3f 00 00 00 00 00 00 80 3f
       0.0 1.0 0.0 1.0
000080 00 00 00 00 00 00 80 3f 00 00 00 00 00 00 80 3f
       0.0 1.0 0.0 1.0
000090 00 00 00 00 00 00 80 3f 00 00 00 00 00 00 80 3f
       0.0 1.0 0.0 1.0
0000a0 00 00 00 00 00 00 80 3f 00 00 00 00 00 00 80 3f
       0.0 1.0 0.0 1.0
0000b0 00 00 00 00 00 00 80 3f 00 00 00 00 00 00 80 3f
       0.0 1.0 0.0 1.0
0000c0 00 00 00 00 00 00 80 3f 00 00 00 00 00 00 80 3f
       0.0 1.0 0.0 1.0
0000d0 00 00 00 00 00 00 80 3f 00 00 00 00 00 00 80 3f
       0.0 1.0 0.0 1.0
0000e0 00 00 00 00 00 00 80 3f 00 00 00 00 00 00 80 3f
       0.0 1.0 0.0 1.0
0000f0 00 00 00 00 00 00 80 3f 00 00 00 00 00 00 80 3f
       0.0 1.0 0.0 1.0
000100 a4 6a 57 3f 41 51 0a 3f ce 7a 2e 3f b0 54 3b 3f
       0.84147096 0.54030234 0.68156135 0.731761
000110 ba 7d 08 3f 0d 94 58 3f f0 90 d1 3e c7 92 69 3f
       0.53316844 0.8460091 0.4093089 0.9123959
000120 3e 39 9f 3e 6b 4e 73 3f 25 8f 70 3e f1 d5 78 3f
       0.3109836 0.9504153 0.23492105 0.9720145
000130 3a 23 35 3e 83 f6 7b 3f f3 25 08 3e 28 ba 7d 3f
       0.17689219 0.9842302 0.13295726 0.99112177
000140 76 75 cc 3d 98 b8 7e 3f 36 6f 99 3d d1 47 7f 3f
       0.099833414 0.9950042 0.07491915 0.9971896
000150 ae 36 66 3d 68 98 7f 3f fb ac 2c 3d bd c5 7f 3f
       0.05620449 0.9984193 0.042157155 0.999111
000160 5b 81 01 3d 3c df 7f 3f a5 3e c2 3c 93 ed 7f 3f
       0.031617504 0.99950004 0.023711512 0.99971884
000170 42 ab 91 3c a3 f5 7f 3f 49 7a 5a 3c 2c fa 7f 3f
       0.017781857 0.99984187 0.013334819 0.99991107
000180 57 d6 23 3c b9 fc 7f 3f 16 b9 f5 3b 28 fe 7f 3f
       0.009999833 0.99995 0.0074988706 0.99997187
000190 5a 44 b8 3b f7 fe 7f 3f 5a 2e 8a 3b 6b ff 7f 3f
       0.0056233825 0.9999842 0.0042169513 0.9999911
0001a0 1c 3e 4f 3b ac ff 7f 3f 03 69 1b 3b d1 ff 7f 3f
       0.0031622713 0.999995 0.0023713715 0.9999972
0001b0 20 15 e9 3a e6 ff 7f 3f 8b c9 ae 3a f1 ff 7f 3f
       0.0017782785 0.99999845 0.0013335211 0.9999991
0001c0 6d 12 83 3a f8 ff 7f 3f 89 94 44 3a fb ff 7f 3f
       0.0009999998 0.9999995 0.000749894 0.9999997
0001d0 13 6a 13 3a fd ff 7f 3f 21 17 dd 39 ff ff 7f 3f
       0.0005623411 0.9999998 0.00042169637 0.99999994
0001e0 61 cb a5 39 ff ff 7f 3f 0d a8 78 39 00 00 80 3f
       0.00031622782 0.99999994 0.00023713727 1.0
0001f0 53 77 3a 39 00 00 80 3f 6d d4 0b 39 00 00 80 3f
       0.00017782794 1.0 0.00013335208 1.0
000200 b7 c7 68 3f 33 11 d5 be d9 5a 7f 3f 53 4d 91 3d
       0.9092974 -0.41614684 0.99748 0.070948265
000210 0a f2 66 3f b2 e8 dc 3e 11 35 3f 3f 03 39 2a 3f
       0.9021307 0.43146282 0.7469035 0.6649324
000220 1b 54 17 3f ec 7b 4e 3f b5 d3 e9 3e 69 be 63 3f
       0.5911271 0.8065784 0.45669332 0.8896242
000230 f6 47 b2 3e a6 fa 6f 3f 82 f0 86 3e f5 f2 76 3f
       0.34820527 0.93741834 0.26355368 0.96464473
000240 f8 6f 4b 3e a5 e5 7a 3f d3 00 19 3e 4f 20 7d 3f
       0.19866931 0.9800666 0.1494172 0.98877424
000250 86 d9 e5 3d f3 61 7e 3f af 85 ac 3d 0e 17 7f 3f
       0.1122313 0.9936821 0.084239356 0.99644554
000260 c8 70 81 3d f9 7c 7f 3f aa 30 42 3d 4e b6 7f 3f
       0.063203394 0.9980007 0.04740969 0.9988755
000270 5c a5 11 3d 8e d6 7f 3f 50 75 da 3c b1 e8 7f 3f
       0.03555809 0.9993676 0.026667267 0.99964434
000280 3e d4 a3 3c e5 f2 7f 3f 51 b7 75 3c a1 f8 7f 3f
       0.019998666 0.9998 0.014997319 0.9998875
000290 9b 43 38 3c db fb 7f 3f 0a 2e 0a 3c ab fd 7f 3f
       0.011246587 0.99993676 0.008433828 0.9999644
0002a0 d8 3d cf 3b b1 fe 7f 3f e7 68 9b 3b 43 ff 7f 3f
       0.006324511 0.99998003 0.00474273 0.99998873
0002b0 08 15 69 3b 96 ff 7f 3f 80 c9 2e 3b c4 ff 7f 3f
       0.0035565514 0.9999937 0.0026670396 0.9999964
0002c0 68 12 03 3b df ff 7f 3f 85 94 c4 3a ed ff 7f 3f
       0.0019999985 0.99999803 0.0014997876 0.99999887
0002d0 12 6a 93 3a f5 ff 7f 3f 1f 17 5d 3a fa ff 7f 3f
       0.0011246821 0.99999934 0.0008433926 0.99999964
0002e0 60 cb 25 3a fd ff 7f 3f 0c a8 f8 39 fe ff 7f 3f
       0.0006324556 0.9999998 0.0004742745 0.9999999
0002f0 53 77 ba 39 ff ff 7f 3f 6d d4 8b 39 00 00 80 3f
       0.00035565588 0.99999994 0.00026670416 1.0
000300 c3 81 10 3e 26 70 7d bf de 3c 47 3f ce bf 20 bf
       0.14112 -0.9899925 0.7782725 -0.6279267
000310 d7 45 7e 3f ab 7f ed bd 63 21 74 3f 63 18 9a 3e
       0.9932532 -0.11596616 0.95363444 0.3009673
000320 c2 09 50 3f 58 2f 15 3f b7 24 27 3f a2 e7 41 3f
       0.8126489 0.58275366 0.652904 0.7574407
000330 6c 2f 02 3f 29 6d 5c 3f a7 68 c7 3e 37 c9 6b 3f
       0.5085361 0.86104065 0.3894703 0.92103904
000340 6c 4e 97 3e ef 90 74 3f e2 6d 64 3e 92 8c 79 3f
       0.2955202 0.9553365 0.22307542 0.9748012
000350 d7 ee 2b 3e 9e 5d 7c 3f 2c 33 01 3e 43 f4 7d 3f
       0.16790329 0.9858035 0.12617177 0.9920084
000360 c0 ff c1 3d 4f d9 7e 3f 06 93 91 3d 3a 5a 7f 3f
       0.094726086 0.99550337 0.071081206 0.9974705
000370 4e 69 5a 3d c3 a2 7f 3f c5 d1 23 3d 90 cb 7f 3f
       0.053323083 0.9985773 0.039994974 0.99919987
000380 1f b9 f5 3c 83 e2 7f 3f 47 47 b8 3c 6b ef 7f 3f
       0.0299955 0.99955004 0.022494925 0.999747
000390 c6 31 8a 3c ad f6 7f 3f 46 44 4f 3c c1 fa 7f 3f
       0.016869437 0.9998577 0.012650555 0.99991995
0003a0 0d 6e 1b 3c 0d fd 7f 3f 13 1d e9 3b 58 fe 7f 3f
       0.009486687 0.999955 0.0071140616 0.9999747
0003b0 a8 cf ae 3b 11 ff 7f 3f 13 17 83 3b 7a ff 7f 3f
       0.005334813 0.99998575 0.0040005534 0.999992
0003c0 92 9b 44 3b b5 ff 7f 3f 60 6f 13 3b d6 ff 7f 3f
       0.0029999954 0.9999955 0.0022496805 0.9999975
0003d0 17 1f dd 3a e8 ff 7f 3f 56 d1 a5 3a f3 ff 7f 3f
       0.0016870227 0.99999857 0.0012650888 0.9999992
0003e0 10 b1 78 3a f9 ff 7f 3f 09 7e 3a 3a fc ff 7f 3f
       0.00094868336 0.9999996 0.00071141176 0.99999976
0003f0 7e d9 0b 3a fe ff 7f 3f a4 be d1 39 ff ff 7f 3f
       0.0005334838 0.9999999 0.00040005625 0.99999994

transformer.layers.0.self_attn.in_proj_weight f4 [192, 64]
000000 c8 f4 be bd b7 d4 a1 3c 15 1c 3a bd 5e 42 74 bb
       -0.09324032 0.01975475 -0.045436937 -0.0037271003
000010 cc 30 c1 bc 02 2a 08 3d 44 c8 31 bd a0 97 8e 3d
       -0.023582838 0.033243187 -0.04340388 0.06962514
000020 60 63 86 bd d2 06 9a 3d 6f ad 83 bd 18 48 36 3d
       -0.06561923 0.07520832 -0.06429564 0.044502348
000030 9c 96 8e bd 59 11 83 3c 70 a0 67 bd 0d a5 06 be
       -0.0696232 0.015999483 -0.05654949 -0.131489
000040 24 fe 8e bd f9 aa d7 bb 11 58 91 bd 54 08 43 bc
       -0.06982067 -0.006581661 -0.070968755 -0.011903841
000050 08 9e 75 3e 43 49 03 be 7a 0b f8 bc 52 8d f9 bd
       0.23986065 -0.12820916 -0.03027891 -0.12185158
000060 9f f2 e4 3c 99 c7 0f bd c0 ef 1c bc a1 44 02 be
       0.027947722 -0.03510246 -0.009578645 -0.12721492
000070 85 58 a2 bc 5f 06 df bc 58 44 f3 bb eb 83 f0 bd
       -0.0198176 -0.027224718 -0.0074239187 -0.11743911
000080 af 6b e8 bb 6f db f5 bd 56 ec d9 bb 2b 98 fa bd
       -0.007092915 -0.12004744 -0.006650488 -0.12236055
000090 57 b8 e0 bb 5f 2c f6 bc 81 31 a4 3e 3f 68 b7 bc
       -0.0068579125 -0.030050455 0.32069018 -0.022388576
0000a0 90 a1 ab 3c 95 a1 9f bc 30 2f a3 3e a5 b7 cc bc
       0.020951062 -0.019486228 0.3187194 -0.024989912
0000b0 eb 0e 92 bb 44 82 e4 bc 04 a5 82 3b 57 65 fb bc
       -0.0044573448 -0.027894147 0.0039869566 -0.030687971
0000c0 fb b6 0d bb 5f 95 09 bd 7a 8d 24 ba 0d 1b f1 bd
       -0.0021623957 -0.033589717 -0.0006277185 -0.11772738
0000d0 9b 75 9e 3e 8f 31 bd bc fb 96 72 bc 4b d0 a1 bc
       0.309491 -0.02309492 -0.014806504 -0.019752642
0000e0 8a 6d 91 3a f3 67 1e bd e9 69 05 3d d5 33 cc bc
       0.0011095267 -0.038673352 0.032571707 -0.02492706
0000f0 17 2e a4 3b aa 52 fd bd 84 fc 9e 3c 6e cb d2 bc
       0.005010377 -0.123692825 0.019407518 -0.025731768
000100 4a b3 84 3b 3c c8 e9 bd ee a1 7b 3b 9c 79 ee bd
       0.0040496932 -0.11415145 0.0038396078 -0.11644289
000110 24 aa 09 bc 7b 27 fc bd 2a 4c 26 bd 2c 6c 15 be
       -0.008402381 -0.12312218 -0.04059998 -0.14592046
000120 b1 3d 39 bd 0d 34 3b be 26 57 94 bd 10 93 55 be
       -0.04522485 -0.18281575 -0.07243185 -0.20856881
000130 8e 8b 9e bd 1d e6 60 be 21 ab cf bd d1 8c 1e bd
       -0.07741462 -0.21962781 -0.10140062 -0.03870851
000140 4a 31 a0 bd a6 5b 5d be 64 4d 94 bd 94 2b 60 be
       -0.07821901 -0.21616992 -0.072413236 -0.21891624
000150 0a 29 a7 be c9 72 59 bd 95 de 96 bc 60 62 7d bd
       -0.32648498 -0.053087983 -0.018416682 -0.061861396
000160 3d 00 76 be 98 14 41 be 9b 11 66 bb d2 1b 57 bd
       -0.24023528 -0.18855512 -0.0035105709 -0.052516766
000170 64 da 45 bd 93 54 50 be 4c 1f d1 bc 9a 7c 79 bd
       -0.048303977 -0.20344763 -0.025527619 -0.060909845
000180 16 85 e2 bc 15 0f 85 bd db a8 ec bc f8 fc 65 bd
       -0.027651351 -0.06497017 -0.02888911 -0.056149453
000190 2d 1e f6 bc fc 67 49 be bd 6f 81 be 12 b8 4f be
       -0.030043686 -0.19668573 -0.25280562 -0.20285061
0001a0 6b 7a 60 bd 2b fe 54 be a8 c6 82 be 67 7a 51 be
       -0.054804247 -0.20800082 -0.25542188 -0.20456849
0001b0 3a 9a 2b 3c ab ad 49 be 90 e4 aa bc c7 bd 47 be
       0.010473782 -0.19695155 -0.02086094 -0.19505988
0001c0 d0 9d 9e bc d7 99 49 be 8e d3 96 bc e7 5a 80 bd
       -0.01936236 -0.19687591 -0.018411424 -0.06267338
0001d0 c1 b0 80 be 64 df 52 be 7a 83 a7 bc cd b8 58 be
       -0.25134853 -0.2059303 -0.020448435 -0.21164246
0001e0 8a 64 84 bc 0f 06 45 be ab f7 02 bd 59 8c 50 be
       -0.016161222 -0.19240592 -0.031974476 -0.20366038
0001f0 43 16 4e 3c 51 55 72 bd 60 b3 b3 3c cf 8f 54 be
       0.01257855 -0.059163395 0.021936119 -0.20757984
000200 05 f9 43 3d f2 3e c0 bd 41 10 f4 3c 07 53 a8 bd
       0.047844905 -0.09387006 0.029792907 -0.08218961
000210 45 5d 32 3c 81 e4 d7 bd a2 da a5 bb 65 67 15 be
       0.010886495 -0.105416305 -0.0050614635 -0.14590223
000220 5c 77 85 3a 87 5f 30 be 86 5b 95 bc 6a c6 30 be
       0.0010182667 -0.17223941 -0.018232118 -0.17263189
000230 6e 3d 9b bc 16 a0 2a be 57 d0 2e bd df c4 e9 3c
       -0.01895019 -0.1666263 -0.042679157 0.028536258
000240 89 aa a7 bc aa e1 1d be 49 f6 65 bc 22 0b 1e be
       -0.02046706 -0.15418115 -0.01403577 -0.15433934
000250 7e 7d b1 be 46 d7 97 3c 35 fa 53 ba b6 1b 1c 3c
       -0.34666055 0.018535268 -0.0008086295 0.009528091
000260 e0 c1 45 be 27 e4 f5 bd 37 1d 65 3a c0 9a 9b 3c
       -0.19312239 -0.12006407 0.000874001 0.018994689
000270 b2 4c d2 bc 94 49 0a be d6 b1 82 bc 66 25 06 3c
       -0.025671337 -0.1350463 -0.01595394 0.008187627
000280 49 de 82 bc 6c 1a cb 3b 28 3b 8d bc e6 7e 6f 3c
       -0.015975134 0.006198218 -0.017240122 0.014617657
000290 6c 87 8d bc e5 68 04 be 13 e5 a1 be 24 72 0c be
       -0.017276488 -0.12930639 -0.31620082 -0.13715416
0002a0 92 56 43 bd 19 8e 12 be ff df a2 be c5 17 0c be
       -0.04768998 -0.14312018 -0.3181152 -0.13680942
0002b0 1d 29 0d 3c 47 6e 05 be 0c d6 80 bc 92 1c 03 be
       0.008615759 -0.13030349 -0.015727066 -0.12803867
0002c0 45 87 41 bc ac 5d 03 be 36 83 45 bc 67 fb da 3b
       -0.011812036 -0.12828702 -0.012055209 0.0066828015
0002d0 9f 9a 9f be 72 90 0e be a0 b4 02 bc 3e af 14 be
       -0.31172654 -0.13922289 -0.007977635 -0.14519975
0002e0 2c 36 37 bc bf 19 fa bd 0d 26 1b bd 74 23 0c be
       -0.011182349 -0.12211942 -0.037878085 -0.136854
0002f0 c0 e8 cb 3b f5 b4 4b 3c 9a 1f d8 3b fa ba 0e be
       0.0062228143 0.01243328 0.006595564 -0.13938513
000300 3e d9 be bd 65 75 a2 3c b5 cc 39 bd 63 de 6d bb
       -0.093187794 0.019831369 -0.04536124 -0.0036295883
000310 5d 82 c0 bc a5 c3 08 3d 40 5f 31 bd 1f 03 8f 3d
       -0.023499662 0.033389706 -0.043303728 0.06983017
000320 90 3f 86 bd 76 88 9a 3d 76 88 83 bd a7 6d 37 3d
       -0.06555092 0.07545559 -0.06422512 0.044782307
000330 50 75 8e bd 81 65 85 3c bd 54 67 bd 2b 82 06 be
       -0.06955969 0.016283752 -0.056477297 -0.13135593
000340 d7 e3 8e bd 61 30 cf bb f5 38 91 bd b1 cd 3e bc
       -0.06977051 -0.006322906 -0.07090942 -0.01164572
000350 ab e0 75 3e a9 28 03 be d1 e3 f7 bc fc 48 f9 bd
       0.24011485 -0.1280848 -0.030259999 -0.12172124
000360 37 68 e6 3c e9 d9 0e bd a1 e8 1c bc 92 25 02 be
       0.028125865 -0.034875784 -0.009576947 -0.12709644
000370 28 e0 a1 bc 10 14 dd bc 65 75 f2 bb 39 43 f0 bd
       -0.019760206 -0.026987106 -0.0073992484 -0.11731572
000380 1a 42 e7 bb c6 97 f5 bd 63 b7 d8 bb f6 57 fa bd
       -0.0070574405 -0.11991839 -0.0066136583 -0.122238085
000390 a4 71 df bb 4d 45 f4 bc f6 4c a4 3e 39 7b b5 bc
       -0.006818967 -0.029818201 0.32089967 -0.022153484
0003a0 91 0c ac 3c b3 a9 9d bc d4 4b a3 3e 4d c4 ca bc
       0.021002086 -0.019245958 0.3189379 -0.024751807
0003b0 f6 6b 92 bb 63 93 e2 bc b1 64 83 3b 98 80 f9 bc
       -0.0044684364 -0.02765817 0.004009806 -0.030456826
0003c0 8b 10 0c bb 3e 9c 08 bd 05 00 1e ba 0d d8 f0 bd
       -0.0021372165 -0.03335213 -0.00060272246 -0.117599584
0003d0 f5 92 9e 3e 58 3b bb bc 16 26 72 bc ef d1 9f bc
       0.30971494 -0.022855446 -0.014779588 -0.019509284
0003e0 ba 16 94 3a da 73 1d bd 24 85 05 3d 40 3f ca bc
       0.0011298277 -0.038440563 0.032597676 -0.024688363
0003f0 aa 81 a3 3b a7 11 fd bd d5 b8 9e 3c 28 ce d0 bc
       0.0049898224 -0.123568825 0.019375244 -0.025488928

transformer.layers.0.self_attn.in_proj_bias f4 [192]
000000 71 64 c9 bd 1d ba e2 bd 24 9a 12 bd 42 0a c9 bd
       -0.09833611 -0.110706545 -0.03579153 -0.0981641
000010 08 b2 82 bd c8 f7 c8 bd b0 40 cb bd f7 ff c8 3d
       -0.06381613 -0.098128855 -0.099244475 0.098144464
000020 db cc eb bd cc ef e8 bd f1 84 1f bc 4d 54 20 bc
       -0.115136825 -0.113738626 -0.009736286 -0.009785724
000030 ff 9a eb bd fe b4 ed 3d 08 5f 1e bc 00 4b 36 3c
       -0.115041725 0.11606787 -0.009666212 0.01112628
000040 c0 4f 87 bd f4 d8 fd 3d c0 d3 86 3d 9a bb 91 3d
       -0.06607008 0.12394896 0.06583357 0.0711586
000050 8d 48 05 be 11 83 43 be 08 84 87 3d 3a ff 06 3e
       -0.13015957 -0.19092967 0.0661698 0.13183299
000060 29 a3 ef bd 62 e9 f0 bd ef 09 df bd 23 0d f0 3d
       -0.11701042 -0.11763264 -0.108905666 0.11721256
000070 0f 8b 99 bd 90 5d 79 bd 34 98 a1 3d c6 bf f6 bd
       -0.074972264 -0.060880244 0.078903586 -0.12048297
000080 75 e4 3d bd 72 e4 3d bd 6e e4 3d 3d 6d e4 3d bd
       -0.04636045 -0.04636044 0.046360426 -0.046360422
000090 6d e4 3d bd 70 e4 3d bd 72 e4 3d 3d 75 e4 3d bd
       -0.046360422 -0.046360433 0.04636044 -0.04636045
0000a0 3f 97 01 3e 61 4d 03 be 40 0c b0 3d 14 35 68 bd
       0.12655352 -0.12822486 0.085960865 -0.056691244
0000b0 e4 e2 04 be 0e c7 03 3e c7 e9 6d bd d8 de 5e 3d
       -0.12977177 0.12868902 -0.058084276 0.05441174
0000c0 7e 6b e1 3d d8 79 e1 bd 76 95 91 bd 55 ad 74 bd
       0.11006831 -0.11009568 -0.071085855 -0.059735615
0000d0 81 67 e1 bd a1 70 e1 bd bf f7 ac bd a7 69 e1 3d
       -0.1100607 -0.110078104 -0.08445691 0.1100648
0000e0 32 88 54 bd 33 88 54 bd 33 88 54 bd 32 88 54 bd
       -0.0518877 -0.051887702 -0.051887702 -0.0518877
0000f0 34 88 54 bd 30 88 54 bd 34 88 54 bd 30 88 54 3d
       -0.051887706 -0.05188769 -0.051887706 0.05188769
000100 c9 2a a0 bb 87 9a 75 bb ee 4e 57 b8 22 2d 9e bb
       -0.004887913 -0.0037476139 -5.1333504e-05 -0.0048271576
000110 e1 04 d2 ba 19 f8 a1 bb fd 1c a3 bb 22 98 a2 3b
       -0.0016023183 -0.0049429056 -0.004977821 0.0049619833
000120 31 de 3d bc 9a 76 3c bc 05 4f 12 ba 3f c3 09 ba
       -0.011588619 -0.011502886 -0.0005581233 -0.0005255229
000130 c2 25 3f bc 80 4b 41 3c cc 0d 0f ba 0f 72 40 3a
       -0.011666717 0.011797786 -0.0005457073 0.0007341215
000140 02 e2 56 bc 02 84 9a 3b 93 95 58 3c 68 a3 62 3c
       -0.013115408 0.0047154436 0.013219255 0.013832904
000150 fc b6 ad bb 4f b7 41 bc 87 33 59 3c ad 03 ae 3b
       -0.0053013545 -0.011823489 0.013256914 0.005310497
000160 4d 4b 80 bb 3e 6f 84 bb 9d 1b 38 bb c3 d3 83 3b
       -0.0039152266 -0.0040415814 -0.002809263 0.0040230467
000170 10 05 6d bc ec 49 5c bc b6 91 75 3c 77 63 94 bc
       -0.014466539 -0.013445359 0.0149883535 -0.018113835
000180 d1 8f c1 b9 f0 33 c3 b9 de dc c6 39 a5 33 c3 b9
       -0.0003691898 -0.00037231995 0.00037930062 -0.00037231777
000190 d8 a0 c4 b9 6d 4b c3 b9 a1 de c5 39 b7 53 c4 b9
       -0.0003750387 -0.00037249495 0.0003774064 -0.00037446406
0001a0 24 7d aa 3b 12 ce a7 bb e1 d3 77 3c 50 ce 53 bc
       0.005202906 -0.005121001 0.015126199 -0.012927607
0001b0 22 80 b2 bb 0f b5 b0 3b db bd 58 bc 0e 86 4f 3c
       -0.0054474035 0.0053926776 -0.013228859 0.0126662385
0001c0 c9 5b 9e 3b 44 74 9c bb cf 81 af ba 88 e7 80 ba
       0.004832719 -0.004774602 -0.0013390126 -0.0009834627
0001d0 44 a5 9e bb 2f 0c 9f bb 7a 71 f8 ba fc b3 9f 3b
       -0.0048414785 -0.0048537473 -0.0018954717 0.0048737507
0001e0 1a e2 5b b9 20 6a 61 b9 fc 9e 5e b9 9a 8e 68 b9
       -0.00020969697 -0.00021497207 -0.00021230796 -0.00022178367
0001f0 df 0b 65 b9 72 d2 62 b9 dd d8 5f b9 74 87 60 39
       -0.00021843564 -0.00021631437 -0.00021347725 0.00021412765
000200 24 b9 27 ba 1d b7 27 ba 66 51 d9 3b f5 b8 27 ba
       -0.00063981325 -0.00063978304 0.006632018 -0.0006398105
000210 f1 b8 27 3a 21 fc 26 3b d2 b8 27 ba 0f e9 3a 3b
       0.0006398103 0.002547987 -0.0006398085 0.0028520261
000220 92 7d 9b 3b 0c 34 86 38 e0 a3 9b 3b 76 33 86 b8
       0.0047451938 6.3993124e-05 0.00474976 -6.399203e-05
000230 7e f9 9b bb d2 93 9b bb de 33 86 38 c3 33 86 38
       -0.0047599664 -0.004747846 6.399279e-05 6.399259e-05
000240 00 bc 27 bb 3d b0 85 3a 4d b0 85 ba b6 b5 27 3b
       -0.0025594234 0.0010199618 -0.0010199636 0.0025590486
000250 53 b0 85 3a 66 a8 27 bb 42 b0 85 3a f6 63 02 3b
       0.0010199643 -0.002558255 0.0010199624 0.0019896007
000260 76 c1 8f ba 84 c1 8f 3a 8e c1 8f ba 35 c8 44 bb
       -0.001096769 0.0010967706 -0.0010967718 -0.003002656
000270 27 8d 3e 3b ba 3c 45 bb 09 63 40 3b 85 c1 8f ba
       0.0029075833 -0.003009601 0.0029355905 -0.0010967707
000280 03 33 2b bc f7 c1 9b bc 60 36 9b bc 23 39 27 bc
       -0.010449174 -0.019013388 -0.018946826 -0.010206494
000290 66 38 43 3c b1 74 f0 bc 32 c4 9c bc ce 5f 58 bc
       0.011915302 -0.029352518 -0.019136522 -0.013206435
0002a0 80 4d 94 3a 7b 4d 94 3a 71 4d 94 ba 7e 4d 94 3a
       0.0011314601 0.0011314595 -0.0011314583 0.0011314598
0002b0 c9 69 fd 3a 08 fe ff ba 81 4d 94 ba c2 0f 00 bb
       0.0019333895 -0.0019530663 -0.0011314602 -0.0019540642
0002c0 f1 f6 8e ba c1 86 de 3a 85 b6 b5 3b ff f6 8e ba
       -0.0010907335 0.0016977416 0.0055454397 -0.0010907351
0002d0 08 f7 8e ba 96 37 97 39 1b ec b0 bb fd f6 8e 3a
       -0.0010907361 0.0002884238 -0.0053992397 0.0010907348
0002e0 e1 02 c5 bc 70 c4 58 3b fd 35 cc bc de 11 64 bb
       -0.024049224 0.003307607 -0.024928087 -0.0034800689
0002f0 cb cc 0e 3c 1f f8 4c bb c2 12 11 bc f8 9d ae bb
       0.008715819 -0.0031275821 -0.00885457 -0.00532889

transformer.layers.0.self_attn.out_proj.weight f4 [64, 64]
000000 1b ad e5 bb 9d ac e5 bb 2f 0d 3c 3d 0e ad e5 bb
       -0.007009161 -0.0070091025 0.04591101 -0.007009155
000010 31 ad e5 3b d0 2c 3e 3d 04 ad e5 bb d1 8d 42 3d
       0.0070091714 0.046429455 -0.0070091505 0.047498528
000020 ee f9 8f 3d ad 29 40 3c 4f 06 90 3d ac 29 40 bc
       0.07030092 0.011728686 0.07032453 -0.011728685
000030 f7 20 90 bd 5a 01 90 bd a7 29 40 3c a6 29 40 3c
       -0.070375375 -0.07031508 0.011728681 0.01172868
000040 2b ec aa bd bd bc 32 bc d8 bc 32 3c 3e ed aa 3d
       -0.08345827 -0.0109092565 0.010909282 0.083460316
000050 c8 bc 32 bc 43 ef aa bd ca bc 32 bc 7e da a2 3d
       -0.010909267 -0.08346417 -0.010909269 0.0795183
000060 96 5d af 3b a3 5d af bb a5 5d af 3b be 95 bf bd
       0.0053517325 -0.0053517385 0.0053517395 -0.09354733
000070 99 34 c1 3d 38 64 bf bd be e9 c0 3d a3 5d af 3b
       0.0943386 -0.09345287 0.09419583 0.0053517385
000080 cd 9b d8 3b e7 3e 31 bb e0 60 2d bb fc c5 e3 3b
       0.00661037 -0.002704555 -0.0026455447 0.006951092
000090 fa 05 99 bb fe bf 19 bc 73 5f 38 bb 13 c3 4b 3b
       -0.004669902 -0.009384153 -0.0028133064 0.0031091615
0000a0 11 ed 08 bc 19 ed 08 bc 23 ed 08 3c 00 ed 08 bc
       -0.008357302 -0.00835731 0.008357319 -0.008357286
0000b0 8c b2 d6 3d 9c 88 d6 bd 0c ed 08 3c ef 85 d6 bd
       0.10483274 -0.10475275 0.008357298 -0.104747646
0000c0 43 24 1a bc aa 29 03 bd 72 3c f6 3c 41 24 1a bc
       -0.0094080595 -0.032022156 0.03005812 -0.009408058
0000d0 47 24 1a bc b1 87 17 3d 71 61 0c bd 46 24 1a 3c
       -0.009408063 0.03699464 -0.034272615 0.009408062
0000e0 e1 98 3f ba 32 78 41 3d 83 3a 8c ba 44 79 9e 3c
       -0.00073088525 0.047233768 -0.001069859 0.019344933
0000f0 9e 1b 97 3d 61 c0 a5 3c 44 04 98 bd 69 b1 70 bd
       0.073783144 0.020233335 -0.074226886 -0.05876294
000100 6e a0 d5 bb b3 9e d5 bb 44 a7 4f 3d 51 a0 d5 bb
       -0.006519369 -0.0065191626 0.050696626 -0.0065193553
000110 84 a0 d5 3b fd 85 91 3c 40 a0 d5 bb 83 93 a0 3c
       0.006519379 0.017764086 -0.0065193474 0.01960159
000120 ab 9b b0 3d f3 8e 00 3c 60 b9 b0 3d 02 8f 00 bc
       0.08623441 0.007846582 0.086291075 -0.007846596
000130 f7 fb b0 bd d1 ac b0 bd f7 8e 00 3c fa 8e 00 3c
       -0.086418085 -0.08626712 0.0078465855 0.007846588
000140 c1 00 94 bd 2a 5b dc bb 20 5b dc 3b 31 fc 93 3d
       -0.07226706 -0.006724735 0.00672473 0.07225836
000150 2e 5b dc bb 7c f2 93 bd 2c 5b dc bb 73 8e 70 3d
       -0.0067247367 -0.072239846 -0.0067247357 0.0587296
000160 a4 b2 5a 3b a1 b2 5a bb 92 b2 5a 3b 5f b4 ba bd
       0.0033370638 -0.0033370631 0.0033370596 -0.09116434
000170 85 6e b5 3d 87 15 bb bd 15 ff b6 3d 8b b2 5a 3b
       0.088589706 -0.091349654 0.08935372 0.003337058
000180 7b 3b 66 bc 30 44 88 bc cb 25 88 bc 31 88 64 bc
       -0.014052267 -0.016634077 -0.016619584 -0.013948486
000190 a3 bd 6f 3c 78 4c 96 bc 18 7c 88 bc 83 27 77 bc
       0.014632615 -0.01834701 -0.016660735 -0.015085104
0001a0 72 94 c1 bb 74 94 c1 bb be 94 c1 3b 64 94 c1 bb
       -0.0059075886 -0.0059075896 0.005907624 -0.005907582
0001b0 47 52 d1 3d 6e 81 d2 bd 74 94 c1 3b d2 90 d2 bd
       0.10220771 -0.10278593 0.0059075896 -0.102815285
0001c0 f7 1c 37 bc 72 68 a2 39 c8 66 25 3d f6 1c 37 bc
       -0.011176339 0.00030976866 0.040381223 -0.011176338
0001d0 fb 1c 37 bc 3e 19 a6 3b 4e 2d 22 bd fb 1c 37 3c
       -0.011176343 0.005068927 -0.039593987 0.011176343
0001e0 62 97 86 bc de d8 05 3c 4f a8 87 bc 4a 45 ff bb
       -0.016429607 0.008169381 -0.016559748 -0.0077902423
0001f0 6f 2e 11 3d 24 6b f1 bb 4d b6 13 bd 5f 6d 91 bc
       0.035444673 -0.0073675085 -0.036062527 -0.017752348
000200 6d 89 32 3c 1d 8a 32 3c b7 f3 a6 3d 71 89 32 3c
       0.010897023 0.010897187 0.08151954 0.010897026
000210 61 89 32 bc 43 11 6f 3d 7b 89 32 3c 49 44 76 3d
       -0.0108970115 0.05836607 0.010897036 0.060123716
000220 e0 af bb 3d 8e eb ee ba 60 c3 bb 3d de eb ee 3a
       0.09164405 -0.001822816 0.09168124 0.0018228253
000230 5a ed bb bd f9 ba bb bd ec eb ee ba aa eb ee ba
       -0.091761306 -0.091665216 -0.0018228269 -0.0018228192
000240 4c 9b ad bd 55 dd 40 bc 58 dd 40 3c 41 9b ad 3d
       -0.08476886 -0.01177152 0.011771522 0.08476878
000250 64 dd 40 bc 77 9b ad bd 56 dd 40 bc 46 18 a2 3d
       -0.011771534 -0.08476918 -0.011771521 0.07914786
000260 19 5f 60 3c 21 5f 60 bc 1c 5f 60 3c f1 ad b5 bd
       0.013694548 -0.0136945555 0.013694551 -0.08871067
000270 26 35 b6 3d 57 94 b5 bd 34 34 b6 3d 20 5f 60 3c
       0.08896856 -0.08866184 0.08896676 0.013694555
000280 9f e4 03 3c c2 21 a4 ba bb 2f 9c ba ef 52 09 3c
       0.008050113 -0.0012522268 -0.001191608 0.008381589
000290 ca 93 c9 bb 9c 59 05 bc 5f c9 b2 ba 95 17 97 3b
       -0.006151651 -0.00813904 -0.0013640336 0.0046109655
0002a0 a7 71 86 bc a6 71 86 bc ad 71 86 3c 9a 71 86 bc
       -0.016411616 -0.016411614 0.016411627 -0.016411591
0002b0 c4 e2 c6 3d c0 f0 c6 bd a5 71 86 3c f9 f0 c6 bd
       0.09711221 -0.09713888 0.016411612 -0.09713931
0002c0 d7 f2 1f 3c 35 16 29 bd d0 8a 8a 3d db f2 1f 3c
       0.009762487 -0.041280944 0.06764758 0.009762491
0002d0 d0 f2 1f 3c 8a 19 46 3d 9f fc 91 bd d7 f2 1f bc
       0.009762481 0.0483642 -0.07128262 -0.009762487
0002e0 b2 80 80 b9 e3 77 55 3d 5f 10 38 ba 29 8d c4 3c
       -0.00024509948 0.052116286 -0.00070214825 0.023993092
0002f0 62 2d 9c 3d 7e a2 cc 3c b7 0e 9d bd 22 bb 7f bd
       0.076258436 0.024979826 -0.07668822 -0.062434323
000300 5c bc 64 bb 27 b9 64 bb ce e8 51 3d 42 bc 64 bb
       -0.003490231 -0.0034900398 0.05124741 -0.003490225
000310 84 bc 64 3b e3 f7 bb 3c 0f bc 64 bb 3c f6 ce 3c
       0.0034902403 0.02294535 -0.003490213 0.025263898
000320 c2 e4 a2 3d c2 a7 3a 3c ac f5 a2 3d ba a7 3a bc
       0.07953788 0.011392536 0.079570144 -0.011392528
000330 9b 1b a3 bd 92 ee a2 bd ba a7 3a 3c b7 a7 3a 3c
       -0.0796425 -0.0795566 0.011392528 0.011392525
000340 41 31 58 bd 91 1f 96 bb 88 1f 96 3b c9 29 58 3d
       -0.052781347 -0.0045813997 0.0045813955 0.052774224
000350 8d 1f 96 bb c1 1a 58 bd 8a 1f 96 bb 3b 68 2b 3d
       -0.004581398 -0.05275989 -0.0045813965 0.04184745
000360 fe e4 b3 3a df e4 b3 ba dd e4 b3 3a 88 5a 91 bd
       0.0013724861 -0.0013724825 0.0013724823 -0.070973456
000370 6a f8 8c 3d e7 ad 91 bd 3c 40 8e 3d c2 e4 b3 3a
       0.06883319 -0.07113247 0.069458455 0.0013724791
000380 bd d9 81 bc 8a e9 a8 bc cc b4 a8 bc d6 34 80 bc
       -0.015850896 -0.020619173 -0.020594023 -0.015650194
000390 91 f3 8a 3c fd d0 c0 bc 6c 4a a9 bc 34 ef 91 bc
       0.016961845 -0.023537153 -0.02066537 -0.017814256
0003a0 a3 dc b8 bb af dc b8 bb ce dc b8 3b 95 dc b8 bb
       -0.0056415363 -0.005641542 0.0056415563 -0.00564153
0003b0 75 1c a3 3d 05 19 a4 bd ab dc b8 3b 9b 25 a4 bd
       0.07964412 -0.080125846 0.00564154 -0.08014985
0003c0 05 4c 18 bc 60 d1 ce 3a 43 a8 27 3d fe 4b 18 bc
       -0.009295468 0.0015778951 0.04093195 -0.009295462
0003d0 ff 4b 18 bc 4d 68 df 3b 1f 58 26 bd 09 4c 18 3c
       -0.009295463 0.0068178535 -0.040611383 0.009295472
0003e0 d3 90 c1 bc ce a5 e4 3c f6 1a c3 bc d6 d5 fe bb
       -0.023628628 0.027911093 -0.023816567 -0.007776956
0003f0 21 20 85 3d 24 2d e2 bb 33 96 85 bd 76 3c 40 bd
       0.06500269 -0.006902354 -0.06522789 -0.04693266

transformer.layers.0.self_attn.out_proj.bias f4 [64]
000000 97 71 a2 bc a4 52 69 3c 90 b1 93 bc 31 a8 a2 3c
       -0.019829554 0.0142408945 -0.018029004 0.01985559
000010 97 df a0 bc 98 ef 64 3c 4d de a5 bc 08 cd 76 3c
       -0.019637866 0.013973139 -0.020247603 0.015063532
000020 36 53 0d bd 07 26 9f 3b a1 18 90 bc e6 aa 1d bc
       -0.034503184 0.004856828 -0.017589869 -0.009623265
000030 a1 85 9e bc 27 9f 8e bc d2 2c 11 bc bc 6d 62 bd
       -0.019350829 -0.017409874 -0.008860784 -0.055280432
000040 52 7a dd bb ce c4 e3 bc 72 3a 09 bc 5b 52 e3 bc
       -0.0067589665 -0.027803805 -0.008375751 -0.027749231
000050 64 9f 86 3b 3c fe 80 bd 8c a5 ce bb ef 71 79 bd
       0.0041083563 -0.06298491 -0.006306356 -0.06089967
000060 a4 30 74 3a be b8 19 bd 82 67 c0 bb 1c 42 7a bd
       0.00093151093 -0.0375297 -0.005871714 -0.061098203
000070 45 f8 9b 3a ab e6 03 bd 45 f0 30 3a f1 ae 72 bd
       0.0011899552 -0.032202404 0.000674967 -0.05924887
000080 08 d1 de 3b 13 be 74 bd 1d fc 57 3a 35 1b 7c bd
       0.006799821 -0.05975158 0.0008239167 -0.061549384
000090 91 4b 2e 3b 5f 7e 10 bd 81 e6 c8 3b 28 e4 00 bd
       0.0026595334 -0.035276767 0.006130994 -0.031467587
0000a0 38 d0 48 ba 18 38 f2 bc 8e 5d c9 3b 6f fe 03 bd
       -0.00076604215 -0.029567763 0.006145186 -0.03222507
0000b0 15 ac 10 3b 59 04 18 bd f6 d1 a4 b9 b1 0e 0f bd
       0.0022075225 -0.03711352 -0.0003143695 -0.03492612
0000c0 b4 aa 47 3a eb fc 07 bd e1 f6 1a 3b 1c b8 72 bd
       0.00076166843 -0.033200186 0.0023645686 -0.05925761
0000d0 27 bf 84 3b 6e 8b 0e bd 33 d4 99 3a a5 46 0f bd
       0.0040511074 -0.03480094 0.0011736214 -0.03497948
0000e0 f5 d8 c0 3b 4e 89 1b bd 1d 72 8f b9 76 68 01 bd
       0.0058852383 -0.03797274 -0.00027360106 -0.031593762
0000f0 0d 16 96 3b 18 89 80 bd 39 e0 4f b9 d3 3d 0f bd
       0.0045802654 -0.062761486 -0.00019824588 -0.03497107

transformer.layers.0.multihead_attn.in_proj_weight f4 [192, 64]
000000 9d 7e 64 be 2a 66 81 be 06 b1 78 be 72 0f 4b be
       -0.22313924 -0.25273257 -0.24286279 -0.1983011
000010 9e 0b 81 be 7e ff 86 be 49 a8 4f be cf 67 8f be
       -0.25204176 -0.263668 -0.2027904 -0.28008887
000020 79 65 88 be 93 6b 8c be c8 23 c3 3d 99 bd 8c be
       -0.26639917 -0.27425823 0.09528309 -0.27488402
000030 b7 76 59 3e 05 77 88 be da ca 22 3e 4d 87 8e be
       0.21236692 -0.26653305 0.15897694 -0.278376
000040 0d 19 3f 3e 73 b5 20 be 53 27 8c be 31 66 8b be
       0.186619 -0.15694217 -0.27373752 -0.27226403
000050 02 5b 55 be 7b d3 8b be 26 2d 85 be d6 f2 8c be
       -0.20835498 -0.27309784 -0.26011008 -0.2752902
000060 d9 97 11 be 3a 34 8d be 4d 0b 84 be ed ba 8a be
       -0.14218082 -0.27578908 -0.25789872 -0.27095738
000070 c7 01 5e bd b9 d2 8b be 9c 4c 15 be 9e c2 8d be
       -0.054200914 -0.27309206 -0.14580005 -0.27687544
000080 dc a4 dc bd 7b f9 8e be a5 aa 9f bd e5 85 8c be
       -0.10773632 -0.27924713 -0.0779622 -0.27445903
000090 e4 c4 42 be 3a cd 8c be 47 19 8f be 5c 49 87 be
       -0.1902042 -0.27500325 -0.27948973 -0.26423156
0000a0 44 1d 45 be b6 71 8c be 3e 38 8e be 9e 8d 89 be
       -0.19249445 -0.27430505 -0.27777284 -0.26865858
0000b0 36 92 10 be 6f 53 88 be b1 48 c8 bd 5b 16 8d be
       -0.14118275 -0.26626155 -0.0977949 -0.27556118
0000c0 9c 74 46 be 81 ce 8c be d0 9a b9 bd 97 5c 8d be
       -0.1938042 -0.275013 -0.09062731 -0.27609703
0000d0 73 b2 8e be b5 32 8e be b5 2c 85 be cc fb 8c be
       -0.2787052 -0.2777306 -0.2601067 -0.27535856
0000e0 a6 3e 01 be ef f2 8d be 53 8c 48 be 86 b2 8d be
       -0.12621555 -0.27724406 -0.1958478 -0.27675265
0000f0 35 ae d7 bc de db 8e be d6 1a 4b be e1 c8 8b be
       -0.026328186 -0.2790212 -0.19834456 -0.27301696
000100 a0 7e 64 be 2c 66 81 be 06 b1 78 be 71 0f 4b be
       -0.22313929 -0.25273263 -0.24286279 -0.19830109
000110 9e 0b 81 be 80 ff 86 be 49 a8 4f be ce 67 8f be
       -0.25204176 -0.26366806 -0.2027904 -0.28008884
000120 7a 65 88 be 93 6b 8c be c9 23 c3 3d 97 bd 8c be
       -0.2663992 -0.27425823 0.0952831 -0.27488396
000130 b7 76 59 3e 05 77 88 be da ca 22 3e 4e 87 8e be
       0.21236692 -0.26653305 0.15897694 -0.27837604
000140 0b 19 3f 3e 73 b5 20 be 54 27 8c be 31 66 8b be
       0.18661897 -0.15694217 -0.27373755 -0.27226403
000150 05 5b 55 be 7b d3 8b be 25 2d 85 be d7 f2 8c be
       -0.20835502 -0.27309784 -0.26011005 -0.27529022
000160 da 97 11 be 3c 34 8d be 4c 0b 84 be ec ba 8a be
       -0.14218083 -0.27578914 -0.2578987 -0.27095735
000170 c9 01 5e bd b8 d2 8b be 9e 4c 15 be 9e c2 8d be
       -0.05420092 -0.27309203 -0.14580008 -0.27687544
000180 dc a4 dc bd 7d f9 8e be a7 aa 9f bd e5 85 8c be
       -0.10773632 -0.2792472 -0.07796221 -0.27445903
000190 e8 c4 42 be 3a cd 8c be 48 19 8f be 5e 49 87 be
       -0.19020426 -0.27500325 -0.27948976 -0.26423162
0001a0 44 1d 45 be b6 71 8c be 40 38 8e be 9c 8d 89 be
       -0.19249445 -0.27430505 -0.2777729 -0.26865852
0001b0 33 92 10 be 6e 53 88 be b3 48 c8 bd 5b 16 8d be
       -0.1411827 -0.26626152 -0.09779491 -0.27556118
0001c0 9c 74 46 be 82 ce 8c be d1 9a b9 bd 97 5c 8d be
       -0.1938042 -0.27501303 -0.09062732 -0.27609703
0001d0 73 b2 8e be b8 32 8e be b4 2c 85 be cb fb 8c be
       -0.2787052 -0.2777307 -0.26010668 -0.27535853
0001e0 a8 3e 01 be ef f2 8d be 52 8c 48 be 87 b2 8d be
       -0.12621558 -0.27724406 -0.19584778 -0.27675268
0001f0 37 ae d7 bc e0 db 8e be d2 1a 4b be e3 c8 8b be
       -0.02632819 -0.27902126 -0.1983445 -0.27301702
000200 a1 7e 64 3e 2a 66 81 3e 06 b1 78 3e 6f 0f 4b 3e
       0.2231393 0.25273257 0.24286279 0.19830106
000210 9e 0b 81 3e 80 ff 86 3e 4a a8 4f 3e d0 67 8f 3e
       0.25204176 0.26366806 0.20279041 0.2800889
000220 7a 65 88 3e 93 6b 8c 3e c6 23 c3 bd 9a bd 8c 3e
       0.2663992 0.27425823 -0.095283076 0.27488405
000230 b7 76 59 be 05 77 88 3e d9 ca 22 be 4e 87 8e 3e
       -0.21236692 0.26653305 -0.15897693 0.27837604
000240 0f 19 3f be 73 b5 20 3e 54 27 8c 3e 30 66 8b 3e
       -0.18661903 0.15694217 0.27373755 0.272264
000250 06 5b 55 3e 7b d3 8b 3e 27 2d 85 3e d7 f2 8c 3e
       0.20835504 0.27309784 0.2601101 0.27529022
000260 d7 97 11 3e 3c 34 8d 3e 4c 0b 84 3e ec ba 8a 3e
       0.14218079 0.27578914 0.2578987 0.27095735
000270 c7 01 5e 3d b8 d2 8b 3e 9f 4c 15 3e 9d c2 8d 3e
       0.054200914 0.27309203 0.1458001 0.2768754
000280 db a4 dc 3d 7e f9 8e 3e a7 aa 9f 3d e6 85 8c 3e
       0.10773631 0.27924722 0.07796221 0.27445906
000290 e9 c4 42 3e 38 cd 8c 3e 48 19 8f 3e 5f 49 87 3e
       0.19020428 0.2750032 0.27948976 0.26423165
0002a0 45 1d 45 3e b5 71 8c 3e 3e 38 8e 3e 9d 8d 89 3e
       0.19249447 0.27430502 0.27777284 0.26865855
0002b0 38 92 10 3e 6f 53 88 3e b4 48 c8 3d 5c 16 8d 3e
       0.14118278 0.26626155 0.09779492 0.2755612
0002c0 9c 74 46 3e 81 ce 8c 3e d1 9a b9 3d 97 5c 8d 3e
       0.1938042 0.275013 0.09062732 0.27609703
0002d0 73 b2 8e 3e b5 32 8e 3e b5 2c 85 3e cb fb 8c 3e
       0.2787052 0.2777306 0.2601067 0.27535853
0002e0 ab 3e 01 3e ef f2 8d 3e 52 8c 48 3e 87 b2 8d 3e
       0.12621562 0.27724406 0.19584778 0.27675268
0002f0 33 ae d7 3c e0 db 8e 3e d5 1a 4b 3e e2 c8 8b 3e
       0.026328182 0.27902126 0.19834454 0.273017
000300 9e 7e 64 be 29 66 81 be 06 b1 78 be 72 0f 4b be
       -0.22313926 -0.25273255 -0.24286279 -0.1983011
000310 9f 0b 81 be 80 ff 86 be 4a a8 4f be cf 67 8f be
       -0.2520418 -0.26366806 -0.20279041 -0.28008887
000320 79 65 88 be 93 6b 8c be c8 23 c3 3d 97 bd 8c be
       -0.26639917 -0.27425823 0.09528309 -0.27488396
000330 b7 76 59 3e 04 77 88 be db ca 22 3e 4f 87 8e be
       0.21236692 -0.26653302 0.15897696 -0.27837607
000340 0c 19 3f 3e 70 b5 20 be 53 27 8c be 30 66 8b be
       0.18661898 -0.15694213 -0.27373752 -0.272264
000350 06 5b 55 be 7b d3 8b be 28 2d 85 be d6 f2 8c be
       -0.20835504 -0.27309784 -0.26011014 -0.2752902
000360 d6 97 11 be 3b 34 8d be 4d 0b 84 be ec ba 8a be
       -0.14218077 -0.2757891 -0.25789872 -0.27095735
000370 c4 01 5e bd b7 d2 8b be 9f 4c 15 be 9e c2 8d be
       -0.054200903 -0.273092 -0.1458001 -0.27687544
000380 db a4 dc bd 7e f9 8e be a6 aa 9f bd e5 85 8c be
       -0.10773631 -0.27924722 -0.077962205 -0.27445903
000390 e9 c4 42 be 3b cd 8c be 48 19 8f be 5e 49 87 be
       -0.19020428 -0.27500328 -0.27948976 -0.26423162
0003a0 44 1d 45 be b6 71 8c be 3f 38 8e be 9d 8d 89 be
       -0.19249445 -0.27430505 -0.27777287 -0.26865855
0003b0 37 92 10 be 6d 53 88 be b5 48 c8 bd 5c 16 8d be
       -0.14118277 -0.2662615 -0.09779493 -0.2755612
0003c0 9c 74 46 be 80 ce 8c be d1 9a b9 bd 97 5c 8d be
       -0.1938042 -0.27501297 -0.09062732 -0.27609703
0003d0 72 b2 8e be b5 32 8e be b6 2c 85 be cc fb 8c be
       -0.27870518 -0.2777306 -0.26010674 -0.27535856
0003e0 a8 3e 01 be ef f2 8d be 53 8c 48 be 88 b2 8d be
       -0.12621558 -0.27724406 -0.1958478 -0.2767527
0003f0 35 ae d7 bc df db 8e be d2 1a 4b be e2 c8 8b be
       -0.026328186 -0.27902123 -0.1983445 -0.273017

transformer.layers.0.multihead_attn.in_proj_bias f4 [192]
000000 31 dd 8e 3e 30 dd 8e 3e 31 dd 8e be 30 dd 8e 3e
       0.2790313 0.27903128 -0.2790313 0.27903128
000010 30 dd 8e 3e 30 dd 8e 3e 30 dd 8e be 30 dd 8e 3e
       0.27903128 0.27903128 -0.27903128 0.27903128
000020 f9 e9 8f 3c fb e9 8f bc f2 e9 8f 3c f4 e9 8f 3c
       0.017567622 -0.017567625 0.017567609 0.017567612
000030 fa e9 8f bc f5 e9 8f bc f3 e9 8f 3c f8 e9 8f bc
       -0.017567623 -0.017567614 0.01756761 -0.01756762
000040 53 ec ac be 54 ec ac be 55 ec ac be 55 ec ac 3e
       -0.3377405 -0.33774054 -0.33774057 0.33774057
000050 53 ec ac 3e 54 ec ac 3e 53 ec ac be 56 ec ac be
       0.3377405 0.33774054 -0.3377405 -0.3377406
000060 bc 21 75 bc b5 21 75 3c bb 21 75 3c bb 21 75 3c
       -0.014961656 0.01496165 0.014961655 0.014961655
000070 bb 21 75 bc bd 21 75 3c bb 21 75 3c bb 21 75 bc
       -0.014961655 0.014961657 0.014961655 -0.014961655
000080 5a 8d 4d 3d 5a 8d 4d 3d 58 8d 4d bd 58 8d 4d 3d
       0.05018363 0.05018363 -0.050183624 0.050183624
000090 59 8d 4d bd 5a 8d 4d bd 57 8d 4d bd 58 8d 4d bd
       -0.050183628 -0.05018363 -0.05018362 -0.050183624
0000a0 90 69 a6 3c 96 69 a6 3c 94 69 a6 bc 90 69 a6 3c
       0.020314008 0.02031402 -0.020314015 0.020314008
0000b0 92 69 a6 bc 93 69 a6 3c 92 69 a6 3c 8e 69 a6 bc
       -0.020314012 0.020314014 0.020314012 -0.020314004
0000c0 c6 a3 f1 3d c7 a3 f1 bd c6 a3 f1 bd c9 a3 f1 bd
       0.117988154 -0.11798816 -0.117988154 -0.11798818
0000d0 c8 a3 f1 3d c7 a3 f1 bd c8 a3 f1 bd c8 a3 f1 3d
       0.11798817 -0.11798816 -0.11798817 0.11798817
0000e0 31 88 3b 3d 30 88 3b bd 31 88 3b 3d 30 88 3b 3d
       0.04578418 -0.045784175 0.04578418 0.045784175
0000f0 2e 88 3b bd 31 88 3b bd 2d 88 3b 3d 30 88 3b bd
       -0.045784168 -0.04578418 0.045784164 -0.045784175
000100 cd ee 74 39 09 de 77 39 78 e2 7c b9 25 23 7a 39
       0.00023358614 0.0002363847 -0.00024116959 0.0002385495
000110 18 86 80 39 2b 24 80 39 44 8b 7c b9 9a 87 7a 39
       0.0002451397 0.0002444101 -0.00024084473 0.00023892373
000120 cc f3 07 38 a7 45 05 b8 11 7b 08 38 19 19 09 38
       3.241356e-05 -3.177454e-05 3.253954e-05 3.268672e-05
000130 29 cb 06 b8 c6 13 08 b8 51 54 05 38 9d df 09 b8
       -3.2137297e-05 -3.2443342e-05 3.1788197e-05 -3.28716e-05
000140 1d b7 05 ba 2b 56 05 ba 2f c0 ff b9 cf cf 01 3a
       -0.00051008334 -0.00050863874 -0.00048780578 0.00049519254
000150 f5 27 05 3a 9e 63 03 3a 15 7f 03 ba b4 9c 01 ba
       0.00050795014 0.00050120975 -0.000501619 -0.000494431
000160 30 e7 0c b8 aa fc 0c 38 2c 84 0c 38 66 c0 0c 38
       -3.359391e-05 3.3613913e-05 3.3501696e-05 3.3557786e-05
000170 d1 a3 0c b8 51 0a 0d 38 79 5d 0d 38 8a c1 0c b8
       -3.3531167e-05 3.3626628e-05 3.3704073e-05 -3.355885e-05
000180 fd aa 28 b7 ac 10 29 b7 f1 65 28 37 e6 58 28 b7
       -1.0053392e-05 -1.0077067e-05 1.0037315e-05 -1.0034279e-05
000190 de 82 29 37 ae be 28 37 f7 75 28 37 c8 62 28 37
       1.0103655e-05 1.0057976e-05 1.0041046e-05 1.003658e-05
0001a0 de 7c 11 38 36 0a 10 38 f6 92 0f b8 61 ce 0f 38
       3.4686986e-05 3.4341785e-05 -3.4230725e-05 3.4286062e-05
0001b0 33 35 10 b8 81 33 0e 38 c8 43 0e 38 3b c5 11 b8
       -3.438182e-05 3.3903405e-05 3.3918564e-05 -3.475438e-05
0001c0 76 e5 8e b7 c4 7e 83 37 e8 56 88 37 14 13 91 37
       -1.703457e-05 1.5675447e-05 1.6252932e-05 1.7294231e-05
0001d0 e7 c5 8b b7 1f 52 85 37 e5 53 81 37 e7 f7 89 b7
       -1.6662247e-05 1.5893076e-05 1.5417065e-05 -1.6447111e-05
0001e0 f1 f9 2f b7 1a ab 2f 37 b4 ac 2f b7 e3 7b 2f b7
       -1.0489007e-05 1.04706505e-05 -1.0471023e-05 -1.04596575e-05
0001f0 67 4c 2f 37 83 fb 2f 37 6f 80 2f b7 62 8f 2f 37
       1.0448602e-05 1.04893725e-05 -1.0460716e-05 1.0464197e-05
000200 ff 0a b9 bb ab a2 29 b9 fc 0d e1 b9 31 88 43 3a
       -0.005647063 -0.00016177694 -0.00042925763 0.0007458954
000210 9e 02 af 3a 6b 6d 16 3b ab f1 a4 39 f0 44 fc b9
       0.001335222 0.0022953402 0.00031460574 -0.00048116548
000220 42 34 04 b7 2b d0 ab 39 2b 51 ad 38 c9 c6 7a ba
       -7.87998e-06 0.0003277076 8.2644015e-05 -0.00095663645
000230 17 91 07 ba b4 9c 1d 3a 2b 99 21 39 78 99 9f 38
       -0.00051714614 0.00060124253 0.00015411216 7.6102966e-05
000240 f7 bd 5d 3a 36 19 97 38 b3 6f 25 38 97 d4 a2 ba
       0.0008458788 7.204937e-05 3.9443094e-05 -0.0012422976
000250 dc b9 67 bb dd 7a da 39 6b 94 a3 3a 0a 93 ae ba
       -0.0035358584 0.0004167174 0.0012480145 -0.0013318968
000260 4e 7f 8f b9 b3 9e 58 39 ea 2c a3 b8 89 ad 09 37
       -0.00027369935 0.00020658485 -7.7808116e-05 8.206241e-06
000270 51 e3 83 39 2f 04 d1 b9 31 ce d9 b8 c2 16 21 b9
       0.0002515563 -0.00039866703 -0.000103857725 -0.00015362634
000280 79 ce f2 b9 64 58 3a 36 ad 4e 5a b9 56 94 67 b7
       -0.0004631167 2.776761e-06 -0.00020819409 -1.380321e-05
000290 40 e2 a0 b9 43 56 8d 39 08 dd d0 39 27 2d 1f b9
       -0.00030686148 0.00026957886 0.00039837533 -0.00015180242
0002a0 f4 db ff 39 a1 0f c4 39 86 30 ab 39 de 7c 33 39
       0.00048801268 0.00037395678 0.00032651814 0.00017117287
0002b0 b0 a2 34 ba aa c7 6d b8 8d f2 29 39 e0 99 1c ba
       -0.00068906974 -5.6691155e-05 0.00016207453 -0.0005973857
0002c0 0f 84 77 37 d3 97 e4 39 a2 e4 83 39 8e 0c a8 39
       1.4753095e-05 0.00043600667 0.00025156612 0.0003205281
0002d0 f4 9c bc b8 c6 78 84 36 71 31 18 ba 21 7e c8 3a
       -8.9937734e-05 3.9479664e-06 -0.0005805707 0.0015296378
0002e0 f3 c9 d4 38 90 40 1d ba a9 1f 8a b8 b5 ce 5f ba
       0.00010146564 -0.0005998695 -6.58625e-05 -0.00085375767
0002f0 ed 00 4b b9 f1 ca 77 b8 85 c3 a3 b7 a7 6a a7 b9
       -0.00019359934 -5.9078393e-05 -1.952216e-05 -0.00031932184
