decisionmaking/trained_models/env=claude_dim2_model=transformer_num_episodes1000000_num_hidden=8_lr0.0003_num_layers=2_d_model=64_num_head=8_noise0.0_shuffleTrue_pairedTrue_lossnll_ess5.5_std0.1_run=1_essinit0.001_annealed.pt (torch, 942445 bytes, 121 tensors)

embedding.weight f4 [64, 3]
000000 72 58 2c b9 b7 f5 ce b9 0f c5 94 3a 1d 3b 5a b9
       -0.00016436147 -0.00039474454 0.0011350232 -0.00020812122
000010 a5 db b6 b9 ff f7 a9 3a 90 52 8a b8 9c 62 ce b9
       -0.00034877393 0.0012967585 -6.595731e-05 -0.00039364852
000020 a5 16 ac 3a a2 d1 b7 b9 9f 7f 83 b7 98 d4 b0 3a
       0.0013129307 -0.0003506067 -1.5675845e-05 0.0013491092
000030 1e 43 26 b9 34 42 be b8 66 56 9d 3a 66 6c a5 b9
       -0.00015855997 -9.072237e-05 0.0012003898 -0.00031552016
000040 fc 79 8c b9 75 bf b0 3a 93 f2 31 b9 64 a9 d4 b8
       -0.00026793766 0.0013484793 -0.00016970401 -0.00010140499
000050 02 ea 9e 3a 46 09 b0 b9 e4 af 90 b9 4c 67 ac 3a
       0.0012124183 -0.00033576245 -0.0002759687 0.0013153343
000060 3b 9f f2 b8 39 f4 1b b9 58 ae a3 3a ce 7d bd b9
       -0.00011569118 -0.00014872932 0.0012487872 -0.0003614262
000070 70 88 c3 b9 f3 47 b1 3a 77 1a 46 b8 5f 78 89 b9
       -0.00037294952 0.0013525471 -4.7231526e-05 -0.0002622036
000080 f2 99 b7 3a 64 f2 b8 b9 62 6f 95 b9 fc aa b2 3a
       0.0014007671 -0.0003527581 -0.0002850248 0.001363128
000090 2a b2 a5 b8 f8 e2 d9 b8 9f 8a 9e 3a d1 29 8c b9
       -7.900999e-05 -0.000103896426 0.0012095756 -0.00026734037
0000a0 07 9d 02 ba 50 c1 ad 3a de e9 af b8 ac 68 c0 b8
       -0.00049825053 0.0013256464 -8.3882114e-05 -9.17477e-05
0000b0 aa b0 91 3a a1 b4 c5 b8 ee 2a 93 b9 24 26 92 3a
       0.0011115272 -9.427337e-05 -0.0002807001 0.0011150283
0000c0 8b 2a a4 b8 ac aa 16 b9 7c 5f 7e 3a 38 2d 2f b9
       -7.828054e-05 -0.00014368695 0.00097035593 -0.00016706146
0000d0 72 19 a6 b9 ac ab b4 3a 4d 86 e1 b7 5d 70 16 b8
       -0.00031680946 0.0013784072 -2.6884629e-05 -3.5867433e-05
0000e0 fe 7e 63 3a cc e9 4a b9 3a 54 86 b9 f9 ad bb 3a
       0.0008678286 -0.00019351317 -0.00025621225 0.0014318816
0000f0 37 06 f7 b7 e5 fe 02 36 59 47 47 3a bf c9 e4 b9
       -2.9447589e-05 1.9519878e-06 0.0007601879 -0.0004363786
000100 31 d4 b3 b9 c2 80 a3 3a 11 0a 0f b9 fe bc df b8
       -0.00034299635 0.0012474286 -0.00013641293 -0.00010668671
000110 47 ce 70 3a 5c 1c 4b b9 01 55 cc b7 86 3c b3 3a
       0.0009186011 -0.00019370153 -2.4358278e-05 0.0013674654
000120 8b 2b 90 b9 c4 e1 99 b9 97 cb 8f ba 5e d4 82 b9
       -0.00027498262 -0.00029350643 -0.0010970709 -0.00024953758
000130 00 38 28 ba 3d b0 ba 3a d0 3c c9 b7 93 a5 43 b8
       -0.0006417036 0.0014243197 -2.3989385e-05 -4.6645826e-05
000140 f5 e9 17 3a e4 64 fa b9 3b 4a 0c b9 d5 ec b2 3a
       0.0005795055 -0.00047758885 -0.00013379093 0.0013650904
000150 5a 03 5e b7 af 05 ed b7 44 a0 12 3a 0f 06 f0 b8
       -1.32330115e-05 -2.8255248e-05 0.00055933394 -0.0001144522
000160 e9 04 fa b9 35 c2 a4 3a f1 8e c3 b8 5b 75 5a b9
       -0.00047687374 0.0012570085 -9.3249495e-05 -0.00020833818
000170 69 1c 61 3a 53 c6 9d b9 5a cd 0f ba 3b 4e b0 3a
       0.0008587302 -0.00030093137 -0.0005485617 0.0013451049
000180 b0 27 bd b8 8a c5 0a b8 6d 86 40 3a 09 27 c8 b9
       -9.019615e-05 -3.3085737e-05 0.000734425 -0.00038176056
000190 fe 3f d0 b9 05 26 ab 3a 09 41 b4 b8 39 87 29 b8
       -0.0003972053 0.0013057595 -8.5951826e-05 -4.0418676e-05
0001a0 90 0f 17 3a 8c 5f 88 b9 c7 25 12 38 7e 38 be 3a
       0.0005762512 -0.0002601113 3.4844295e-05 0.0014512686
0001b0 8a 2a 9c b8 df d8 a7 b8 f3 90 f3 39 8a 04 62 b9
       -7.446583e-05 -8.003576e-05 0.00046456567 -0.0002155473
0001c0 3a 2c 80 b9 d8 b5 ac 3a 3a 05 bd b6 93 a6 e2 b6
       -0.00024447014 0.0013176752 -5.6332474e-06 -6.7547167e-06
0001d0 68 f5 97 39 97 39 9e b9 72 5c 76 b9 ac ae b1 3a
       0.00028983806 -0.00030179016 -0.00023494827 0.0013556085
0001e0 94 2d 0b b7 58 0c 03 b7 4c c8 74 39 9d ca 6c b9
       -8.295658e-06 -7.8110825e-06 0.0002334427 -0.00022582193
0001f0 51 49 ba b9 2f 20 a1 3a 90 5b f7 b7 af eb 58 b8
       -0.0003553131 0.0012292917 -2.9487332e-05 -5.171791e-05
000200 86 fb 9d 39 17 29 6a b9 ab 39 ee b9 2a 43 9f 3a
       0.00030132773 -0.00022331286 -0.00045437863 0.0012150754
000210 5e 1c ae b7 de 7e 62 b8 4a 65 35 39 9a 3a c6 b9
       -2.0755626e-05 -5.4000753e-05 0.00017299238 -0.00037809164
000220 47 b0 cd b9 18 28 ac 3a 45 9b 85 b7 4c a3 89 b7
       -0.00039231984 0.0013134507 -1.5927139e-05 -1.6407714e-05
000230 80 5c 4c 39 38 c0 a4 b9 71 86 03 ba 05 36 bc 3a
       0.00019489415 -0.00031423732 -0.0005017287 0.0014359361
000240 8a c8 10 b8 03 6f 19 b8 7c a1 39 39 cc af 08 ba
       -3.4519042e-05 -3.658143e-05 0.00017703132 -0.0005214184
000250 30 7b f0 b9 63 cf 9d 3a 79 87 b4 b7 d2 62 a3 b7
       -0.0004586815 0.0012039955 -2.1520756e-05 -1.9477131e-05
000260 90 12 13 39 d8 33 ab b9 3a b4 12 ba f5 ba b6 3a
       0.00014025928 -0.00032654288 -0.0005596314 0.0013941216
000270 61 7b 6a b6 c6 1c 85 b6 ef 44 42 37 e1 b6 6c b9
       -3.4940533e-06 -3.9670585e-06 1.1579351e-05 -0.00022574842
000280 94 7f 9b b9 f9 1b b0 3a ed bb 43 b4 8b 52 53 b5
       -0.00029658957 0.0013436071 -1.8229157e-07 -7.872374e-07
000290 5e 6a 8d 38 61 b2 9b b9 ba 18 84 b8 43 36 a9 3a
       6.743216e-05 -0.00029696806 -6.298856e-05 0.0012909848
0002a0 ce f5 5e b6 58 51 9c b5 9f f1 9a 38 d9 fa 94 b9
       -3.3223655e-06 -1.164658e-06 7.388298e-05 -0.00028415656
0002b0 76 e5 27 ba e6 8d b5 3a 41 58 eb b5 4f 8d 57 b6
       -0.0006404737 0.0013851493 -1.753455e-06 -3.211975e-06
0002c0 ef 94 71 38 1e bc e4 b8 50 1a ed b9 79 28 95 3a
       5.7597583e-05 -0.00010906927 -0.00045223767 0.001137986
0002d0 a4 7e 13 b7 27 69 9b b7 f2 62 55 38 00 76 01 b9
       -8.791369e-06 -1.8526405e-05 5.0875307e-05 -0.00012346357
0002e0 fc 9e c7 b9 a5 a1 b3 3a a4 f8 0a b7 14 e0 91 b7
       -0.0003807469 0.001370479 -8.283332e-06 -1.7389691e-05
0002f0 4b 73 8d 38 92 6f 6c ba 12 ab 2e ba 8f 4d e8 39
       6.744879e-05 -0.0009019311 -0.00066630647 0.00044308274

embedding.bias f4 [64]
000000 fb ad b5 3a 40 67 cf 3a 01 23 ce 3a c1 65 d2 3a
       0.0013861054 0.0015823618 0.0015726985 0.0016052054
000010 f1 3f c2 3a 28 1d d7 3a 0b e9 cb 3a 42 92 c8 3a
       0.0014820081 0.0016411887 0.0015557123 0.0015302377
000020 35 6b c9 3a dc b2 cf 3a 44 15 d8 3a ea a6 c7 3a
       0.0015367033 0.0015846151 0.001648583 0.0015232239
000030 cb 4f c8 3a 3e 56 d6 3a df 51 bb 3a 6f c8 b5 3a
       0.0015282569 0.0016352606 0.0014291367 0.0013868938
000040 fb 4c b5 3a 39 e9 d9 3a 30 53 b0 3a e2 2f dc 3a
       0.0013832146 0.0016625292 0.0013452526 0.0016798938
000050 c8 ad a5 3a 07 b2 ce 3a 5e 51 c6 3a 55 29 d1 3a
       0.0012640292 0.0015769609 0.001513045 0.0015957752
000060 4d 45 b1 ba 9c 61 d4 3a b2 90 9a 3a a0 87 d9 3a
       -0.0013524682 0.0016203406 0.001179239 0.0016596206
000070 2d 87 a5 3a 50 a8 ca 3a df 4e 66 3a 4d 67 d6 3a
       0.0012628786 0.0015461538 0.00087855564 0.001635769
000080 89 b7 62 3a 0f 0d d0 3a 35 f4 52 3a 5b 0d d6 3a
       0.00086485647 0.0015873032 0.0008047254 0.0016330885
000090 6a e9 44 3a 33 b4 d0 3a 6b 4d 8d 3a 53 b6 d6 3a
       0.0007511588 0.0015922844 0.0010780519 0.0016381241
0000a0 37 78 47 3a 92 bb cc 3a ad bb 09 3a e4 5d bc 3a
       0.0007609161 0.0015619865 0.0005254101 0.0014371243
0000b0 14 09 91 3a 3f 01 ce 3a f7 c5 c1 39 1a 31 dd 3a
       0.0011065328 0.0015716924 0.00036959324 0.0016875595
0000c0 0c 82 a8 39 78 fe bb 3a 2a ff 91 39 4f 68 d5 3a
       0.0003214035 0.0014342805 0.00027846667 0.0016281697
0000d0 0a 01 5e 37 c7 74 cd 3a cb e7 33 3a b8 05 ce 3a
       1.3232473e-05 0.0015675061 0.0006862848 0.0015718257
0000e0 f9 12 c1 39 80 57 dd 3a a9 5a a2 39 a4 56 b4 3a
       0.00036825964 0.0016887039 0.00030966595 0.0013758731
0000f0 4d 8c f3 39 6f ef d1 3a 56 b4 02 39 43 47 23 3a
       0.00046453104 0.0016016791 0.00012464946 0.00062285754

pos_encoder.pe f4 [1, 10, 64]
000000 00 00 00 00 00 00 80 3f 00 00 00 00 00 00 80 3f
       0.0 1.0 0.0 1.0
000010 00 00 00 00 00 00 80 3f 00 00 00 00 00 00 80 3f
       0.0 1.0 0.0 1.0
000020 00 00 00 00 00 00 80 3f 00 00 00 00 00 00 80 3f
       0.0 1.0 0.0 1.0
000030 00 00 00 00 00 00 80 3f 00 00 00 00 00 00 80 3f
       0.0 1.0 0.0 1.0
000040 00 00 00 00 00 00 80 3f 00 00 00 00 00 00 80 3f
       0.0 1.0 0.0 1.0
000050 00 00 00 00 00 00 80 3f 00 00 00 00 00 00 80 3f
       0.0 1.0 0.0 1.0
000060 00 00 00 00 00 00 80 3f 00 00 00 00 00 00 80 3f
       0.0 1.0 0.0 1.0
000070 00 00 00 00 00 00 80 3f 00 00 00 00 00 00 80 3f
       0.0 1.0 0.0 1.0
000080 00 00 00 00 00 00 80 3f 00 00 00 00 00 00 80 3f
       0.0 1.0 0.0 1.0
000090 00 00 00 00 00 00 80 3f 00 00 00 00 00 00 80 3f
       0.0 1.0 0.0 1.0
0000a0 00 00 00 00 00 00 80 3f 00 00 00 00 00 00 80 3f
       0.0 1.0 0.0 1.0
0000b0 00 00 00 00 00 00 80 3f 00 00 00 00 00 00 80 3f
       0.0 1.0 0.0 1.0
0000c0 00 00 00 00 00 00 80 3f 00 00 00 00 00 00 80 3f
       0.0 1.0 0.0 1.0
0000d0 00 00 00 00 00 00 80 3f 00 00 00 00 00 00 80 3f
       0.0 1.0 0.0 1.0
0000e0 00 00 00 00 00 00 80 3f 00 00 00 00 00 00 80 3f
       0.0 1.0 0.0 1.0
0000f0 00 00 00 00 00 00 80 3f 00 00 00 00 00 00 80 3f
       0.0 1.0 0.0 1.0
000100 a4 6a 57 3f 41 51 0a 3f ce 7a 2e 3f b0 54 3b 3f
       0.84147096 0.54030234 0.68156135 0.731761
000110 ba 7d 08 3f 0d 94 58 3f f0 90 d1 3e c7 92 69 3f
       0.53316844 0.8460091 0.4093089 0.9123959
000120 3e 39 9f 3e 6b 4e 73 3f 25 8f 70 3e f1 d5 78 3f
       0.3109836 0.9504153 0.23492105 0.9720145
000130 3a 23 35 3e 83 f6 7b 3f f3 25 08 3e 28 ba 7d 3f
       0.17689219 0.9842302 0.13295726 0.99112177
000140 76 75 cc 3d 98 b8 7e 3f 36 6f 99 3d d1 47 7f 3f
       0.099833414 0.9950042 0.07491915 0.9971896
000150 ae 36 66 3d 68 98 7f 3f fb ac 2c 3d bd c5 7f 3f
       0.05620449 0.9984193 0.042157155 0.999111
000160 5b 81 01 3d 3c df 7f 3f a5 3e c2 3c 93 ed 7f 3f
       0.031617504 0.99950004 0.023711512 0.99971884
000170 42 ab 91 3c a3 f5 7f 3f 49 7a 5a 3c 2c fa 7f 3f
       0.017781857 0.99984187 0.013334819 0.99991107
000180 57 d6 23 3c b9 fc 7f 3f 16 b9 f5 3b 28 fe 7f 3f
       0.009999833 0.99995 0.0074988706 0.99997187
000190 5a 44 b8 3b f7 fe 7f 3f 5a 2e 8a 3b 6b ff 7f 3f
       0.0056233825 0.9999842 0.0042169513 0.9999911
0001a0 1c 3e 4f 3b ac ff 7f 3f 03 69 1b 3b d1 ff 7f 3f
       0.0031622713 0.999995 0.0023713715 0.9999972
0001b0 20 15 e9 3a e6 ff 7f 3f 8b c9 ae 3a f1 ff 7f 3f
       0.0017782785 0.99999845 0.0013335211 0.9999991
0001c0 6d 12 83 3a f8 ff 7f 3f 89 94 44 3a fb ff 7f 3f
       0.0009999998 0.9999995 0.000749894 0.9999997
0001d0 13 6a 13 3a fd ff 7f 3f 21 17 dd 39 ff ff 7f 3f
       0.0005623411 0.9999998 0.00042169637 0.99999994
0001e0 61 cb a5 39 ff ff 7f 3f 0d a8 78 39 00 00 80 3f
       0.00031622782 0.99999994 0.00023713727 1.0
0001f0 53 77 3a 39 00 00 80 3f 6d d4 0b 39 00 00 80 3f
       0.00017782794 1.0 0.00013335208 1.0
000200 b7 c7 68 3f 33 11 d5 be d9 5a 7f 3f 53 4d 91 3d
       0.9092974 -0.41614684 0.99748 0.070948265
000210 0a f2 66 3f b2 e8 dc 3e 11 35 3f 3f 03 39 2a 3f
       0.9021307 0.43146282 0.7469035 0.6649324
000220 1b 54 17 3f ec 7b 4e 3f b5 d3 e9 3e 69 be 63 3f
       0.5911271 0.8065784 0.45669332 0.8896242
000230 f6 47 b2 3e a6 fa 6f 3f 82 f0 86 3e f5 f2 76 3f
       0.34820527 0.93741834 0.26355368 0.96464473
000240 f8 6f 4b 3e a5 e5 7a 3f d3 00 19 3e 4f 20 7d 3f
       0.19866931 0.9800666 0.1494172 0.98877424
000250 86 d9 e5 3d f3 61 7e 3f af 85 ac 3d 0e 17 7f 3f
       0.1122313 0.9936821 0.084239356 0.99644554
000260 c8 70 81 3d f9 7c 7f 3f aa 30 42 3d 4e b6 7f 3f
       0.063203394 0.9980007 0.04740969 0.9988755
000270 5c a5 11 3d 8e d6 7f 3f 50 75 da 3c b1 e8 7f 3f
       0.03555809 0.9993676 0.026667267 0.99964434
000280 3e d4 a3 3c e5 f2 7f 3f 51 b7 75 3c a1 f8 7f 3f
       0.019998666 0.9998 0.014997319 0.9998875
000290 9b 43 38 3c db fb 7f 3f 0a 2e 0a 3c ab fd 7f 3f
       0.011246587 0.99993676 0.008433828 0.9999644
0002a0 d8 3d cf 3b b1 fe 7f 3f e7 68 9b 3b 43 ff 7f 3f
       0.006324511 0.99998003 0.00474273 0.99998873
0002b0 08 15 69 3b 96 ff 7f 3f 80 c9 2e 3b c4 ff 7f 3f
       0.0035565514 0.9999937 0.0026670396 0.9999964
0002c0 68 12 03 3b df ff 7f 3f 85 94 c4 3a ed ff 7f 3f
       0.0019999985 0.99999803 0.0014997876 0.99999887
0002d0 12 6a 93 3a f5 ff 7f 3f 1f 17 5d 3a fa ff 7f 3f
       0.0011246821 0.99999934 0.0008433926 0.99999964
0002e0 60 cb 25 3a fd ff 7f 3f 0c a8 f8 39 fe ff 7f 3f
       0.0006324556 0.9999998 0.0004742745 0.9999999
0002f0 53 77 ba 39 ff ff 7f 3f 6d d4 8b 39 00 00 80 3f
       0.00035565588 0.99999994 0.00026670416 1.0
000300 c3 81 10 3e 26 70 7d bf de 3c 47 3f ce bf 20 bf
       0.14112 -0.9899925 0.7782725 -0.6279267
000310 d7 45 7e 3f ab 7f ed bd 63 21 74 3f 63 18 9a 3e
       0.9932532 -0.11596616 0.95363444 0.3009673
000320 c2 09 50 3f 58 2f 15 3f b7 24 27 3f a2 e7 41 3f
       0.8126489 0.58275366 0.652904 0.7574407
000330 6c 2f 02 3f 29 6d 5c 3f a7 68 c7 3e 37 c9 6b 3f
       0.5085361 0.86104065 0.3894703 0.92103904
000340 6c 4e 97 3e ef 90 74 3f e2 6d 64 3e 92 8c 79 3f
       0.2955202 0.9553365 0.22307542 0.9748012
000350 d7 ee 2b 3e 9e 5d 7c 3f 2c 33 01 3e 43 f4 7d 3f
       0.16790329 0.9858035 0.12617177 0.9920084
000360 c0 ff c1 3d 4f d9 7e 3f 06 93 91 3d 3a 5a 7f 3f
       0.094726086 0.99550337 0.071081206 0.9974705
000370 4e 69 5a 3d c3 a2 7f 3f c5 d1 23 3d 90 cb 7f 3f
       0.053323083 0.9985773 0.039994974 0.99919987
000380 1f b9 f5 3c 83 e2 7f 3f 47 47 b8 3c 6b ef 7f 3f
       0.0299955 0.99955004 0.022494925 0.999747
000390 c6 31 8a 3c ad f6 7f 3f 46 44 4f 3c c1 fa 7f 3f
       0.016869437 0.9998577 0.012650555 0.99991995
0003a0 0d 6e 1b 3c 0d fd 7f 3f 13 1d e9 3b 58 fe 7f 3f
       0.009486687 0.999955 0.0071140616 0.9999747
0003b0 a8 cf ae 3b 11 ff 7f 3f 13 17 83 3b 7a ff 7f 3f
       0.005334813 0.99998575 0.0040005534 0.999992
0003c0 92 9b 44 3b b5 ff 7f 3f 60 6f 13 3b d6 ff 7f 3f
       0.0029999954 0.9999955 0.0022496805 0.9999975
0003d0 17 1f dd 3a e8 ff 7f 3f 56 d1 a5 3a f3 ff 7f 3f
       0.0016870227 0.99999857 0.0012650888 0.9999992
0003e0 10 b1 78 3a f9 ff 7f 3f 09 7e 3a 3a fc ff 7f 3f
       0.00094868336 0.9999996 0.00071141176 0.99999976
0003f0 7e d9 0b 3a fe ff 7f 3f a4 be d1 39 ff ff 7f 3f
       0.0005334838 0.9999999 0.00040005625 0.99999994

transformer.layers.0.self_attn.in_proj_weight f4 [192, 64]
000000 8b dc 48 a0 72 21 01 20 3f 6c 4a a0 00 dc bd 1e
       -1.701363e-19 1.0937791e-19 -1.7145881e-19 2.0102143e-20
000010 28 c3 53 a0 e8 22 e8 1e 3c a3 55 a0 8e 01 9a 9f
       -1.7936967e-19 2.4578392e-20 -1.8095812e-19 -6.522411e-20
000020 b1 c9 45 a0 24 70 66 a0 2e 34 3d a0 64 78 6d a0
       -1.6753283e-19 -1.9518862e-19 -1.6026188e-19 -2.0114515e-19
000030 00 d9 36 a0 59 51 61 a0 1d 67 32 a0 9a 0f 5b a0
       -1.5487799e-19 -1.9085157e-19 -1.5111304e-19 -1.8555184e-19
000040 67 fc 2d a0 f7 ea 55 a0 cb 69 26 a0 15 6f 53 a0
       -1.4737183e-19 -1.8119545e-19 -1.4095751e-19 -1.7909149e-19
000050 ce 50 1b a0 7e 58 52 a0 94 1e 22 a0 36 71 52 a0
       -1.3155747e-19 -1.7816972e-19 -1.3732051e-19 -1.782515e-19
000060 13 0f 1a a0 1e cf 52 a0 6e 68 45 a0 76 33 52 a0
       -1.3049295e-19 -1.7856221e-19 -1.6721102e-19 -1.7804719e-19
000070 41 64 45 a0 1e 69 50 a0 98 f6 e6 9f 2b ef 50 a0
       -1.671972e-19 -1.7653066e-19 -9.7816744e-20 -1.7697419e-19
000080 5d 90 b5 9f 6c 91 50 a0 7d 9b 8f 9f b4 53 52 a0
       -7.689531e-20 -1.7666401e-19 -6.082009e-20 -1.7815387e-19
000090 69 7a 57 9f 9e 48 50 a0 e2 73 53 20 34 ba 51 a0
       -4.5629276e-20 -1.7642312e-19 1.7910738e-19 -1.7764598e-19
0000a0 47 4d 51 a0 74 b1 52 a0 dc 8e c7 9e 17 69 51 a0
       -1.7728558e-19 -1.7846406e-19 -2.112903e-20 -1.773776e-19
0000b0 22 bb f3 9e cd af 51 a0 40 82 8a 9e 78 40 51 a0
       -2.5806022e-20 -1.7761156e-19 -1.4665188e-20 -1.772432e-19
0000c0 68 00 5d 9e 81 80 51 a0 d7 fb fc 9d f7 28 52 a0
       -1.16997266e-20 -1.7745507e-19 -6.696424e-21 -1.7801246e-19
0000d0 2b d0 ad 9f 4d b2 51 a0 4b 53 88 9e 85 38 52 a0
       -7.3612735e-20 -1.7761983e-19 -1.443401e-20 -1.7806393e-19
0000e0 c8 0a 53 20 1e cf 52 a0 66 f7 51 20 2e dd 51 a0
       1.7875962e-19 -1.7856221e-19 1.7784846e-19 -1.7776171e-19
0000f0 e5 7c b6 9e e5 db 50 a0 a2 c0 ac 9d 39 ea 50 a0
       -1.9321655e-20 -1.7691042e-19 -4.57272e-21 -1.7695783e-19
000100 8b dc 48 a0 72 21 01 20 3f 6c 4a a0 00 dc bd 1e
       -1.701363e-19 1.0937791e-19 -1.7145881e-19 2.0102143e-20
000110 28 c3 53 a0 e8 22 e8 1e 3c a3 55 a0 8e 01 9a 9f
       -1.7936967e-19 2.4578392e-20 -1.8095812e-19 -6.522411e-20
000120 b1 c9 45 a0 24 70 66 a0 2e 34 3d a0 64 78 6d a0
       -1.6753283e-19 -1.9518862e-19 -1.6026188e-19 -2.0114515e-19
000130 00 d9 36 a0 59 51 61 a0 1d 67 32 a0 9a 0f 5b a0
       -1.5487799e-19 -1.9085157e-19 -1.5111304e-19 -1.8555184e-19
000140 67 fc 2d a0 f7 ea 55 a0 cb 69 26 a0 15 6f 53 a0
       -1.4737183e-19 -1.8119545e-19 -1.4095751e-19 -1.7909149e-19
000150 ce 50 1b a0 7e 58 52 a0 94 1e 22 a0 3a 71 52 a0
       -1.3155747e-19 -1.7816972e-19 -1.3732051e-19 -1.7825155e-19
000160 13 0f 1a a0 1e cf 52 a0 6e 68 45 a0 76 33 52 a0
       -1.3049295e-19 -1.7856221e-19 -1.6721102e-19 -1.7804719e-19
000170 41 64 45 a0 1e 69 50 a0 98 f6 e6 9f 2b ef 50 a0
       -1.671972e-19 -1.7653066e-19 -9.7816744e-20 -1.7697419e-19
000180 5d 90 b5 9f 6c 91 50 a0 7d 9b 8f 9f b4 53 52 a0
       -7.689531e-20 -1.7666401e-19 -6.082009e-20 -1.7815387e-19
000190 69 7a 57 9f 9e 48 50 a0 e2 73 53 20 34 ba 51 a0
       -4.5629276e-20 -1.7642312e-19 1.7910738e-19 -1.7764598e-19
0001a0 47 4d 51 a0 74 b1 52 a0 dc 8e c7 9e 17 69 51 a0
       -1.7728558e-19 -1.7846406e-19 -2.112903e-20 -1.773776e-19
0001b0 31 bb f3 9e cd af 51 a0 40 82 8a 9e 6a 40 51 a0
       -2.5806046e-20 -1.7761156e-19 -1.4665188e-20 -1.7724301e-19
0001c0 68 00 5d 9e 81 80 51 a0 d7 fb fc 9d f7 28 52 a0
       -1.16997266e-20 -1.7745507e-19 -6.696424e-21 -1.7801246e-19
0001d0 2b d0 ad 9f 4d b2 51 a0 4b 53 88 9e 85 38 52 a0
       -7.3612735e-20 -1.7761983e-19 -1.443401e-20 -1.7806393e-19
0001e0 c8 0a 53 20 1e cf 52 a0 66 f7 51 20 2e dd 51 a0
       1.7875962e-19 -1.7856221e-19 1.7784846e-19 -1.7776171e-19
0001f0 e5 7c b6 9e e5 db 50 a0 a2 c0 ac 9d 39 ea 50 a0
       -1.9321655e-20 -1.7691042e-19 -4.57272e-21 -1.7695783e-19
000200 8b dc 48 20 72 21 01 a0 3f 6c 4a 20 00 dc bd 9e
       1.701363e-19 -1.0937791e-19 1.7145881e-19 -2.0102143e-20
000210 28 c3 53 20 e8 22 e8 9e 3c a3 55 20 8e 01 9a 1f
       1.7936967e-19 -2.4578392e-20 1.8095812e-19 6.522411e-20
000220 b1 c9 45 20 24 70 66 20 2e 34 3d 20 64 78 6d 20
       1.6753283e-19 1.9518862e-19 1.6026188e-19 2.0114515e-19
000230 00 d9 36 20 59 51 61 20 1d 67 32 20 9a 0f 5b 20
       1.5487799e-19 1.9085157e-19 1.5111304e-19 1.8555184e-19
000240 67 fc 2d 20 f7 ea 55 20 cb 69 26 20 15 6f 53 20
       1.4737183e-19 1.8119545e-19 1.4095751e-19 1.7909149e-19
000250 ce 50 1b 20 7e 58 52 20 b3 1e 22 20 36 71 52 20
       1.3155747e-19 1.7816972e-19 1.3732091e-19 1.782515e-19
000260 13 0f 1a 20 1e cf 52 20 6e 68 45 20 76 33 52 20
       1.3049295e-19 1.7856221e-19 1.6721102e-19 1.7804719e-19
000270 41 64 45 20 1e 69 50 20 98 f6 e6 1f 2b ef 50 20
       1.671972e-19 1.7653066e-19 9.7816744e-20 1.7697419e-19
000280 5d 90 b5 1f 6c 91 50 20 7d 9b 8f 1f b4 53 52 20
       7.689531e-20 1.7666401e-19 6.082009e-20 1.7815387e-19
000290 69 7a 57 1f 9e 48 50 20 e2 73 53 a0 34 ba 51 20
       4.5629276e-20 1.7642312e-19 -1.7910738e-19 1.7764598e-19
0002a0 47 4d 51 20 74 b1 52 20 dc 8e c7 1e 17 69 51 20
       1.7728558e-19 1.7846406e-19 2.112903e-20 1.773776e-19
0002b0 31 bb f3 1e cd af 51 20 40 82 8a 1e 78 40 51 20
       2.5806046e-20 1.7761156e-19 1.4665188e-20 1.772432e-19
0002c0 68 00 5d 1e 81 80 51 20 d7 fb fc 1d f7 28 52 20
       1.16997266e-20 1.7745507e-19 6.696424e-21 1.7801246e-19
0002d0 2b d0 ad 1f 4d b2 51 20 4b 53 88 1e 85 38 52 20
       7.3612735e-20 1.7761983e-19 1.443401e-20 1.7806393e-19
0002e0 c8 0a 53 a0 1e cf 52 20 66 f7 51 a0 2e dd 51 20
       -1.7875962e-19 1.7856221e-19 -1.7784846e-19 1.7776171e-19
0002f0 e5 7c b6 1e e5 db 50 20 a2 c0 ac 1d 39 ea 50 20
       1.9321655e-20 1.7691042e-19 4.57272e-21 1.7695783e-19
000300 8b dc 48 a0 73 21 01 20 3f 6c 4a a0 00 dc bd 1e
       -1.701363e-19 1.0937792e-19 -1.7145881e-19 2.0102143e-20
000310 28 c3 53 a0 e8 22 e8 1e 3c a3 55 a0 8e 01 9a 9f
       -1.7936967e-19 2.4578392e-20 -1.8095812e-19 -6.522411e-20
000320 b1 c9 45 a0 24 70 66 a0 2e 34 3d a0 64 78 6d a0
       -1.6753283e-19 -1.9518862e-19 -1.6026188e-19 -2.0114515e-19
000330 00 d9 36 a0 59 51 61 a0 1d 67 32 a0 9a 0f 5b a0
       -1.5487799e-19 -1.9085157e-19 -1.5111304e-19 -1.8555184e-19
000340 67 fc 2d a0 f7 ea 55 a0 cb 69 26 a0 15 6f 53 a0
       -1.4737183e-19 -1.8119545e-19 -1.4095751e-19 -1.7909149e-19
000350 ce 50 1b a0 7e 58 52 a0 b3 1e 22 a0 36 71 52 a0
       -1.3155747e-19 -1.7816972e-19 -1.3732091e-19 -1.782515e-19
000360 1b 0f 1a a0 1e cf 52 a0 6e 68 45 a0 6f 33 52 a0
       -1.3049305e-19 -1.7856221e-19 -1.6721102e-19 -1.780471e-19
000370 41 64 45 a0 1e 69 50 a0 98 f6 e6 9f 2b ef 50 a0
       -1.671972e-19 -1.7653066e-19 -9.7816744e-20 -1.7697419e-19
000380 5d 90 b5 9f 6c 91 50 a0 7d 9b 8f 9f b4 53 52 a0
       -7.689531e-20 -1.7666401e-19 -6.082009e-20 -1.7815387e-19
000390 69 7a 57 9f 9e 48 50 a0 e2 73 53 20 34 ba 51 a0
       -4.5629276e-20 -1.7642312e-19 1.7910738e-19 -1.7764598e-19
0003a0 47 4d 51 a0 74 b1 52 a0 ee 8e c7 9e 17 69 51 a0
       -1.7728558e-19 -1.7846406e-19 -2.1129059e-20 -1.773776e-19
0003b0 22 bb f3 9e cd af 51 a0 40 82 8a 9e 78 40 51 a0
       -2.5806022e-20 -1.7761156e-19 -1.4665188e-20 -1.772432e-19
0003c0 68 00 5d 9e 81 80 51 a0 d7 fb fc 9d f7 28 52 a0
       -1.16997266e-20 -1.7745507e-19 -6.696424e-21 -1.7801246e-19
0003d0 2b d0 ad 9f 4d b2 51 a0 4b 53 88 9e 85 38 52 a0
       -7.3612735e-20 -1.7761983e-19 -1.443401e-20 -1.7806393e-19
0003e0 c8 0a 53 20 1e cf 52 a0 66 f7 51 20 2e dd 51 a0
       1.7875962e-19 -1.7856221e-19 1.7784846e-19 -1.7776171e-19
0003f0 e5 7c b6 9e e5 db 50 a0 a2 c0 ac 9d 39 ea 50 a0
       -1.9321655e-20 -1.7691042e-19 -4.57272e-21 -1.7695783e-19

transformer.layers.0.self_attn.in_proj_bias f4 [192]
000000 82 cc 51 a0 82 cc 51 a0 82 cc 51 20 82 cc 51 a0
       -1.7770655e-19 -1.7770655e-19 1.7770655e-19 -1.7770655e-19
000010 82 cc 51 20 82 cc 51 20 82 cc 51 20 82 cc 51 a0
       1.7770655e-19 1.7770655e-19 1.7770655e-19 -1.7770655e-19
000020 dc b5 22 9f dc b5 22 1f dc b5 22 1f dc b5 22 1f
       -3.4455265e-20 3.4455265e-20 3.4455265e-20 3.4455265e-20
000030 dc b5 22 9f dc b5 22 1f dc b5 22 1f dc b5 22 1f
       -3.4455265e-20 3.4455265e-20 3.4455265e-20 3.4455265e-20
000040 75 dd f9 1d 75 dd f9 9d 75 dd f9 1d 75 dd f9 1d
       6.6138732e-21 -6.6138732e-21 6.6138732e-21 6.6138732e-21
000050 75 dd f9 1d 75 dd f9 9d 75 dd f9 1d 75 dd f9 1d
       6.6138732e-21 -6.6138732e-21 6.6138732e-21 6.6138732e-21
000060 27 32 73 1f 27 32 73 1f 27 32 73 1f 27 32 73 1f
       5.1498737e-20 5.1498737e-20 5.1498737e-20 5.1498737e-20
000070 27 32 73 1f 27 32 73 9f 27 32 73 1f 27 32 73 1f
       5.1498737e-20 -5.1498737e-20 5.1498737e-20 5.1498737e-20
000080 8b cc 2d 20 8b cc 2d 20 8b cc 2d a0 8b cc 2d a0
       1.4721348e-19 1.4721348e-19 -1.4721348e-19 -1.4721348e-19
000090 8b cc 2d 20 8b cc 2d 20 8b cc 2d 20 8b cc 2d a0
       1.4721348e-19 1.4721348e-19 1.4721348e-19 -1.4721348e-19
0000a0 cb 01 4a a0 cb 01 4a 20 cb 01 4a a0 cb 01 4a a0
       -1.7110659e-19 1.7110659e-19 -1.7110659e-19 -1.7110659e-19
0000b0 cb 01 4a 20 cb 01 4a a0 cb 01 4a a0 cb 01 4a a0
       1.7110659e-19 -1.7110659e-19 -1.7110659e-19 -1.7110659e-19
0000c0 3b 73 94 9f 3b 73 94 9f 3b 73 94 9f 3b 73 94 1f
       -6.287107e-20 -6.287107e-20 -6.287107e-20 6.287107e-20
0000d0 3b 73 94 9f 3b 73 94 9f 3b 73 94 9f 3b 73 94 9f
       -6.287107e-20 -6.287107e-20 -6.287107e-20 -6.287107e-20
0000e0 7c 64 07 20 7c 64 07 20 7c 64 07 20 7c 64 07 a0
       1.1468192e-19 1.1468192e-19 1.1468192e-19 -1.1468192e-19
0000f0 7c 64 07 a0 7c 64 07 a0 7c 64 07 20 7c 64 07 20
       -1.1468192e-19 -1.1468192e-19 1.1468192e-19 1.1468192e-19
000100 62 d5 08 9f 2b fe 07 9f 76 24 08 1f 2f 85 07 9f
       -2.8975626e-20 -2.8797605e-20 2.882928e-20 -2.869753e-20
000110 5e 1d 08 1f 2e d1 08 1f b2 aa 08 1f 7d 69 07 9f
       2.8823412e-20 2.897215e-20 2.8940316e-20 -2.867462e-20
000120 6d 1c 06 9d 2c 94 04 1d 45 6d 05 1d 10 5c 04 1d
       -1.7749448e-21 1.7546658e-21 1.7658894e-21 1.751765e-21
000130 cf 43 05 9d 64 94 04 1d e5 16 05 1d 58 b2 05 1d
       -1.763746e-21 1.754677e-21 1.761424e-21 1.7694605e-21
000140 43 4e ae 1b 3f df b0 9b d8 d0 af 1b a6 ec b0 1b
       2.883646e-22 -2.9261027e-22 2.9086284e-22 2.9269688e-22
000150 d5 d2 af 1b c8 69 b0 9b 0a 37 b0 1b 66 b3 b0 1b
       2.9087568e-22 -2.9185117e-22 2.9152326e-22 2.923269e-22
000160 20 51 43 1c d1 cd 42 1c a5 19 43 1c 24 1b 43 1c
       6.462494e-22 6.4455227e-22 6.4553233e-22 6.4555166e-22
000170 43 81 43 1c 3c 58 42 9c 88 fe 41 1c 9b 0b 43 1c
       6.4687155e-22 -6.4303256e-22 6.4187317e-22 6.453509e-22
000180 2b 75 fd 1e bf 9d fe 1e 8f 6b fd 9e 6c c0 fd 9e
       2.6835876e-20 2.6958538e-20 -2.6831902e-20 -2.6867e-20
000190 34 90 fc 1e 93 07 fd 1e 01 59 ff 1e e6 ce fe 9e
       2.6741179e-20 2.679055e-20 2.7035986e-20 -2.6978867e-20
0001a0 80 28 04 9f 4e 89 03 1f 2c f2 03 9f fb 90 03 9f
       -2.7985588e-20 2.7853905e-20 -2.794065e-20 -2.7860254e-20
0001b0 b9 59 04 1f a0 87 03 9f 27 ba 03 9f e3 66 04 9f
       2.8026304e-20 -2.7852515e-20 -2.789431e-20 -2.8037193e-20
0001c0 f0 b8 e5 9c c9 0f e6 9c 3f 02 e7 9c 13 7f e6 1c
       -1.5201754e-21 -1.5224204e-21 -1.5286878e-21 1.5252971e-21
0001d0 c8 3d e6 9c f6 10 e7 9c 09 8c e6 9c a9 ca e5 9c
       -1.5236093e-21 -1.5290682e-21 -1.5256322e-21 -1.5206335e-21
0001e0 2a ae 84 1e 5b 5b 85 1e a9 f1 84 1e e7 4e 84 9e
       1.4048076e-20 1.4119706e-20 1.4075992e-20 -1.4008677e-20
0001f0 65 9b 84 9e ee 3b 85 9e 49 3c 84 1e e5 a7 83 1e
       -1.4040313e-20 -1.4106709e-20 1.4000977e-20 1.3939604e-20
000200 8f d9 15 1d 80 d9 15 1d 8f d9 15 1d 80 d9 15 9d
       1.983246e-21 1.983243e-21 1.983246e-21 -1.983243e-21
000210 8f d9 15 1d 8f d9 15 1d 87 d9 15 9d 8f d9 15 9d
       1.983246e-21 1.983246e-21 -1.9832445e-21 -1.983246e-21
000220 60 c7 f4 9c 66 c7 f4 9c 66 c7 f4 1c 66 c7 f4 9c
       -1.6198103e-21 -1.6198109e-21 1.6198109e-21 -1.6198109e-21
000230 54 c7 f4 9c 54 c7 f4 1c 54 c7 f4 1c 54 c7 f4 1c
       -1.6198091e-21 1.6198091e-21 1.6198091e-21 1.6198091e-21
000240 73 30 21 9d 37 30 21 9d 73 30 21 9d 37 30 21 9d
       -2.133322e-21 -2.13331e-21 -2.133322e-21 -2.13331e-21
000250 37 30 21 1d 37 30 21 1d 6e 30 21 1d 40 30 21 9d
       2.13331e-21 2.13331e-21 2.133321e-21 -2.1333117e-21
000260 a4 94 07 9f a4 94 07 1f 9c 94 07 1f a4 94 07 9f
       -2.8710315e-20 2.8710315e-20 2.871029e-20 -2.8710315e-20
000270 9c 94 07 9f a4 94 07 9f a4 94 07 9f a4 94 07 9f
       -2.871029e-20 -2.8710315e-20 -2.8710315e-20 -2.8710315e-20
000280 81 9e c6 9c 85 9e c6 1c 85 9e c6 1c 7e 9e c6 9c
       -1.3143513e-21 1.3143517e-21 1.3143517e-21 -1.314351e-21
000290 85 9e c6 1c 85 9e c6 9c 81 9e c6 9c 85 9e c6 9c
       1.3143517e-21 -1.3143517e-21 -1.3143513e-21 -1.3143517e-21
0002a0 d8 ae 01 9d c3 ae 01 1d d8 ae 01 9d d8 ae 01 1d
       -1.71634e-21 1.7163358e-21 -1.71634e-21 1.71634e-21
0002b0 d8 ae 01 9d d8 ae 01 1d d8 ae 01 1d d8 ae 01 9d
       -1.71634e-21 1.71634e-21 1.71634e-21 -1.71634e-21
0002c0 23 a1 be 9e 30 a1 be 1e 23 a1 be 1e 36 a1 be 9e
       -2.0183677e-20 2.0183698e-20 2.0183677e-20 -2.0183708e-20
0002d0 36 a1 be 1e 26 a1 be 1e 36 a1 be 1e 26 a1 be 9e
       2.0183708e-20 2.0183682e-20 2.0183708e-20 -2.0183682e-20
0002e0 c0 a9 c4 9c c0 a9 c4 1c c0 a9 c4 9c c0 a9 c4 9c
       -1.3014071e-21 1.3014071e-21 -1.3014071e-21 -1.3014071e-21
0002f0 c0 a9 c4 9c c0 a9 c4 1c b8 a9 c4 1c ce a9 c4 9c
       -1.3014071e-21 1.3014071e-21 1.3014063e-21 -1.3014085e-21

transformer.layers.0.self_attn.out_proj.weight f4 [64, 64]
000000 1e 55 20 9f 41 55 20 9f 41 55 20 9f 1e 55 20 1f
       -3.3951725e-20 -3.3951838e-20 -3.3951838e-20 3.3951725e-20
000010 46 55 20 9f 1e 55 20 9f 1e 55 20 1f 41 55 20 1f
       -3.3951854e-20 -3.3951725e-20 3.3951725e-20 3.3951838e-20
000020 95 d0 e5 1c 8d d0 e5 1c 95 d0 e5 9c 8d d0 e5 1c
       1.5207866e-21 1.5207858e-21 -1.5207866e-21 1.5207858e-21
000030 99 d0 e5 1c cb d0 e5 9c ce d0 e5 9c 95 d0 e5 9c
       1.520787e-21 -1.5207921e-21 -1.5207924e-21 -1.5207866e-21
000040 7d be d3 9d 7d be d3 9d 7d be d3 9d 7d be d3 9d
       -5.6048195e-21 -5.6048195e-21 -5.6048195e-21 -5.6048195e-21
000050 7d be d3 1d 7d be d3 1d 7d be d3 1d 7d be d3 9d
       5.6048195e-21 5.6048195e-21 5.6048195e-21 -5.6048195e-21
000060 cd a6 30 9e cd a6 30 1e cd a6 30 1e cd a6 30 9e
       -9.351856e-21 9.351856e-21 9.351856e-21 -9.351856e-21
000070 cd a6 30 9e cd a6 30 9e cd a6 30 9e cd a6 30 9e
       -9.351856e-21 -9.351856e-21 -9.351856e-21 -9.351856e-21
000080 6a ba 9a 1f 6a ba 9a 9f 6a ba 9a 9f 6a ba 9a 1f
       6.552993e-20 -6.552993e-20 -6.552993e-20 6.552993e-20
000090 6a ba 9a 9f 6a ba 9a 1f 6a ba 9a 1f 6a ba 9a 1f
       -6.552993e-20 6.552993e-20 6.552993e-20 6.552993e-20
0000a0 9f 8f 2a 1f 9f 8f 2a 9f 9f 8f 2a 1f 9f 8f 2a 9f
       3.61177e-20 -3.61177e-20 3.61177e-20 -3.61177e-20
0000b0 9f 8f 2a 1f 9f 8f 2a 9f 9f 8f 2a 9f 9f 8f 2a 1f
       3.61177e-20 -3.61177e-20 -3.61177e-20 3.61177e-20
0000c0 51 2b fc 9d 3f 2b fc 1d 51 2b fc 1d 51 2b fc 9d
       -6.6748633e-21 6.674856e-21 6.6748633e-21 -6.6748633e-21
0000d0 51 2b fc 1d 3f 2b fc 1d 3f 2b fc 1d 51 2b fc 9d
       6.6748633e-21 6.674856e-21 6.674856e-21 -6.6748633e-21
0000e0 63 95 56 1f 63 95 56 9f 63 95 56 1f 63 95 56 1f
       4.5439832e-20 -4.5439832e-20 4.5439832e-20 4.5439832e-20
0000f0 63 95 56 1f 63 95 56 9f 63 95 56 9f 63 95 56 1f
       4.5439832e-20 -4.5439832e-20 -4.5439832e-20 4.5439832e-20
000100 a6 dc 5f 9f a6 dc 5f 9f a6 dc 5f 9f a6 dc 5f 1f
       -4.7404603e-20 -4.7404603e-20 -4.7404603e-20 4.7404603e-20
000110 a6 dc 5f 9f a6 dc 5f 9f a6 dc 5f 1f a6 dc 5f 1f
       -4.7404603e-20 -4.7404603e-20 4.7404603e-20 4.7404603e-20
000120 a6 d9 1a 1c a6 d9 1a 1c c4 d9 1a 9c bc d9 1a 1c
       5.123563e-22 5.123563e-22 -5.123578e-22 5.123574e-22
000130 a6 d9 1a 1c a6 d9 1a 9c bc d9 1a 9c bc d9 1a 9c
       5.123563e-22 -5.123563e-22 -5.123574e-22 -5.123574e-22
000140 30 7a ba 9d 2f 7a ba 9d 30 7a ba 9d 2f 7a ba 9d
       -4.936013e-21 -4.9360125e-21 -4.936013e-21 -4.9360125e-21
000150 2f 7a ba 1d 2f 7a ba 1d 30 7a ba 1d 2f 7a ba 9d
       4.9360125e-21 4.9360125e-21 4.936013e-21 -4.9360125e-21
000160 94 62 f0 9d 94 62 f0 1d 94 62 f0 1d 92 62 f0 9d
       -6.36294e-21 6.36294e-21 6.36294e-21 -6.362939e-21
000170 94 62 f0 9d 94 62 f0 9d 94 62 f0 9d 94 62 f0 9d
       -6.36294e-21 -6.36294e-21 -6.36294e-21 -6.36294e-21
000180 9b 0f be 1f 9b 0f be 9f 9b 0f be 9f 9b 0f be 1f
       8.049395e-20 -8.049395e-20 -8.049395e-20 8.049395e-20
000190 9b 0f be 9f 9b 0f be 1f 9b 0f be 1f 9b 0f be 1f
       -8.049395e-20 8.049395e-20 8.049395e-20 8.049395e-20
0001a0 6a 2c 73 1f 6a 2c 73 9f 6a 2c 73 1f 6a 2c 73 9f
       5.149399e-20 -5.149399e-20 5.149399e-20 -5.149399e-20
0001b0 6a 2c 73 1f 6a 2c 73 9f 6a 2c 73 9f 6a 2c 73 1f
       5.149399e-20 -5.149399e-20 -5.149399e-20 5.149399e-20
0001c0 cf 37 a2 9d cf 37 a2 1d cf 37 a2 1d cf 37 a2 9d
       -4.2938748e-21 4.2938748e-21 4.2938748e-21 -4.2938748e-21
0001d0 cf 37 a2 1d cf 37 a2 1d cf 37 a2 1d cf 37 a2 9d
       4.2938748e-21 4.2938748e-21 4.2938748e-21 -4.2938748e-21
0001e0 4e 33 7d 1f 4e 33 7d 9f 4e 33 7d 1f 4e 33 7d 1f
       5.3617272e-20 -5.3617272e-20 5.3617272e-20 5.3617272e-20
0001f0 4e 33 7d 1f 4e 33 7d 9f 4e 33 7d 9f 4e 33 7d 1f
       5.3617272e-20 -5.3617272e-20 -5.3617272e-20 5.3617272e-20
000200 31 54 42 9f 2f 54 42 9f 2f 54 42 9f 31 54 42 1f
       -4.115074e-20 -4.1150733e-20 -4.1150733e-20 4.115074e-20
000210 2f 54 42 9f 2f 54 42 9f 31 54 42 1f 2f 54 42 1f
       -4.1150733e-20 -4.1150733e-20 4.115074e-20 4.1150733e-20
000220 a0 11 03 1e a0 11 03 1e a0 11 03 9e a0 11 03 1e
       6.938727e-21 6.938727e-21 -6.938727e-21 6.938727e-21
000230 a0 11 03 1e a0 11 03 9e a0 11 03 9e a0 11 03 9e
       6.938727e-21 -6.938727e-21 -6.938727e-21 -6.938727e-21
000240 8a 54 32 1c 94 54 32 1c 79 54 32 1c 7f 54 32 1c
       5.9004524e-22 5.9004574e-22 5.900444e-22 5.900447e-22
000250 80 54 32 9c 7f 54 32 9c 90 54 32 9c 94 54 32 1c
       -5.9004473e-22 -5.900447e-22 -5.9004554e-22 5.9004574e-22
000260 a4 bd 24 9d aa bd 24 1d a4 bd 24 1d a4 bd 24 9d
       -2.1803261e-21 2.1803273e-21 2.1803261e-21 -2.1803261e-21
000270 a7 bd 24 9d a4 bd 24 9d a4 bd 24 9d a4 bd 24 9d
       -2.1803267e-21 -2.1803261e-21 -2.1803261e-21 -2.1803261e-21
000280 3d 89 b7 1f 3d 89 b7 9f 3d 89 b7 9f 3d 89 b7 1f
       7.7730556e-20 -7.7730556e-20 -7.7730556e-20 7.7730556e-20
000290 3d 89 b7 9f 3d 89 b7 1f 3d 89 b7 1f 3d 89 b7 1f
       -7.7730556e-20 7.7730556e-20 7.7730556e-20 7.7730556e-20
0002a0 2c bf 50 1f 2c bf 50 9f 2c bf 50 1f 2c bf 50 9f
       4.4203847e-20 -4.4203847e-20 4.4203847e-20 -4.4203847e-20
0002b0 2c bf 50 1f 2c bf 50 9f 2c bf 50 9f 2c bf 50 1f
       4.4203847e-20 -4.4203847e-20 -4.4203847e-20 4.4203847e-20
0002c0 a4 ed 1a 9c a6 ed 1a 1c 9f ed 1a 1c a6 ed 1a 9c
       -5.126147e-22 5.126148e-22 5.1261444e-22 -5.126148e-22
0002d0 a6 ed 1a 1c aa ed 1a 1c af ed 1a 1c a8 ed 1a 9c
       5.126148e-22 5.12615e-22 5.1261525e-22 -5.126149e-22
0002e0 e0 95 82 1f e0 95 82 9f e0 95 82 1f e0 95 82 1f
       5.530509e-20 -5.530509e-20 5.530509e-20 5.530509e-20
0002f0 e0 95 82 1f e0 95 82 9f e0 95 82 9f e0 95 82 1f
       5.530509e-20 -5.530509e-20 -5.530509e-20 5.530509e-20
000300 0e ea 69 9f 0e ea 69 9f 0e ea 69 9f 0e ea 69 1f
       -4.9533275e-20 -4.9533275e-20 -4.9533275e-20 4.9533275e-20
000310 0e ea 69 9f 0e ea 69 9f 0e ea 69 1f 0e ea 69 1f
       -4.9533275e-20 -4.9533275e-20 4.9533275e-20 4.9533275e-20
000320 ea 22 95 1b da 22 95 1b d8 22 95 9b e0 22 95 1b
       2.4672545e-22 2.4672505e-22 -2.46725e-22 2.467252e-22
000330 c6 22 95 1b d8 22 95 9b ce 23 95 9b 68 23 95 9b
       2.4672454e-22 -2.46725e-22 -2.467312e-22 -2.4672863e-22
000340 ca 09 ef 9d ca 09 ef 9d ca 09 ef 9d ca 09 ef 9d
       -6.3272895e-21 -6.3272895e-21 -6.3272895e-21 -6.3272895e-21
000350 ca 09 ef 1d ca 09 ef 1d ca 09 ef 1d ca 09 ef 9d
       6.3272895e-21 6.3272895e-21 6.3272895e-21 -6.3272895e-21
000360 5e f5 18 9e 5f f5 18 1e 5e f5 18 1e 5f f5 18 9e
       -8.097554e-21 8.0975546e-21 8.097554e-21 -8.0975546e-21
000370 5e f5 18 9e 5e f5 18 9e 5f f5 18 9e 5f f5 18 9e
       -8.097554e-21 -8.097554e-21 -8.0975546e-21 -8.0975546e-21
000380 c2 bd c9 1f a3 bd c9 9f a3 bd c9 9f a3 bd c9 1f
       8.544074e-20 -8.544054e-20 -8.544054e-20 8.544054e-20
000390 c2 bd c9 9f a3 bd c9 1f c2 bd c9 1f c2 bd c9 1f
       -8.544074e-20 8.544054e-20 8.544074e-20 8.544074e-20
0003a0 3b 09 7a 1f 3b 09 7a 9f 3b 09 7a 1f 3b 09 7a 9f
       5.2947194e-20 -5.2947194e-20 5.2947194e-20 -5.2947194e-20
0003b0 3b 09 7a 1f 3b 09 7a 9f 3b 09 7a 9f 3b 09 7a 1f
       5.2947194e-20 -5.2947194e-20 -5.2947194e-20 5.2947194e-20
0003c0 f6 46 d4 9d f6 46 d4 1d f6 46 d4 1d f6 46 d4 9d
       -5.6189305e-21 5.6189305e-21 5.6189305e-21 -5.6189305e-21
0003d0 f6 46 d4 1d f7 46 d4 1d f6 46 d4 1d f6 46 d4 9d
       5.6189305e-21 5.618931e-21 5.6189305e-21 -5.6189305e-21
0003e0 49 9d 87 1f 49 9d 87 9f 49 9d 87 1f 49 9d 87 1f
       5.743493e-20 -5.743493e-20 5.743493e-20 5.743493e-20
0003f0 49 9d 87 1f 49 9d 87 9f 49 9d 87 9f 49 9d 87 1f
       5.743493e-20 -5.743493e-20 -5.743493e-20 5.743493e-20

transformer.layers.0.self_attn.out_proj.bias f4 [64]
000000 19 ba 92 39 78 53 2d 39 f3 f3 5f 39 4f fb 56 39
       0.00027985944 0.0001652966 0.00021357815 0.0002050225
000010 cb 0e 83 39 89 12 7e 39 00 c8 86 39 03 43 79 39
       0.0002499729 0.00024230233 0.00025707483 0.00023771454
000020 54 09 75 39 bf 16 8c 39 28 c1 48 39 c0 be 73 39
       0.00023368496 0.00026719828 0.00019145443 0.00023245346
000030 da 72 34 39 ae 38 9a 39 e7 70 09 39 6f 86 3e ba
       0.00017208923 0.000294154 0.00013107398 -0.0007267957
000040 74 3d 0f 39 a7 50 9c 39 61 64 13 39 e9 e0 5b 39
       0.00013660436 0.0002981473 0.00014056407 0.00020969253
000050 15 41 0d 39 8b 68 9b 39 34 86 32 39 9d e4 6f 39
       0.00013471053 0.00029641794 0.00017025397 0.00022877981
000060 48 ec 5c bb 8b a9 a5 39 79 26 ec 38 da ce 9c 39
       -0.003371017 0.00031597572 0.00011260523 0.00029908755
000070 73 0e 0e 39 3c eb a1 39 ff be 17 39 67 ba 9c 39
       0.00013547558 0.00030883576 0.00014471634 0.0002989352
000080 15 f3 10 39 e1 11 a7 39 72 51 17 39 7c 77 91 39
       0.00013823465 0.00031866043 0.00014430823 0.00027745578
000090 83 37 1c 39 06 e7 87 39 ca 0f 08 39 b3 d8 a3 38
       0.00014897999 0.00025921332 0.00012975853 7.812809e-05
0000a0 e9 94 23 39 d7 c8 72 38 d2 cd 14 39 24 b7 4b 39
       0.00015600365 5.7884343e-05 0.00014191054 0.00019427814
0000b0 50 3e 15 39 b4 46 aa 39 b8 c5 19 39 8c 6c 8c 39
       0.0001423296 0.00032477605 0.00014664873 0.00026783755
0000c0 c4 44 18 39 7f c2 35 b8 07 b2 19 39 5c 94 93 39
       0.00014521467 -4.33349e-05 0.00014657537 0.0002814856
0000d0 d1 76 ab 36 c1 d0 62 39 ff cc 20 39 31 7b 86 39
       5.110029e-06 0.00021630806 0.00015335156 0.00025650256
0000e0 f5 f7 14 39 03 06 9d 39 0b 60 16 39 c0 4d c5 38
       0.00014206751 0.00029949853 0.00014340894 9.408174e-05
0000f0 f1 d2 16 39 fd 28 95 39 b5 14 18 39 51 44 9d ba
       0.00014383697 0.00028450033 0.00014503564 -0.0011998509

transformer.layers.0.multihead_attn.in_proj_weight f4 [192, 64]
000000 b0 9f 31 9f 35 d6 c4 1c 7a 6d 88 9e dc 2d 7f 9e
       -3.7613298e-20 1.3025563e-21 -1.4444839e-20 -1.3509071e-20
000010 fe 23 3e 9e 30 7c d6 9e bd a5 f0 9c ff 30 bf 9e
       -1.0065959e-20 -2.2709494e-20 -1.592471e-21 -2.0243176e-20
000020 e1 6e ad 1b 60 43 c0 9e d2 80 cb 9e 6c 03 31 9f
       2.8692103e-22 -2.0356656e-20 -2.154674e-20 -3.748404e-20
000030 f0 66 f8 9e 5a fd c5 9e 5c 6b 11 9f 87 bb 98 9e
       -2.6300595e-20 -2.096297e-20 -3.079375e-20 -1.6171185e-20
000040 a9 d0 eb 9e 41 65 92 9e 2f dd ed 9e 79 a5 8e 9e
       -2.4967893e-20 -1.5500229e-20 -2.518483e-20 -1.5103273e-20
000050 94 03 d8 9e 2a 72 83 9e b8 30 b8 9e 6d 6e 8a 9e
       -2.287137e-20 -1.3917382e-20 -1.9501907e-20 -1.465699e-20
000060 27 73 bf 9e 49 2a 83 9e 98 97 be 9e 12 fd 86 9e
       -2.0270538e-20 -1.3887653e-20 -2.017973e-20 -1.429247e-20
000070 c9 7e ba 9e 5b 11 8a 9e b7 20 a8 9e ec 87 89 9e
       -1.9745953e-20 -1.4618496e-20 -1.7801222e-20 -1.4561655e-20
000080 68 f9 a6 9e bd 98 7a 9e 2a f9 aa 9e c3 e1 80 9e
       -1.7679086e-20 -1.3266475e-20 -1.8102502e-20 -1.36459e-20
000090 97 31 a5 9e 5d a4 81 9e ab 3b ae 9e 53 dd 95 9e
       -1.7490564e-20 -1.3726385e-20 -1.8447645e-20 -1.5867526e-20
0000a0 4c f9 5e 9e d6 3d 82 9e 6a 3c a0 9e 1d 9c 87 9e
       -1.18041355e-20 -1.378986e-20 -1.6965646e-20 -1.4358248e-20
0000b0 61 f1 9c 9e 4e e4 7f 9e d8 9e a3 9e 3c 5a 8b 9e
       -1.6616974e-20 -1.35468e-20 -1.7323993e-20 -1.4754518e-20
0000c0 fd 39 a7 9e c3 22 8a 9e d4 a5 a0 9e 5e 51 81 9e
       -1.7705796e-20 -1.4625695e-20 -1.7009244e-20 -1.3692059e-20
0000d0 d2 e3 8b 9c 0b ef 7e 9e 7a e6 96 9e 1b 05 84 9e
       -9.257139e-22 -1.3496081e-20 -1.597719e-20 -1.3978155e-20
0000e0 9d e0 a5 9e 4e 37 85 9e e2 21 a8 9e 8f 9b 77 9e
       -1.7562952e-20 -1.4104796e-20 -1.7801705e-20 -1.310824e-20
0000f0 de 70 9a 9e 59 f8 70 9e fb 18 a1 9e cc 8b 88 9e
       -1.6352065e-20 -1.2756851e-20 -1.705687e-20 -1.4457379e-20
000100 b0 9f 31 1f 35 d6 c4 9c 7a 6d 88 1e dc 2d 7f 1e
       3.7613298e-20 -1.3025563e-21 1.4444839e-20 1.3509071e-20
000110 fe 23 3e 1e 30 7c d6 1e bd a5 f0 1c ff 30 bf 1e
       1.0065959e-20 2.2709494e-20 1.592471e-21 2.0243176e-20
000120 bc 6e ad 9b 60 43 c0 1e e1 80 cb 1e 6c 03 31 1f
       -2.869201e-22 2.0356656e-20 2.1546764e-20 3.748404e-20
000130 f0 66 f8 1e 5a fd c5 1e 5c 6b 11 1f 87 bb 98 1e
       2.6300595e-20 2.096297e-20 3.079375e-20 1.6171185e-20
000140 a9 d0 eb 1e 41 65 92 1e 2f dd ed 1e 79 a5 8e 1e
       2.4967893e-20 1.5500229e-20 2.518483e-20 1.5103273e-20
000150 94 03 d8 1e 2a 72 83 1e b8 30 b8 1e 6d 6e 8a 1e
       2.287137e-20 1.3917382e-20 1.9501907e-20 1.465699e-20
000160 27 73 bf 1e 49 2a 83 1e 98 97 be 1e f0 fc 86 1e
       2.0270538e-20 1.3887653e-20 2.017973e-20 1.4292414e-20
000170 c9 7e ba 1e 5b 11 8a 1e f2 20 a8 1e ec 87 89 1e
       1.9745953e-20 1.4618496e-20 1.7801318e-20 1.4561655e-20
000180 68 f9 a6 1e bd 98 7a 1e 2a f9 aa 1e c3 e1 80 1e
       1.7679086e-20 1.3266475e-20 1.8102502e-20 1.36459e-20
000190 97 31 a5 1e 5d a4 81 1e ab 3b ae 1e 4d dd 95 1e
       1.7490564e-20 1.3726385e-20 1.8447645e-20 1.5867517e-20
0001a0 4c f9 5e 1e d6 3d 82 1e 6a 3c a0 1e 1d 9c 87 1e
       1.18041355e-20 1.378986e-20 1.6965646e-20 1.4358248e-20
0001b0 61 f1 9c 1e 5c e4 7f 1e d8 9e a3 1e 3c 5a 8b 1e
       1.6616974e-20 1.3546811e-20 1.7323993e-20 1.4754518e-20
0001c0 fd 39 a7 1e c3 22 8a 1e d4 a5 a0 1e 5e 51 81 1e
       1.7705796e-20 1.4625695e-20 1.7009244e-20 1.3692059e-20
0001d0 d7 e3 8b 1c 0b ef 7e 1e 7a e6 96 1e 1b 05 84 1e
       9.257144e-22 1.3496081e-20 1.597719e-20 1.3978155e-20
0001e0 9d e0 a5 1e 4e 37 85 1e e2 21 a8 1e 8f 9b 77 1e
       1.7562952e-20 1.4104796e-20 1.7801705e-20 1.310824e-20
0001f0 de 70 9a 1e 5b f8 70 1e fb 18 a1 1e cc 8b 88 1e
       1.6352065e-20 1.2756853e-20 1.705687e-20 1.4457379e-20
000200 b0 9f 31 9f 4a d6 c4 1c 7a 6d 88 9e dc 2d 7f 9e
       -3.7613298e-20 1.3025584e-21 -1.4444839e-20 -1.3509071e-20
000210 fe 23 3e 9e 30 7c d6 9e bd a5 f0 9c ff 30 bf 9e
       -1.0065959e-20 -2.2709494e-20 -1.592471e-21 -2.0243176e-20
000220 a7 6e ad 1b 60 43 c0 9e d2 80 cb 9e 6c 03 31 9f
       2.8691957e-22 -2.0356656e-20 -2.154674e-20 -3.748404e-20
000230 f8 66 f8 9e 5a fd c5 9e 5c 6b 11 9f 82 bb 98 9e
       -2.6300608e-20 -2.096297e-20 -3.079375e-20 -1.6171177e-20
000240 a9 d0 eb 9e 41 65 92 9e 2f dd ed 9e 79 a5 8e 9e
       -2.4967893e-20 -1.5500229e-20 -2.518483e-20 -1.5103273e-20
000250 94 03 d8 9e 2a 72 83 9e b8 30 b8 9e 6d 6e 8a 9e
       -2.287137e-20 -1.3917382e-20 -1.9501907e-20 -1.465699e-20
000260 27 73 bf 9e 49 2a 83 9e 98 97 be 9e 12 fd 86 9e
       -2.0270538e-20 -1.3887653e-20 -2.017973e-20 -1.429247e-20
000270 c9 7e ba 9e 5b 11 8a 9e b7 20 a8 9e ec 87 89 9e
       -1.9745953e-20 -1.4618496e-20 -1.7801222e-20 -1.4561655e-20
000280 68 f9 a6 9e bd 98 7a 9e 2a f9 aa 9e c3 e1 80 9e
       -1.7679086e-20 -1.3266475e-20 -1.8102502e-20 -1.36459e-20
000290 97 31 a5 9e 5d a4 81 9e ab 3b ae 9e 53 dd 95 9e
       -1.7490564e-20 -1.3726385e-20 -1.8447645e-20 -1.5867526e-20
0002a0 4c f9 5e 9e d6 3d 82 9e 6a 3c a0 9e 1d 9c 87 9e
       -1.18041355e-20 -1.378986e-20 -1.6965646e-20 -1.4358248e-20
0002b0 61 f1 9c 9e 5c e4 7f 9e d8 9e a3 9e 3c 5a 8b 9e
       -1.6616974e-20 -1.3546811e-20 -1.7323993e-20 -1.4754518e-20
0002c0 fd 39 a7 9e c3 22 8a 9e d4 a5 a0 9e 69 51 81 9e
       -1.7705796e-20 -1.4625695e-20 -1.7009244e-20 -1.3692077e-20
0002d0 d2 e3 8b 9c 0b ef 7e 9e 7a e6 96 9e 1b 05 84 9e
       -9.257139e-22 -1.3496081e-20 -1.597719e-20 -1.3978155e-20
0002e0 9d e0 a5 9e 4e 37 85 9e e2 21 a8 9e 8f 9b 77 9e
       -1.7562952e-20 -1.4104796e-20 -1.7801705e-20 -1.310824e-20
0002f0 de 70 9a 9e 59 f8 70 9e fb 18 a1 9e cc 8b 88 9e
       -1.6352065e-20 -1.2756851e-20 -1.705687e-20 -1.4457379e-20
000300 b0 9f 31 9f 4a d6 c4 1c 7a 6d 88 9e dc 2d 7f 9e
       -3.7613298e-20 1.3025584e-21 -1.4444839e-20 -1.3509071e-20
000310 fe 23 3e 9e 30 7c d6 9e a8 a5 f0 9c ff 30 bf 9e
       -1.0065959e-20 -2.2709494e-20 -1.5924689e-21 -2.0243176e-20
000320 ed 6e ad 1b 60 43 c0 9e d2 80 cb 9e 6c 03 31 9f
       2.8692133e-22 -2.0356656e-20 -2.154674e-20 -3.748404e-20
000330 f8 66 f8 9e 5a fd c5 9e 5c 6b 11 9f 82 bb 98 9e
       -2.6300608e-20 -2.096297e-20 -3.079375e-20 -1.6171177e-20
000340 a9 d0 eb 9e 41 65 92 9e 2f dd ed 9e 79 a5 8e 9e
       -2.4967893e-20 -1.5500229e-20 -2.518483e-20 -1.5103273e-20
000350 94 03 d8 9e 2a 72 83 9e b8 30 b8 9e 5c 6e 8a 9e
       -2.287137e-20 -1.3917382e-20 -1.9501907e-20 -1.4656962e-20
000360 27 73 bf 9e 49 2a 83 9e 98 97 be 9e f0 fc 86 9e
       -2.0270538e-20 -1.3887653e-20 -2.017973e-20 -1.4292414e-20
000370 c9 7e ba 9e 5b 11 8a 9e b7 20 a8 9e ec 87 89 9e
       -1.9745953e-20 -1.4618496e-20 -1.7801222e-20 -1.4561655e-20
000380 68 f9 a6 9e bd 98 7a 9e 2a f9 aa 9e c3 e1 80 9e
       -1.7679086e-20 -1.3266475e-20 -1.8102502e-20 -1.36459e-20
000390 97 31 a5 9e 5d a4 81 9e ab 3b ae 9e 53 dd 95 9e
       -1.7490564e-20 -1.3726385e-20 -1.8447645e-20 -1.5867526e-20
0003a0 4c f9 5e 9e d6 3d 82 9e 60 3c a0 9e 1c 9c 87 9e
       -1.18041355e-20 -1.378986e-20 -1.696563e-20 -1.4358246e-20
0003b0 61 f1 9c 9e 5c e4 7f 9e d8 9e a3 9e 3c 5a 8b 9e
       -1.6616974e-20 -1.3546811e-20 -1.7323993e-20 -1.4754518e-20
0003c0 fd 39 a7 9e c3 22 8a 9e d4 a5 a0 9e 5e 51 81 9e
       -1.7705796e-20 -1.4625695e-20 -1.7009244e-20 -1.3692059e-20
0003d0 d2 e3 8b 9c 0b ef 7e 9e 7a e6 96 9e e4 04 84 9e
       -9.257139e-22 -1.3496081e-20 -1.597719e-20 -1.3978066e-20
0003e0 9d e0 a5 9e 4e 37 85 9e e2 21 a8 9e 8f 9b 77 9e
       -1.7562952e-20 -1.4104796e-20 -1.7801705e-20 -1.310824e-20
0003f0 de 70 9a 9e 59 f8 70 9e fb 18 a1 9e cc 8b 88 9e
       -1.6352065e-20 -1.2756851e-20 -1.705687e-20 -1.4457379e-20
