decisionmaking/trained_models/env=claude_dim2_model=transformer_num_episodes1000000_num_hidden=8_lr0.0003_num_layers=2_d_model=64_num_head=8_noise0.0_shuffleTrue_pairedTrue_lossnll_ess0.8_std0.1_run=1_essinit0.001_annealed.pt (torch, 942445 bytes, 121 tensors)

embedding.weight f4 [64, 3]
00000000: 0806 8dbc cde0 6b3c 4018 8c3d a092 143c
00000010: 7eeb d1bb 803d 17be cc5a 4cbb a4cd 1b3b
00000020: 5b4b 0d3d 5e51 a43b c75f 95bc 21fd 30be
00000030: d234 03bc 430a 863b f81b e1bb ed12 ffba
00000040: 71fc 07bc d7dc 68be 9848 38bb 1004 a33b
00000050: 1c1b f13b 2413 243b ac55 29bc 94bb 82be
00000060: 2f1c 65bb c85c 563b e0a4 9ebc 5860 d73b
00000070: 8b65 54bb 4bf3 98be b8e5 7bbb d9c4 393c
00000080: dbd6 cabc b08a 3e3b cbd7 bcbb a943 b3be
00000090: 6218 7fbb 2259 cf3b c2bc cfbc c68f 0d3c
000000a0: 62d3 bf3a ce34 bf3b 62e9 1f3b 8eb4 813b
000000b0: 1b6d afbd 9b2f 68bb 735a ddbb cda1 ddbe
000000c0: 5976 683d 51db 44be 5187 83bc c95b 05be
000000d0: 4f87 373e a256 d7bc 65e7 9a3b b8f2 3abc
000000e0: 5c15 e0be a532 1fbb b9aa 6fbb 56a1 d8be
000000f0: fa35 8abb 0d58 663c d7d5 12bd 1a09 8bbb
00000100: 2f78 7f39 79c0 dbbe 3ccd 2cbb 8f66 083d
00000110: 8682 abbd 2510 0abe 3e5d 443e 9289 27bd
00000120: 6cf1 923a cf7c 35bb c332 d73e 5215 c6bb
00000130: 6cac f3bb c01f d8be 7d97 bcbb a77a 6f3d
00000140: 877f 19bd 7b6e 843d b0d9 99bd 19a8 623e
00000150: 44b0 2ebe d5ea f4bc b607 3ebb 5de2 27be
00000160: bfaf 633e cb1b d5bc 1a9f 0ebb 0fa1 0a3e
00000170: c402 9ebb e4ea 4ebb c48e 07bb 5304 d3be
00000180: 2f45 42bb 71ff cc3a d752 eb3e ba01 09bc
00000190: 865a 63bb 6d30 d4be e20f efbd 413c 87bd
000001a0: 5297 bdbb 7c28 2fbc 4e88 95bb eeaf dabe
000001b0: d3a4 283e e0f0 ac3d d220 1bbb 5541 2f3e
000001c0: f1b9 4abe b148 5e3d a758 21be 7586 63bd
000001d0: a7f5 723a f461 293e 8b3e 3bbe 67b2 753d
000001e0: 3520 2ebe 6ddb a4bd 64f8 a73a 17c6 fbbb
000001f0: 6dbf d8bb 5566 ddbe d3af 073e f4c5 723d
00000200: f8e1 6cbb cb3d 24bc a797 91bb dd52 d0be
00000210: 361b a13b 23b9 65be 1b97 b7bb 4c53 1bbe
00000220: fc39 4b3e 9b1d 41bd 10ad eb3a 9789 91bb
00000230: 76c5 ccbe 952e c6bb 9b79 1bbc e611 e2be
00000240: 4dde 0d3e 0a19 903d 0f7c 12ba 0640 433d
00000250: 837e 99bc 31d7 8a3e 175c 03be 38b1 86bd
00000260: cc1f 4e3a 652d 2d3e e458 41be fb41 c83d
00000270: 88a4 373b cb39 6e3e 7700 a73b 2520 80bb
00000280: 6edc 9bbb a0e5 dfbe 082b c8ba 3f19 7cbd
00000290: 31f9 b2bb 00ea 96bb 430a dbbb 7cd8 d0be
000002a0: 060c 163e 09a2 8b3d 03a6 a2ba f3ae 1c3d
000002b0: 41aa a1bc 0f2c 843e 6bf1 4a3c e239 513e
000002c0: 23c5 8b3b cb6b 173d 85f5 8ebc e18e 943e
000002d0: f764 093e a2e0 723d 9b7d 2dbb eabe 15be
000002e0: 8a0b 573e 7926 ffbc 0988 093a 1e7c 7dba
000002f0: c7d1 f4be d1d5 f73d a852 fdbd f826 313e
-0.01721479 0.014396858 0.06840563 0.009068161 -0.0064062467 -0.14769554 -0.003118205 0.0023773694
0.034495693 0.0050145825 -0.018234147 -0.17284061 -0.008008199 0.0040905788 -0.006869789 -0.0019460596
-0.008299933 -0.22740494 -0.002811944 0.0049748495 0.007357968 0.0025035823 -0.010335367 -0.25533736
-0.0034959426 0.003270911 -0.019365728 0.0065727644 -0.0032409157 -0.29873118 -0.0038436484 0.011338436
-0.024760654 0.0029074363 -0.005763029 -0.35012558 -0.0038924445 0.006327764 -0.025358561 0.008640235
0.001463514 0.005835152 0.0024400582 0.0039582914 -0.08565732 -0.0035428766 -0.006755167 -0.43287507
0.05675349 -0.19224288 -0.016055735 -0.13023295 0.1792271 -0.026286427 0.0047272914 -0.011410408
-0.43766296 -0.002429166 -0.0036570264 -0.4231059 -0.0042178603 0.014059079 -0.035848465 -0.0042430284
0.00024363467 -0.42920282 -0.0026367446 0.033300932 -0.08374505 -0.13482721 0.19176194 -0.04090268
0.0011210865 -0.00276928 0.42030916 -0.006045022 -0.007436326 -0.42211723 -0.0057553635 0.05846658
-0.037475135 0.06466385 -0.07512224 0.22134437 -0.17059427 -0.029897133 -0.0028996295 -0.16394944
0.2223501 -0.02601423 -0.0021762312 0.13538001 -0.004822107 -0.0031573111 -0.002068446 -0.41214237
-0.0029643287 0.0015640092 0.4596164 -0.008362228 -0.0034691407 -0.41443196 -0.11672951 -0.066032894
-0.005785861 -0.010690805 -0.004563368 -0.4271235 0.16469125 0.08444381 -0.0023670685 0.17114766
-0.19797494 0.054268543 -0.15756474 -0.05554815 0.00092681724 0.16541272 -0.18285577 0.05998459
-0.17004474 -0.08049665 0.0012815115 -0.0076835263 -0.0066146166 -0.43242136 0.13250665 0.059270814
-0.003614543 -0.010024498 -0.004443127 -0.4068822 0.004916574 -0.22433905 -0.00560273 -0.15168494
0.19846338 -0.047147375 0.0017980654 -0.004441451 -0.399944 -0.0060480335 -0.009489442 -0.4415428
0.13854332 0.07036026 -0.0005587944 0.04766848 -0.018737083 0.27117303 -0.12828098 -0.065767705
0.00078630145 0.16911848 -0.18881565 0.0977821 0.0028021652 0.23264234 0.005096491 -0.003910082
-0.004756502 -0.43729877 -0.0015271613 -0.061547514 -0.005461835 -0.0046055317 -0.006684573 -0.40790164
0.14653024 0.06818015 -0.0012409094 0.038252782 -0.019734504 0.25814864 0.01238666 0.20432237
0.004265444 0.036968034 -0.017451057 0.29015258 0.13417421 0.059296258 -0.0026472572 -0.14623609
0.21000496 -0.031146275 0.0005246406 -0.0009669679 -0.47816297 0.12101329 -0.12369281 0.17300022

embedding.bias f4 [64]
00000000: 2a2e 76bd c428 0ebd 75ea 74bd ba06 72bd
00000010: 6880 82bd 0c44 b2bd 371f 87bd fefa 05be
00000020: d712 76bd 6c37 22be 6698 4abd 8323 1cbe
00000030: 6899 41bd e52d 12be ea8a 2cbd d00e 3dbe
00000040: 1ff0 2abd e7a3 43be 2644 22bd c1cc 46be
00000050: e1f1 5cbc 1e1d 3bbe 6fd2 9bbc 7ce2 53be
00000060: 92a7 3ebd bae0 31be c352 2cbc ebfd 39be
00000070: ee09 44bb 7780 52be bfc0 babb e05e 3bbe
00000080: 5508 36bd 0685 3ebe d208 81bb c17e 48be
00000090: 3712 7c3b 0e38 58be 4cfa 3fbb b0bc 56be
000000a0: 5a23 9b3a d424 37be 0707 a03b bbf8 2dbe
000000b0: e981 cdbb 5886 48be 7b59 a23c b6b0 42be
000000c0: ce8a 34bb 2d39 3bbe 29d5 1b3b 1d5e 52be
000000d0: fcde aabb b658 47be 63c2 2e3c de82 3cbe
000000e0: 1ccb 873b 5697 3ebe efd6 f9bb e2fc 44be
000000f0: f60a bf3a 6174 54be 612b bc3c dfb6 38be
-0.06010262 -0.034706846 -0.05979391 -0.059088446 -0.06372148 -0.08704385 -0.06597751 -0.13084027
-0.06007656 -0.15841454 -0.049461745 -0.15247922 -0.04726544 -0.1427532 -0.042124666 -0.18462682
-0.041732904 -0.19105493 -0.039615773 -0.19414045 -0.013485403 -0.18272826 -0.019021241 -0.20691866
-0.046546526 -0.17370883 -0.010517779 -0.18163268 -0.0029913145 -0.20556818 -0.0056992467 -0.1829791
-0.04444154 -0.18605432 -0.003937819 -0.19579603 0.0038463005 -0.21115133 -0.0029293476 -0.20970416
0.0011836097 -0.17885143 0.00488365 -0.16989414 -0.00627159 -0.19582498 0.019818058 -0.19012722
-0.0027548554 -0.1828353 0.0023778176 -0.20543714 -0.00521457 -0.19467434 0.010666463 -0.18409297
0.0041440856 -0.18612418 -0.007624499 -0.19237092 0.001457541 -0.2074752 0.022969903 -0.1803851

pos_encoder.pe f4 [1, 10, 64]
00000000: 0000 0000 0000 803f 0000 0000 0000 803f
00000010: 0000 0000 0000 803f 0000 0000 0000 803f
00000020: 0000 0000 0000 803f 0000 0000 0000 803f
00000030: 0000 0000 0000 803f 0000 0000 0000 803f
00000040: 0000 0000 0000 803f 0000 0000 0000 803f
00000050: 0000 0000 0000 803f 0000 0000 0000 803f
00000060: 0000 0000 0000 803f 0000 0000 0000 803f
00000070: 0000 0000 0000 803f 0000 0000 0000 803f
00000080: 0000 0000 0000 803f 0000 0000 0000 803f
00000090: 0000 0000 0000 803f 0000 0000 0000 803f
000000a0: 0000 0000 0000 803f 0000 0000 0000 803f
000000b0: 0000 0000 0000 803f 0000 0000 0000 803f
000000c0: 0000 0000 0000 803f 0000 0000 0000 803f
000000d0: 0000 0000 0000 803f 0000 0000 0000 803f
000000e0: 0000 0000 0000 803f 0000 0000 0000 803f
000000f0: 0000 0000 0000 803f 0000 0000 0000 803f
00000100: a46a 573f 4151 0a3f ce7a 2e3f b054 3b3f
00000110: ba7d 083f 0d94 583f f090 d13e c792 693f
00000120: 3e39 9f3e 6b4e 733f 258f 703e f1d5 783f
00000130: 3a23 353e 83f6 7b3f f325 083e 28ba 7d3f
00000140: 7675 cc3d 98b8 7e3f 366f 993d d147 7f3f
00000150: ae36 663d 6898 7f3f fbac 2c3d bdc5 7f3f
00000160: 5b81 013d 3cdf 7f3f a53e c23c 93ed 7f3f
00000170: 42ab 913c a3f5 7f3f 497a 5a3c 2cfa 7f3f
00000180: 57d6 233c b9fc 7f3f 16b9 f53b 28fe 7f3f
00000190: 5a44 b83b f7fe 7f3f 5a2e 8a3b 6bff 7f3f
000001a0: 1c3e 4f3b acff 7f3f 0369 1b3b d1ff 7f3f
000001b0: 2015 e93a e6ff 7f3f 8bc9 ae3a f1ff 7f3f
000001c0: 6d12 833a f8ff 7f3f 8994 443a fbff 7f3f
000001d0: 136a 133a fdff 7f3f 2117 dd39 ffff 7f3f
000001e0: 61cb a539 ffff 7f3f 0da8 7839 0000 803f
000001f0: 5377 3a39 0000 803f 6dd4 0b39 0000 803f
00000200: b7c7 683f 3311 d5be d95a 7f3f 534d 913d
00000210: 0af2 663f b2e8 dc3e 1135 3f3f 0339 2a3f
00000220: 1b54 173f ec7b 4e3f b5d3 e93e 69be 633f
00000230: f647 b23e a6fa 6f3f 82f0 863e f5f2 763f
00000240: f86f 4b3e a5e5 7a3f d300 193e 4f20 7d3f
00000250: 86d9 e53d f361 7e3f af85 ac3d 0e17 7f3f
00000260: c870 813d f97c 7f3f aa30 423d 4eb6 7f3f
00000270: 5ca5 113d 8ed6 7f3f 5075 da3c b1e8 7f3f
00000280: 3ed4 a33c e5f2 7f3f 51b7 753c a1f8 7f3f
00000290: 9b43 383c dbfb 7f3f 0a2e 0a3c abfd 7f3f
000002a0: d83d cf3b b1fe 7f3f e768 9b3b 43ff 7f3f
000002b0: 0815 693b 96ff 7f3f 80c9 2e3b c4ff 7f3f
000002c0: 6812 033b dfff 7f3f 8594 c43a edff 7f3f
000002d0: 126a 933a f5ff 7f3f 1f17 5d3a faff 7f3f
000002e0: 60cb 253a fdff 7f3f 0ca8 f839 feff 7f3f
000002f0: 5377 ba39 ffff 7f3f 6dd4 8b39 0000 803f
00000300: c381 103e 2670 7dbf de3c 473f cebf 20bf
00000310: d745 7e3f ab7f edbd 6321 743f 6318 9a3e
00000320: c209 503f 582f 153f b724 273f a2e7 413f
00000330: 6c2f 023f 296d 5c3f a768 c73e 37c9 6b3f
00000340: 6c4e 973e ef90 743f e26d 643e 928c 793f
00000350: d7ee 2b3e 9e5d 7c3f 2c33 013e 43f4 7d3f
00000360: c0ff c13d 4fd9 7e3f 0693 913d 3a5a 7f3f
00000370: 4e69 5a3d c3a2 7f3f c5d1 233d 90cb 7f3f
00000380: 1fb9 f53c 83e2 7f3f 4747 b83c 6bef 7f3f
00000390: c631 8a3c adf6 7f3f 4644 4f3c c1fa 7f3f
000003a0: 0d6e 1b3c 0dfd 7f3f 131d e93b 58fe 7f3f
000003b0: a8cf ae3b 11ff 7f3f 1317 833b 7aff 7f3f
000003c0: 929b 443b b5ff 7f3f 606f 133b d6ff 7f3f
000003d0: 171f dd3a e8ff 7f3f 56d1 a53a f3ff 7f3f
000003e0: 10b1 783a f9ff 7f3f 097e 3a3a fcff 7f3f
000003f0: 7ed9 0b3a feff 7f3f a4be d139 ffff 7f3f
0.0 1.0 0.0 1.0 0.0 1.0 0.0 1.0
0.0 1.0 0.0 1.0 0.0 1.0 0.0 1.0
0.0 1.0 0.0 1.0 0.0 1.0 0.0 1.0
0.0 1.0 0.0 1.0 0.0 1.0 0.0 1.0
0.0 1.0 0.0 1.0 0.0 1.0 0.0 1.0
0.0 1.0 0.0 1.0 0.0 1.0 0.0 1.0
0.0 1.0 0.0 1.0 0.0 1.0 0.0 1.0
0.0 1.0 0.0 1.0 0.0 1.0 0.0 1.0
0.84147096 0.54030234 0.68156135 0.731761 0.53316844 0.8460091 0.4093089 0.9123959
0.3109836 0.9504153 0.23492105 0.9720145 0.17689219 0.9842302 0.13295726 0.99112177
0.099833414 0.9950042 0.07491915 0.9971896 0.05620449 0.9984193 0.042157155 0.999111
0.031617504 0.99950004 0.023711512 0.99971884 0.017781857 0.99984187 0.013334819 0.99991107
0.009999833 0.99995 0.0074988706 0.99997187 0.0056233825 0.9999842 0.0042169513 0.9999911
0.0031622713 0.999995 0.0023713715 0.9999972 0.0017782785 0.99999845 0.0013335211 0.9999991
0.0009999998 0.9999995 0.000749894 0.9999997 0.0005623411 0.9999998 0.00042169637 0.99999994
0.00031622782 0.99999994 0.00023713727 1.0 0.00017782794 1.0 0.00013335208 1.0
0.9092974 -0.41614684 0.99748 0.070948265 0.9021307 0.43146282 0.7469035 0.6649324
0.5911271 0.8065784 0.45669332 0.8896242 0.34820527 0.93741834 0.26355368 0.96464473
0.19866931 0.9800666 0.1494172 0.98877424 0.1122313 0.9936821 0.084239356 0.99644554
0.063203394 0.9980007 0.04740969 0.9988755 0.03555809 0.9993676 0.026667267 0.99964434
0.019998666 0.9998 0.014997319 0.9998875 0.011246587 0.99993676 0.008433828 0.9999644
0.006324511 0.99998003 0.00474273 0.99998873 0.0035565514 0.9999937 0.0026670396 0.9999964
0.0019999985 0.99999803 0.0014997876 0.99999887 0.0011246821 0.99999934 0.0008433926 0.99999964
0.0006324556 0.9999998 0.0004742745 0.9999999 0.00035565588 0.99999994 0.00026670416 1.0
0.14112 -0.9899925 0.7782725 -0.6279267 0.9932532 -0.11596616 0.95363444 0.3009673
0.8126489 0.58275366 0.652904 0.7574407 0.5085361 0.86104065 0.3894703 0.92103904
0.2955202 0.9553365 0.22307542 0.9748012 0.16790329 0.9858035 0.12617177 0.9920084
0.094726086 0.99550337 0.071081206 0.9974705 0.053323083 0.9985773 0.039994974 0.99919987
0.0299955 0.99955004 0.022494925 0.999747 0.016869437 0.9998577 0.012650555 0.99991995
0.009486687 0.999955 0.0071140616 0.9999747 0.005334813 0.99998575 0.0040005534 0.999992
0.0029999954 0.9999955 0.0022496805 0.9999975 0.0016870227 0.99999857 0.0012650888 0.9999992
0.00094868336 0.9999996 0.00071141176 0.99999976 0.0005334838 0.9999999 0.00040005625 0.99999994

transformer.layers.0.self_attn.in_proj_weight f4 [192, 64]
00000000: 033e 85bc 8da8 02bd 08b1 10bd 4246 08bd
00000010: 5325 f6bc 5581 95bd 6bd4 893c 5ca1 bebd
00000020: e788 333d 45a3 c1bd 8bdb 6e3d ec9c 83bd
00000030: 0d51 7c3d 0b55 4b3c 219d 743d 7d18 543c
00000040: 42ee 5e3c dd13 6b3d fe1a 163c 64c4 023d
00000050: ecc9 9f3d c050 0d3d b48c e23d c975 793d
00000060: 50ff 883d c5eb 193d 4013 0e3e 5cbe 033d
00000070: b538 cd3d 88f4 813d 5b17 ec3d 7476 203d
00000080: 12f4 5c3d d6ca 1d3d 8722 4f3d 4024 213d
00000090: 8c27 abbc 0299 a63c cec4 763d 8870 c23c
000000a0: cba5 ce3c 6321 243d 1d75 fcbc 8e91 1a3d
000000b0: 29c6 a9bd 8a24 783d 7f86 8fbd 2665 1a3d
000000c0: d46b d7bc 74cb 223d e278 0f3d dae8 903c
000000d0: b009 9d3d 611a 1c3d 9264 6bbd f9a3 1d3d
000000e0: 07e7 ecbc 2e14 213d f825 883d 66ea 203d
000000f0: 5378 14bd 352e 7b3d 4146 5fbd 826a f83c
00000100: fe3d 85bc 8fa8 02bd 0ab1 10bd 4446 08bd
00000110: 5825 f6bc 5781 95bd 6cd4 893c 59a1 bebd
00000120: eb88 333d 45a3 c1bd 8cdb 6e3d ed9c 83bd
00000130: 0b51 7c3d 0155 4b3c 229d 743d 7e18 543c
00000140: 41ee 5e3c dd13 6b3d 051b 163c 62c4 023d
00000150: eac9 9f3d c550 0d3d b68c e23d c975 793d
00000160: 52ff 883d caeb 193d 3f13 0e3e 5ebe 033d
00000170: b838 cd3d 86f4 813d 5a17 ec3d 7676 203d
00000180: 15f4 5c3d d5ca 1d3d 8222 4f3d 4324 213d
00000190: 8927 abbc 0a99 a63c d3c4 763d 8b70 c23c
000001a0: cda5 ce3c 6321 243d 1c75 fcbc 9091 1a3d
000001b0: 28c6 a9bd 8a24 783d 8286 8fbd 2965 1a3d
000001c0: d36b d7bc 71cb 223d e878 0f3d dbe8 903c
000001d0: ac09 9d3d 5f1a 1c3d 9664 6bbd f8a3 1d3d
000001e0: 06e7 ecbc 2b14 213d fe25 883d 67ea 203d
000001f0: 5678 14bd 352e 7b3d 3d46 5fbd 846a f83c
00000200: 033e 85bc 8da8 02bd 0bb1 10bd 4446 08bd
00000210: 5325 f6bc 5481 95bd 6cd4 893c 59a1 bebd
00000220: e988 333d 44a3 c1bd 8adb 6e3d ec9c 83bd
00000230: 0d51 7c3d 0455 4b3c 239d 743d 7b18 543c
00000240: 46ee 5e3c dd13 6b3d 021b 163c 60c4 023d
00000250: eac9 9f3d c150 0d3d b58c e23d c775 793d
00000260: 51ff 883d c9eb 193d 3f13 0e3e 5cbe 033d
00000270: b238 cd3d 86f4 813d 5c17 ec3d 7576 203d
00000280: 0ef4 5c3d d4ca 1d3d 8322 4f3d 4024 213d
00000290: 8d27 abbc 0199 a63c cfc4 763d 8d70 c23c
000002a0: c9a5 ce3c 6021 243d 2075 fcbc 9091 1a3d
000002b0: 28c6 a9bd 8724 783d 8186 8fbd 2665 1a3d
000002c0: d46b d7bc 75cb 223d e878 0f3d d8e8 903c
000002d0: b009 9d3d 621a 1c3d 9664 6bbd f6a3 1d3d
000002e0: fee6 ecbc 2b14 213d f725 883d 65ea 203d
000002f0: 5478 14bd 332e 7b3d 3c46 5fbd 826a f83c
00000300: fe3d 853c 90a8 023d 07b1 103d 4746 083d
00000310: 5025 f63c 5781 953d 6bd4 89bc 58a1 be3d
00000320: e888 33bd 40a3 c13d 8adb 6ebd ea9c 833d
00000330: 0b51 7cbd 0955 4bbc 279d 74bd 8718 54bc
00000340: 3aee 5ebc df13 6bbd 011b 16bc 61c4 02bd
00000350: eac9 9fbd c650 0dbd b68c e2bd c975 79bd
00000360: 52ff 88bd c9eb 19bd 4013 0ebe 5ebe 03bd
00000370: b738 cdbd 85f4 81bd 6017 ecbd 7776 20bd
00000380: 10f4 5cbd d4ca 1dbd 7f22 4fbd 3f24 21bd
00000390: 9027 ab3c 0799 a6bc d0c4 76bd 8a70 c2bc
000003a0: c5a5 cebc 6221 24bd 2175 fc3c 9091 1abd
000003b0: 2bc6 a93d 8824 78bd 7f86 8f3d 2a65 1abd
000003c0: d66b d73c 74cb 22bd ec78 0fbd dae8 90bc
000003d0: ac09 9dbd 601a 1cbd 9664 6b3d f8a3 1dbd
000003e0: ffe6 ec3c 2b14 21bd fa25 88bd 65ea 20bd
000003f0: 5478 143d 332e 7bbd 3e46 5f3d 806a f8bc
-0.016264921 -0.031899024 -0.03532508 -0.033270128 -0.030047094 -0.07300059 0.016824922 -0.093081206
0.043831732 -0.09454969 0.05831484 -0.06426415 0.061600734 0.012410413 0.059720162 0.012945292
0.01360661 0.05739199 0.009161709 0.031925574 0.078021854 0.034500837 0.11061993 0.060903344
0.06689322 0.037578363 0.13874531 0.032163963 0.10020582 0.06345469 0.11527892 0.039175466
0.0539437 0.038523518 0.050570037 0.03934121 -0.02089288 0.020336632 0.06024628 0.0237353
0.02522554 0.040070903 -0.030817563 0.037736468 -0.08289749 0.06058172 -0.07008075 0.03769412
-0.026296534 0.03974481 0.035027392 0.017689157 0.07667863 0.038111094 -0.05746896 0.038486455
-0.028918756 0.039325885 0.06647867 0.03928604 -0.036247563 0.061323363 -0.05451036 0.030324224
-0.016264912 -0.03189903 -0.035325088 -0.033270136 -0.030047104 -0.0730006 0.016824923 -0.093081184
0.043831747 -0.09454969 0.058314845 -0.064264156 0.061600726 0.012410403 0.059720166 0.0129452925
0.013606609 0.05739199 0.009161715 0.031925566 0.07802184 0.034500856 0.11061995 0.060903344
0.066893235 0.03757838 0.1387453 0.03216397 0.10020584 0.06345467 0.115278915 0.039175473
0.053943712 0.038523514 0.05057002 0.039341222 -0.020892875 0.020336647 0.0602463 0.023735305
0.025225544 0.040070903 -0.03081756 0.037736475 -0.082897484 0.06058172 -0.07008077 0.03769413
-0.026296532 0.039744798 0.035027415 0.01768916 0.076678604 0.038111087 -0.057468973 0.03848645
-0.028918754 0.039325874 0.066478714 0.039286043 -0.036247574 0.061323363 -0.054510344 0.030324228
-0.016264921 -0.031899024 -0.03532509 -0.033270136 -0.030047094 -0.07300058 0.016824923 -0.093081184
0.04383174 -0.094549686 0.058314838 -0.06426415 0.061600734 0.012410406 0.05972017 0.01294529
0.0136066135 0.05739199 0.009161713 0.03192556 0.07802184 0.03450084 0.11061994 0.060903337
0.06689323 0.037578378 0.1387453 0.032163963 0.100205794 0.06345467 0.11527893 0.03917547
0.053943686 0.03852351 0.050570022 0.03934121 -0.020892883 0.02033663 0.060246285 0.023735309
0.025225537 0.04007089 -0.030817568 0.037736475 -0.082897484 0.06058171 -0.070080765 0.03769412
-0.026296534 0.039744813 0.035027415 0.017689154 0.07667863 0.038111098 -0.057468973 0.038486443
-0.02891874 0.039325874 0.06647866 0.039286036 -0.036247566 0.061323356 -0.05451034 0.030324224
0.016264912 0.031899035 0.035325076 0.033270147 0.030047089 0.0730006 -0.016824922 0.09308118
-0.043831736 0.094549656 -0.058314838 0.06426413 -0.061600726 -0.012410411 -0.059720185 -0.012945301
-0.013606602 -0.057391997 -0.009161712 -0.031925563 -0.07802184 -0.03450086 -0.11061995 -0.060903344
-0.066893235 -0.037578378 -0.13874531 -0.03216397 -0.10020583 -0.063454665 -0.11527896 -0.039175477
-0.053943694 -0.03852351 -0.050570007 -0.039341208 0.020892888 -0.020336641 -0.06024629 -0.023735303
-0.02522553 -0.0400709 0.03081757 -0.037736475 0.08289751 -0.060581714 0.07008075 -0.037694134
0.026296537 -0.03974481 -0.03502743 -0.017689157 -0.076678604 -0.03811109 0.057468973 -0.03848645
0.028918741 -0.039325874 -0.066478685 -0.039286036 0.036247566 -0.061323356 0.054510348 -0.03032422

transformer.layers.0.self_attn.in_proj_bias f4 [192]
00000000: b0ab 563d b3ab 563d b0ab 563d b2ab 56bd
00000010: b2ab 56bd b5ab 56bd b4ab 56bd b2ab 563d
00000020: 1111 0b3e fe58 edbc 1021 033e 60f5 f6bd
00000030: 78cf ffbd 0ef5 023e 561d 453e f7c0 99bd
00000040: dc09 7dbd cafd 1dbd c6a7 1dbd 8469 20bd
00000050: 3144 1abe ee6b a7bd c493 a9bd 4f57 a33d
00000060: a3b3 d83d e8ac cb3d ba20 cfbd e8aa b93d
00000070: cc48 b9bd c928 ba3d 9641 d5bd 2814 d13d
00000080: 14a4 31bc 4df2 cebd c153 b0bd aaa4 d0bd
00000090: 9433 d23d d9b9 acbd e506 ccbd 4d93 653e
000000a0: f1bd 253e 85bd 25be 96bf 253e e9bd 253e
000000b0: 56be 25be 3cbe 25be debd 253e 76be 253e
000000c0: 8866 26be c6e2 af3d 2828 b1bd 7b17 923d
000000d0: 96c9 b0bd 6de8 b0bd 4bf9 2b3e 65e2 adbd
000000e0: be39 503d 6476 b13d 124b b4bd bea2 093d
000000f0: c2c9 1b3d 289c b1bd cf81 093d da0f b03d
00000100: 8d64 e039 a671 e039 ea1c e139 36bd deb9
00000110: 455d e0b9 13ae e1b9 16f9 dfb9 5deb e039
00000120: 15e2 e13b 3472 b53a 9187 da3b 82ec d2bb
00000130: fa40 d5bb 2c3e d93b c516 103c c819 04bb
00000140: 3166 1ebc 897c 4ebb 6053 47bb d820 53bb
00000150: a343 84bc 2079 34bc c616 38bc b516 313c
00000160: ff2f 823c 9fae 373b 9b05 45bb cf4e 6d3c
00000170: 6f85 6bbc 0795 6d3c ed79 57bb 393d 433b
00000180: cfb0 c93b 03cc 57bb 7b1f 68bc 4113 5fbb
00000190: fe8d 643b 6516 63bc 0d19 7cbc a123 943c
000001a0: b927 9d3a 4beb 9bba 81dd 9b3a 08ab 9a3a
000001b0: 5b69 9aba 4287 9cba 3271 9c3a 5acd 9b3a
000001c0: 7026 0fbc 7285 533c 4c64 54bc a350 f939
000001d0: b75a 54bc d8b0 55bc f310 173c 975d e0ba
000001e0: df6d 663b 7c70 113c d1a1 13bc 87d1 de3a
000001f0: b924 0d3b 68b7 12bc 8e4d e13a 0e2d 103c
00000200: ea85 67bb ab9a db3b 4555 74bb 38d1 633c
00000210: bb27 6c3c 8e3c 86bc 7afc 293c ece5 82bc
00000220: 7e77 05bb 6277 05bb 701a b73b 6f77 05bb
00000230: 7b77 053b 05ba 22bc 926a 7dbb c590 b9bb
00000240: 49f8 c8ba d8ab c9ba 6ad4 5b3a a9d7 c2ba
00000250: 25eb d2ba 11eb d23a 07eb d2ba faea d2ba
00000260: f56d 573b 60d6 66ba 5ad6 663a 5a5d 57bb
00000270: 5cd6 663a 58d6 66ba 3e58 57bb 464c 813b
00000280: ddf5 84ba 85d1 95ba a5a4 3cbb 9bd1 953a
00000290: 9c5a 3b3b ecba 3bbb 7dd1 953a 7bd1 95ba
000002a0: f649 1b3b 4f5e 44bc 6083 903c 0f8c b33b
000002b0: 2fa7 50bc eb3c 543c 77b6 98bb 08d0 563c
000002c0: 19b7 643b dbfa 57bb a09d 9bba a69d 9bba
000002d0: b59d 9b3a 9f9d 9bba a086 7abb e1e5 9a3b
000002e0: 4c9d 0e3a 4e9f 7bbc 477d 15bb 9627 56bb
000002f0: 0adf 54bb 6e9d 0e3a 7690 40bb 649d 0eba
0.052409828 0.05240984 0.052409828 -0.052409835 -0.052409835 -0.052409846 -0.052409843 0.052409835
0.13580729 -0.028973099 0.12805581 -0.1205852 -0.124907434 0.12788793 0.19249472 -0.07507508
-0.06177698 -0.03857211 -0.03849008 -0.039163128 -0.15065075 -0.08174883 -0.08280137 0.07975637
0.10581138 0.099450886 -0.10113664 0.09065801 -0.09047088 0.090898104 -0.104129 0.102089226
-0.010842342 -0.10104809 -0.08609725 -0.10187657 0.10263744 -0.08433885 -0.099622525 0.22419472
0.16185738 -0.16185577 0.16186365 0.16185726 -0.16185889 -0.1618585 0.1618571 0.16185936
-0.1625005 0.085881755 -0.08650237 0.07133385 -0.086321995 -0.08638082 0.16794316 -0.08490447
0.050836317 0.08665159 -0.08803381 0.03360247 0.038034208 -0.086723626 0.03357106 0.085967734
0.00042799526 0.00042809284 0.00042936887 -0.00042484113 -0.000427941 -0.0004304504 -0.00042719458 0.0004289997
0.006893406 0.0013843239 0.006668993 -0.0064368853 -0.00650799 0.006629726 0.008794491 -0.0020156968
-0.009667919 -0.0031507334 -0.0030414686 -0.0032215621 -0.016145533 -0.011015207 -0.011235898 0.010808636
0.015892027 0.0028027666 -0.0030063156 0.014484121 -0.014375075 0.014500863 -0.003287907 0.002979113
0.0061551104 -0.0032927997 -0.014167662 -0.0034038576 0.0034874673 -0.01386032 -0.015386832 0.018083395
0.0011989988 -0.0011895684 0.0011891575 0.0011800239 -0.0011780666 -0.0011942165 0.001193559 0.0011886761
-0.008737192 0.012910234 -0.012963366 0.0004755306 -0.012961081 -0.013042651 0.00922035 -0.0017117736
0.0035160703 0.008876916 -0.009010748 0.00169997 0.002153678 -0.00895486 0.0017189251 0.008799804
-0.0035327622 0.0067017875 -0.003728227 0.013904862 0.014413769 -0.016386297 0.0103751365 -0.015978776
-0.0020365412 -0.0020365347 0.0055878684 -0.0020365377 0.0020365405 -0.009932046 -0.0038668257 -0.00566301
-0.0015332784 -0.0015386296 0.0008385839 -0.0014865297 -0.0016091807 0.0016091784 -0.0016091772 -0.0016091757
0.0032871936 -0.0008805748 0.00088057446 -0.0032862038 0.0008805746 -0.00088057434 -0.0032858993 0.00394586
-0.0010144074 -0.001143024 -0.002878466 0.0011430265 0.0028587943 -0.002864535 0.001143023 -0.0011430228
0.0023695207 -0.011985376 0.01764077 0.005479343 -0.012735172 0.012953977 -0.0046604234 0.013111122
0.0034899174 -0.0032955918 -0.0011872537 -0.0011872544 0.0011872562 -0.0011872536 -0.0038227215 0.0047271107
0.0005440309 -0.015357805 -0.0022810267 -0.0032677404 -0.0032481574 0.0005440329 -0.002938298 -0.0005440323

transformer.layers.0.self_attn.out_proj.weight f4 [64, 64]
00000000: 9ffa 5ebd 58f1 973d d1b1 63bd 640a d53d
00000010: 6f2c da39 0a78 2abb 028f adbb bf99 0ebb
00000020: 7509 dabb 3409 dabb 5128 6d3d 2e09 dabb
00000030: 2309 da3b 533b 183d bf74 3c3d 981f 63bd
00000040: e160 68bd 68d0 67bd a9db 863d 8e1a 6dbd
00000050: 3edd debc 45dd de3c 45dd debc 49dd debc
00000060: d0cc 853d d1f5 cdbc d3f5 cd3c f5d3 85bd
00000070: d3f5 cd3c cdf5 cdbc d9d5 85bd f4df 483d
00000080: 245c 88bd d276 c0bc 0ac2 74bd d276 c03c
00000090: c6fe 763d b257 76bd d576 c03c c976 c0bc
000000a0: fad7 013e 6ca6 b23c 0de6 fcbb eb2a 113d
000000b0: 4c3f a93c d5b4 a2bc 4ede 42bd 2a2e a6bc
000000c0: bbb2 7e3d d9a9 80bd 34fd 80bc 31fd 80bc
000000d0: 2efd 803c 39fd 80bc de7b 6fbd aad7 0d3d
000000e0: 5e8b ea3c 783d 063d f4ae 54bd 453a cfbc
000000f0: 489f d4bc 538b ea3c 5933 23bd 558b eabc
00000100: 6e85 81bb a515 c03c 67e4 a2bb 1563 543d
00000110: 63e2 e53c e862 ecbc adc3 d33c 2f23 ebbc
00000120: 506c f0bb ce6b f0bb 804c 463d a86b f0bb
00000130: d86b f03b ef90 8dbc 17d5 15bc 7815 47bd
00000140: 1d71 bbbd fc9a bbbd 0485 a13d 81fa b9bd
00000150: 7650 1cbd 7550 1c3d 7550 1cbd 7550 1cbd
00000160: daaf 753d 64db cebc 66db ce3c 1894 75bd
00000170: 69db ce3c 66db cebc 2f8c 75bd ad36 993d
00000180: 9321 09bd 6955 c5bc 3948 a0bd 6955 c53c
00000190: 006c 9f3d 92ac 9fbd 6655 c53c 6d55 c5bc
000001a0: ffb6 0d3d 50cd c3bc 091e df3c d7ea 123d
000001b0: ffcf c7bc 0327 c93c 89b1 19bd 704e c93c
000001c0: e6cd 373d 06fb 24bd 0b0f 9fbc 1c0f 9fbc
000001d0: 1e0f 9f3c 0f0f 9fbc ade1 59bd 8a05 903d
000001e0: 29ce 0f3d 277e 7abc 7327 8dbd 4c98 a7bd
000001f0: 477b a7bd 2bce 0f3d 7a95 a4bd 2dce 0fbd
00000200: 8772 9ebd ddf8 bb3d a97b a0bd 2bfa c03d
00000210: 541a 67bc f7d2 373c e8ff b0bc a209 413c
00000220: 8dd4 d1b8 9fbe d1b8 3bb2 9d3d 6bbc d1b8
00000230: cab4 d138 08d2 663d f044 8c3d c126 98bd
00000240: af31 5dbd cd62 5cbd a863 903d c312 64bd
00000250: ed03 95bc f603 953c f603 95bc f803 95bc
00000260: 2972 813d 5ec3 5ebc 5ec3 5e3c de7c 81bd
00000270: 52c3 5e3c 59c3 5ebc e87f 81bd 9e8b 393d
00000280: 7622 8fbd 3c9f 87bc 2da6 41bd 3a9f 873c
00000290: f023 443d 396a 43bd 3d9f 873c 389f 87bc
000002a0: 5720 df3d df2f ce3c ca42 1bbc 06af 2b3d
000002b0: b7f7 c33c 5063 bcbc f079 54bd 302a c0bc
000002c0: c57a 8c3d acf3 90bd 6775 82bb 4275 82bb
000002d0: 4b75 823b 5e75 82bb be81 7ebd 0881 0f3d
000002e0: ddfe 3e3c 4e45 3c3d d5b7 90bd 043b 10bd
000002f0: d494 13bd c2fe 3e3c b5f8 58bd cefe 3ebc
00000300: 257d 27bd ed84 8e3d a7c8 2fbd 8ac2 9d3d
00000310: 4c33 ff3c 7a07 06bd 527d da3c 4dcd 04bd
00000320: 595c 29bb 8e5b 29bb 49e4 4d3d 7f5b 29bb
00000330: d05b 293b eeec 32bc 071f 0d3b b04c 4dbd
00000340: 0e95 a0bd f1a8 a0bd 0988 923d 92df 9fbd
00000350: 309c d0bc 2c9c d03c 349c d0bc 309c d0bc
00000360: 5212 813d d8b2 b4bc d8b2 b43c 1e06 81bd
00000370: d8b2 b43c d7b2 b4bc 6502 81bd 5af2 9b3d
00000380: c13a 17bd 6f3e b5bc b765 a1bd 6b3e b53c
00000390: cba1 a03d 25db a0bd 6d3e b53c 743e b5bc
000003a0: e19f a63d 610e 69bc c1f4 ab3c b53f f03c
000003b0: d416 78bc 12ef 7d3c 6eba 09bd ea78 7c3c
000003c0: fe3b 483d 4a82 37bd ea39 42bc f439 42bc
000003d0: f539 423c f339 42bc 7869 65bd b154 8f3d
000003e0: a85d e73c aaa8 60bc 579f 70bd b895 87bd
000003f0: 447f 87bd b05d e73c 9a62 86bd ac5d e7bc
-0.05443823 0.074190795 -0.0555895 0.104023725 0.00041613306 -0.002601149 -0.005296589 -0.002175912
-0.0066539594 -0.006653929 0.057899777 -0.0066539263 0.006653921 0.03716595 0.046009775 -0.055450052
-0.056733016 -0.056595236 0.065848656 -0.057886653 -0.027205106 0.027205119 -0.027205119 -0.027205126
0.065332055 -0.025141628 0.025141632 -0.06534568 0.025141632 -0.025141621 -0.06534929 0.049041703
-0.066581994 -0.023494158 -0.059755363 0.023494158 0.060301565 -0.060142227 0.023494164 -0.023494141
0.12680045 0.021807872 -0.007717854 0.03544132 0.020660065 -0.019861618 -0.047575288 -0.020285685
0.06218217 -0.06282396 -0.015745737 -0.015745731 0.015745725 -0.015745746 -0.05846774 0.0346295
0.028630909 0.032773465 -0.05192466 -0.02529634 -0.025954857 0.028630888 -0.03984389 -0.028630892
-0.0039526736 0.02344782 -0.0049710753 0.051852304 0.028062051 -0.028855756 0.025850141 -0.0287033
-0.0073371306 -0.00733707 0.0484128 -0.0073370524 0.0073370747 -0.017281024 -0.009145043 -0.04860446
-0.09152434 -0.0916042 0.07886699 -0.09080983 -0.03816267 0.038162667 -0.038162667 -0.038162667
0.05998216 -0.025251098 0.025251102 -0.059955686 0.025251107 -0.025251102 -0.059948143 0.07481132
-0.033479284 -0.024088578 -0.078262754 0.024088578 0.07784271 -0.07796587 0.024088573 -0.024088586
0.034598347 -0.023901612 0.027236002 0.035868492 -0.024391172 0.024554735 -0.037522826 0.024573535
0.044874094 -0.040278457 -0.019416353 -0.019416384 0.019416388 -0.01941636 -0.053193737 0.070323065
0.03510872 -0.015288866 -0.0689229 -0.08183345 -0.0817781 0.035108726 -0.08036323 -0.035108734
-0.07736688 0.09178326 -0.07836086 0.09422716 -0.014105398 0.0112197315 -0.0216064 0.011782082
-0.00010005487 -0.000100014026 0.077000104 -0.00010000992 9.999571e-05 0.056352645 0.06849086 -0.07429267
-0.05400246 -0.05380516 0.07050258 -0.055681955 -0.018190349 0.018190365 -0.018190365 -0.018190369
0.063206024 -0.013596384 0.013596384 -0.06322645 0.013596373 -0.013596379 -0.06323224 0.045299165
-0.06988995 -0.016555421 -0.04727762 0.016555417 0.047885835 -0.047708724 0.016555423 -0.016555414
0.1089484 0.025169311 -0.009476373 0.041914962 0.02392183 -0.022996575 -0.0518741 -0.023457617
0.06859354 -0.07077727 -0.0039812806 -0.0039812634 0.0039812676 -0.0039812764 -0.06213545 0.035035163
0.011657444 0.04596453 -0.07066313 -0.03521253 -0.036030605 0.011657419 -0.05297156 -0.01165743
-0.04089083 0.06958947 -0.042915966 0.07703121 0.03115239 -0.032721974 0.026671086 -0.032422353
-0.0025842397 -0.0025841924 0.050266538 -0.002584189 0.0025842078 -0.010920746 0.0021533386 -0.050121963
-0.0784093 -0.07844723 0.07154853 -0.078063145 -0.025465101 0.025465094 -0.025465108 -0.025465101
0.063023224 -0.022057936 0.022057936 -0.06299995 0.022057936 -0.022057934 -0.06299285 0.07614584
-0.036921266 -0.022124497 -0.07880729 0.02212449 0.078433596 -0.078542985 0.022124493 -0.022124507
0.08135963 -0.01422462 0.020990731 0.029327253 -0.015142161 0.015498893 -0.03362506 0.0154096875
0.048885338 -0.044801988 -0.011854628 -0.011854637 0.011854638 -0.0118546365 -0.056008786 0.069985755
0.028242901 -0.013712088 -0.05874571 -0.066203535 -0.06616071 0.028242916 -0.065617755 -0.028242908

transformer.layers.0.self_attn.out_proj.bias f4 [64]
00000000: 8238 dbbc 4866 f93c cbc8 08bd 204b fd3c
00000010: 8bb8 f4bc d88f de3c 29bc f3bc cff6 563c
00000020: 99ce 38bd 1b1d 333b 760a cdbc 4445 76bc
00000030: e513 10bd ea94 cbbc 5b1e edbb 749b dcbc
00000040: 8dec 82bc 89c3 6dbd b6e1 d23a 4fb0 0ebd
00000050: d6f1 e73a 8c37 1ebd bfb8 33b9 53ae 82bd
00000060: 58ec 5dbc 89b7 1cbd 9c4b 423b daee 83bd
00000070: b16e 1d3b 5812 5cbd 2ae9 0eba 280d 30bd
00000080: 400c 4dbc c167 28bd 5502 19b6 85e6 1bbd
00000090: 27ec 993b 327c 7fbd fc3b 38ba 1e23 7cbd
000000a0: 31ae 203c 6a79 25bd 6409 46ba 778e 21bd
000000b0: 4c6b 6ebb 16a9 65bd 8d01 7c3b 2bad 11bd
000000c0: ecd4 ba3a 1ac3 91bd 237d ffb9 d6eb 78bd
000000d0: e624 19ba 9613 29bd 597c c23a 7a91 12bd
000000e0: e25b b53a c7a4 94bd ff51 513b 489d 90bd
000000f0: 8eac 863a 3f25 71bd a794 a63b d868 89bd
-0.026760343 0.03044428 -0.033394616 0.030919611 -0.029873153 0.0271682 -0.029752808 0.013120367
-0.045118902 0.002733058 -0.025029402 -0.015031163 -0.035175223 -0.024851281 -0.0072362847 -0.026929595
-0.015981937 -0.058047805 0.0016088996 -0.03483611 0.0017695974 -0.038627192 -0.00017139594 -0.06380906
-0.013545118 -0.03826097 0.0029647117 -0.06442042 0.0024022276 -0.05372843 -0.0005451614 -0.042981297
-0.012515128 -0.041114572 -2.2800134e-06 -0.038061637 0.004697341 -0.0623743 -0.00070279813 -0.061556928
0.0098071555 -0.040398993 -0.00075545 -0.039442506 -0.0036379872 -0.056069456 0.0038453073 -0.035565536
0.001425413 -0.07117291 -0.00048730624 -0.060771786 -0.0005841985 -0.041278444 0.0014838084 -0.03578327
0.0013836587 -0.07257991 0.0031939743 -0.07061249 0.0010274814 -0.05887341 0.0050836387 -0.067094505

transformer.layers.0.multihead_attn.in_proj_weight f4 [192, 64]
00000000: 0aa6 8a3e fba1 923e 0cb5 843e c231 8e3e
00000010: d4a4 9c3e 6147 973e 230e a03e d686 9c3e
00000020: f4c9 963e a845 9a3e 2829 73bd 06f3 933e
00000030: 0f67 9d3e 09cd 9f3e 6b5f 8fbe 41c8 9b3e
00000040: 349e 593e 65ac 963e 03fa 9a3d 5882 9a3e
00000050: ee12 bcbd 7c47 983e b6e7 3c3e 8092 923e
00000060: eeb1 8e3e 9b11 9a3e 2e1d 663e ba3d 9a3e
00000070: 07cf fdbb 7701 9a3e 78b6 5c3e 473e 8e3e
00000080: d34d 933e 9fa6 953e 8fa8 263e 1767 9a3e
00000090: 38d9 2c3e c978 973e 198e 333d e527 923e
000000a0: 3c24 603c b9d0 983e 580a 8a3e 6c97 993e
000000b0: cb7b 833e cf31 9a3e 03fc 7d3e 2609 9b3e
000000c0: e0a8 383e bd2b 9b3e fe92 323e 7751 9a3e
000000d0: e5d1 8b3e e9eb 933e b6e9 833e 6ae2 9a3e
000000e0: acdf 3f3e b609 9a3e 90b6 7d3e 50ea 9a3e
000000f0: 3709 8a3e 9112 993e 540a 8c3e e152 983e
00000100: 0aa6 8a3e fca1 923e 0cb5 843e c231 8e3e
00000110: d4a4 9c3e 6047 973e 250e a03e d686 9c3e
00000120: f4c9 963e a845 9a3e 2e29 73bd 03f3 933e
00000130: 0f67 9d3e 08cd 9f3e 6a5f 8fbe 3fc8 9b3e
00000140: 359e 593e 64ac 963e 04fa 9a3d 5882 9a3e
00000150: f012 bcbd 7947 983e b6e7 3c3e 8092 923e
00000160: ecb1 8e3e 9a11 9a3e 2e1d 663e ba3d 9a3e
00000170: 0fcf fdbb 7601 9a3e 78b6 5c3e 463e 8e3e
00000180: d34d 933e 9ea6 953e 8da8 263e 1567 9a3e
00000190: 37d9 2c3e c778 973e 148e 333d e527 923e
000001a0: 3b24 603c b8d0 983e 580a 8a3e 6a97 993e
000001b0: cc7b 833e cf31 9a3e 00fc 7d3e 2709 9b3e
000001c0: e1a8 383e bf2b 9b3e f992 323e 7651 9a3e
000001d0: e4d1 8b3e e8eb 933e b6e9 833e 6be2 9a3e
000001e0: b0df 3f3e b609 9a3e 90b6 7d3e 50ea 9a3e
000001f0: 3209 8a3e 9012 993e 550a 8c3e e152 983e
00000200: 0aa6 8a3e fba1 923e 0cb5 843e bf31 8e3e
00000210: d6a4 9c3e 5f47 973e 250e a03e d686 9c3e
00000220: f2c9 963e a845 9a3e 2b29 73bd 06f3 933e
00000230: 0f67 9d3e 08cd 9f3e 6c5f 8fbe 41c8 9b3e
00000240: 359e 593e 65ac 963e 06fa 9a3d 5882 9a3e
00000250: ee12 bcbd 7b47 983e b3e7 3c3e 7f92 923e
00000260: ecb1 8e3e 9a11 9a3e 2d1d 663e ba3d 9a3e
00000270: 17cf fdbb 7601 9a3e 77b6 5c3e 463e 8e3e
00000280: d44d 933e 9ca6 953e 92a8 263e 1767 9a3e
00000290: 39d9 2c3e c978 973e 168e 333d e527 923e
000002a0: 3424 603c b7d0 983e 580a 8a3e 6b97 993e
000002b0: ca7b 833e cf31 9a3e 02fc 7d3e 2509 9b3e
000002c0: e0a8 383e bf2b 9b3e fb92 323e 7551 9a3e
000002d0: e7d1 8b3e eaeb 933e b8e9 833e 6be2 9a3e
000002e0: b1df 3f3e b609 9a3e 8eb6 7d3e 50ea 9a3e
000002f0: 3509 8a3e 9012 993e 530a 8c3e e152 983e
00000300: 0aa6 8abe fca1 92be 0cb5 84be c131 8ebe
00000310: d5a4 9cbe 6047 97be 240e a0be d686 9cbe
00000320: f2c9 96be a645 9abe 2c29 733d 05f3 93be
00000330: 1067 9dbe 0acd 9fbe 6c5f 8f3e 40c8 9bbe
00000340: 349e 59be 65ac 96be 03fa 9abd 5a82 9abe
00000350: ef12 bc3d 7c47 98be b6e7 3cbe 7f92 92be
00000360: ecb1 8ebe 9a11 9abe 2d1d 66be ba3d 9abe
00000370: 0dcf fd3b 7701 9abe 75b6 5cbe 473e 8ebe
00000380: d34d 93be 9ea6 95be 93a8 26be 1767 9abe
00000390: 39d9 2cbe c878 97be 158e 33bd e527 92be
000003a0: 4124 60bc b6d0 98be 580a 8abe 6b97 99be
000003b0: cc7b 83be d031 9abe 01fc 7dbe 2609 9bbe
000003c0: dfa8 38be be2b 9bbe fc92 32be 7751 9abe
000003d0: e6d1 8bbe e9eb 93be b8e9 83be 6ce2 9abe
000003e0: b3df 3fbe b509 9abe 90b6 7dbe 4fea 9abe
000003f0: 3009 8abe 9012 99be 540a 8cbe e352 98be
0.27079803 0.28639206 0.25919378 0.27772337 0.30594504 0.29546645 0.31260785 0.30571622
0.29450953 0.30131269 -0.05936542 0.2889635 0.3074269 0.31211117 -0.28002486 0.3042622
0.21251756 0.29428402 0.07567217 0.3017757 -0.09183298 0.29742038 0.18447766 0.28627396
0.27870125 0.30091557 0.22472069 0.3012522 -0.007745627 0.30079243 0.21553981 0.2778189
0.28770313 0.29228684 0.16275238 0.30156776 0.16879737 0.2958434 0.043836687 0.28546062
0.013680514 0.29846743 0.26961017 0.29998338 0.25680384 0.30116126 0.24803166 0.30280417
0.1803317 0.30306807 0.17438886 0.30140278 0.27308574 0.28890923 0.25764245 0.30250865
0.18737668 0.30085534 0.24776673 0.3025689 0.26960155 0.29896978 0.2735163 0.29750732
0.27079803 0.2863921 0.25919378 0.27772337 0.30594504 0.29546642 0.3126079 0.30571622
0.29450953 0.30131269 -0.059365444 0.2889634 0.3074269 0.31211114 -0.28002483 0.30426213
0.21251757 0.294284 0.07567218 0.3017757 -0.091832995 0.2974203 0.18447766 0.28627396
0.2787012 0.30091554 0.22472069 0.3012522 -0.0077456306 0.3007924 0.21553981 0.27781886
0.28770313 0.2922868 0.16275235 0.3015677 0.16879736 0.29584333 0.043836668 0.28546062
0.013680513 0.2984674 0.26961017 0.29998332 0.25680387 0.30116126 0.24803162 0.3028042
0.18033172 0.30306813 0.17438878 0.30140275 0.2730857 0.2889092 0.25764245 0.30250868
0.18737674 0.30085534 0.24776673 0.3025689 0.2696014 0.29896975 0.27351633 0.29750732
0.27079803 0.28639206 0.25919378 0.27772328 0.3059451 0.2954664 0.3126079 0.30571622
0.29450947 0.30131269 -0.059365433 0.2889635 0.3074269 0.31211114 -0.2800249 0.3042622
0.21251757 0.29428402 0.075672194 0.3017757 -0.09183298 0.29742035 0.18447761 0.28627393
0.2787012 0.30091554 0.22472067 0.3012522 -0.0077456343 0.3007924 0.2155398 0.27781886
0.28770316 0.29228675 0.16275242 0.30156776 0.16879739 0.2958434 0.043836676 0.28546062
0.0136805065 0.29846737 0.26961017 0.29998335 0.2568038 0.30116126 0.24803165 0.30280414
0.1803317 0.30306813 0.17438881 0.30140272 0.2730858 0.28890926 0.2576425 0.30250868
0.18737675 0.30085534 0.2477667 0.3025689 0.2696015 0.29896975 0.27351627 0.29750732
-0.27079803 -0.2863921 -0.25919378 -0.27772334 -0.30594507 -0.29546642 -0.31260788 -0.30571622
-0.29450947 -0.30131263 0.059365436 -0.28896347 -0.30742693 -0.3121112 0.2800249 -0.30426216
-0.21251756 -0.29428402 -0.07567217 -0.30177575 0.09183299 -0.29742038 -0.18447766 -0.28627393
-0.2787012 -0.30091554 -0.22472067 -0.3012522 0.0077456296 -0.30079243 -0.21553977 -0.2778189
-0.28770313 -0.2922868 -0.16275243 -0.30156776 -0.16879739 -0.29584336 -0.04383667 -0.28546062
-0.013680519 -0.29846734 -0.26961017 -0.29998335 -0.25680387 -0.3011613 -0.24803163 -0.30280417
-0.18033169 -0.3030681 -0.17438883 -0.30140278 -0.27308577 -0.28890923 -0.2576425 -0.3025087
-0.18737678 -0.3008553 -0.24776673 -0.30256888 -0.26960135 -0.29896975 -0.2735163 -0.29750738

transformer.layers.0.multihead_attn.in_proj_bias f4 [192]
00000000: 0d26 9bbe 0e26 9bbe 0e26 9bbe 0d26 9b3e
00000010: 0e26 9b3e 0d26 9b3e 0d26 9b3e 0d26 9bbe
00000020: 5fff 10bd 60ff 10bd 63ff 10bd 5eff 103d
00000030: 5cff 10bd 60ff 10bd 60ff 103d 5eff 103d
00000040: 4dd6 f73c 33d6 f73c 4ed6 f7bc 36d6 f73c
00000050: 52d6 f7bc 49d6 f7bc 42d6 f7bc 49d6 f7bc
00000060: 2c3c 103e 2c3c 103e 2c3c 10be 2b3c 103e
00000070: 2c3c 10be 2c3c 103e 2d3c 103e 2c3c 103e
00000080: e1fb f0bc d9fb f03c e1fb f03c d9fb f03c
00000090: dcfb f03c d6fb f0bc d9fb f0bc dcfb f03c
000000a0: 91ff f7bc 8dff f73c 98ff f73c 91ff f7bc
000000b0: 8fff f73c 97ff f7bc 92ff f7bc 9aff f73c
000000c0: 2cc7 93be 2cc7 933e 2dc7 933e 2fc7 933e
000000d0: 2dc7 93be 2dc7 933e 2cc7 93be 2dc7 933e
000000e0: d63f 3dbd d63f 3d3d d43f 3d3d d43f 3d3d
000000f0: d83f 3d3d d63f 3dbd d73f 3d3d d43f 3dbd
00000100: 212d bdb9 75a8 b7b9 7a81 b9b9 31d7 b339
00000110: cb9b b839 ea10 b539 2349 b939 9f3e aeb9
00000120: db43 c9b7 c3f6 cab7 2cd0 cdb7 6ddc cd37
00000130: e889 ceb7 dfc0 c9b7 f701 cb37 e83f cf37
00000140: 5ac7 b337 85d9 ae37 c5ea b6b7 cc12 b237
00000150: 2faf b0b7 9739 b2b7 7334 b3b7 2248 b3b7
00000160: ca6e e6b7 0d05 f2b7 4602 f037 cd32 e7b7
00000170: 4ee2 ea37 4615 e5b7 6c7a eeb7 cb1a 03b8
00000180: 64c0 a1b7 3a58 a537 f066 a737 4ead a737
00000190: c031 a837 d50b a9b7 6d8f a7b7 2aab a737
000001a0: e0ef 9fb7 2581 a037 9955 9f37 f64d 9fb7
000001b0: 7bee a137 31b4 a1b7 89b0 a0b7 e3ca 9b37
000001c0: e000 0aba f04d 093a e559 093a 402f 093a
000001d0: 0dda 08ba e0f3 073a 9955 05ba 2c99 093a
000001e0: e582 2637 0fef 24b7 7949 25b7 c5a3 25b7
000001f0: 3eab 25b7 77e7 2437 7f87 25b7 54b5 2537
00000200: 6314 913a e16b 7e3b d44d e4ba 17b4 833a
00000210: d850 8aba e52b 953a 9be0 0c3a eb80 2abb
00000220: 6e7b 8cba 6360 8dba 94d6 063a 826b 1abb
00000230: 8acf dbb9 1831 eeb9 8b86 12ba f9ef 4139
00000240: fcb7 a2b9 7eee 163a afd0 14ba 8ad7 083b
00000250: 35df d139 d8be e039 c1f4 683a a45b ab39
00000260: 1a43 27ba bb3c 693a 2044 223b ed4a 90ba
00000270: 4902 98b9 683c b23a 5c01 1db9 e6d5 2539
00000280: cc34 1aba 5dbf 403a 6f2a a6b9 f969 05ba
00000290: 392c 84b9 453b edba bcf7 a639 423f 993a
000002a0: e02f 023b 429b d2b9 e292 283a 54cf 4239
000002b0: 5750 0039 0680 3ab9 e336 df35 86f9 5c3a
000002c0: 248b 2d3a 3dad 2ab9 7ab5 93b9 1ee6 acb9
000002d0: f708 ac39 f079 8f3b 2bcf 0ebb 15f1 3a3a
000002e0: db1e ec38 0e24 0dba efd8 66b9 2051 393a
000002f0: 26a6 46ba 53cc 5539 2a8f 3cba 14e1 403a
-0.30302468 -0.3030247 -0.3030247 0.30302468 0.3030247 0.30302468 0.30302468 -0.30302468
-0.03539979 -0.035399795 -0.035399806 0.035399787 -0.03539978 -0.035399795 0.035399795 0.035399787
0.030253554 0.030253505 -0.030253556 0.03025351 -0.030253563 -0.030253546 -0.030253533 -0.030253546
0.14085454 0.14085454 -0.14085454 0.14085452 -0.14085454 0.14085454 0.14085455 0.14085454
-0.02941698 0.029416965 0.02941698 0.029416965 0.02941697 -0.02941696 -0.029416965 0.02941697
-0.03027323 0.030273223 0.030273244 -0.03027323 0.030273227 -0.030273242 -0.030273233 0.030273248
-0.28862894 0.28862894 0.28862897 0.28862903 -0.28862897 0.28862897 -0.28862894 0.28862897
-0.046203457 0.046203457 0.04620345 0.04620345 0.046203464 -0.046203457 0.04620346 -0.04620345
-0.00036082513 -0.0003502999 -0.00035382417 0.0003430187 0.0003521129 0.00034535612 0.0003534044 -0.00033234523
-2.3992665e-05 -2.4195184e-05 -2.4534842e-05 2.4540548e-05 -2.4621331e-05 -2.405088e-05 2.42004e-05 2.4706082e-05
2.1431293e-05 2.0843707e-05 -2.1805414e-05 2.1228007e-05 -2.1062411e-05 -2.124607e-05 -2.1362886e-05 -2.1372052e-05
-2.7469727e-05 -2.8851e-05 2.8611288e-05 -2.7561002e-05 2.8000355e-05 -2.7308834e-05 -2.8428818e-05 -3.1257787e-05
-1.9282284e-05 1.9710616e-05 1.9955885e-05 1.9988653e-05 2.0050327e-05 -2.015188e-05 -1.997474e-05 1.9987656e-05
-1.9065978e-05 1.9133624e-05 1.8994137e-05 -1.899058e-05 1.9303747e-05 -1.9276604e-05 -1.9155692e-05 1.8571916e-05
-0.00052644126 0.0005237749 0.00052395306 0.0005233176 -0.00052204804 0.00051861815 -0.00050863024 0.00052489596
9.924847e-06 -9.830822e-06 -9.851873e-06 -9.872897e-06 -9.874637e-06 9.829054e-06 -9.866314e-06 9.876985e-06
0.0011068698 0.0038821625 -0.0017418214 0.0010048178 -0.0010552658 0.001138088 0.0005374045 -0.0026016783
-0.0010717937 -0.0010786172 0.0005143669 -0.0023562615 -0.00041925564 -0.00045431475 -0.00055895065 0.00018495311
-0.00031036127 0.0005757584 -0.0005676848 0.0020880424 0.0004002989 0.000428668 0.0008886569 0.0003268394
-0.00063805433 0.0008897294 0.0024759844 -0.0011008658 -0.00028993402 0.0013598325 -0.00014973193 0.0001581531
-0.0005882501 0.0007352734 -0.00031693603 -0.00050893385 -0.0002520995 -0.0018099329 0.00031846564 0.0011691826
0.0019864962 -0.00040169997 0.00064305787 0.00018578517 0.0001223696 -0.00017786035 1.6630769e-06 0.0008429516
0.000662016 -0.00016277 -0.00028173235 -0.00032977847 0.00032813076 0.0043785498 -0.0021790962 0.0007131261
0.00011259104 -0.0005384096 -0.00022015323 0.00070692785 -0.00075778586 0.0002038938 -0.0007192964 0.0007357758

transformer.layers.0.multihead_attn.out_proj.weight f4 [64, 64]
00000000: 0fe4 cc3c dcaf 96bc 787a 5739 8243 bf3b
00000010: 7f69 d3bb 22a9 2abc bb87 f13a cd85 23bc
00000020: ecea cd3b 9fe2 d73a a3dd 7a3b ff95 ce3c
00000030: d210 e43b a956 f83b 693a 193b 9cac ebb9
00000040: 7e0d 1639 7344 7eb9 ff71 ac3b aef7 bbbc
00000050: a58f bdba a2cf f83a b889 7ebb d2cc 8e3b
00000060: 2eb1 103b 3d2c 63bb 8cb1 81bc 1f28 ad3a
00000070: 1f88 02bb d8d1 c6bb 9dd4 c1b9 df8f 283a
00000080: 5820 823b d947 c8bb e0e0 a43b ce47 473b
00000090: 1996 7d3b e3ac cc3c b4d4 9b3b 4914 a7bb
000000a0: 44fe b0bc 734b d039 c263 473a 9325 2abb
000000b0: d34b 98bb 7d9b 873a 4daf 913a a49b fcbb
000000c0: 85b5 833b 3f7c 2ebb bc4c f939 108e 09bc
000000d0: 54e8 9b3c e84b 1ebb 5677 b13c b94e 8fbb
000000e0: be8b fcba a571 ad3a f132 8cba d33e 24bb
000000f0: ace5 683b 57d6 093b af45 293b 5035 74bb
00000100: 4bfa 663c 49ef 523c 0650 86ba d3c8 36bb
00000110: d1c0 f0bb 7aa0 e03a f80f 46ba 34e6 16ba
00000120: 2c0f 01ba e23a aa3a b170 8f3a be75 41bc
00000130: 8707 c3bb 1b65 9539 ef8d 953a fde7 9a3a
00000140: b302 d1ba bb8e 523b 03b2 f1ba 3bc1 423c
00000150: 3580 06ba 49c4 19ba d0f5 6e3b 8534 5a3b
00000160: ff05 21bb 36e6 9dbb edc2 983b 5481 d439
00000170: f9cb dabc 09cf 8c3b c1f2 f538 6190 eeba
00000180: 3c8b 52ba 2cbd 563b e625 aebb 29cd af3a
00000190: 5130 4fbb 8b93 52bc 0639 72bb e40b 92bb
000001a0: 93a7 283c e143 893a 6869 0d3b ff53 5a3a
000001b0: 28ac 3fbb ef8d 2fbb 86ff 25bb dc76 c9b9
000001c0: 2d7a e1ba 2764 77bb 3bd1 b3ba dd99 afbc
000001d0: ab42 873b 7ebb 193c 3ff8 293c d28b c839
000001e0: c139 983b 3e1b e23a a1d9 1c3b c773 6bba
000001f0: 04b2 9bba c9ca 2e3b d72c 5fbb be8c 603b
00000200: 7fb3 223c 4930 5bbc 3477 02bb c31d 433b
00000210: b0a8 b0bb b6b7 2b3a 9275 a03a 2a29 853c
00000220: cac9 b0bb f760 b2bb 1527 f1bb a87c 063c
00000230: f038 82bb a585 9fbb ffaa 85bb 59af 813b
00000240: b8d9 bcbb 381b daba 97f2 233a ab54 05bb
00000250: 64ae 8b3a 6bbc f7bb fe85 053c a93a 96bb
00000260: 9a2a 8b3a 60d4 0abb e1ae bbbb 56e2 9fbb
00000270: a852 5b3c 408e 8e3b ce6e 3fbb ff58 a23a
00000280: 4fab 3cba 1f20 6f3b a8b9 163a 0df2 923a
00000290: 0d80 9e3a b29e a23b bb37 823b 0434 663b
000002a0: d433 19bc 0142 5abb a735 1b3b 1259 1fba
000002b0: 773b 803b 24ef 02bb 658e ddbb 4cb5 853b
000002c0: 3c7a 133c d2ea 89bb 5463 e23b d64d 523c
000002d0: 418d b6bc 8fe8 69bb e1f4 01bc 2a2c 2e3b
000002e0: 0ac8 fdbb 53aa 75ba 170a a0b9 8175 a5bb
000002f0: e1c4 e83b 6b76 5e3a 541e c5bb 0b64 5ebb
00000300: e107 4f3c 8bf0 273c b64f a1bb 4756 30bb
00000310: 5428 0fbc 2cbc b8bb 7414 8a3b 47d6 2d3b
00000320: 3422 923b 9c4b 11bb 9ad5 3abb 79e1 55bb
00000330: 2a7a 183b 85d0 f1b9 0a59 1dbb b9d2 45bb
00000340: c0c0 613a 30f9 93ba 2c7b 0139 1ea6 263b
00000350: 092f cf3a afaa a33b f47c 74bb c8ce 99ba
00000360: 6baa a4bb 380d 603b 8377 5e3c 9fe8 83bb
00000370: d25e 413c 233a 093a fc5c 533b 1c3d 323b
00000380: f97b 4438 8984 b43a b94e 5b3b f4b2 15bb
00000390: 1b8b 1938 5222 40bb 61ec 1c3b e375 ff3a
000003a0: 306c 3f3b de7a e13a 4468 2fbb 7d6b 8f3b
000003b0: 1d5b ceb9 e16c 6f3b ede6 833a 852e fb3a
000003c0: 1be8 fa3b e27f 3fb9 1e11 9138 8542 dd3b
000003d0: 149a 523c 7ccf 73bb 151e 70ba 6bfa 4c3b
000003e0: 7076 94ba 5d9c edba a420 dd3a 08e1 bf39
000003f0: 8ef4 4aba ed1f a3b9 fca4 503b 9e38 803a
0.02501109 -0.018394403 0.00020549621 0.005836905 -0.006451785 -0.010416301 0.0018427292 -0.009980631
0.0062841084 0.0016470737 0.0038279078 0.025218008 0.006960013 0.00757869 0.0023380762 -0.00044951297
0.00014310141 -0.00024248827 0.005262613 -0.022945251 -0.0014462365 0.0018982778 -0.003883941 0.0043579126
0.0022078264 -0.003466382 -0.015831731 0.001321081 -0.001991756 -0.006067496 -0.00036970238 0.000643013
0.003971141 -0.0061120805 0.00503169 0.003040779 0.0038694202 0.024984783 0.004755581 -0.0050988537
-0.021605618 0.00039729066 0.00076061126 -0.0025962337 -0.004647711 0.0010346022 0.0011114866 -0.0077089835
0.0040194415 -0.002662435 0.00047550153 -0.008395687 0.019031681 -0.002415413 0.02166335 -0.004373398
-0.0019267721 0.0013232721 -0.0010696334 -0.002506186 0.0035537286 0.0021032298 0.0025828888 -0.0037263222
0.01409776 0.012874433 -0.0010247238 -0.0027890697 -0.0073472043 0.001713767 -0.000755548 -0.0005756349
-0.000492322 0.0012987519 0.0010943619 -0.011807857 -0.005951825 0.00028494824 0.0011410097 0.0011818405
-0.0015946239 0.003212853 -0.0018439892 0.01188689 -0.00051307987 -0.00058657356 0.0036462434 0.0033295464
-0.0024570224 -0.004818703 0.004661909 0.00040532148 -0.02670859 0.0042971415 0.00011727727 -0.0018200987
-0.0008031612 0.0032766564 -0.0053145764 0.0013412583 -0.0031614492 -0.01285256 -0.0036960258 -0.004456984
0.010293859 0.00104725 0.002157772 0.00083285564 -0.00292469 -0.002678748 -0.0025329306 -0.00038426265
-0.0017202549 -0.0037748904 -0.0013718972 -0.021435672 0.0041278205 0.0093830805 0.010374128 0.00038251147
0.0046455567 0.001725055 0.0023933428 -0.0008981791 -0.0011878614 0.0026671162 -0.0034053826 0.0034263576
0.0099304905 -0.013378211 -0.0019907476 0.0029772378 -0.005391203 0.00065505074 0.001224207 0.01625498
-0.005395149 -0.005443688 -0.0073593953 0.008208431 -0.0039740726 -0.0048682266 -0.004079222 0.0039576706
-0.005763259 -0.0016640192 0.0006254105 -0.0020344655 0.0010656831 -0.007560303 0.008149622 -0.0045846296
0.0010617555 -0.0021183714 -0.0057276343 -0.0048792763 0.013386406 0.0043504536 -0.0029210332 0.0012386142
-0.0007197158 0.0036487652 0.0005749711 0.0011211053 0.0012092605 0.0049627656 0.0039739287 0.0035126219
-0.009350736 -0.0033303502 0.0023683102 -0.0006078641 0.0039133388 -0.0019978965 -0.0067613595 0.00408045
0.009001311 -0.004208901 0.0069088135 0.01283594 -0.022284152 -0.0035691594 -0.007931919 0.0026576617
-0.007744794 -0.00093713886 -0.00030525096 -0.005049408 0.007103548 0.00084862736 -0.0060155783 -0.0033934142
0.012636156 0.010250221 -0.0049228324 -0.0026906894 -0.008737642 -0.005637666 0.004213864 0.0026525424
0.0044596437 -0.002217031 -0.0028508664 -0.0032635613 0.0023266175 -0.0004612246 -0.002400937 -0.0030185415
0.0008611791 -0.0011289474 0.00012348284 0.0025428603 0.0015806864 0.0049947123 -0.0037305923 -0.0011734599
-0.005025198 0.0034187566 0.0135782985 -0.0040255333 0.011802392 0.00052347983 0.0032251468 0.0027197069
4.68455e-05 0.0013772409 0.003346367 -0.002284226 3.6607595e-05 -0.0029317332 0.0023944604 0.0019490089
0.0029208772 0.0017202755 -0.0026765028 0.0043768273 -0.00039359267 0.0036533403 0.0010063328 0.0019163644
0.0076570637 -0.0001826282 6.917327e-05 0.0067523145 0.012854118 -0.0037202528 -0.0009159756 0.003127719
-0.0011326801 -0.0018128265 0.001687069 0.0003659802 -0.000774213 -0.0003111357 0.003183662 0.0009782498
