decisionmaking/trained_models/env=claude_dim2_model=transformer_num_episodes1000000_num_hidden=8_lr0.0003_num_layers=2_d_model=64_num_head=8_noise0.0_shuffleTrue_pairedTrue_lossnll_ess8.0_std0.1_run=1_essinit0.001_annealed_schedulefree.pt (torch, 929266 bytes, 121 tensors)

embedding.weight f4 [64, 3]
-0.00023966614 -0.011322067 -0.12259953 -0.006538339 -0.001435999 -0.1615913 -0.032728214 0.015100058
-0.14821608 0.0141303595 0.0037633802 0.21431169 0.024646679 -0.0094292415 -0.12977211 0.0023571895
0.05342396 -0.016218986 -0.028661363 -0.019112319 0.19029851 -0.0060066786 -0.0103097195 -0.12967178
0.02713062 -0.004974098 -0.12672141 0.009584165 -0.026579624 0.20458044 -0.022912396 0.038074873
-0.08318952 -0.0012874153 0.005622987 -0.19306466 -0.13865013 -0.02163068 -0.020601377 -0.0017682281
0.0016152925 0.19702798 -0.015137632 -0.02108638 -0.17704384 -0.009420172 -0.0016918946 -0.19187294
-0.055171084 -0.016728083 -0.17077404 0.008692156 -0.0030264263 -0.19892791 -0.0071935277 -0.10137655
-0.04030967 -0.023743415 -0.020236762 0.17443539 0.13525367 0.026896074 -0.020416226 -0.02763844
0.013078255 -0.21524236 0.11307378 0.053334795 -0.0002247626 -0.011602837 -0.0044557136 0.20690313
0.016905306 -0.00636353 -0.07590542 0.026329722 -0.014466299 -0.19214748 -0.0076087117 -0.0069386694
0.18169756 0.0131739825 0.0042336807 -0.18430239 0.081102066 0.025933856 -0.00025728496 0.01568117
0.031790096 -0.19076091 -0.002667513 0.004352743 -0.12222236 0.003725815 -0.0064507714 -0.22024918
0.0038118674 -0.0041686776 0.08678928 -0.022144618 0.027309239 -0.22814858 -0.014253693 0.1043712
-0.00020792538 -0.019208463 -0.026028229 -0.22831896 -0.06194074 -0.02739834 -0.00090320286 -0.0003390728
0.0023858373 -0.18909046 0.002843823 0.0018439483 -0.09853588 -0.035544414 0.0056291553 -0.22446945
0.08233353 0.032522656 -0.009714102 0.010496153 -0.024831995 -0.14774017 0.012847261 -0.11622234
0.00679554 -0.020526951 0.0129153235 -0.21364428 0.046065763 0.08196856 0.0017393638 0.009421644
-6.469617e-05 -0.19378242 0.11915896 0.040277965 0.0036039285 0.011049804 -0.02012827 -0.19907837
-0.0007209483 -0.0017518015 0.15062225 0.012440879 -0.021262499 -0.24533664 0.020547241 -0.10924756
0.0029336088 -0.006868659 0.008434397 -0.24203028 0.10338089 0.05047827 0.00097378914 -0.004846922
-0.000546671 -0.24657649 0.009838735 0.12682147 0.002912638 -0.0017534299 -0.005779977 0.20689575
0.0042018993 0.0010137327 -0.15462354 0.013866512 0.0018185488 -0.1948461 -0.0056638806 0.007168912
0.13345431 -0.010432397 -0.007394433 -0.18719085 -0.119118564 -0.030285852 -0.003064804 0.008211155
-0.0038624632 -0.20198895 0.0027963372 0.005733297 0.15246692 -0.028201476 0.0053748204 -0.23514621
00000000: e44e 7bb9 3180 39bc 7615 fbbd 903f d6bb
00000010: 2138 bcba 3178 25be 050e 06bd 3c66 773c
00000020: f5c5 17be 0683 673c 0ba3 763b 8674 5b3e
00000030: d5e7 c93c 1b7d 1abc fbe2 04be 147b 1a3b
00000040: 15d3 5a3d aedd 84bc 3ccb eabc 7091 9cbc
00000050: 9ddd 423e acd3 c4bb 19ea 28bc aec8 04be
00000060: 0941 de3c c2fd a2bb 42c3 01be e706 1d3c
00000070: 83bd d9bc 897d 513e c7b2 bbbc 66f4 1b3d
00000080: 445f aabd 7dbe a8ba 0941 b83b beb2 45be
00000090: 4dfa 0dbe d332 b1bc 38c4 a8bc e4c3 e7ba
000000a0: 39b8 d33a b4c1 493e d503 78bc 58bd acbc
000000b0: fb4a 35be 1157 1abc 90c2 ddba 577a 44be
000000c0: 13fb 61bd 5509 89bc 64df 2ebe 8b69 0e3c
000000d0: 0257 46bb c2b3 4bbe afb7 ebbb 829e cfbd
000000e0: c11b 25bd 8d81 c2bc 91c7 a5bc 319f 323e
000000f0: f07f 0a3e 2855 dc3c ee3f a7bc 026a e2bc
00000100: 2d46 563c 7e68 5cbe 3a93 e73d 9675 5a3d
00000110: 40ae 6bb9 d319 3ebc 3c01 92bb 6ade 533e
00000120: ff7c 8a3c 2985 d0bb 4d74 9bbd 6eb1 d73c
00000130: 0e04 6dbc 4fc2 44be 8052 f9bb c75d e3bb
00000140: ed0e 3a3e b0d7 573c b0ba 8a3b c4b9 3cbe
00000150: d718 a63d 3d73 d43c 34e4 86b9 cc75 803c
00000160: 5536 023d d456 43be 71d1 2ebb 74a1 8e3b
00000170: b74f fabd ce2c 743b fe60 d3bb 0089 61be
00000180: 86d0 793b 6799 88bb 94be b13d a168 b5bc
00000190: a0b7 df3c c89f 69be 5288 69bc 91c0 d53d
000001a0: 8b06 5ab9 115b 9dbc 2739 d5bc 72cc 69be
000001b0: 93b5 7dbd 7c72 e0bc ebc4 6cba 95c5 b1b9
000001c0: b55b 1c3b eea0 41be 6f5f 3a3b a3b0 f13a
000001d0: 2ecd c9bd 0597 11bd c774 b83b 52db 65be
000001e0: 7b9e a83d 7a36 053d e627 1fbc 0ef8 2b3c
000001f0: 786c cbbc 3349 17be 517d 523c fa05 eebd
00000200: 1fad de3b 2328 a8bc cb9a 533c 91c5 5abe
00000210: 74af 3c3d 22df a73d 5dfb e33a 3d5d 1a3c
00000220: 7ead 87b8 e66e 46be 9d09 f43d 82fa 243d
00000230: e32f 6c3b 3d0a 353c 0be4 a4bc 33db 4bbe
00000240: 05fe 3cba b49c e5ba b83c 1a3e d4d4 4b3c
00000250: b12e aebc 8739 7bbe b052 a83c 2fbd dfbd
00000260: ca41 403b 7d12 e1bb 6d30 0a3c c9d6 77be
00000270: 5cb9 d33d 4dc2 4e3d e245 7f3a eed2 9ebb
00000280: 784e 0fba 8c7e 7cbe a532 213c 7ddd 013e
00000290: f5e1 3e3b 58d3 e5ba f665 bdbb 7bdc 533e
000002a0: 16b0 893b 3adf 843a a255 1ebe 5e30 633c
000002b0: 5f5c ee3a bc85 47be 1398 b9bb 31e9 ea3b
000002c0: 3fa8 083e a5ec 2abc 004d f2bb f5ae 3fbe
000002d0: 6ff4 f3bd 091a f8bc e1da 48bb 1588 063c
000002e0: 6121 7dbb 31d6 4ebe c142 373b 62de bb3b
000002f0: 4a20 1c3e c806 e7bc 431f b03b 2bca 70be

embedding.bias f4 [64]
-0.006951161 -0.03626976 -0.009177682 -0.03521266 -0.011209264 -0.04070026 -0.0022884985 -0.043510035
0.003274542 -0.03580108 -0.007456599 -0.044130716 -0.0014315022 -0.035393417 -0.008709413 -0.03151629
-0.0019333595 -0.043119874 -0.00015314907 -0.04147497 0.0012798181 -0.06743526 -0.005402711 -0.07731741
0.0007648498 -0.0668882 -0.004479783 -0.09125131 -0.0049809213 -0.07949686 -0.0027573667 -0.09536469
-0.0011220186 -0.08904264 -0.0014442012 -0.08804459 0.006517495 -0.07363989 -0.00035668362 -0.049864523
-0.0015156858 -0.053709783 0.0009732656 -0.07801347 0.0003197354 -0.05977361 -0.0006888853 -0.06916375
-0.005132497 -0.08012535 0.0007222036 -0.09817049 0.0017430433 -0.10685184 0.00052350544 -0.06512932
0.0040676743 -0.06732218 0.0008910211 -0.10507365 0.001948538 -0.0764813 -0.0018482235 -0.08162762
00000000: 91c6 e3bb 9a8f 14bd fd5d 16bc 263b 10bd
00000010: 10a7 37bc 51b5 26bd a2fa 15bb 9437 32bd
00000020: b399 563b 27a4 12bd 7c56 f4bb 69c2 34bd
00000030: 3ea1 bbba b0f8 10bd edb1 0ebc 3a17 01bd
00000040: c868 fdba 779e 30bd a496 20b9 a8e1 29bd
00000050: 92bf a73a 7f1b 8abd 3a09 b1bb 9758 9ebd
00000060: 3480 483a aefc 88bd 25cb 92bb f8e1 babd
00000070: ff36 a3bb 40cf a2bd f0b4 34bb 904e c3bd
00000080: b210 93ba fd5b b6bd 5a4b bdba b950 b4bd
00000090: b690 d53b 83d0 96bd 4401 bbb9 be3e 4cbd
000000a0: faa9 c6ba cafe 5bbd c022 7f3a 87c5 9fbd
000000b0: 29a2 a739 2cd5 74bd 4f96 34ba b9a5 8dbd
000000c0: 812e a8bb c218 a4bd 4352 3d3a 9c0d c9bd
000000d0: d476 e43a 23d5 dabd db3b 093a 8562 85bd
000000e0: 204a 853b 36e0 89bd 6a93 693a db30 d7bd
000000f0: 1666 ff3a 3aa2 9cbd 1740 f2ba 622c a7bd

pos_encoder.pe f4 [1, 10, 64]
0.0 1.0 0.0 1.0 0.0 1.0 0.0 1.0
0.0 1.0 0.0 1.0 0.0 1.0 0.0 1.0
0.0 1.0 0.0 1.0 0.0 1.0 0.0 1.0
0.0 1.0 0.0 1.0 0.0 1.0 0.0 1.0
0.0 1.0 0.0 1.0 0.0 1.0 0.0 1.0
0.0 1.0 0.0 1.0 0.0 1.0 0.0 1.0
0.0 1.0 0.0 1.0 0.0 1.0 0.0 1.0
0.0 1.0 0.0 1.0 0.0 1.0 0.0 1.0
0.84147096 0.54030234 0.68156135 0.731761 0.53316844 0.8460091 0.4093089 0.9123959
0.3109836 0.9504153 0.23492105 0.9720145 0.17689219 0.9842302 0.13295726 0.99112177
0.099833414 0.9950042 0.07491915 0.9971896 0.05620449 0.9984193 0.042157155 0.999111
0.031617504 0.99950004 0.023711512 0.99971884 0.017781857 0.99984187 0.013334819 0.99991107
0.009999833 0.99995 0.0074988706 0.99997187 0.0056233825 0.9999842 0.0042169513 0.9999911
0.0031622713 0.999995 0.0023713715 0.9999972 0.0017782785 0.99999845 0.0013335211 0.9999991
0.0009999998 0.9999995 0.000749894 0.9999997 0.0005623411 0.9999998 0.00042169637 0.99999994
0.00031622782 0.99999994 0.00023713727 1.0 0.00017782794 1.0 0.00013335208 1.0
0.9092974 -0.41614684 0.99748 0.070948265 0.9021307 0.43146282 0.7469035 0.6649324
0.5911271 0.8065784 0.45669332 0.8896242 0.34820527 0.93741834 0.26355368 0.96464473
0.19866931 0.9800666 0.1494172 0.98877424 0.1122313 0.9936821 0.084239356 0.99644554
0.063203394 0.9980007 0.04740969 0.9988755 0.03555809 0.9993676 0.026667267 0.99964434
0.019998666 0.9998 0.014997319 0.9998875 0.011246587 0.99993676 0.008433828 0.9999644
0.006324511 0.99998003 0.00474273 0.99998873 0.0035565514 0.9999937 0.0026670396 0.9999964
0.0019999985 0.99999803 0.0014997876 0.99999887 0.0011246821 0.99999934 0.0008433926 0.99999964
0.0006324556 0.9999998 0.0004742745 0.9999999 0.00035565588 0.99999994 0.00026670416 1.0
0.14112 -0.9899925 0.7782725 -0.6279267 0.9932532 -0.11596616 0.95363444 0.3009673
0.8126489 0.58275366 0.652904 0.7574407 0.5085361 0.86104065 0.3894703 0.92103904
0.2955202 0.9553365 0.22307542 0.9748012 0.16790329 0.9858035 0.12617177 0.9920084
0.094726086 0.99550337 0.071081206 0.9974705 0.053323083 0.9985773 0.039994974 0.99919987
0.0299955 0.99955004 0.022494925 0.999747 0.016869437 0.9998577 0.012650555 0.99991995
0.009486687 0.999955 0.0071140616 0.9999747 0.005334813 0.99998575 0.0040005534 0.999992
0.0029999954 0.9999955 0.0022496805 0.9999975 0.0016870227 0.99999857 0.0012650888 0.9999992
0.00094868336 0.9999996 0.00071141176 0.99999976 0.0005334838 0.9999999 0.00040005625 0.99999994
00000000: 0000 0000 0000 803f 0000 0000 0000 803f
00000010: 0000 0000 0000 803f 0000 0000 0000 803f
00000020: 0000 0000 0000 803f 0000 0000 0000 803f
00000030: 0000 0000 0000 803f 0000 0000 0000 803f
00000040: 0000 0000 0000 803f 0000 0000 0000 803f
00000050: 0000 0000 0000 803f 0000 0000 0000 803f
00000060: 0000 0000 0000 803f 0000 0000 0000 803f
00000070: 0000 0000 0000 803f 0000 0000 0000 803f
00000080: 0000 0000 0000 803f 0000 0000 0000 803f
00000090: 0000 0000 0000 803f 0000 0000 0000 803f
000000a0: 0000 0000 0000 803f 0000 0000 0000 803f
000000b0: 0000 0000 0000 803f 0000 0000 0000 803f
000000c0: 0000 0000 0000 803f 0000 0000 0000 803f
000000d0: 0000 0000 0000 803f 0000 0000 0000 803f
000000e0: 0000 0000 0000 803f 0000 0000 0000 803f
000000f0: 0000 0000 0000 803f 0000 0000 0000 803f
00000100: a46a 573f 4151 0a3f ce7a 2e3f b054 3b3f
00000110: ba7d 083f 0d94 583f f090 d13e c792 693f
00000120: 3e39 9f3e 6b4e 733f 258f 703e f1d5 783f
00000130: 3a23 353e 83f6 7b3f f325 083e 28ba 7d3f
00000140: 7675 cc3d 98b8 7e3f 366f 993d d147 7f3f
00000150: ae36 663d 6898 7f3f fbac 2c3d bdc5 7f3f
00000160: 5b81 013d 3cdf 7f3f a53e c23c 93ed 7f3f
00000170: 42ab 913c a3f5 7f3f 497a 5a3c 2cfa 7f3f
00000180: 57d6 233c b9fc 7f3f 16b9 f53b 28fe 7f3f
00000190: 5a44 b83b f7fe 7f3f 5a2e 8a3b 6bff 7f3f
000001a0: 1c3e 4f3b acff 7f3f 0369 1b3b d1ff 7f3f
000001b0: 2015 e93a e6ff 7f3f 8bc9 ae3a f1ff 7f3f
000001c0: 6d12 833a f8ff 7f3f 8994 443a fbff 7f3f
000001d0: 136a 133a fdff 7f3f 2117 dd39 ffff 7f3f
000001e0: 61cb a539 ffff 7f3f 0da8 7839 0000 803f
000001f0: 5377 3a39 0000 803f 6dd4 0b39 0000 803f
00000200: b7c7 683f 3311 d5be d95a 7f3f 534d 913d
00000210: 0af2 663f b2e8 dc3e 1135 3f3f 0339 2a3f
00000220: 1b54 173f ec7b 4e3f b5d3 e93e 69be 633f
00000230: f647 b23e a6fa 6f3f 82f0 863e f5f2 763f
00000240: f86f 4b3e a5e5 7a3f d300 193e 4f20 7d3f
00000250: 86d9 e53d f361 7e3f af85 ac3d 0e17 7f3f
00000260: c870 813d f97c 7f3f aa30 423d 4eb6 7f3f
00000270: 5ca5 113d 8ed6 7f3f 5075 da3c b1e8 7f3f
00000280: 3ed4 a33c e5f2 7f3f 51b7 753c a1f8 7f3f
00000290: 9b43 383c dbfb 7f3f 0a2e 0a3c abfd 7f3f
000002a0: d83d cf3b b1fe 7f3f e768 9b3b 43ff 7f3f
000002b0: 0815 693b 96ff 7f3f 80c9 2e3b c4ff 7f3f
000002c0: 6812 033b dfff 7f3f 8594 c43a edff 7f3f
000002d0: 126a 933a f5ff 7f3f 1f17 5d3a faff 7f3f
000002e0: 60cb 253a fdff 7f3f 0ca8 f839 feff 7f3f
000002f0: 5377 ba39 ffff 7f3f 6dd4 8b39 0000 803f
00000300: c381 103e 2670 7dbf de3c 473f cebf 20bf
00000310: d745 7e3f ab7f edbd 6321 743f 6318 9a3e
00000320: c209 503f 582f 153f b724 273f a2e7 413f
00000330: 6c2f 023f 296d 5c3f a768 c73e 37c9 6b3f
00000340: 6c4e 973e ef90 743f e26d 643e 928c 793f
00000350: d7ee 2b3e 9e5d 7c3f 2c33 013e 43f4 7d3f
00000360: c0ff c13d 4fd9 7e3f 0693 913d 3a5a 7f3f
00000370: 4e69 5a3d c3a2 7f3f c5d1 233d 90cb 7f3f
00000380: 1fb9 f53c 83e2 7f3f 4747 b83c 6bef 7f3f
00000390: c631 8a3c adf6 7f3f 4644 4f3c c1fa 7f3f
000003a0: 0d6e 1b3c 0dfd 7f3f 131d e93b 58fe 7f3f
000003b0: a8cf ae3b 11ff 7f3f 1317 833b 7aff 7f3f
000003c0: 929b 443b b5ff 7f3f 606f 133b d6ff 7f3f
000003d0: 171f dd3a e8ff 7f3f 56d1 a53a f3ff 7f3f
000003e0: 10b1 783a f9ff 7f3f 097e 3a3a fcff 7f3f
000003f0: 7ed9 0b3a feff 7f3f a4be d139 ffff 7f3f

transformer.layers.0.self_attn.in_proj_weight f4 [192, 64]
-0.055241875 0.07421927 -0.030846134 -0.019256158 -0.04369148 0.049451277 -0.12834923 0.0415977
-0.13213308 -0.053878102 -0.11915926 -0.099984206 -0.11465318 -0.14857872 -0.10502325 -0.1537949
-0.09689922 -0.14701997 -0.11168149 -0.138943 -0.11696911 -0.1404496 -0.08244818 -0.13464539
-0.1077352 -0.14322452 -0.1102085 -0.14543667 -0.07229144 -0.1443292 0.024491535 -0.14113796
-0.1070176 -0.14322115 -0.03930506 -0.14028499 -0.024053339 -0.14095111 0.07310405 -0.14021143
-0.032945894 -0.1412466 -0.0136372335 -0.14277656 -0.025527278 -0.14376491 -0.025940863 -0.14373808
-0.096930765 -0.14140968 0.0037447764 -0.14323567 -0.030962063 -0.14305185 -0.014846794 -0.13702717
0.09744198 -0.14285457 -0.09144598 -0.14215502 0.024073444 -0.14151737 -0.09349332 -0.1391564
-0.056334894 0.07586615 -0.031457886 -0.019996004 -0.0449872 0.050774027 -0.13040477 0.04392251
-0.13678908 -0.05618835 -0.124244295 -0.10182564 -0.11954176 -0.15292194 -0.110038914 -0.1578831
-0.101440445 -0.15152854 -0.11634544 -0.14432207 -0.12244084 -0.14496993 -0.08813718 -0.13913116
-0.10771647 -0.14873965 -0.117190704 -0.15154555 -0.07772868 -0.14948745 0.026868671 -0.14661172
-0.11665609 -0.148256 -0.041129664 -0.1460706 -0.020862466 -0.14632155 0.078156084 -0.14526112
-0.035754215 -0.14816839 -0.013108683 -0.14778319 -0.028155485 -0.14956959 -0.02862448 -0.14945267
-0.10550635 -0.1476324 0.0037356676 -0.1482279 -0.034202922 -0.14780465 -0.015979206 -0.14248592
0.104591936 -0.14757119 -0.09813638 -0.14696339 0.02735568 -0.14593855 -0.09876621 -0.14491846
0.054939985 -0.07401824 0.032002196 0.016526677 0.044446986 -0.049445134 0.12920013 -0.03973012
0.13219379 0.05493343 0.1190147 0.102711044 0.112796254 0.14799857 0.10388197 0.15340891
0.09791347 0.14694624 0.11057698 0.13861002 0.115344405 0.13964698 0.08093063 0.13460523
0.10726284 0.14272799 0.10966151 0.14525777 0.07157684 0.1436245 -0.018398479 0.140589
0.10336393 0.14135249 0.038995303 0.13946424 0.02420898 0.14111392 -0.06877005 0.13974924
0.03089496 0.13986652 0.012904904 0.14191005 0.024842432 0.14293075 0.024018703 0.14293717
0.09146534 0.14022626 -0.00363174 0.1422741 0.028943095 0.14185911 0.013963265 0.13638152
-0.09222111 0.14244127 0.087144956 0.14122942 -0.023031728 0.14114144 0.087756716 0.13894883
0.054488588 -0.06785627 0.033746455 0.025398158 0.04292066 -0.038117934 0.11700505 -0.03397232
0.12220414 0.056746304 0.10671052 0.101017326 0.10201666 0.14078373 0.09191601 0.14504197
0.08392704 0.1396577 0.09966791 0.12970069 0.10902651 0.12991345 0.07245392 0.12562707
0.10595618 0.13351929 0.09387793 0.13538808 0.060156446 0.135309 -0.019052988 0.13219616
0.09167744 0.13323578 0.032098044 0.12845868 0.02602127 0.1314659 -0.063830405 0.13006024
0.027691782 0.13108534 0.016217262 0.13319553 0.019951763 0.13535653 0.020134535 0.13284028
0.08260431 0.13004887 -0.00010735395 0.13325542 0.02762002 0.13216421 0.01076158 0.12659642
-0.08300395 0.13438042 0.07958302 0.13077663 -0.01903479 0.13229325 0.08308497 0.12881288
00000000: 4e45 62bd 4600 983d 08b1 fcbc 17bf 9dbc
00000010: d6f5 32bd 6c8d 4a3d fb6d 03be 5a62 2a3d
00000020: e54d 07be 49af 5cbd c509 f4bd 85c4 ccbd
00000030: 49cf eabd 0525 18be 6e16 d7bd 697c 1dbe
00000040: 1973 c6bd 678c 16be 44b9 e4bd 1347 0ebe
00000050: 808d efbd 05d2 0fbe 97da a8bd 7be0 09be
00000060: 46a4 dcbd 73a9 12be feb4 e1bd 5aed 14be
00000070: 890d 94bd 09cb 13be 79a2 c83c 7886 10be
00000080: 0b2c dbbd 91a8 12be 58fe 20bd dea6 0fbe
00000090: 820b c5bc 7d55 10be 93b7 953d 9693 0fbe
000000a0: 46f2 06bd f3a2 10be b46e 5fbc 0534 12be
000000b0: 951e d1bc 1c37 13be ef81 d4bc 1330 13be
000000c0: a383 c6bd b3cd 10be ec6a 753b 5fac 12be
000000d0: 27a4 fdbc 2f7c 12be f83f 73bc da50 0cbe
000000e0: a98f c73d 7848 12be 0848 bbbd 1691 11be
000000f0: ac35 c53c eee9 10be 6d79 bfbd 047f 0ebe
00000100: 6bbf 66bd b65f 9b3d fcd9 00bd a9ce a3bc
00000110: 8044 38bd 6df8 4f3d d488 05be 17e8 333d
00000120: 7012 0cbe c125 66bd cb73 febd f689 d0bd
00000130: 4fd2 f4bd 9297 1cbe 155c e1bd 1bac 21be
00000140: 02c0 cfbd 4c2a 1bbe 8546 eebd 2ac9 13be
00000150: 43c2 fabd ff72 14be 4481 b4bd 6678 0ebe
00000160: 749a dcbd 354f 18be ae01 f0bd c22e 1bbe
00000170: 3730 9fbd 3d13 19be b01b dc3c 6221 16be
00000180: 63e9 eebd 6cd0 17be 9477 28bd 8893 15be
00000190: c3e7 aabc 51d5 15be 4c10 a03d 55bf 14be
000001a0: 0373 12bd 74b9 17be cdc5 56bc 7a54 17be
000001b0: 55a6 e6bc c528 19be e37d eabc 1f0a 19be
000001c0: b713 d8bd f32c 17be 1ad2 743b 0ec9 17be
000001d0: 5d18 0cbd 1a5a 17be d3e6 82bc d4e7 11be
000001e0: 4c34 d63d e71c 17be bafb c8bd 927d 16be
000001f0: 0519 e03c ea70 15be f045 cabd 8165 14be
00000200: c008 613d e096 97bd bc14 033d f462 873c
00000210: 0b0e 363d fb86 4abd 0a4d 043e 0dbc 22bd
00000220: cf5d 073e e001 613d fbbd f33d 2b5a d23d
00000230: b901 e73d f08c 173e 12c0 d43d 3a17 1d3e
00000240: db86 c83d 1379 163e 2f76 e23d c9ef 0d3e
00000250: b039 ec3d 9eff 0e3e f5be a53d f4d5 093e
00000260: 9fac db3d 4927 123e 3796 e03d 74be 143e
00000270: e196 923d 4d12 133e 68b8 96bc 90f6 0f3e
00000280: 78b0 d33d b5be 103e 8ab9 1f3d b7cf 0e3e
00000290: e951 c63c 2b80 103e 50d7 8cbd 6d1a 0f3e
000002a0: 6d17 fd3c 2b39 0f3e 176f 533c de50 113e
000002b0: 5b82 cb3c 705c 123e dfc2 c43c 1f5e 123e
000002c0: 2e52 bb3d 7997 0f3e 7d02 6ebb 4db0 113e
000002d0: 121a ed3c 8443 113e 2ec6 643c 99a7 0b3e
000002e0: 6cde bcbd 20dc 113e 0e79 b23d 729e 103e
000002f0: 09ad bcbc 6287 103e cbb9 b33d 9a48 0e3e
00000300: 6d2f 5f3d 3af8 8abd b939 0a3d cc0f d03c
00000310: 93cd 2f3d 8d21 1cbd 58a0 ef3d 8f26 0bbd
00000320: 2a46 fa3d d06e 683d 0c8b da3d 2ce2 ce3d
00000330: 1cee d03d 9c29 103e 763e bc3d e285 143e
00000340: f1e1 ab3d 6e02 0f3e b01e cc3d 42d0 043e
00000350: 4a49 df3d 0808 053e b962 943d 62a4 003e
00000360: 8eff d83d 48b9 083e 1243 c03d 2ca3 0a3e
00000370: 9b66 763d 718e 0a3e 0315 9cbc 6e5e 073e
00000380: 62c1 bb3d f66e 083e 3d79 033d ac8a 033e
00000390: 8f2a d53c ff9e 063e 84b9 82bd 832e 053e
000003a0: e0d9 e23c 3c3b 063e 10da 843c 6964 083e
000003b0: e171 a33c e79a 0a3e 2ef1 a43c 4807 083e
000003c0: 732c a93d 882b 053e 3723 e1b8 1c74 083e
000003d0: 6143 e23c 0e56 073e 5751 303c 7ea2 013e
000003e0: fafd a9bd 059b 093e 6cfc a23d 4fea 053e
000003f0: d9ee 9bbc e277 073e 7428 aa3d 86e7 033e

transformer.layers.0.self_attn.in_proj_bias f4 [192]
-0.14510977 -0.15064345 0.14393494 0.13488327 0.1472094 0.1383458 -0.13189282 0.1509931
0.11279265 -0.12043408 -0.10937337 -0.119355366 0.11723119 -0.10976107 -0.11455628 -0.119611695
-0.20276403 0.16622193 -0.14790168 0.14791492 -0.22099583 0.19653283 0.16553017 -0.21888714
-0.16538702 0.15210435 0.1385761 0.16279942 0.16128759 0.15009953 0.1431456 -0.1503605
0.18786453 -0.18203828 -0.1707479 0.19887792 0.18564624 0.18662022 -0.18509214 -0.18205264
0.11116491 0.11896398 -0.1092833 -0.1159951 -0.12182979 -0.11839358 0.11813551 -0.11290314
-0.18019126 0.1877534 -0.19757865 0.16920534 -0.13929643 0.19543508 0.16865188 0.14843513
-0.13714449 0.15015912 -0.13807556 -0.121129274 0.12271105 0.13328142 0.135117 0.12696399
-5.979151e-05 -7.749683e-05 5.477362e-05 4.724476e-05 7.716599e-05 4.1145922e-05 -5.742871e-05 8.279973e-05
5.6504632e-05 -0.00013574019 -4.675843e-05 -7.811969e-05 -1.7173179e-05 2.6456187e-06 -0.0001447459 -0.00010714436
-0.00049091375 0.00012659757 -0.0006197109 0.000647757 -0.0006035042 0.00061893737 0.0005537879 -0.00062926626
-0.00026000998 0.00020118257 0.00021625143 0.00026371336 0.00023759803 9.3909635e-05 0.00011122354 -0.0001798206
0.00019246351 -0.0001310841 -0.00011014193 0.00022023646 0.00018385942 0.00015639253 -0.00018535285 -0.00015345718
-4.331471e-06 2.5027917e-05 -1.6994894e-05 -1.6929618e-05 8.218685e-06 -4.616217e-05 -7.973231e-06 -9.153138e-05
-0.00042643747 0.0003957503 -0.00051070086 0.0005653874 -0.0004956295 0.0003251357 0.00020476399 0.00018786703
-9.932556e-05 0.00021948876 -0.0001811442 -1.675009e-05 2.1149503e-05 4.002655e-05 -5.4044624e-05 -4.994455e-05
-3.3959757e-05 0.0006531942 0.00061605446 0.000210103 -0.00042757165 -0.0010559604 -0.00032824615 0.00041606405
0.00058762555 -0.00023782486 0.0003167524 -3.9578066e-05 -8.9699e-06 -0.0005915474 0.00020640463 -0.0009883322
-0.0007294285 2.9320247e-05 -0.0007543781 -0.00068719225 -0.00056419615 -0.00074946246 -0.0007133363 0.00066490937
-0.00043878128 -0.0008980421 0.0012278616 -0.00043472045 -0.00060669874 -0.00048589404 -0.0007614711 -0.00070432894
-0.0010087757 0.0009532695 0.0009325145 0.0005259608 0.0012142517 0.0024837921 -0.0007191196 0.0011080105
0.0013487785 -0.0013720539 0.0032380864 -0.0025904863 -0.0009036616 -0.0026776867 -0.0030039975 8.533873e-05
0.00086746353 0.0006204147 -0.0006418278 -0.00058075873 -0.0004830933 0.0005070672 -0.0008167005 -0.00067879114
-0.00055138837 -0.00038015147 0.0011201021 -0.0006953339 -0.00036678684 0.0011870551 -0.001672725 0.0003029734
00000000: a897 14be 4742 1abe ae63 133e d71e 0a3e
00000010: 10be 163e 85aa 0d3e e90e 07be ef9d 1a3e
00000020: d5ff e63d 25a6 f6bd 25ff dfbd 9670 f4bd
00000030: e816 f03d 69ca e0bd 7c9c eabd faf6 f4bd
00000040: 60a1 4fbe 1536 2a3e 8a73 17be 0277 173e
00000050: bb4c 62be e73f 493e be80 293e f323 60be
00000060: 375b 29be 3ec1 1b3e e5e6 0d3e e4b4 263e
00000070: 9328 253e b1b3 193e c394 123e 1af8 19be
00000080: 8f5f 403e 3e68 3abe 8ad8 2ebe a7a6 4b3e
00000090: 0c1a 3e3e 5f19 3f3e cb88 3dbe 026c 3abe
000000a0: 6eaa e33d 63a3 f33d eccf dfbd d78e edbd
000000b0: e681 f9bd 5578 f2bd 08f1 f13d c339 e7bd
000000c0: 0f84 38be 6d42 403e 0f52 4abe 2a44 2d3e
000000d0: b9a3 0ebe 2220 483e 14b3 2c3e 61ff 173e
000000e0: 9b6f 0cbe 50c3 193e ae63 0dbe a012 f8bd
000000f0: ee4f fb3d ed7a 083e 1c5c 0a3e d902 023e
00000100: a5c8 7ab8 cb85 a2b8 babc 6538 ad28 4638
00000110: 2dd4 a138 1994 2c38 9cdf 70b8 c4a4 ad38
00000120: 63ff 6c38 7b55 0eb9 7b1e 44b8 30d4 a3b8
00000130: 1f0f 90b7 628b 3136 efc6 17b9 b1b2 e0b8
00000140: aab0 00ba 47bf 0439 1874 22ba 3dce 293a
00000150: 7b34 1eba 2f40 223a 142c 113a 58f5 24ba
00000160: f351 88b9 89f4 5239 8dc1 6239 0243 8a39
00000170: bc23 7939 5af1 c438 af40 e938 3a8e 3cb9
00000180: 08d0 4939 9f73 09b9 00fc e6b8 46ef 6639
00000190: 63ca 4039 4dfd 2339 475b 42b9 59e9 20b9
000001a0: 0d57 91b6 0bf3 d137 4290 8eb7 1404 8eb7
000001b0: fce2 0937 419e 41b8 c4c4 05b7 89f4 bfb8
000001c0: 7893 dfb9 b57c cf39 8ee0 05ba 8236 143a
000001d0: 22ed 01ba fa76 aa39 eab5 5639 2cfe 4439
000001e0: 014d d0b8 9126 6639 87f1 3db9 8b82 8cb7
000001f0: 366a b137 2ee2 2738 f9ad 62b8 8d7b 51b8
00000200: 0370 0eb8 1f3b 2b3a b77e 213a 184f 5c39
00000210: b22b e0b9 2768 8aba 7418 acb9 2c23 da39
00000220: e20a 1a3a a060 79b9 ca11 a639 a000 26b8
00000230: 6d7d 16b7 1312 1bba 526e 5839 ed8a 81ba
00000240: 1e37 3fba c0f4 f537 75c1 45ba b124 34ba
00000250: 90e6 13ba 9377 44ba 30ff 3aba 504d 2e3a
00000260: 3a0c e6b9 966a 6bba 33f0 a03a 31eb e3b9
00000270: dd0a 1fba 98bf feb9 769d 47ba b7a2 38ba
00000280: e538 84ba d5e4 793a fd73 743a a2e0 093a
00000290: 8727 9f3a 1ec7 223b 4d83 3cba aa3a 913a
000002a0: 7fc9 b03a 7dd6 b3ba 1336 543b 26c5 29bb
000002b0: b4e3 6cba 217c 2fbb b7de 44bb e2f7 b238
000002c0: 7e66 633a 53a3 223a 5640 28ba 0f3e 18ba
000002d0: af47 fdb9 b4ec 043a d817 56ba e7f0 31ba
000002e0: 0c8b 10ba 114f c7b9 64d0 923a 1147 36ba
000002f0: 4c4d c0b9 f696 9b3a 563f dbba 67d8 9e39

transformer.layers.0.self_attn.out_proj.weight f4 [64, 64]
-0.026309062 0.0455788 0.026809594 -0.0036878989 0.009578828 0.016509453 -0.015074074 0.015178996
0.07488863 0.013886108 0.0619817 0.022984078 0.0402163 -0.046203643 0.04033475 -0.031960644
-0.1210061 -0.012206156 -0.13907912 -0.09963048 -0.13374273 -0.13030995 -0.10567652 0.15031852
-0.036447242 -0.016361417 0.020422773 -0.03527156 -0.044814438 -0.057881493 -0.07427865 -0.06661233
0.03490527 -0.027575219 -0.025636036 -0.05095718 -0.015348742 -0.008418359 0.049594585 -0.015671734
-0.023091435 -0.060789276 0.0007569077 -0.018800167 -0.06575151 0.0003988758 0.0034181168 0.011801504
0.14373778 0.11500277 -0.12824884 -0.07329739 -0.07290344 0.0633296 -0.12502672 -0.112126805
0.060910814 0.0872453 -0.020356717 0.034738157 -0.04388358 0.032473452 0.045348227 -0.10277621
-0.06376523 0.094643034 0.060723454 -0.036122184 0.023411255 0.02470464 -0.05011277 0.04149417
0.109589055 0.042328957 0.093472205 0.055960815 0.06567148 -0.092319585 0.085014366 -0.07166111
-0.13913043 -0.035231497 -0.1495005 -0.12261235 -0.13468619 -0.14386876 -0.12555817 0.14971118
-0.07522995 -0.011809745 0.014436219 -0.07719066 -0.09105376 -0.104421996 -0.12675463 -0.122452654
0.03819863 -0.035115093 -0.04280426 -0.059607033 -0.034474034 -0.014552024 0.055057902 -0.0317532
-0.036443565 -0.06417404 -0.004854249 -0.013255722 -0.10256848 0.007449055 0.009683715 0.047282528
0.14758852 0.13301928 -0.13152483 -0.10044121 -0.104867 0.09286321 -0.13470556 -0.13091093
0.07134341 0.097252585 -0.030761886 0.04821401 -0.05559581 0.038599797 0.05215867 -0.09730615
-0.023988103 0.03905734 0.027436733 -0.012926718 0.008983473 0.008320109 -0.020193607 0.016391588
0.03083371 0.0065374663 0.023525702 0.014712497 0.0245334 -0.028329782 0.022604372 -0.023839656
-0.065758936 -0.007969314 -0.08446818 -0.057270363 -0.082739934 -0.07349218 -0.05853434 0.08368589
-0.02470085 -0.006952703 0.015580562 -0.023606764 -0.026872462 -0.035006005 -0.03350547 -0.027836254
0.020831862 -0.024001477 -0.007870031 -0.02441322 -0.016061092 -0.0067423875 0.02000867 -0.01446464
-0.014927307 -0.046520174 0.00286879 -0.005426017 -0.05397135 -0.0004199777 0.0026093617 0.016631741
0.10440939 0.08054053 -0.059802152 -0.043682486 -0.050176926 0.04016171 -0.06823412 -0.06825345
0.037348405 0.04571602 -0.008281586 0.017808918 -0.0341057 0.023512024 0.040347148 -0.06804868
-0.05588642 0.07564978 0.048624393 -0.028373552 0.0261324 0.03080331 -0.04191552 0.038136985
0.07197373 0.031425264 0.05629676 0.041623615 0.045857176 -0.068251625 0.06187244 -0.056440104
-0.100741155 -0.038612947 -0.12344383 -0.09480903 -0.12687199 -0.112262644 -0.10186752 0.11553383
-0.0602085 -0.011186711 0.0181857 -0.06261768 -0.068951406 -0.0790499 -0.08930569 -0.08786812
0.021396581 -0.027225534 -0.019180708 -0.02186327 -0.018399563 -0.011155054 0.020859033 -0.020246716
-0.035786122 -0.050162658 -0.011383529 -0.011798664 -0.074659795 0.013919295 0.013680026 0.041800365
0.13660719 0.12246771 -0.09430642 -0.0867404 -0.09347862 0.08299178 -0.10818979 -0.11696647
0.06420726 0.080404766 -0.025131265 0.041813497 -0.04412558 0.03713767 0.04952489 -0.08983883
00000000: 1a86 d7bc d6b0 3a3d cb9f db3c adb0 71bb
00000010: 84f0 1c3c d53e 873c 40f9 76bc 53b1 783c
00000020: 365f 993d 8f82 633c 86e0 7d3d 1b49 bc3c
00000030: d9b9 243d 0840 3dbd 0d36 253d 2ae9 02bd
00000040: 0cd2 f7bd 54fc 47bc c26a 0ebe 110b ccbd
00000050: dbf3 08be f96f 05be ee6c d8bd 19ed 193e
00000060: b449 15bd 6108 86bc a94d a73c e978 10bd
00000070: 588f 37bd 2515 6dbd 681f 98bd 0c6c 88bd
00000080: d4f8 0e3d 6de5 e1bc aa02 d2bc 7ab8 50bd
00000090: 4a79 7bbc 28ed 09bc b123 4b3d 0262 80bc
000000a0: 402a bdbc 2dfe 78bd 376b 463a cf02 9abc
000000b0: baa8 86bd 3420 d139 7c02 603b 185b 413c
000000c0: ff2f 133e 9386 eb3d aa53 03be f11c 96bd
000000d0: 664e 95bd f3b2 813d 0107 00be bda2 e5bd
000000e0: 9e7d 793d aaad b23d 21c3 a6bc 9949 0e3d
000000f0: 45bf 33bd e202 053d 10bf 393d 557c d2bd
00000100: 5897 82bd 35d4 c13d 28b9 783d dbf4 13bd
00000110: f6c8 bf3c 6361 ca3c 0c43 4dbd caf5 293d
00000120: 3a70 e03d 2161 2d3d 5b6e bf3d 2b37 653d
00000130: c57e 863d 0d12 bdbd 031c ae3d 0fc3 92bd
00000140: 3578 0ebe e74e 10bd a916 19be 2f1c fbbd
00000150: 2deb 09be 5552 13be 5292 00be e34d 193e
00000160: 2912 9abd a97d 41bc e485 6c3c 2316 9ebd
00000170: 657a babd 33db d5bd f7cb 01be 75c8 fabd
00000180: 2b76 1c3d d8d4 0fbd 8553 2fbd 8126 74bd
00000190: a534 0dbd 9d6b 6ebc 6584 613d a50f 02bd
000001a0: d945 15bd ae6d 83bd 6410 9fbb 872e 59bc
000001b0: 6c0f d2bd 3417 f43b 72a8 1e3c 53ab 413d
000001c0: 7221 173e 3536 083e 72ae 06be 1fb4 cdbd
000001d0: 82c4 d6bd 112f be3d 41f0 09be 840d 06be
000001e0: 7e1c 923d 5d2c c73d 5a00 fcbc 0e7c 453d
000001f0: 6fb8 63bd d21a 1e3d 54a4 553d 7248 c7bd
00000200: b382 c4bc 97fa 1f3d 00c3 e03c 96ca 53bc
00000210: 6b2f 133c 1151 083c 106d a5bc a747 863c
00000220: fa96 fc3c 3e38 d63b f9b8 c03c af0c 713c
00000230: 45fa c83c dc13 e8bc ce2c b93c 624b c3bc
00000240: 9fac 86bd ba91 02bc a7fd acbd 5494 6abd
00000250: 8e73 a9bd 1183 96bd b4c1 6fbd 8263 ab3d
00000260: 7059 cabc 80d3 e3bb 9d45 7f3c f962 c1bc
00000270: a323 dcbc 7562 0fbd 083d 09bd db08 e4bc
00000280: 95a7 aa3c bf9e c4bc 4df1 00bc 3cfe c7bc
00000290: 8d92 83bc 3fef dcbb 39e9 a33c 19fd 6cbc
000002a0: aa91 74bc f08b 3ebd 4f02 3c3b bbcc b1bb
000002b0: 1011 5dbd 7430 dcb9 d301 2b3b 4a3f 883c
000002c0: 97d4 d53d 6ff2 a43d 1af3 74bd 68ec 32bd
000002d0: 5286 4dbd 9b80 243d 55be 8bbd 77c8 8bbd
000002e0: a4fa 183d b940 3b3d 7daf 07bc 02e4 913c
000002f0: 6bb2 0bbd 4a9c c03c 0d43 253d 1b5d 8bbd
00000300: 29e9 64bd 46ee 9a3d 5f2a 473d a76f e8bc
00000310: 9d13 d63c 3957 fc3c 9caf 2bbd 8735 1c3d
00000320: f766 933d c7b7 003d 6e97 663d 867d 2a3d
00000330: bcd4 3b3d 82c7 8bbd f56d 7d3d bd2d 67bd
00000340: 6151 cebd 9c28 1ebd 1ed0 fcbd 3d2b c2bd
00000350: bbea 01be f5e9 e5bd eb9f d0bd 009d ec3d
00000360: 309d 76bd 7748 37bc 2dfa 943c b33d 80bd
00000370: 6536 8dbd eae4 a1bd e7e5 b6bd 33f4 b3bd
00000380: e247 af3c 1508 dfbc dc20 9dbc 9a1a b3bc
00000390: aeba 96bc b0c3 36bc 90e0 aa3c 71dc a5bc
000003a0: 7894 12bd 5c77 4dbd fb81 3abc 2f4f 41bc
000003b0: 3ce7 98bd c10d 643c 3022 603c dc36 2b3d
000003c0: c1e2 0b3e 5ad0 fa3d b923 c1bd f3a4 b1bd
000003d0: b871 bfbd 98f7 a93d 9c92 ddbd 1e8c efbd
000003e0: 197f 833d 41ab a43d 15e0 cdbc a144 2b3d
000003f0: 06bd 34bd ab1d 183d 9cda 4a3d 6cfd b7bd

transformer.layers.0.self_attn.out_proj.bias f4 [64]
0.005741581 -0.0005742289 0.0025455311 -0.005637166 -0.0009801262 0.010069422 -0.0067826244 -0.0042170486
0.009156191 -0.0019286914 -0.00013314905 -0.001565649 -0.0075184805 -0.013797293 -0.004704497 -0.0060898187
-0.0040565277 -0.013549309 -0.0024623075 -0.019871775 0.003987021 -0.012515051 -0.0009868124 -0.031175649
0.0009596794 -0.010231165 -0.0042112735 -0.013669693 0.00026028708 -0.015946735 -0.0006427256 -0.01592581
0.002059911 -0.011318288 -0.0012558859 -0.01644488 0.0033804688 -0.008574809 0.0007455254 -0.009131668
0.0003861622 -0.018740185 -0.0016208027 -0.010541923 -0.0003289806 -0.015111846 0.00073309086 -0.016397228
-0.0021154461 -0.014246645 -0.0013144166 -0.014104997 0.0013879753 -0.013828001 -0.0038267903 -0.018735114
0.011933892 -0.008361777 -0.00074461335 -0.011419104 -0.0028349399 -0.012795737 -0.0006781621 -0.009891988
00000000: df23 bc3b d987 16ba edd2 263b fab7 b8bb
00000010: 9477 80ba 38fa 243c c740 debb 2b2f 8abb
00000020: d903 163c 25cc fcba ed9d 0bb9 7736 cdba
00000030: 965d f6bb 0b0e 62bc 2e28 9abb 1a8d c7bb
00000040: 9fec 84bb ecfd 5dbc aa5e 21bb 22ca a2bc
00000050: 8ea5 823b ee0b 4dbc ee57 81ba 1364 ffbc
00000060: ff92 7b3a 9ea0 27bc b9fe 89bb d9f6 5fbc
00000070: 2477 8839 baa2 82bc 967c 28ba d876 82bc
00000080: 92ff 063b 5770 39bc 8a9c a4ba 6ab7 86bc
00000090: db8a 5d3b 5b7d 0cbc 5d6f 433a fe9c 15bc
000000a0: d075 ca39 0485 99bc 1d71 d4ba 08b8 2cbc
000000b0: 077b acb9 ad97 77bc e52c 403a 7b53 86bc
000000c0: 4ca3 0abb c36a 69bc 8148 acba a518 67bc
000000d0: b9ec b53a d78e 62bc e3ca 7abb 627a 99bc
000000e0: 5f86 433c d6ff 08bc 2832 43ba 3217 3bbc
000000f0: 66ca 39bb 36a5 51bc b0c6 31ba 0112 22bc

transformer.layers.0.multihead_attn.in_proj_weight f4 [192, 64]
-0.020720363 -0.041774094 0.0695085 0.032713454 -0.007902765 0.08221269 -0.033417158 -0.012646421
0.054165214 -0.062516406 0.04641345 0.016083717 0.06234705 0.07107296 0.054816455 0.04661704
0.07147382 0.02750944 0.04777634 0.04242459 0.06809042 0.034517106 0.08341999 0.019168938
-0.024579357 0.07316941 -0.03174864 0.04174669 0.06161365 0.063797526 0.07617478 0.019439483
-0.00478984 0.03589728 -0.0076989913 0.058723498 0.019722754 0.09710968 0.07132325 -0.06252619
0.03693228 0.06363833 0.0396292 -0.02884257 0.08431838 -0.02329236 -0.009099836 0.023449278
0.0039225677 0.050183427 0.051806275 0.1090688 0.059552748 0.011338442 0.08242342 0.08386085
0.09699857 0.09233068 0.11922796 0.022899183 -0.02550057 -0.04760908 -0.07000806 0.054419186
0.020315874 0.04231003 -0.07029106 -0.035176866 0.012326421 -0.082663916 0.03339847 0.012460663
-0.0492515 0.06318527 -0.051718082 -0.011849386 -0.064836495 -0.07368772 -0.056373883 -0.04659067
-0.0754194 -0.024581147 -0.046072632 -0.04242733 -0.06839115 -0.037628345 -0.08553804 -0.020659762
0.025520092 -0.073431015 0.027999943 -0.040291805 -0.05998642 -0.06488641 -0.07829784 -0.021884928
0.0037417999 -0.03752788 0.006921842 -0.06098297 -0.018495267 -0.10142196 -0.07370802 0.064286396
-0.036439575 -0.06143177 -0.04073514 0.030276865 -0.08304384 0.024994623 0.006019866 -0.018543867
-0.0032489295 -0.051018957 -0.053129707 -0.10912802 -0.06342683 -0.012944814 -0.08485626 -0.08690915
-0.09688859 -0.092588 -0.1100079 -0.024563849 0.026411615 0.044044938 0.073114425 -0.05652879
-0.023004409 -0.040171795 0.07310352 0.031753086 -0.0025532313 0.08358479 -0.03177499 -0.010902031
0.056432188 -0.06127416 0.042651344 0.01536916 0.057616435 0.069508545 0.053467486 0.045417096
0.0689115 0.026357763 0.05080565 0.04497175 0.07246272 0.03326865 0.08081048 0.019351635
-0.022636773 0.069694206 -0.031458113 0.043023214 0.067028865 0.06389606 0.078785144 0.020513492
-2.0785961e-05 0.034220852 -0.005752145 0.056126174 0.023363497 0.090707354 0.07522771 -0.063655786
0.036325067 0.062225997 0.046045568 -0.030273573 0.08526045 -0.0269836 -0.011880976 0.020575548
0.011512775 0.04621658 0.055785418 0.10749117 0.06260914 0.010567028 0.08549178 0.08211316
0.09974154 0.09421258 0.12208002 0.021956386 -0.020654922 -0.047896322 -0.065224476 0.053959504
-0.02335395 -0.043675028 0.07788335 0.031300128 -0.0005010485 0.084581025 -0.03455377 -0.012546649
0.058046293 -0.059143092 0.04897667 0.012121199 0.054896142 0.07373509 0.050052546 0.047125857
0.070273526 0.029906334 0.05029648 0.044978086 0.07456629 0.03402471 0.081532486 0.02041767
-0.02527133 0.072853595 -0.031242928 0.04451907 0.057808954 0.068211034 0.07753094 0.022304615
0.002177033 0.030797206 -0.013853483 0.05802746 0.022415511 0.091860294 0.07338779 -0.059582368
0.033842377 0.06501443 0.044191264 -0.027272327 0.08333169 -0.021593971 -0.016703324 0.023103938
0.010404527 0.049526196 0.056733016 0.10924456 0.060524046 0.010643203 0.08632242 0.08509192
0.09818266 0.10003877 0.1205729 0.02318665 -0.022547234 -0.04214718 -0.06889986 0.05257076
00000000: c0bd a9bc 501b 2bbd 795a 8e3d 8bfe 053d
00000010: 997a 01bc 205f a83d 6ee0 08bd ef32 4fbc
00000020: 58dc 5d3d 9a08 80bd 081c 3e3d 00c2 833c
00000030: 9f5f 7f3d b38e 913d 3887 603d 82f1 3e3d
00000040: de60 923d 7a5b e13c 20b1 433d 68c5 2d3d
00000050: fd72 8b3d cf61 0d3d 1ad8 aa3d 2d08 9d3c
00000060: a65a c9bc d8d9 953d dd0a 02bd 94fe 2a3d
00000070: 985e 7c3d 47a8 823d 8601 9c3d 8d3f 9f3c
00000080: 17f4 9cbb 0709 133d d247 fcbb 0d88 703d
00000090: 9d91 a13c 71e1 c63d ed11 923d bb0d 80bd
000000a0: 4d46 173d d054 823d 3a52 223d 4147 ecbc
000000b0: 1daf ac3d 9fcf bebc 7b17 15bc b318 c03c
000000c0: e288 803b 238d 4d3d d132 543d 775f df3d
000000d0: 95ed 733d dfc4 393c 9ccd a83d 3dbf ab3d
000000e0: 30a7 c63d de17 bd3d ca2d f43d 1197 bb3c
000000f0: 92e6 d0bc bd01 43bd 6360 8fbd a7e6 5e3d
00000100: 7a6d a63c 484d 2d3d c2f4 8fbd 9e15 10bd
00000110: c2f4 493c b34b a9bd d6cc 083d cf27 4c3c
00000120: f1bb 49bd 4767 813d 57d6 53bd ed23 42bc
00000130: ffc8 84bd 96e9 96bd 4de8 66bd dcd5 3ebd
00000140: 7d75 9abd 675e c9bc a8b6 3cbd 48c8 2dbd
00000150: a910 8cbd 2e20 1abd 912e afbd a93e a9bc
00000160: 830f d13c 0063 96bd 2360 e53c 0509 25bd
00000170: 52b4 75bd 2be3 84bd 9e5a a0bd 0548 b3bc
00000180: fc38 753b d6b6 19bd 9fd0 e23b 47c9 79bd
00000190: 6383 97bc 51b6 cfbd 3bf4 96bd 96a8 833d
000001a0: aa41 15bd e19f 7bbd e4d9 26bd 3007 f83c
000001b0: e412 aabd 86c1 cc3c 4c42 c53b 4fe9 97bc
000001c0: feeb 54bb 41f9 50bd 899e 59bd 837e dfbd
000001d0: ede5 81bd 7c16 54bc 1ec9 adbd 6dfd b1bd
000001e0: 866d c6bd c79e bdbd d24b e1bd 203a c9bc
000001f0: 2c5d d83c 7768 343d 04bd 953d bc8a 67bd
00000200: be73 bcbc 2e8b 24bd 4cb7 953d 860f 023d
00000210: 1d54 27bb 812e ab3d 7e26 02bd 6f9e 32bc
00000220: 7025 673d 9dfa 7abd 2db3 2e3d eece 7b3c
00000230: 36ff 6b3d 7f5a 8e3d b900 5b3d 4707 3a3d
00000240: 7921 8d3d 3cec d73c 9619 503d 4c34 383d
00000250: 5667 943d b544 083d f77f a53d 5287 9e3c
00000260: c170 b9bc d6bb 8e3d 39da 00bd 1c39 303d
00000270: 6e46 893d f0db 823d 1b5a a13d e90b a83c
00000280: 835d aeb7 2a2b 0c3d 7d7c bcbb 8fe4 653d
00000290: ce64 bf3c c7c4 b93d fc10 9a3d f75d 82bd
000002a0: 98c9 143d b0e0 7e3d 479a 3c3d 4900 f8bc
000002b0: 089d ae3d b60c ddbc 6da8 42bc 0d8e a83c
000002c0: 14a0 3c3c 994d 3d3d 407f 643d 5524 dc3d
000002d0: 3939 803d 5421 2d3c 5016 af3d f22a a83d
000002e0: 4b45 cc3d 86f2 c03d 1705 fa3d e1dd b33c
000002f0: 8334 a9bc ef2e 44bd 6994 85bd a404 5d3d
00000300: c850 bfbc 96e4 32bd 4e81 9f3d 9034 003d
00000310: cc58 03ba d138 ad3d 4188 0dbd 7690 4dbc
00000320: f3c1 6d3d 0740 72bd c39b 483d fe97 463c
00000330: c7da 603d 6c02 973d e603 4d3d 0b07 413d
00000340: 91eb 8f3d 21fe f43c af03 4e3d f13a 383d
00000350: 36b6 983d 7f5d 0b3d 81fa a63d f542 a73c
00000360: d205 cfbc 4434 953d 2bf1 ffbc a159 363d
00000370: 15c9 6c3d 3ab2 8b3d 8bc8 9e3d 2bb8 b63c
00000380: 8eac 0e3b 6c4a fc3c b8f9 62bc 34ae 6d3d
00000390: bca0 b73c 4021 bc3d 564c 963d a40c 74bd
000003a0: 4e9e 0a3d 4926 853d e601 353d 376a dfbc
000003b0: cea9 aa3d d7e5 b0bc 69d5 88bc 7844 bd3c
000003c0: c077 2a3c fbdb 4a3d e160 683d 9dbb df3d
000003d0: 10e8 773d d460 2e3c cfc9 b03d ac44 ae3d
000003e0: fe13 c93d 20e1 cc3d edee f63d eef1 bd3c
000003f0: fab4 b8bc 85a2 2cbd 5f1b 8dbd 7054 573d

transformer.layers.0.multihead_attn.in_proj_bias f4 [192]
-0.0733755 0.07321729 -0.07845679 -0.07614014 0.07423431 0.073472075 0.07824607 0.07951066
0.1897939 0.18779202 -0.18458022 -0.17621766 0.19230808 0.17514685 0.17858796 0.18909329
-0.060584616 -0.06385487 0.058921706 -0.058027647 0.05920406 -0.058252178 0.0593193 0.060582295
0.15771061 -0.16396725 0.20734401 -0.17081794 -0.16212252 -0.16689454 0.17807496 0.1746528
0.043930322 -0.038633056 0.04265946 -0.043051418 -0.036157396 -0.04115181 -0.038548 0.034432873
-0.20077278 -0.16891287 0.16009346 0.16824213 0.17879802 -0.19129385 -0.17484619 0.1710869
-0.039778348 -0.037032835 0.04267133 -0.039083757 -0.039317932 0.0433643 -0.04058058 -0.034029603
-0.038831208 0.041749034 -0.038950402 0.04389524 0.043467708 -0.05097827 0.04013914 0.04284379
1.2269566e-05 -1.7727918e-05 -9.905872e-06 -1.0274051e-05 1.5910298e-05 -1.2037921e-05 2.1377382e-05 7.90803e-06
6.122844e-05 8.990091e-05 -0.00010392796 -4.440629e-05 7.677066e-05 2.9691735e-05 6.527607e-05 0.00013272431
3.5924828e-07 -2.9160083e-06 4.8436714e-06 -2.1291946e-06 5.5491805e-06 -3.6010601e-06 4.9903e-06 4.6420996e-06
-1.8369941e-05 9.870098e-06 -6.9483353e-06 -2.8138607e-05 -3.1681586e-05 -1.828453e-05 -1.3064722e-05 6.3248785e-06
8.835881e-06 -1.9104211e-06 -2.3015393e-06 -1.0514719e-05 -4.9965897e-06 -1.118244e-05 2.7927823e-07 -4.9570453e-06
3.8252692e-06 -6.9204402e-06 -3.762674e-05 -1.9043004e-05 7.346907e-05 8.738182e-06 9.8661685e-06 -3.3364984e-05
-7.5078915e-06 -8.242075e-06 2.2484282e-05 -9.589023e-06 -8.177855e-06 1.7249327e-05 -1.208399e-05 -1.624878e-06
1.1737467e-06 -1.0265629e-06 2.1773433e-06 3.025895e-06 3.23741e-06 -2.4628341e-06 1.7611512e-06 1.8779735e-06
-0.0022087442 -0.001961286 0.0013108401 0.0022477887 0.00075656886 0.0016224455 -0.0012769862 -0.00016855965
0.0012703848 0.00046463354 -0.00058735587 -0.0010572366 0.0012176369 0.00047366793 -0.0012136697 -0.0017500296
0.0025218641 0.0014991403 -0.0011582508 0.0021950672 0.0019398287 -0.00075711653 0.0019625684 -0.0019308045
0.0010961172 -0.0010505851 2.165896e-05 -0.00051361066 0.0011583733 -0.00012764374 -0.0005051062 0.0008610512
0.0021449872 -0.0015169446 0.0022703588 0.0014334637 -0.0016431329 0.0024273074 -0.00015161264 0.0005218682
0.00024887116 4.4087086e-05 -0.0010978543 -0.00014112785 0.0014809088 -0.000338953 0.0013584289 -0.0010940125
0.002565955 0.0018580508 -0.0013727342 0.00074157544 -0.0015749409 0.0023459916 0.0025580018 -0.002004006
-0.0024287186 0.0019622408 -0.0027380078 0.0007197214 0.0020007868 0.0007851695 0.0016865752 -0.0014913836
00000000: e545 96bd f2f2 953d f4ad a0bd 5def 9bbd
00000010: 2808 983d 8778 963d 7a3f a03d 7cd6 a23d
00000020: 5559 423e 8d4c 403e 9902 3dbe 6772 34be
00000030: 69ec 443e b259 333e c3df 363e aca1 413e
00000040: 9327 78bd 58c6 82bd e357 713d 66ae 6dbd
00000050: f57f 723d d699 6ebd cbf8 723d 2425 783d
00000060: e47e 213e 08e7 27be fd51 543e e6ea 2ebe
00000070: 7203 26be 67e6 2abe 4859 363e 2fd8 323e
00000080: 48f0 333d b23d 1ebd b0bb 2e3d af56 30bd
00000090: c719 14bd cd8e 28bd 82e4 1dbd 7c09 0d3d
000000a0: 6197 4dbe 7ff7 2cbe 8aef 233e aa47 2c3e
000000b0: d416 373e 89e2 43be e10a 33be 6831 2f3e
000000c0: 9fee 22bd beaf 17bd 22c8 2e3d 4a16 20bd
000000d0: d70b 21bd c49e 313d d237 26bd a062 0bbd
000000e0: 790d 1fbd 0901 2b3d 758a 1fbd 7fcb 333d
000000f0: 320b 323d 97ce 50bd f068 243d f87c 2f3d
00000100: 62d9 4d37 6ab6 94b7 6531 26b7 b75e 2cb7
00000110: 1b77 8537 7af6 49b7 9453 b337 bbac 0437
00000120: c567 8038 2f89 bc38 e6f3 d9b8 e440 3ab8
00000130: efff a038 8412 f937 d3e4 8838 e92b 0b39
00000140: b5de c034 a4b0 43b6 d286 a236 49e3 0eb6
00000150: 1933 ba36 bea9 71b6 5a72 a736 55c3 9b36
00000160: 2619 9ab7 c097 2537 bf25 e9b6 330b ecb7
00000170: d8e1 04b8 bb61 99b7 8e30 5bb7 4b3a d436
00000180: d23d 1437 c934 00b6 2574 1ab6 6068 30b7
00000190: 61a8 a7b6 379c 3bb7 b5ef 9534 b254 a6b6
000001a0: d05a 8036 2136 e8b6 68d1 1db8 8abe 9fb7
000001b0: 6813 9a38 359a 1237 df86 2537 61f1 0bb8
000001c0: 4cec fbb6 7147 0ab7 a19c bc37 8ae0 20b7
000001d0: 9f33 09b7 a6b2 9037 58bc 4ab7 6216 dab5
000001e0: a189 9d35 6fc8 89b5 791e 1236 7b10 4b36
000001f0: 4842 5936 2b47 25b6 b260 ec35 ae0e fc35
00000200: 94c0 10bb eb88 00bb 7fd0 ab3a a34f 133b
00000210: 7a54 463a 3da8 d43a 8c60 a7ba 63bf 30b9
00000220: 0a83 a63a 0f9a f339 c9f8 19ba f992 8aba
00000230: 1d99 9f3a a256 f839 ff13 9fba 4061 e5ba
00000240: dc45 253b cd7e c43a 73d0 97ba 1edb 0f3b
00000250: da41 fe3a 3b79 46ba 6f9e 003b 0c13 fdba
00000260: 97ab 8f3a c9b3 89ba 43b0 b537 d4a3 06ba
00000270: 8fd4 973a 1bd8 05b9 1a69 04ba 2bb8 613a
00000280: ea92 0c3b 37d4 c6ba 4dca 143b 0fe3 bb3a
00000290: 645e d7ba 7613 1f3b 35fa 1eb9 fbcd 083a
000002a0: ec7a 8239 26ea 3838 e1e5 8fba b8fb 13b9
000002b0: 0e1b c23a 80b5 b1b9 4f0d b23a f864 8fba
000002c0: 9529 283b d789 f33a 51ed b3ba 4966 423a
000002d0: 3f6e ceba 35bf 193b 26a4 273b a455 03bb
000002e0: 232b 1fbb f098 003b 2670 33bb b0ab 3c3a
000002f0: a21f 033b d5d3 4d3a 1310 dd3a 887a c3ba

transformer.layers.0.multihead_attn.out_proj.weight f4 [64, 64]
0.00597796 0.0068767695 -0.008689584 -0.010558679 -0.0020670167 -0.013994442 0.010328672 -0.0008335678
-0.011965535 0.00663588 -0.0025885683 0.0057108887 -0.010746734 -0.0107774045 0.003837289 0.012430479
-0.011040866 -0.004949864 -0.0006709124 -0.009731184 -0.009158787 0.0015581484 -0.0069007217 0.005040157
-0.004096853 -0.0017708039 -0.0050820154 -0.0075895484 0.007518156 0.0010102384 -0.0065347673 -0.0082792435
-0.006870409 0.008547644 -0.012744186 -0.009504047 0.004695522 -0.007890755 -0.00049928983 -0.0022934817
0.0056254175 0.001649326 -0.0044951607 0.0044363937 -0.018165443 0.0011212635 -0.019543407 0.0012264305
-0.010297638 -0.007985959 0.00045260857 -0.0025420873 0.009935785 -0.011099246 -0.005475342 0.006541803
0.0048408816 -0.010428251 0.012904551 -0.002259276 -0.008386662 -0.0024734992 -0.007856334 -0.00033075555
0.0040509733 -0.0017289494 -0.005012172 -0.0009027371 -0.0025398885 -0.0030654636 0.0012269677 0.00421471
-0.0053118607 0.005741347 -0.008695045 -0.0015675985 0.0023177075 -0.0062617282 -0.007487297 0.0020900166
-0.0016154961 -0.0038147736 0.005264485 -0.0014938161 -0.0007224325 -0.004079435 -0.00570184 0.002438237
0.0034938497 -0.00038212034 -0.006112561 -0.0042554783 0.0015148404 0.0044704173 -0.0013850215 0.0017025862
-0.010011094 -0.000998997 -0.008731223 -0.005274918 0.004334981 -0.0035575947 -0.0014814009 0.0026997162
0.0026111114 -0.001849211 0.00040841318 -0.00046058858 -5.0558894e-05 0.00024726256 -0.0065519004 -0.0044134124
-0.0014021265 -0.00677845 0.0026484223 0.0032355466 0.005715866 -0.006224037 -0.0012776249 0.007313008
-0.0021330167 -0.0029890186 0.0087047545 -0.00066414924 -0.00772128 -0.0027415543 -0.0012619119 0.0014670456
0.0027800256 0.002432033 0.0020360819 -0.0011771368 -0.0018596434 0.0006950256 -0.0047424347 0.00035306677
-0.0058274525 0.009664489 -0.008363615 0.006260963 0.0007903517 -0.003375533 -0.0073445146 0.003813382
-0.0009825472 -0.0020632367 0.0032742643 -0.0030545534 -0.0037771142 -0.0004957108 -0.00078682124 0.0007743689
-0.0016257092 0.016481252 -0.0085530775 -0.001324219 -0.010205841 0.014319917 -0.004516496 0.0064183977
-0.0004842005 0.0007400804 -0.00025693173 -0.0030129235 0.0009739031 -0.0027020525 0.0013045644 0.0031421692
-0.0027499767 -0.0123398425 -5.0784256e-05 0.01593085 0.005592929 -0.015128039 -0.0063431994 0.009693424
-0.0017141155 -0.0022788711 0.0015681882 0.0037446371 0.00073450804 -0.0013875356 -0.0020238864 0.0022745319
0.0013790013 -0.00043062633 0.002055896 0.00019362847 -0.0013556434 0.0004516979 0.0007079872 0.004353874
-0.00832975 -0.011582891 0.007967877 0.0073020207 0.006569042 0.007477234 -0.006350418 -0.0012837764
-0.010517038 0.012811061 -0.0070731826 0.007368067 -0.0031032604 -0.0012705999 -0.0068215067 0.010206595
0.0097247735 0.0054863216 -0.008911003 0.011449614 0.007589642 -0.0034552435 0.0050101136 -0.007280156
0.008469256 -0.008693369 0.0019656445 0.0041902578 0.008544773 0.0024556888 -0.0047555296 0.01034879
0.0041188924 -0.0021804536 0.007948362 0.005598165 -0.008286402 0.007972006 -0.005683834 -0.008840501
-2.2354614e-05 0.004481283 -0.011234412 -3.302498e-05 0.014471418 -0.002515493 0.015928183 -0.015151808
0.0071959863 -0.00033772472 -0.0018982543 -0.0074858232 -0.0036265638 0.0075363223 0.009356674 -0.011895857
-0.006696246 0.005837104 -0.007703692 -0.003562984 0.011074508 0.0016372589 0.003588434 -0.009221423
00000000: c3e2 c33b 8656 e13b c25e 0ebc 4ffe 2cbc
00000010: c976 07bb f248 65bc 9739 293c ca83 5aba
00000020: 170b 44bc cc71 d93b f8a4 29bb 6822 bb3b
00000030: 1213 30bc b693 30bc 077b 7b3b 35a9 4b3c
00000040: c0e4 34bc 7832 a2bb 2be0 2fba 8b6f 1fbc
00000050: bd0e 16bc c93a cc3a 731f e2bb e727 a53b
00000060: e53e 86bb 521a e8ba 0987 a6bb bfb1 f8bb
00000070: dd5a f63b fa69 843a 9a21 d6bb aaa5 07bc
00000080: 2b21 e1bb 6b0b 0c3c fecc 50bc ddb6 1bbc
00000090: e5dc 993b 3a48 01bc c6e2 02ba 3d4e 16bb
000000a0: 6c55 b83b 322e d83a 244c 93bb 2b5f 913b
000000b0: b2cf 94bc 5cf7 923a 7f19 a0bc 2ec0 a03a
000000c0: 6db7 28bc 8ad7 02bc 184c ed39 2699 26bb
000000d0: b4c9 223c 9dd9 35bc 7f6a b3bb 9f5c d63b
000000e0: 42a0 9e3b 41db 2abc 9c6d 533c 5d10 14bb
000000f0: 3668 09bc 6e1a 22bb dab7 00bc 4269 adb9
00000100: 07be 843b ea9d e2ba 253d a4bb a9a5 6cba
00000110: 4274 26bb f2e5 48bb 34d2 a03a 8d1b 8a3b
00000120: 1e0f aebb e921 bc3b a975 0ebc e177 cdba
00000130: aee4 173b 2f2f cdbb 0058 f5bb a9f8 083b
00000140: 0ebf d3ba 4801 7abb b381 ac3b 27cc c3ba
00000150: a061 3dba c8ac 85bb 80d6 babb d4ca 1f3b
00000160: 12f9 643b 5357 c8b9 e14b c8bb 8a71 8bbb
00000170: 9c8d c63a 947c 923b 9c89 b5ba 5029 df3a
00000180: 9205 24bc c7f0 82ba 670d 0fbc 38d9 acbb
00000190: 750c 8e3b 8926 69bb 912b c2ba b9ed 303b
000001a0: 2e1f 2b3b 3a61 f2ba 4a20 d639 277b f1b9
000001b0: 330f 54b8 05a3 8139 53b1 d6bb 639e 90bb
000001c0: 8fc7 b7ba c31d debb 2791 2d3b 770b 543b
000001d0: 294c bb3b 02f3 cbbb fa75 a7ba f5a1 ef3b
000001e0: 15ca 0bbb 69e3 43bb 639e 0e3c 4d1a 2eba
000001f0: cb02 fdbb a6ab 33bb bd66 a5ba e249 c03a
00000200: 1731 363b be62 1f3b c96f 053b 284a 9aba
00000210: 47bf f3ba 6132 363a 6d66 9bbb d21b b939
00000220: 37f4 bebb ce57 1e3c 8b07 09bc c428 cd3b
00000230: 9b2f 4f3a 0c38 5dbb 41aa f0bb efe9 793b
00000240: d0c8 80ba 5e37 07bb 0a95 563b e72e 48bb
00000250: 7689 77bb 97f2 01ba ae42 4eba 04ff 4a3a
00000260: c015 d5ba b103 873c 3522 0cbc 6b91 adba
00000270: 6636 27bc 169e 6a3c 1dff 93bb 6c51 d23b
00000280: 4adc fdb9 f401 423a cbb4 86b9 7874 45bb
00000290: 884d 7f3a eb14 31bb ebfd aa3a daec 4d3b
000002a0: f438 34bb 0d2d 4abc 2e01 55b8 6a81 823c
000002b0: e444 b73b 98db 77bc 9dda cfbb 2bd1 1e3c
000002c0: 2cac e0ba 1d59 15bb aa8b cd3a 9668 753b
000002d0: 008c 403a f8dd b5ba 2ea3 04bb 5010 153b
000002e0: 9bbf b43a b0c5 e1b9 36bc 063b bf08 4b39
000002f0: d8af b1ba ded1 ec39 3798 393a f1aa 8e3b
00000300: 8179 08bc 2bc6 3dbc b38b 023c ca45 ef3b
00000310: 1e41 d73b 9603 f53b 2b17 d0bb 6344 a8ba
00000320: a84f 2cbc 7ce5 513c 28c6 e7bb d36f f13b
00000330: 1260 4bbb 428a a6ba f286 dfbb 9039 273c
00000340: a854 1f3c 9ac6 b33b 75ff 11bc 2997 3b3c
00000350: 88b2 f83b 5e71 62bb e12b a43b 608e eebb
00000360: a2c2 0a3c a26e 0ebc 0bd2 003b 6e4e 893b
00000370: 60ff 0b3c 9fef 203b 46d4 9bbb f98d 293c
00000380: c6f7 863b f1e5 0ebb d939 023c d070 b73b
00000390: b0c3 07bc 049d 023c 753f babb c0d7 10bc
000003a0: 2b86 bbb7 bad7 923b 8a10 38bc 4d84 0ab8
000003b0: 8719 6d3c f8da 24bb d27b 823c 4a3f 78bc
000003c0: 4fcc eb3b a510 b1b9 d8ce f8ba a34b f5bb
000003d0: a5ab 6dbb 41f3 f63b bc4c 193c d7e6 42bc
000003e0: 2f6c dbbb 2d45 bf3b 416f fcbb f480 69bb
000003f0: da71 353c 4b99 d63a ef2b 6b3b 7415 17bc
