decisionmaking/trained_models/env=claude_dim2_model=transformer_num_episodes1000000_num_hidden=8_lr0.0003_num_layers=2_d_model=64_num_head=8_noise0.0_shuffleTrue_pairedTrue_lossnll_ess9.2_std0.1_run=1_essinit0.001_annealed_schedulefree.pt (torch, 928558 bytes, 121 tensors)

embedding.weight f4 [64, 3]
0	0x3a19835f	0.00058560626
1	0x39c3bf37	0.00037335765
2	0x3d9eb620	0.07749581
3	0x3a95c96f	0.001142783
4	0x3a63fab1	0.0008696719
5	0xbda81aa3	-0.082082056
6	0x3a8ee68b	0.0010902447
7	0x3a7aae7b	0.0009562743
8	0xbdacb84d	-0.0843359
9	0x3a7c8014	0.0009632122
10	0x3a38e3b5	0.0007052974
11	0xbda8d254	-0.08243242
12	0x3a8248f2	0.0009939952
13	0x3a825c92	0.0009945801
14	0xbdac8dc3	-0.084254764
15	0x3b087b41	0.0020825418
16	0x3b055c44	0.0020349184
17	0xbdab9b9f	-0.08379292
18	0xba170b3e	-0.0005761868
19	0xba5bb96c	-0.0008381817
20	0x3da8ff9d	0.08251879
21	0x39343138	0.00017184473
22	0x3918293e	0.00014511214
23	0x3dace8d9	0.0844285
24	0x3a30cbc0	0.00067442283
25	0x3a53f229	0.0008085096
26	0xbdac04f3	-0.083993815
27	0x3b06f8c0	0.0020595044
28	0x3afc4b66	0.0019248545
29	0xbdad3cff	-0.084589
30	0x39eeb163	0.0004552706
31	0x39d5855c	0.00040725886
32	0xbdad8092	-0.084717885
33	0x3aef801c	0.0018272432
34	0x3af1df7b	0.0018453443
35	0xbdabce6d	-0.08388982
36	0x39ec863a	0.00045113434
37	0x3a2c81e4	0.00065806345
38	0xbdabb847	-0.083847575
39	0xb9832f1d	-0.0002502137
40	0xba0a758b	-0.00052817975
41	0x3dabcacc	0.0838829
42	0xba978d6a	-0.001156253
43	0xba8f88ef	-0.0010950844
44	0x3dac495e	0.08412431
45	0xb9a40c77	-0.00031289805
46	0xba1eeace	-0.00060622103
47	0x3dac5215	0.084140934
48	0xba76157b	-0.0009387356
49	0xba9f0355	-0.001213173
50	0x3daca3f6	0.084297106
51	0xba272905	-0.0006376657
52	0xba56385e	-0.00081718515
53	0x3dad08a5	0.084489144
54	0x39ca675a	0.00038605445
55	0x39d2c816	0.00040203397
56	0xbdaa9f40	-0.08331156
57	0x3a8f5e05	0.0010938054
58	0x3a80fdea	0.0009841297
59	0xbdaced7b	-0.08443733
60	0x39cc16ed	0.00038926993
61	0x398ba1a5	0.0002663258
62	0xbda5a63d	-0.08088348
63	0xba6770e6	-0.0008828774
64	0xba6ee473	-0.0009113021
65	0x3dacfddf	0.084468596
66	0x3a838236	0.0010033313
67	0x3a86a25d	0.0010271777
68	0xbda33bdc	-0.07970402
69	0x3a99e9cc	0.001174265
70	0x3a90cc12	0.0011047146
71	0xbdaf9195	-0.085726894
72	0xbae2dc0e	-0.0017308013
73	0xbb151cdf	-0.0022752804
74	0x3d459acb	0.048243325
75	0x3aa9e7f4	0.0012962804
76	0x3aadf307	0.001327128
77	0xbdab5951	-0.08366645
78	0xb9b90b2c	-0.00035294273
79	0xba0e8b49	-0.0005437625
80	0x3da639d5	0.08116499
81	0xba4dd272	-0.0007851488
82	0xba62cfec	-0.00086521986
83	0x3dab93cd	0.083778
84	0x3d9b826e	0.07593237
85	0x3d7c729f	0.06163275
86	0xbb914ab1	-0.0044339527
87	0x3aad9c52	0.001324544
88	0x3aca7bb0	0.0015448239
89	0xbdad1e26	-0.08453016
90	0xba97dbfa	-0.0011585944
91	0xba7c8ced	-0.00096340367
92	0x3d9e080f	0.07716381
93	0xba4caa0a	-0.000780732
94	0xba47f93d	-0.0007628387
95	0x3dab8d10	0.08376515
96	0x3d9b64ad	0.07587562
97	0x3d7ed466	0.062214278
98	0xbb2e90e7	-0.0026636661
99	0x3a998874	0.001171364
100	0x3a83141b	0.0010000499
101	0xbdadfb89	-0.08495242
102	0xbd566ba0	-0.052348733
103	0xbd138b52	-0.036021538
104	0xba4c5643	-0.00077948364
105	0xba60b371	-0.0008571661
106	0xba9a31bd	-0.0011764091
107	0x3daca4ee	0.08429895
108	0xbb237fc5	-0.0024947983
109	0xbaa0483f	-0.0012228562
110	0x3d3ed43b	0.046589117
111	0x3a917c87	0.0011099734
112	0x3a82878c	0.0009958609
113	0xbdaa2162	-0.083071485
114	0xbd7d4d20	-0.06184113
115	0xbd3624ec	-0.044468805
116	0x39e98a8b	0.00044544446
117	0xba82be25	-0.000997488
118	0xba7149ea	-0.00092044345
119	0x3dac8d25	0.08425359
120	0xbd3ec98b	-0.046578925
121	0xbd008ee0	-0.031386256
122	0xbcafd85d	-0.021465475
123	0xba7f56e2	-0.00097404246
124	0xba9c8634	-0.0011941851
125	0x3dacad48	0.08431488
126	0xbd1f025e	-0.038820617
127	0xbccd4346	-0.025056493
128	0x3bc9b135	0.006155158
129	0x3a9f0c74	0.0012134449
130	0x3aa3c752	0.0012495315
131	0xbdab4f6e	-0.083647594
132	0xbb8c10e5	-0.004274475
133	0xbb1bd547	-0.0023778246
134	0x3d3daedb	0.046309333
135	0xba1a8918	-0.00058950623
136	0xba557717	-0.0008143051
137	0x3daea652	0.08527817
138	0xbd418493	-0.047245573
139	0xbd02ed3a	-0.031964518
140	0x3c00c9d0	0.007860616
141	0xba29318f	-0.0006454223
142	0xba6b18c4	-0.0008968229
143	0x3dae1014	0.084991604
144	0xbcba88a5	-0.022770235
145	0xbc7666b5	-0.015039136
146	0xbd14ccff	-0.036328312
147	0xba29d981	-0.0006479249
148	0xba1d9304	-0.0006010982
149	0x3dac56b4	0.08414975
150	0xbb90c6b6	-0.0044182194
151	0xbb348b02	-0.0027548675
152	0xbd43a484	-0.047764316
153	0xba29f067	-0.0006482661
154	0xba7a6f00	-0.00095532835
155	0x3dadc2f9	0.08484454
156	0xbd853d7a	-0.06505866
157	0xbd45d8db	-0.048302513
158	0x3a78514c	0.00094725634
159	0x3a9d7e29	0.0012015748
160	0x3a8ac764	0.0010587987
161	0xbdada4a4	-0.08478668
162	0xbd9b8399	-0.0759346
163	0xbd7c2f93	-0.061568808
164	0x3b4dbf64	0.0031394595
165	0x3ab44547	0.0013753556
166	0x3aa6349e	0.0012680476
167	0xbdaf8fde	-0.08572362
168	0xbd50f5a1	-0.0510155
169	0xbd0c5d71	-0.0342688
170	0x3ae8282a	0.0017712165
171	0x3a96e301	0.0011511744
172	0x3a86e1cd	0.0010290683
173	0xbdac0577	-0.0839948
174	0xbb045c77	-0.0020196715
175	0xba9a2092	-0.0011758974
176	0xbd477948	-0.048699647
177	0xba881e04	-0.0010384922
178	0xba74957c	-0.0009330136
179	0x3daba89b	0.08381768
180	0x3d9b7e45	0.075924434
181	0x3d7be030	0.0614931
182	0xbb31dc5c	-0.00271394
183	0x3a934920	0.0011237003
184	0x3a9ec646	0.0012113533
185	0xbda89456	-0.08231418
186	0x3a2879b5	0.0006426827
187	0xb935a26a	-0.00017322009
188	0xbd2fda8c	-0.042933032
189	0xba8141a4	-0.0009861481
190	0xba949c7b	-0.0011338139
191	0x3dae2ee9	0.08505041

embedding.bias f4 [64]
0	0x3c60a09e	0.013710169
1	0xbcecbd7c	-0.028898947
2	0xbc3b02a5	-0.011414205
3	0xbcaa4f9f	-0.02078992
4	0xbc44fa65	-0.012022589
5	0xbcfa7596	-0.030573647
6	0x3cad9f5e	0.021194156
7	0xbce66d49	-0.028128283
8	0xbb9282cb	-0.004471158
9	0xbd081e36	-0.033231936
10	0xbb968b7b	-0.004594264
11	0x3c5b8496	0.01339831
12	0xbb86daaa	-0.0041154223
13	0x3b97b212	0.004629382
14	0x3a924c74	0.0011161701
15	0x3a58998b	0.0008262626
16	0xba40dc34	-0.00073570316
17	0xbae7e43b	-0.0017691919
18	0xb9f16388	-0.0004604126
19	0xbbd11baf	-0.006381474
20	0xba8d7258	-0.0010791523
21	0xbba6ff62	-0.005096362
22	0x38bd7441	9.033876e-05
23	0xbc31dab8	-0.010855369
24	0xbb721b70	-0.0036942624
25	0xbc30629a	-0.010765696
26	0xba6b4b13	-0.00089757255
27	0xbbe344fa	-0.006935713
28	0x3b7a27c7	0.0038170682
29	0xbc22ba5a	-0.009932125
30	0xba10e2cb	-0.0005526959
31	0xbbf0d90c	-0.0073500928
32	0x3b1d4a5a	0.0024000616
33	0xbc4487ad	-0.011995238
34	0x3aade301	0.0013266505
35	0xbbf1b792	-0.0073766196
36	0xb9f1b370	-0.00046100793
37	0xbc4f846c	-0.012665849
38	0x3ae4e87c	0.0017464305
39	0xbbf12e7a	-0.0073602768
40	0xb9aa576d	-0.00032490064
41	0xbbdf43cd	-0.0068135024
42	0xb7f226cf	-2.886672e-05
43	0xbc420486	-0.011841899
44	0x38326432	4.253182e-05
45	0xbbd6966e	-0.0065486943
46	0x3838f3b0	4.409597e-05
47	0xbbd07173	-0.0063611805
48	0x3b1959b3	0.0023399412
49	0xbbc77e2f	-0.0060880403
50	0x3abe03f6	0.001449703
51	0xbbe56c3e	-0.007001429
52	0x3acf2d31	0.0015806315
53	0xbc24af26	-0.010051524
54	0x3934005a	0.00017166269
55	0xbc2c113a	-0.010502154
56	0x37c5a247	2.3559796e-05
57	0xbc4142c7	-0.011795706
58	0x3ac1d7aa	0.0014789004
59	0xbbeb21f5	-0.007175679
60	0x39f4242c	0.00046566257
61	0xbc33b5a6	-0.010968601
62	0x3aa5cef4	0.0012650178
63	0xbba67cac	-0.00508078

pos_encoder.pe f4 [1, 10, 64]
0	0x00000000	0.0
1	0x3f800000	1.0
2	0x00000000	0.0
3	0x3f800000	1.0
4	0x00000000	0.0
5	0x3f800000	1.0
6	0x00000000	0.0
7	0x3f800000	1.0
8	0x00000000	0.0
9	0x3f800000	1.0
10	0x00000000	0.0
11	0x3f800000	1.0
12	0x00000000	0.0
13	0x3f800000	1.0
14	0x00000000	0.0
15	0x3f800000	1.0
16	0x00000000	0.0
17	0x3f800000	1.0
18	0x00000000	0.0
19	0x3f800000	1.0
20	0x00000000	0.0
21	0x3f800000	1.0
22	0x00000000	0.0
23	0x3f800000	1.0
24	0x00000000	0.0
25	0x3f800000	1.0
26	0x00000000	0.0
27	0x3f800000	1.0
28	0x00000000	0.0
29	0x3f800000	1.0
30	0x00000000	0.0
31	0x3f800000	1.0
32	0x00000000	0.0
33	0x3f800000	1.0
34	0x00000000	0.0
35	0x3f800000	1.0
36	0x00000000	0.0
37	0x3f800000	1.0
38	0x00000000	0.0
39	0x3f800000	1.0
40	0x00000000	0.0
41	0x3f800000	1.0
42	0x00000000	0.0
43	0x3f800000	1.0
44	0x00000000	0.0
45	0x3f800000	1.0
46	0x00000000	0.0
47	0x3f800000	1.0
48	0x00000000	0.0
49	0x3f800000	1.0
50	0x00000000	0.0
51	0x3f800000	1.0
52	0x00000000	0.0
53	0x3f800000	1.0
54	0x00000000	0.0
55	0x3f800000	1.0
56	0x00000000	0.0
57	0x3f800000	1.0
58	0x00000000	0.0
59	0x3f800000	1.0
60	0x00000000	0.0
61	0x3f800000	1.0
62	0x00000000	0.0
63	0x3f800000	1.0
64	0x3f576aa4	0.84147096
65	0x3f0a5141	0.54030234
66	0x3f2e7ace	0.68156135
67	0x3f3b54b0	0.731761
68	0x3f087dba	0.53316844
69	0x3f58940d	0.8460091
70	0x3ed190f0	0.4093089
71	0x3f6992c7	0.9123959
72	0x3e9f393e	0.3109836
73	0x3f734e6b	0.9504153
74	0x3e708f25	0.23492105
75	0x3f78d5f1	0.9720145
76	0x3e35233a	0.17689219
77	0x3f7bf683	0.9842302
78	0x3e0825f3	0.13295726
79	0x3f7dba28	0.99112177
80	0x3dcc7576	0.099833414
81	0x3f7eb898	0.9950042
82	0x3d996f36	0.07491915
83	0x3f7f47d1	0.9971896
84	0x3d6636ae	0.05620449
85	0x3f7f9868	0.9984193
86	0x3d2cacfb	0.042157155
87	0x3f7fc5bd	0.999111
88	0x3d01815b	0.031617504
89	0x3f7fdf3c	0.99950004
90	0x3cc23ea5	0.023711512
91	0x3f7fed93	0.99971884
92	0x3c91ab42	0.017781857
93	0x3f7ff5a3	0.99984187
94	0x3c5a7a49	0.013334819
95	0x3f7ffa2c	0.99991107
96	0x3c23d657	0.009999833
97	0x3f7ffcb9	0.99995
98	0x3bf5b916	0.0074988706
99	0x3f7ffe28	0.99997187
100	0x3bb8445a	0.0056233825
101	0x3f7ffef7	0.9999842
102	0x3b8a2e5a	0.0042169513
103	0x3f7fff6b	0.9999911
104	0x3b4f3e1c	0.0031622713
105	0x3f7fffac	0.999995
106	0x3b1b6903	0.0023713715
107	0x3f7fffd1	0.9999972
108	0x3ae91520	0.0017782785
109	0x3f7fffe6	0.99999845
110	0x3aaec98b	0.0013335211
111	0x3f7ffff1	0.9999991
112	0x3a83126d	0.0009999998
113	0x3f7ffff8	0.9999995
114	0x3a449489	0.000749894
115	0x3f7ffffb	0.9999997
116	0x3a136a13	0.0005623411
117	0x3f7ffffd	0.9999998
118	0x39dd1721	0.00042169637
119	0x3f7fffff	0.99999994
120	0x39a5cb61	0.00031622782
121	0x3f7fffff	0.99999994
122	0x3978a80d	0.00023713727
123	0x3f800000	1.0
124	0x393a7753	0.00017782794
125	0x3f800000	1.0
126	0x390bd46d	0.00013335208
127	0x3f800000	1.0
128	0x3f68c7b7	0.9092974
129	0xbed51133	-0.41614684
130	0x3f7f5ad9	0.99748
131	0x3d914d53	0.070948265
132	0x3f66f20a	0.9021307
133	0x3edce8b2	0.43146282
134	0x3f3f3511	0.7469035
135	0x3f2a3903	0.6649324
136	0x3f17541b	0.5911271
137	0x3f4e7bec	0.8065784
138	0x3ee9d3b5	0.45669332
139	0x3f63be69	0.8896242
140	0x3eb247f6	0.34820527
141	0x3f6ffaa6	0.93741834
142	0x3e86f082	0.26355368
143	0x3f76f2f5	0.96464473
144	0x3e4b6ff8	0.19866931
145	0x3f7ae5a5	0.9800666
146	0x3e1900d3	0.1494172
147	0x3f7d204f	0.98877424
148	0x3de5d986	0.1122313
149	0x3f7e61f3	0.9936821
150	0x3dac85af	0.084239356
151	0x3f7f170e	0.99644554
152	0x3d8170c8	0.063203394
153	0x3f7f7cf9	0.9980007
154	0x3d4230aa	0.04740969
155	0x3f7fb64e	0.9988755
156	0x3d11a55c	0.03555809
157	0x3f7fd68e	0.9993676
158	0x3cda7550	0.026667267
159	0x3f7fe8b1	0.99964434
160	0x3ca3d43e	0.019998666
161	0x3f7ff2e5	0.9998
162	0x3c75b751	0.014997319
163	0x3f7ff8a1	0.9998875
164	0x3c38439b	0.011246587
165	0x3f7ffbdb	0.99993676
166	0x3c0a2e0a	0.008433828
167	0x3f7ffdab	0.9999644
168	0x3bcf3dd8	0.006324511
169	0x3f7ffeb1	0.99998003
170	0x3b9b68e7	0.00474273
171	0x3f7fff43	0.99998873
172	0x3b691508	0.0035565514
173	0x3f7fff96	0.9999937
174	0x3b2ec980	0.0026670396
175	0x3f7fffc4	0.9999964
176	0x3b031268	0.0019999985
177	0x3f7fffdf	0.99999803
178	0x3ac49485	0.0014997876
179	0x3f7fffed	0.99999887
180	0x3a936a12	0.0011246821
181	0x3f7ffff5	0.99999934
182	0x3a5d171f	0.0008433926
183	0x3f7ffffa	0.99999964
184	0x3a25cb60	0.0006324556
185	0x3f7ffffd	0.9999998
186	0x39f8a80c	0.0004742745
187	0x3f7ffffe	0.9999999
188	0x39ba7753	0.00035565588
189	0x3f7fffff	0.99999994
190	0x398bd46d	0.00026670416
191	0x3f800000	1.0
192	0x3e1081c3	0.14112
193	0xbf7d7026	-0.9899925
194	0x3f473cde	0.7782725
195	0xbf20bfce	-0.6279267
196	0x3f7e45d7	0.9932532
197	0xbded7fab	-0.11596616
198	0x3f742163	0.95363444
199	0x3e9a1863	0.3009673
200	0x3f5009c2	0.8126489
201	0x3f152f58	0.58275366
202	0x3f2724b7	0.652904
203	0x3f41e7a2	0.7574407
204	0x3f022f6c	0.5085361
205	0x3f5c6d29	0.86104065
206	0x3ec768a7	0.3894703
207	0x3f6bc937	0.92103904
208	0x3e974e6c	0.2955202
209	0x3f7490ef	0.9553365
210	0x3e646de2	0.22307542
211	0x3f798c92	0.9748012
212	0x3e2beed7	0.16790329
213	0x3f7c5d9e	0.9858035
214	0x3e01332c	0.12617177
215	0x3f7df443	0.9920084
216	0x3dc1ffc0	0.094726086
217	0x3f7ed94f	0.99550337
218	0x3d919306	0.071081206
219	0x3f7f5a3a	0.9974705
220	0x3d5a694e	0.053323083
221	0x3f7fa2c3	0.9985773
222	0x3d23d1c5	0.039994974
223	0x3f7fcb90	0.99919987
224	0x3cf5b91f	0.0299955
225	0x3f7fe283	0.99955004
226	0x3cb84747	0.022494925
227	0x3f7fef6b	0.999747
228	0x3c8a31c6	0.016869437
229	0x3f7ff6ad	0.9998577
230	0x3c4f4446	0.012650555
231	0x3f7ffac1	0.99991995
232	0x3c1b6e0d	0.009486687
233	0x3f7ffd0d	0.999955
234	0x3be91d13	0.0071140616
235	0x3f7ffe58	0.9999747
236	0x3baecfa8	0.005334813
237	0x3f7fff11	0.99998575
238	0x3b831713	0.0040005534
239	0x3f7fff7a	0.999992
240	0x3b449b92	0.0029999954
241	0x3f7fffb5	0.9999955
242	0x3b136f60	0.0022496805
243	0x3f7fffd6	0.9999975
244	0x3add1f17	0.0016870227
245	0x3f7fffe8	0.99999857
246	0x3aa5d156	0.0012650888
247	0x3f7ffff3	0.9999992
248	0x3a78b110	0.00094868336
249	0x3f7ffff9	0.9999996
250	0x3a3a7e09	0.00071141176
251	0x3f7ffffc	0.99999976
252	0x3a0bd97e	0.0005334838
253	0x3f7ffffe	0.9999999
254	0x39d1bea4	0.00040005625
255	0x3f7fffff	0.99999994

transformer.layers.0.self_attn.in_proj_weight f4 [192, 64]
0	0x39b1315e	0.00033796852
1	0xbc03bd77	-0.008040777
2	0xbaa6a7c5	-0.0012714794
3	0xbc5604d9	-0.013062679
4	0x3c2f4da3	0.010699662
5	0xbc9e8024	-0.019348212
6	0x3cab005f	0.0208742
7	0xbc5c99c3	-0.013464394
8	0x3ccd6490	0.025072366
9	0x3b1e993e	0.0024200226
10	0x3cd3689c	0.025806718
11	0x3c85a559	0.016314195
12	0x3cd4f763	0.02599687
13	0x3caadd6f	0.02085754
14	0x3cc478b6	0.02398334
15	0x3cb6243e	0.022234078
16	0x3cbb450e	0.022860076
17	0x3cbed896	0.023296636
18	0x3cc28d75	0.023749093
19	0x3cca9c1a	0.024732638
20	0x3cbb3d64	0.022856422
21	0x3cc5dd31	0.024153324
22	0x3cb36583	0.02189899
23	0x3ccd657e	0.02507281
24	0x3ca0928a	0.019601125
25	0x3ccc6bbd	0.024953717
26	0x3c669847	0.014074392
27	0x3cc7476f	0.024326054
28	0x3c175507	0.009236581
29	0x3ccd5535	0.025065044
30	0x3c23b7fa	0.009992594
31	0x3cc60609	0.0241728
32	0x3bd12fba	0.0063838633
33	0x3ccab9df	0.024746833
34	0x3bb8168f	0.0056179236
35	0x3cc4cdc5	0.0240239
36	0x3bad26d8	0.0052841716
37	0x3ccd6208	0.025071159
38	0x3b23bd7d	0.002498477
39	0x3cc49591	0.0239971
40	0x3b3955e6	0.002827996
41	0x3cc9649f	0.024584113
42	0x3b33b940	0.002742365
43	0x3cce4448	0.025179043
44	0x3aebe1ab	0.0017996331
45	0x3cc33aae	0.023831692
46	0x3afa2f23	0.0019087534
47	0x3cc3852d	0.023867214
48	0x3a2aeaa8	0.0006519952
49	0x3cc9a147	0.024613036
50	0x3a9711ce	0.0011525692
51	0x3cc62310	0.024186641
52	0xba2089bf	-0.00061240414
53	0x3ccf3e93	0.025298392
54	0xb86b98ed	-5.617079e-05
55	0x3cccc377	0.024995549
56	0x3a6ed2cf	0.00091103924
57	0x3ccdd974	0.025128104
58	0x39ddbf91	0.00042295133
59	0x3cc7d50d	0.024393583
60	0x3a97224e	0.0011530609
61	0x3ccf0789	0.025272148
62	0x3a351afe	0.0006908624
63	0x3cc87665	0.024470517
64	0xb9b130eb	-0.00033796518
65	0x3c03bd75	0.008040776
66	0x3aa6a7b7	0.0012714778
67	0x3c5604d9	0.013062679
68	0xbc2f4da5	-0.010699664
69	0x3c9e8025	0.019348213
70	0xbcab0061	-0.020874204
71	0x3c5c99c1	0.013464392
72	0xbccd6490	-0.025072366
73	0xbb1e994c	-0.0024200259
74	0xbcd3689d	-0.02580672
75	0xbc85a55a	-0.016314197
76	0xbcd4f763	-0.02599687
77	0xbcaadd71	-0.020857545
78	0xbcc478b5	-0.023983339
79	0xbcb6243b	-0.022234073
80	0xbcbb450c	-0.022860073
81	0xbcbed892	-0.023296628
82	0xbcc28d75	-0.023749093
83	0xbcca9c19	-0.024732636
84	0xbcbb3d61	-0.022856416
85	0xbcc5dd33	-0.024153328
86	0xbcb36583	-0.02189899
87	0xbccd6580	-0.025072813
88	0xbca0928b	-0.019601127
89	0xbccc6bbb	-0.024953714
90	0xbc669848	-0.014074393
91	0xbcc7476f	-0.024326054
92	0xbc175507	-0.009236581
93	0xbccd5536	-0.025065046
94	0xbc23b7fb	-0.009992595
95	0xbcc60608	-0.024172798
96	0xbbd12fbb	-0.0063838637
97	0xbccab9de	-0.024746832
98	0xbbb8168c	-0.005617922
99	0xbcc4cdc5	-0.0240239
100	0xbbad26d7	-0.005284171
101	0xbccd6206	-0.025071155
102	0xbb23bd7b	-0.0024984765
103	0xbcc4958e	-0.023997094
104	0xbb3955e1	-0.0028279948
105	0xbcc9649c	-0.024584107
106	0xbb33b946	-0.0027423664
107	0xbcce4447	-0.025179042
108	0xbaebe1a5	-0.0017996324
109	0xbcc33aae	-0.023831692
110	0xbafa2f2a	-0.0019087542
111	0xbcc3852c	-0.023867212
112	0xba2aeab9	-0.0006519962
113	0xbcc9a145	-0.024613032
114	0xba9711ca	-0.0011525687
115	0xbcc6230f	-0.02418664
116	0x3a2089d1	0.0006124052
117	0xbccf3e93	-0.025298392
118	0x386b99c2	5.6171564e-05
119	0xbcccc377	-0.024995549
120	0xba6ed2f4	-0.0009110414
121	0xbccdd975	-0.025128106
122	0xb9ddbf85	-0.00042295098
123	0xbcc7d50c	-0.02439358
124	0xba972250	-0.0011530612
125	0xbccf0787	-0.025272144
126	0xba351b01	-0.0006908626
127	0xbcc87667	-0.024470521
128	0xb9b13154	-0.00033796823
129	0x3c03bd7b	0.008040781
130	0x3aa6a79a	0.0012714744
131	0x3c5604dd	0.013062683
132	0xbc2f4da6	-0.010699665
133	0x3c9e8024	0.019348212
134	0xbcab0063	-0.020874208
135	0x3c5c99b9	0.013464385
136	0xbccd6490	-0.025072366
137	0xbb1e9952	-0.0024200273
138	0xbcd3689c	-0.025806718
139	0xbc85a557	-0.016314192
140	0xbcd4f763	-0.02599687
141	0xbcaadd70	-0.020857543
142	0xbcc478b5	-0.023983339
143	0xbcb6243c	-0.022234075
144	0xbcbb450c	-0.022860073
145	0xbcbed892	-0.023296628
146	0xbcc28d73	-0.023749089
147	0xbcca9c14	-0.024732627
148	0xbcbb3d5e	-0.02285641
149	0xbcc5dd31	-0.024153324
150	0xbcb36584	-0.021898992
151	0xbccd6581	-0.025072815
152	0xbca09289	-0.019601123
153	0xbccc6bba	-0.024953712
154	0xbc669844	-0.014074389
155	0xbcc7476a	-0.024326045
156	0xbc175508	-0.009236582
157	0xbccd5535	-0.025065044
158	0xbc23b7fb	-0.009992595
159	0xbcc60607	-0.024172796
160	0xbbd12fbd	-0.0063838647
161	0xbccab9de	-0.024746832
162	0xbbb8168c	-0.005617922
163	0xbcc4cdc4	-0.024023898
164	0xbbad26da	-0.0052841725
165	0xbccd6205	-0.025071153
166	0xbb23bd79	-0.002498476
167	0xbcc4958e	-0.023997094
168	0xbb3955d1	-0.002827991
169	0xbcc96497	-0.024584098
170	0xbb33b948	-0.0027423669
171	0xbcce4443	-0.025179034
172	0xbaebe19d	-0.0017996315
173	0xbcc33aab	-0.023831686
174	0xbafa2f2e	-0.0019087547
175	0xbcc3852c	-0.023867212
176	0xba2aeadb	-0.00065199815
177	0xbcc9a141	-0.024613025
178	0xba9711c7	-0.0011525684
179	0xbcc6230d	-0.024186635
180	0x3a2089e0	0.00061240606
181	0xbccf3e94	-0.025298394
182	0x386b9874	5.617035e-05
183	0xbcccc376	-0.024995547
184	0xba6ed2f7	-0.00091104157
185	0xbccdd978	-0.025128111
186	0xb9ddbf95	-0.00042295145
187	0xbcc7d50b	-0.024393579
188	0xba972267	-0.0011530638
189	0xbccf0786	-0.025272142
190	0xba351b16	-0.0006908638
191	0xbcc87665	-0.024470517
192	0x39b1314c	0.000337968
193	0xbc03bd77	-0.008040777
194	0xbaa6a7aa	-0.0012714763
195	0xbc5604d4	-0.013062675
196	0x3c2f4da4	0.010699663
197	0xbc9e8025	-0.019348213
198	0x3cab0060	0.020874202
199	0xbc5c99b7	-0.013464383
200	0x3ccd6491	0.025072368
201	0x3b1e9954	0.0024200277
202	0x3cd3689e	0.025806721
203	0x3c85a55a	0.016314197
204	0x3cd4f764	0.025996871
205	0x3caadd70	0.020857543
206	0x3cc478b4	0.023983337
207	0x3cb6243a	0.022234071
208	0x3cbb450d	0.022860074
209	0x3cbed893	0.02329663
210	0x3cc28d79	0.0237491
211	0x3cca9c17	0.024732633
212	0x3cbb3d5e	0.02285641
213	0x3cc5dd31	0.024153324
214	0x3cb36583	0.02189899
215	0x3ccd657f	0.025072811
216	0x3ca0928d	0.01960113
217	0x3ccc6bbc	0.024953716
218	0x3c669848	0.014074393
219	0x3cc7476b	0.024326047
220	0x3c17550c	0.009236585
221	0x3ccd5537	0.025065048
222	0x3c23b7fa	0.009992594
223	0x3cc60608	0.024172798
224	0x3bd12fbd	0.0063838647
225	0x3ccab9db	0.024746826
226	0x3bb8168e	0.005617923
227	0x3cc4cdc2	0.024023894
228	0x3bad26d8	0.0052841716
229	0x3ccd6205	0.025071153
230	0x3b23bd82	0.0024984782
231	0x3cc4958d	0.023997093
232	0x3b3955d5	0.002827992
233	0x3cc9649d	0.024584109
234	0x3b33b946	0.0027423664
235	0x3cce4449	0.025179045
236	0x3aebe19e	0.0017996316
237	0x3cc33aab	0.023831686
238	0x3afa2f2d	0.0019087546
239	0x3cc3852d	0.023867214
240	0x3a2aead8	0.000651998
241	0x3cc9a142	0.024613027
242	0x3a9711c9	0.0011525686
243	0x3cc6230e	0.024186637
244	0xba2089df	-0.000612406
245	0x3ccf3e92	0.02529839
246	0xb86b98a1	-5.6170513e-05
247	0x3cccc375	0.024995545
248	0x3a6ed2ee	0.00091104105
249	0x3ccdd972	0.0251281
250	0x39ddbf8c	0.00042295118
251	0x3cc7d50e	0.024393585
252	0x3a972267	0.0011530638
253	0x3ccf0787	0.025272144
254	0x3a351b14	0.0006908637
255	0x3cc87666	0.02447052

transformer.layers.0.self_attn.in_proj_bias f4 [192]
0	0x3cc70c63	0.024297899
1	0xbcc70c61	-0.024297895
2	0xbcc70c5e	-0.02429789
3	0x3cc70c62	0.024297897
4	0x3cc70c65	0.024297902
5	0x3cc70c60	0.024297893
6	0xbcc70c60	-0.024297893
7	0x3cc70c61	0.024297895
8	0xbda65f5b	-0.08123656
9	0xbda65f5b	-0.08123656
10	0xbda65f5a	-0.081236556
11	0xbda65f5b	-0.08123656
12	0xbda65f5b	-0.08123656
13	0x3da65f5a	0.081236556
14	0xbda65f5b	-0.08123656
15	0xbda65f5b	-0.08123656
16	0xbda36ccf	-0.07979738
17	0x3da36ccf	0.07979738
18	0x3da36cd1	0.079797395
19	0xbda36cd1	-0.079797395
20	0xbda36cd1	-0.079797395
21	0x3da36cd1	0.079797395
22	0xbda36cd0	-0.07979739
23	0xbda36cd0	-0.07979739
24	0xbcbcf11b	-0.023064187
25	0x3cbcf120	0.023064196
26	0xbcbcf11e	-0.023064192
27	0xbcbcf11e	-0.023064192
28	0x3cbcf11b	0.023064187
29	0x3cbcf11d	0.02306419
30	0x3cbcf11d	0.02306419
31	0x3cbcf11a	0.023064185
32	0xbcbfff54	-0.02343718
33	0xbcbfff56	-0.023437183
34	0xbcbfff56	-0.023437183
35	0x3cbfff55	0.023437181
36	0xbcbfff56	-0.023437183
37	0x3cbfff56	0.023437183
38	0x3cbfff56	0.023437183
39	0x3cbfff57	0.023437185
40	0xbda69cd8	-0.08135384
41	0xbda69cd9	-0.08135385
42	0xbda69cd9	-0.08135385
43	0x3da69cda	0.08135386
44	0xbda69cd8	-0.08135384
45	0xbda69cd9	-0.08135385
46	0xbda69cd8	-0.08135384
47	0x3da69cd8	0.08135384
48	0xbda6fa4a	-0.081532076
49	0x3da6fa4a	0.081532076
50	0x3da6fa4a	0.081532076
51	0x3da6fa4b	0.08153208
52	0x3da6fa4b	0.08153208
53	0xbda6fa4a	-0.081532076
54	0xbda6fa4a	-0.081532076
55	0x3da6fa4b	0.08153208
56	0xbcbd3736	-0.023097616
57	0xbcbd3734	-0.023097612
58	0xbcbd3734	-0.023097612
59	0xbcbd3735	-0.023097614
60	0xbcbd3731	-0.023097606
61	0xbcbd3735	-0.023097614
62	0x3cbd3737	0.023097618
63	0xbcbd3734	-0.023097612
64	0x358dbd1d	1.0560358e-06
65	0xb58aa8da	-1.0330943e-06
66	0xb58abd63	-1.033692e-06
67	0x358c0c01	1.0434306e-06
68	0x358d27c9	1.0516898e-06
69	0x358c7aa8	1.046651e-06
70	0xb58b33e8	-1.0371414e-06
71	0x358cca3e	1.0489673e-06
72	0xb901e86f	-0.00012388987
73	0xb9025bab	-0.00012431915
74	0xb90231a6	-0.00012416262
75	0xb9023125	-0.00012416074
76	0xb901e4d3	-0.00012387642
77	0x39020de2	0.00012402938
78	0xb9024ba0	-0.00012425939
79	0xb90245ca	-0.00012423765
80	0xb8e85b8b	-0.00011079673
81	0x38e84ae1	0.00011076569
82	0x38e5ecab	0.00010963654
83	0xb8e6ad09	-0.00010999485
84	0xb8e764c6	-0.00011033709
85	0x38e7815c	0.000110390334
86	0xb8e76463	-0.00011033637
87	0xb8e766e5	-0.00011034104
88	0xb586625a	-1.0012402e-06
89	0x358658ea	1.0009655e-06
90	0xb5873d6c	-1.007616e-06
91	0xb58698b9	-1.0028226e-06
92	0x3586d951	1.0047025e-06
93	0x3586ddc2	1.0048318e-06
94	0x3586fc1b	1.005715e-06
95	0x35873bea	1.0075721e-06
96	0xb594bc7c	-1.1081715e-06
97	0xb5950225	-1.1101989e-06
98	0xb59674d1	-1.1209869e-06
99	0x35962f7e	1.1189693e-06
100	0xb595031d	-1.1102271e-06
101	0x35962206	1.1185773e-06
102	0x3595ef94	1.1171092e-06
103	0x359587a3	1.1140841e-06
104	0xb90271bf	-0.0001244014
105	0xb9027f6a	-0.00012445232
106	0xb9034c8e	-0.00012521652
107	0x3901eedd	0.00012391382
108	0xb902e7a6	-0.00012484062
109	0xb9029332	-0.000124526
110	0xb902d82c	-0.00012478296
111	0x3902339c	0.00012416992
112	0xb90308a2	-0.0001249635
113	0x39033216	0.00012511792
114	0x3904022b	0.00012589309
115	0x39033ebb	0.00012516502
116	0x39025359	0.00012428816
117	0xb902dda2	-0.00012480331
118	0xb9029ddf	-0.00012456578
119	0x3903b99c	0.00012562278
120	0xb54765e6	-7.428156e-07
121	0xb5462339	-7.3812004e-07
122	0xb543eb37	-7.2985443e-07
123	0xb545ddaa	-7.371078e-07
124	0xb546f6ab	-7.4119697e-07
125	0xb545cac1	-7.3683265e-07
126	0x35473b29	7.4219366e-07
127	0xb5458c01	-7.359195e-07
128	0xbcbe8dcb	-0.023260972
129	0xbcbe8dd4	-0.023260988
130	0xbcbe8dd6	-0.023260992
131	0x3cbe8dda	0.023261
132	0x3cbe8dd4	0.023260988
133	0xbcbe8dca	-0.02326097
134	0x3cbe8dd8	0.023260996
135	0x3cbe8dbe	0.023260947
136	0xb874994d	-5.8316906e-05
137	0xb8749937	-5.8316826e-05
138	0x387498ad	5.8316324e-05
139	0x3874997e	5.8317084e-05
140	0x3874998b	5.831713e-05
141	0x38749793	5.8315298e-05
142	0xb8749977	-5.831706e-05
143	0xb874979b	-5.8315327e-05
144	0x383bc079	4.476353e-05
145	0x3824bab3	3.9274524e-05
146	0x382e71dd	4.1590876e-05
147	0x38683ee2	5.5371675e-05
148	0xb836640c	-4.3485357e-05
149	0x3839ffc5	4.434564e-05
150	0xb83bc7c0	-4.4770306e-05
151	0xb83a3ebc	-4.440428e-05
152	0xbcb0cac1	-0.021581056
153	0x3cb0cac7	0.021581067
154	0x3cb0cacf	0.021581082
155	0x3cb0caaf	0.021581022
156	0x3cb0cabd	0.021581048
157	0x3cb0cab6	0.021581035
158	0x3cb0cab8	0.021581039
159	0xbcb0cac4	-0.021581061
160	0x3cc3e468	0.023912624
161	0x3cbc6d97	0.023001475
162	0x3cbaba12	0.022793803
163	0x3cae56b6	0.021281581
164	0x3cc026c6	0.023455989
165	0xbcbd3817	-0.023098035
166	0xbcc1a446	-0.023637902
167	0xbcc37ba0	-0.02386266
168	0xb89c7b30	-7.461605e-05
169	0x389c7cd7	7.461913e-05
170	0xb89c7b58	-7.461634e-05
171	0x389c7aa5	7.461504e-05
172	0x389c7b8c	7.461672e-05
173	0x389c7abd	7.4615215e-05
174	0xb89c7b0d	-7.46158e-05
175	0x389c7bbf	7.461709e-05
176	0xb8910e07	-6.9167516e-05
177	0xb8910d37	-6.9166e-05
178	0x38910e12	6.9167596e-05
179	0xb8910ed2	-6.916899e-05
180	0xb8910eb6	-6.916879e-05
181	0x38910eae	6.916873e-05
182	0x38911025	6.917146e-05
183	0xb8910f0e	-6.916943e-05
184	0x3cc440e7	0.02395673
185	0xbcc3a05d	-0.023880178
186	0x3cd5003d	0.02600109
187	0x3cc26316	0.023728888
188	0xbcaf558e	-0.0214031
189	0xbca50c65	-0.020147512
190	0x3cc62ff8	0.024192795
191	0xbcc67e24	-0.02423007

transformer.layers.0.self_attn.out_proj.weight f4 [64, 64]
0	0xb98b218c	-0.0002653714
1	0xb98b2176	-0.00026537076
2	0xb98b2119	-0.00026536806
3	0x398b211d	0.00026536817
4	0x398b2103	0.00026536742
5	0xb98b20d0	-0.00026536593
6	0x398b211c	0.00026536814
7	0x398b221b	0.00026537557
8	0xbd00a0b1	-0.031403247
9	0xbd00a0a7	-0.03140321
10	0x3d00a09e	0.031403176
11	0x3d00a0b4	0.03140326
12	0x3d00a0a1	0.031403188
13	0x3d00a084	0.03140308
14	0xbd00a0af	-0.03140324
15	0xbd00a094	-0.03140314
16	0x3d3285f8	0.043584794
17	0x3d329397	0.043597784
18	0x3d328e4c	0.043592736
19	0xbd30c966	-0.04316082
20	0xbd328922	-0.04358781
21	0x3d32880a	0.04358677
22	0xbd3284f4	-0.043583825
23	0xbd328785	-0.043586273
24	0xb8894d91	-6.547117e-05
25	0x38894db6	6.547144e-05
26	0x38894c2c	6.546857e-05
27	0x38894c28	6.546854e-05
28	0x38894d6a	6.5470886e-05
29	0x38894c4d	6.546881e-05
30	0x38894bed	6.546811e-05
31	0xb8894bcb	-6.5467866e-05
32	0x398078b3	0.0002450399
33	0x397e0aca	0.00024227347
34	0x397b3c1f	0.00023959622
35	0x397321da	0.00023186897
36	0x397f42b2	0.00024343541
37	0xb97e6a44	-0.00024262915
38	0xb9803184	-0.00024450955
39	0xb980740e	-0.0002450053
40	0xbcfcea41	-0.03087342
41	0x3cfcea8a	0.030873556
42	0xbcfcea36	-0.0308734
43	0x3cfce9fb	0.03087329
44	0x3cfcea43	0.030873423
45	0x3cfce9fc	0.030873291
46	0xbcfcea13	-0.030873334
47	0x3cfcea55	0.030873457
48	0xbcff55dd	-0.031168872
49	0xbcff5586	-0.03116871
50	0x3cff55e8	0.031168893
51	0xbcff560e	-0.031168964
52	0xbcff561b	-0.031168988
53	0x3cff560d	0.031168962
54	0x3cff564e	0.031169083
55	0xbcff5624	-0.031169005
56	0x3972411c	0.00023103174
57	0xb971c504	-0.00023056945
58	0x3979c492	0.00023819719
59	0x3970f88a	0.00022980772
60	0xb94be12e	-0.00019443475
61	0xb92823a9	-0.00016035013
62	0x397367bd	0.00023212931
63	0xb9739dcb	-0.00023233068
64	0xbbe6522c	-0.0070288386
65	0xbbe65226	-0.007028836
66	0xbbe6521f	-0.0070288326
67	0x3be65225	0.0070288354
68	0x3be6521f	0.0070288326
69	0xbbe6521f	-0.0070288326
70	0x3be65222	0.007028834
71	0x3be65238	0.007028844
72	0xbd1b0f0d	-0.03785615
73	0xbd1b0f0f	-0.037856158
74	0x3d1b0f08	0.03785613
75	0x3d1b0f1c	0.037856206
76	0x3d1b0f10	0.03785616
77	0x3d1b0efb	0.037856083
78	0xbd1b0f11	-0.037856165
79	0xbd1b0efc	-0.037856087
80	0x3d1bc780	0.038032055
81	0x3d1b04b8	0.037846297
82	0x3d1b5713	0.037924837
83	0xbd0daaef	-0.034586843
84	0xbd1b99e8	-0.037988573
85	0x3d1bb8cd	0.038018037
86	0xbd1bc751	-0.03803188
87	0xbd1bbadc	-0.03802
88	0xbbea4c15	-0.007150183
89	0x3bea4c0d	0.0071501792
90	0x3bea4c0d	0.0071501792
91	0x3bea4c12	0.0071501816
92	0x3bea4c10	0.0071501806
93	0x3bea4c0b	0.0071501783
94	0x3bea4c0b	0.0071501783
95	0xbbea4c0f	-0.00715018
96	0x3be96000	0.00712204
97	0x3be9798f	0.0071250866
98	0x3be942a7	0.0071185413
99	0x3be8b85d	0.007102056
100	0x3be98499	0.0071264026
101	0xbbe98a61	-0.0071270918
102	0xbbe97e8f	-0.0071256827
103	0xbbe9664e	-0.0071227914
104	0xbd1dd659	-0.038534496
105	0x3d1dd679	0.038534615
106	0xbd1dd656	-0.038534485
107	0x3d1dd645	0.03853442
108	0x3d1dd659	0.038534496
109	0x3d1dd644	0.038534418
110	0xbd1dd646	-0.038534425
111	0x3d1dd668	0.03853455
112	0xbd1c6c65	-0.03818931
113	0xbd1c6c4b	-0.038189214
114	0x3d1c6c66	0.038189314
115	0xbd1c6c79	-0.038189385
116	0xbd1c6c74	-0.038189366
117	0x3d1c6c79	0.038189385
118	0x3d1c6c92	0.03818948
119	0xbd1c6c7d	-0.0381894
120	0x3be9914e	0.0071279174
121	0xbbe99e48	-0.0071294643
122	0x3be82e8c	0.007085627
123	0x3be9bca0	0.0071330816
124	0xbbea58e9	-0.007151712
125	0xbbeac8de	-0.0071650585
126	0x3be963fc	0.007122515
127	0xbbe95d8f	-0.0071217488
128	0xbb68f586	-0.0035546734
129	0xbb68f575	-0.0035546694
130	0xbb68f560	-0.0035546646
131	0x3b68f55e	0.003554664
132	0x3b68f563	0.0035546653
133	0xbb68f555	-0.003554662
134	0x3b68f563	0.0035546653
135	0x3b68f588	0.0035546739
136	0xbceee75a	-0.029163051
137	0xbceee752	-0.029163036
138	0x3ceee73a	0.029162992
139	0x3ceee75e	0.029163059
140	0x3ceee742	0.029163007
141	0x3ceee70b	0.029162904
142	0xbceee757	-0.029163046
143	0xbceee722	-0.029162947
144	0x3d4fac5f	0.050701495
145	0x3d50046f	0.05078548
146	0x3d4fdf9d	0.050750364
147	0xbd5376f2	-0.051627107
148	0xbd4fc0c2	-0.050720938
149	0x3d4fb3dc	0.050708637
150	0xbd4fab78	-0.050700635
151	0xbd4fb2be	-0.05070757
152	0xbb5822e5	-0.0032979783
153	0x3b5822eb	0.0032979797
154	0x3b5822cc	0.0032979725
155	0x3b5822da	0.0032979758
156	0x3b5822e6	0.0032979785
157	0x3b5822e3	0.0032979778
158	0x3b5822d9	0.0032979755
159	0xbb5822d3	-0.0032979741
160	0x3b6461e7	0.0034848393
161	0x3b657a51	0.0035015533
162	0x3b65e3bc	0.0035078367
163	0x3b69389b	0.0035586718
164	0x3b64cb7c	0.0034911325
165	0xbb653576	-0.0034974492
166	0xbb649eae	-0.003488462
167	0xbb646df3	-0.0034855574
168	0xbcebcc49	-0.028783934
169	0x3cebcc9d	0.02878409
170	0xbcebcc3e	-0.028783914
171	0x3cebcbd4	0.028783716
172	0x3cebcc43	0.028783923
173	0x3cebcbd8	0.028783724
174	0xbcebcc02	-0.028783802
175	0x3cebcc5b	0.028783968
176	0xbcefc975	-0.029270867
177	0xbcefc929	-0.029270725
178	0x3cefc97c	0.02927088
179	0xbcefc9a8	-0.029270962
180	0xbcefc9aa	-0.029270966
181	0x3cefc9a3	0.029270953
182	0x3cefc9d3	0.029271042
183	0xbcefc9c3	-0.029271012
184	0x3b5f20a3	0.0034046553
185	0xbb5f25dc	-0.0034049666
186	0x3b5c5757	0.0033621395
187	0x3b5f31df	0.0034056825
188	0xbb5f5e0f	-0.0034083163
189	0xbb5e56c5	-0.003392623
190	0x3b5f0c3c	0.0034034392
191	0xbb5f07f8	-0.003403185
192	0xbbd41b47	-0.0064729783
193	0xbbd41b38	-0.0064729713
194	0xbbd41b31	-0.006472968
195	0x3bd41b2d	0.006472966
196	0x3bd41b38	0.0064729713
197	0xbbd41b38	-0.0064729713
198	0x3bd41b34	0.0064729694
199	0x3bd41b4a	0.0064729797
200	0xbd113e2b	-0.03545968
201	0xbd113e2c	-0.035459682
202	0x3d113e1f	0.035459634
203	0x3d113e30	0.035459697
204	0x3d113e26	0.03545966
205	0x3d113e19	0.03545961
206	0xbd113e31	-0.0354597
207	0xbd113e15	-0.035459597
208	0x3d2828b1	0.04105443
209	0x3d27825f	0.040895816
210	0x3d27c8a6	0.040962838
211	0xbd1ba7a3	-0.038001668
212	0xbd2801dd	-0.041017402
213	0x3d281c70	0.041042745
214	0xbd282870	-0.04105419
215	0xbd281dfb	-0.041044217
216	0xbbd126b8	-0.0063827895
217	0x3bd126b1	0.006382786
218	0x3bd126ae	0.006382785
219	0x3bd126aa	0.006382783
220	0x3bd126ac	0.006382784
221	0x3bd126aa	0.006382783
222	0x3bd126b1	0.006382786
223	0xbbd126a6	-0.006382781
224	0x3bd184f9	0.0063940254
225	0x3bd1b4a4	0.006399708
226	0x3bd17d1e	0.006393089
227	0x3bd0cdca	0.006372188
228	0x3bd1af04	0.0063990373
229	0xbbd1c325	-0.006401437
230	0xbbd1a6f6	-0.006398077
231	0xbbd18c2e	-0.0063948845
232	0xbd0c6a48	-0.034281045
233	0x3d0c6a6e	0.034281187
234	0xbd0c6a48	-0.034281045
235	0x3d0c6a2c	0.03428094
236	0x3d0c6a4a	0.034281053
237	0x3d0c6a2b	0.034280937
238	0xbd0c6a38	-0.034280986
239	0x3d0c6a5b	0.034281116
240	0xbd0d1836	-0.034446917
241	0xbd0d182d	-0.034446884
242	0x3d0d1837	0.03444692
243	0xbd0d1846	-0.034446977
244	0xbd0d1848	-0.034446985
245	0x3d0d1843	0.034446966
246	0x3d0d1851	0.034447018
247	0xbd0d1850	-0.034447014
248	0x3bd3f0bb	0.0064679063
249	0xbbd3feda	-0.0064695897
250	0x3bd2b03d	0.0064297006
251	0x3bd41e49	0.006473337
252	0xbbd46950	-0.006482281
253	0xbbd49200	-0.006487131
254	0x3bd3bfcc	0.006462073
255	0xbbd3b8bb	-0.0064612306

transformer.layers.0.self_attn.out_proj.bias f4 [64]
0	0xbac3d370	-0.0014940333
1	0x3bdadb3d	0.0066789673
2	0x3b030604	0.00199926
3	0x3ba88606	0.00514293
4	0xb9e61022	-0.00043881038
5	0x3c2d4d1c	0.010577466
6	0xbc1c25ca	-0.009530494
7	0x3c1bc26f	0.009506806
8	0xbc593212	-0.013256567
9	0x3b50a3d5	0.0031835933
10	0xbc649c01	-0.01395321
11	0xbbb2a135	-0.0054513463
12	0xbc470b74	-0.012148727
13	0xbc4a918e	-0.0123638045
14	0xbc244cd6	-0.010028085
15	0xbc864574	-0.01639054
16	0xbbef50e3	-0.0073033436
17	0xbc9776c5	-0.01848925
18	0xbba47a18	-0.0050194375
19	0xbc9ae54d	-0.018908167
20	0x39b0b6e7	0.0003370561
21	0xbca7c1e1	-0.02047819
22	0xbae7821f	-0.001766268
23	0xbca49497	-0.020090384
24	0xb7fc4648	-3.0073468e-05
25	0xbca6db44	-0.020368226
26	0xb8ccc53a	-9.764214e-05
27	0xbcaee25f	-0.021348177
28	0x3a283a9d	0.00064174255
29	0xbca72b7a	-0.020406473
30	0x3a78c7e4	0.0009490235
31	0xbcad807f	-0.021179436
32	0x3abd5432	0.0014444648
33	0xbca82d92	-0.020529542
34	0x3a323a40	0.0006798841
35	0xbcb26df4	-0.021780945
36	0x3a1941b8	0.00058462797
37	0xbca65851	-0.020305784
38	0x3a161f8d	0.00057267473
39	0xbcb085b6	-0.021548133
40	0x38d42f46	0.00010117753
41	0xbcb18557	-0.021670027
42	0xb925380b	-0.00015756504
43	0xbca7ee47	-0.020499362
44	0x3a244a26	0.00062671525
45	0xbcaed675	-0.021342495
46	0xb8a11812	-7.681562e-05
47	0xbcb03973	-0.021511769
48	0x3a0698a3	0.0005134439
49	0xbcaf91d0	-0.021431834
50	0x3a471db8	0.0007595676
51	0xbcb11e1a	-0.021620799
52	0x3a5f0bbe	0.00085085246
53	0xbca90366	-0.020631503
54	0x3b11e279	0.0022260232
55	0xbca87d9b	-0.020567706
56	0xb8d430ca	-0.000101180354
57	0xbca94cbb	-0.02066647
58	0x3a3b6668	0.00071487436
59	0xbcb0842f	-0.021547405
60	0x3b1f9f71	0.002435651
61	0xbca7bb4f	-0.020475058
62	0xb83e2513	-4.5334058e-05
63	0xbcb11b58	-0.021619484

transformer.layers.0.multihead_attn.in_proj_weight f4 [192, 64]
0	0xbb1740c9	-0.0023079386
1	0xbb2399cc	-0.0024963496
2	0xbb12c253	-0.0022393658
3	0xbb10da10	-0.0022102632
4	0xbb1443b4	-0.0022623362
5	0xbb190b0b	-0.002335253
6	0xbb0aa8a6	-0.0021157651
7	0xbb103422	-0.002200373
8	0xbb0f20d1	-0.0021839628
9	0xbb1fe1dc	-0.0024396097
10	0xbb0e89b1	-0.002174955
11	0xbb133056	-0.002245923
12	0xbb1d04f5	-0.0023959253
13	0xbb206fe3	-0.0024480752
14	0xbb1da911	-0.002405707
15	0xbb22ecbf	-0.002486035
16	0xbb154636	-0.0022777445
17	0xbb13895d	-0.0022512295
18	0xbb23bebb	-0.002498551
19	0xbb0982f6	-0.00209826
20	0xbaceb09f	-0.001576919
21	0xbb1b69f3	-0.0023714274
22	0xbb31f231	-0.0027152414
23	0xbb1656f7	-0.0022940019
24	0xbb441d7d	-0.0029924803
25	0xbb1efdb2	-0.00242601
26	0xbb18468f	-0.0023235416
27	0xbb0fd918	-0.0021949466
28	0xbb060788	-0.0020451266
29	0xbb11de2e	-0.0022257674
30	0xbb254d81	-0.0025223198
31	0xbb262471	-0.002535131
32	0xbb05de72	-0.0020426777
33	0xbb12708f	-0.0022344922
34	0xbb791134	-0.0038004639
35	0xbb114b58	-0.0022170153
36	0xbb034f1b	-0.0020036164
37	0xbb0f6704	-0.002188147
38	0xbb82d3ee	-0.003992549
39	0xbb138e60	-0.0022515282
40	0xbbbd225a	-0.0057719173
41	0xbb10cda8	-0.0022095237
42	0xbbb12cde	-0.00540696
43	0xbb0df4ee	-0.0021660882
44	0xbb10a3c6	-0.0022070273
45	0xbb12e883	-0.002241642
46	0xbbb401e9	-0.005493392
47	0xbb211cac	-0.002458374
48	0xbb67b6a0	-0.0035356656
49	0xbb18846e	-0.0023272294
50	0xbb4f6769	-0.003164733
51	0xbb13ab10	-0.002253238
52	0xbb851d7a	-0.004062352
53	0xbb0dfa26	-0.0021663993
54	0xbb50c586	-0.0031856014
55	0xbb1e74f0	-0.0024178587
56	0xbbb6fd4a	-0.0055843936
57	0xbb1e447e	-0.0024149711
58	0xbb4a196a	-0.0030837902
59	0xbb133f31	-0.0022468085
60	0xbae9090e	-0.0017779188
61	0xbb10bc50	-0.00220849
62	0xbb8d6d0c	-0.004315978
63	0xbb205792	-0.0024466258
64	0x3b1740cb	0.002307939
65	0x3b2399cb	0.0024963494
66	0x3b12c250	0.0022393651
67	0x3b10da09	0.0022102615
68	0x3b1443b2	0.0022623357
69	0x3b190b0b	0.002335253
70	0x3b0aa8a4	0.0021157647
71	0x3b103424	0.0022003734
72	0x3b0f20cf	0.0021839624
73	0x3b1fe1e0	0.0024396107
74	0x3b0e89ab	0.0021749537
75	0x3b133058	0.0022459235
76	0x3b1d04f2	0.0023959246
77	0x3b206fe7	0.0024480761
78	0x3b1da912	0.0024057073
79	0x3b22ecc0	0.0024860352
80	0x3b154633	0.0022777438
81	0x3b138956	0.0022512279
82	0x3b23beba	0.0024985508
83	0x3b0982f9	0.0020982607
84	0x3aceb08f	0.0015769171
85	0x3b1b69f2	0.0023714271
86	0x3b31f22b	0.00271524
87	0x3b1656f8	0.002294002
88	0x3b441d76	0.0029924787
89	0x3b1efdb3	0.0024260103
90	0x3b184684	0.002323539
91	0x3b0fd914	0.0021949457
92	0x3b060789	0.0020451269
93	0x3b11de2c	0.002225767
94	0x3b254d7b	0.0025223184
95	0x3b262473	0.0025351315
96	0x3b05de71	0.0020426775
97	0x3b127092	0.002234493
98	0x3b791132	0.0038004634
99	0x3b114b56	0.0022170148
100	0x3b034f17	0.0020036155
101	0x3b0f6701	0.0021881463
102	0x3b82d3ec	0.003992548
103	0x3b138e60	0.0022515282
104	0x3bbd225a	0.0057719173
105	0x3b10cda9	0.002209524
106	0x3bb12cdf	0.0054069604
107	0x3b0df4ef	0.0021660884
108	0x3b10a3c2	0.0022070264
109	0x3b12e884	0.0022416422
110	0x3bb401eb	0.0054933927
111	0x3b211ca9	0.0024583733
112	0x3b67b69c	0.0035356646
113	0x3b18846f	0.0023272296
114	0x3b4f6761	0.0031647312
115	0x3b13ab12	0.0022532386
116	0x3b851d7a	0.004062352
117	0x3b0dfa25	0.002166399
118	0x3b50c580	0.0031856
119	0x3b1e74e9	0.002417857
120	0x3bb6fd49	0.005584393
121	0x3b1e447f	0.0024149714
122	0x3b4a196b	0.0030837904
123	0x3b133f2a	0.0022468069
124	0x3ae90906	0.0017779178
125	0x3b10bc52	0.0022084904
126	0x3b8d6d0b	0.0043159775
127	0x3b205790	0.0024466254
128	0x3b1740ca	0.0023079389
129	0x3b2399cc	0.0024963496
130	0x3b12c253	0.0022393658
131	0x3b10da12	0.0022102636
132	0x3b1443b3	0.002262336
133	0x3b190b0a	0.0023352527
134	0x3b0aa8a4	0.0021157647
135	0x3b103425	0.0022003737
136	0x3b0f20d0	0.0021839626
137	0x3b1fe1e0	0.0024396107
138	0x3b0e89ac	0.002174954
139	0x3b133055	0.0022459228
140	0x3b1d04f3	0.0023959249
141	0x3b206fe6	0.002448076
142	0x3b1da915	0.002405708
143	0x3b22ecc2	0.0024860357
144	0x3b154632	0.0022777435
145	0x3b138958	0.0022512283
146	0x3b23bebb	0.002498551
147	0x3b0982f9	0.0020982607
148	0x3aceb090	0.0015769172
149	0x3b1b69f1	0.002371427
150	0x3b31f22c	0.0027152402
151	0x3b1656f8	0.002294002
152	0x3b441d74	0.0029924782
153	0x3b1efdb4	0.0024260106
154	0x3b184684	0.002323539
155	0x3b0fd918	0.0021949466
156	0x3b060787	0.0020451264
157	0x3b11de2b	0.0022257667
158	0x3b254d7c	0.0025223186
159	0x3b26247a	0.0025351332
160	0x3b05de6f	0.002042677
161	0x3b127092	0.002234493
162	0x3b79112f	0.0038004627
163	0x3b114b58	0.0022170153
164	0x3b034f16	0.0020036153
165	0x3b0f6705	0.0021881473
166	0x3b82d3ed	0.0039925487
167	0x3b138e5e	0.0022515277
168	0x3bbd225a	0.0057719173
169	0x3b10cda6	0.0022095232
170	0x3bb12ce1	0.0054069613
171	0x3b0df4f1	0.002166089
172	0x3b10a3c2	0.0022070264
173	0x3b12e881	0.0022416415
174	0x3bb401eb	0.0054933927
175	0x3b211cab	0.0024583738
176	0x3b67b69d	0.0035356649
177	0x3b188470	0.0023272298
178	0x3b4f6764	0.003164732
179	0x3b13ab10	0.002253238
180	0x3b851d79	0.0040623513
181	0x3b0dfa27	0.0021663995
182	0x3b50c585	0.0031856012
183	0x3b1e74e8	0.0024178568
184	0x3bb6fd49	0.005584393
185	0x3b1e4483	0.0024149723
186	0x3b4a196b	0.0030837904
187	0x3b133f2b	0.002246807
188	0x3ae90906	0.0017779178
189	0x3b10bc51	0.0022084902
190	0x3b8d6d0a	0.004315977
191	0x3b20578f	0.0024466251
192	0xbb1740c7	-0.0023079382
193	0xbb2399c3	-0.0024963475
194	0xbb12c254	-0.002239366
195	0xbb10da15	-0.0022102643
196	0xbb1443b8	-0.0022623371
197	0xbb190b0c	-0.0023352532
198	0xbb0aa8a1	-0.002115764
199	0xbb103421	-0.0022003727
200	0xbb0f20d0	-0.0021839626
201	0xbb1fe1df	-0.0024396104
202	0xbb0e89a6	-0.0021749525
203	0xbb13305b	-0.0022459242
204	0xbb1d04ea	-0.0023959228
205	0xbb206fe8	-0.0024480764
206	0xbb1da90e	-0.0024057063
207	0xbb22ecc3	-0.002486036
208	0xbb154629	-0.0022777414
209	0xbb13895b	-0.002251229
210	0xbb23beb3	-0.0024985492
211	0xbb0982ee	-0.0020982581
212	0xbaceb076	-0.0015769142
213	0xbb1b69f8	-0.0023714285
214	0xbb31f225	-0.0027152386
215	0xbb1656ed	-0.0022939995
216	0xbb441d65	-0.0029924747
217	0xbb1efdac	-0.0024260087
218	0xbb184686	-0.0023235395
219	0xbb0fd91d	-0.0021949478
220	0xbb06077f	-0.0020451245
221	0xbb11de2d	-0.0022257671
222	0xbb254d6a	-0.0025223144
223	0xbb26247e	-0.002535134
224	0xbb05de6e	-0.0020426768
225	0xbb12708f	-0.0022344922
226	0xbb79112c	-0.003800462
227	0xbb114b57	-0.002217015
228	0xbb034f0b	-0.0020036127
229	0xbb0f6703	-0.0021881468
230	0xbb82d3e4	-0.0039925445
231	0xbb138e59	-0.0022515266
232	0xbbbd225a	-0.0057719173
233	0xbb10cd9e	-0.0022095214
234	0xbbb12cdf	-0.0054069604
235	0xbb0df4f1	-0.002166089
236	0xbb10a3c2	-0.0022070264
237	0xbb12e874	-0.0022416385
238	0xbbb401df	-0.005493387
239	0xbb211caf	-0.0024583747
240	0xbb67b695	-0.003535663
241	0xbb188470	-0.0023272298
242	0xbb4f6764	-0.003164732
243	0xbb13ab0a	-0.0022532367
244	0xbb851d71	-0.0040623476
245	0xbb0dfa23	-0.0021663986
246	0xbb50c572	-0.0031855968
247	0xbb1e74e5	-0.0024178561
248	0xbbb6fd42	-0.00558439
249	0xbb1e4484	-0.0024149725
250	0xbb4a1962	-0.0030837883
251	0xbb133f2a	-0.0022468069
252	0xbae90908	-0.0017779181
253	0xbb10bc4e	-0.0022084895
254	0xbb8d6d02	-0.0043159733
255	0xbb20578d	-0.0024466247

transformer.layers.0.multihead_attn.in_proj_bias f4 [192]
0	0x3d4250d2	0.047440358
1	0xbd4250ce	-0.047440343
2	0xbd4250d0	-0.04744035
3	0x3d4250ce	0.047440343
4	0x3d4250d3	0.04744036
5	0xbd4250d1	-0.047440354
6	0x3d4250d2	0.047440358
7	0xbd4250d1	-0.047440354
8	0x3d454d3a	0.048169352
9	0xbd454d3a	-0.048169352
10	0xbd454d3a	-0.048169352
11	0x3d454d3a	0.048169352
12	0x3d454d39	0.04816935
13	0x3d454d3d	0.048169363
14	0xbd454d39	-0.04816935
15	0x3d454d3b	0.048169356
16	0xbd45c5a3	-0.048284184
17	0xbd45c5a4	-0.048284188
18	0xbd45c5a1	-0.048284177
19	0xbd45c5a2	-0.04828418
20	0x3d45c5a2	0.04828418
21	0x3d45c5a3	0.048284184
22	0xbd45c5a2	-0.04828418
23	0x3d45c5a2	0.04828418
24	0xbd48afb6	-0.048995696
25	0xbd48afb8	-0.048995703
26	0x3d48afb6	0.048995696
27	0x3d48afb7	0.0489957
28	0x3d48afb7	0.0489957
29	0x3d48afb7	0.0489957
30	0xbd48afb5	-0.048995692
31	0xbd48afb6	-0.048995696
32	0x3d421e2e	0.047392063
33	0xbd421e2f	-0.047392067
34	0xbd421e2c	-0.047392055
35	0xbd421e30	-0.04739207
36	0x3d421e2e	0.047392063
37	0x3d421e2e	0.047392063
38	0xbd421e30	-0.04739207
39	0xbd421e2d	-0.04739206
40	0x3d47a074	0.048737004
41	0x3d47a073	0.048737
42	0x3d47a073	0.048737
43	0x3d47a072	0.048736997
44	0x3d47a073	0.048737
45	0x3d47a074	0.048737004
46	0x3d47a073	0.048737
47	0x3d47a073	0.048737
48	0xbd44cfe2	-0.048049815
49	0xbd44cfe1	-0.04804981
50	0x3d44cfde	0.0480498
51	0xbd44cfe0	-0.048049808
52	0x3d44cfe0	0.048049808
53	0xbd44cfe1	-0.04804981
54	0x3d44cfe0	0.048049808
55	0xbd44cfe0	-0.048049808
56	0xbd464ef8	-0.048415154
57	0xbd464ef7	-0.04841515
58	0x3d464ef8	0.048415154
59	0x3d464ef6	0.048415147
60	0xbd464ef6	-0.048415147
61	0xbd464ef6	-0.048415147
62	0xbd464ef2	-0.048415132
63	0xbd464ef2	-0.048415132
64	0x3381a533	6.03708e-08
65	0xb385ca2a	-6.2300685e-08
66	0xb380efe7	-6.0041025e-08
67	0x33828ddc	6.079401e-08
68	0x337e8080	5.9255854e-08
69	0xb383985d	-6.1278776e-08
70	0x338230e2	6.0624885e-08
71	0xb381977d	-6.034586e-08
72	0x3378ffd7	5.7974685e-08
73	0xb378ec12	-5.7956704e-08
74	0xb37a30cd	-5.8252045e-08
75	0x3376b4cb	5.744077e-08
76	0x3379a6ec	5.8126645e-08
77	0x33749497	5.694582e-08
78	0xb3728cc7	-5.6473052e-08
79	0x336ff862	5.5872427e-08
80	0xb386c736	-6.2760975e-08
81	0xb383cd13	-6.137466e-08
82	0xb387d966	-6.325972e-08
83	0xb3853141	-6.202254e-08
84	0x33885558	6.3485174e-08
85	0x3383e252	6.14133e-08
86	0xb3866128	-6.257534e-08
87	0x33837360	6.1211495e-08
88	0xb380e87a	-6.002752e-08
89	0xb380eae8	-6.003194e-08
90	0x338058b3	5.976599e-08
91	0x338317c4	6.104486e-08
92	0x3381b3ac	6.039713e-08
93	0x3381e979	6.049499e-08
94	0xb380cf00	-5.9981176e-08
95	0xb37ddf25	-5.91091e-08
96	0x338a0858	6.4276435e-08
97	0xb38a77c2	-6.4479096e-08
98	0xb388d172	-6.3710914e-08
99	0xb38ad33e	-6.4645505e-08
100	0x33881207	6.336273e-08
101	0x3387b289	6.318903e-08
102	0xb3899f3b	-6.4085235e-08
103	0xb389ea8a	-6.422222e-08
104	0x3386597a	6.256137e-08
105	0x3388161a	6.337014e-08
106	0x338a6e7c	6.446223e-08
107	0x33876542	6.304846e-08
108	0x338945c2	6.3922485e-08
109	0x3388a36f	6.362722e-08
110	0x33895db1	6.396602e-08
111	0x3389c779	6.4158435e-08
112	0xb37872a8	-5.784628e-08
113	0xb38287a0	-6.078267e-08
114	0x33889848	6.360693e-08
115	0xb380ba5b	-5.994362e-08
116	0x337d67a8	5.9000428e-08
117	0xb37ea20b	-5.928636e-08
118	0x338118db	6.011552e-08
119	0xb3796509	-5.806672e-08
120	0xb3873d33	-6.2975595e-08
121	0xb38504d8	-6.194176e-08
122	0x338970dc	6.4000886e-08
123	0x33872248	6.292663e-08
124	0xb3836659	-6.11878e-08
125	0xb3869f18	-6.2688e-08
126	0xb380b7cb	-5.993896e-08
127	0xb3823c19	-6.0645284e-08
128	0x390f6d27	0.00013678205
129	0xb90657ff	-0.00012812017
130	0x3907ec4b	0.00012962629
131	0x3906cd8b	0.00012855807
132	0x39055495	0.00012715378
133	0xb9044ef2	-0.0001261791
134	0x3902ef4f	0.00012486916
135	0x390429af	0.0001260403
136	0xb84f43a7	-4.9415652e-05
137	0x38db8b9f	0.0001046874
138	0xb8dac9c2	-0.000104326304
139	0x38dbf626	0.000104885825
140	0x38e52de4	0.00010928119
141	0x38539cdc	5.0452407e-05
142	0xb8d72f3b	-0.00010260796
143	0xb8d9bff4	-0.000103831204
144	0x38f9bc7f	0.000119083554
145	0xb8fbf39c	-0.000120139885
146	0x38ff80ba	0.00012183325
147	0xb9024143	-0.00012422078
148	0x38fea8d6	0.00012143112
149	0x38fa60d4	0.000119389646
150	0xb8f7e383	-0.00011820255
151	0x38fc851a	0.000120410885
152	0xb8fc42f9	-0.00012028771
153	0x39055578	0.00012715708
154	0xb902b25d	-0.00012464212
155	0x39066a41	0.00012818819
156	0x3902a946	0.00012460825
157	0xb9020364	-0.00012399029
158	0xb90934a7	-0.00013084953
159	0x39018a89	0.00012354007
160	0xb8c4b1d6	-9.379133e-05
161	0x38cc1a32	9.732357e-05
162	0x38bd51e4	9.0274756e-05
163	0xb8b54924	-8.644376e-05
164	0x38b952b5	8.836893e-05
165	0x38bea2c7	9.090226e-05
166	0x38b5b673	8.6647364e-05
167	0xb8b6ee83	-8.7228625e-05
168	0xb9057678	-0.00012728001
169	0xb907a1bf	-0.00012934858
170	0x3905b159	0.00012749936
171	0x39040e96	0.00012593935
172	0xb9037eb3	-0.00012540333
173	0x37e87328	2.7710179e-05
174	0x3904a4bb	0.00012649868
175	0x3907d4a4	0.00012953818
176	0xb8dac4bb	-0.00010431694
177	0x38d6ca78	0.00010242028
178	0x38f9adf3	0.00011905646
179	0xb8dd2d04	-0.00010546486
180	0xb8ea70f5	-0.000111790294
181	0xb8d84f78	-0.00010314485
182	0x38e96499	0.000111290436
183	0x38f2b8c6	0.00011573876
184	0xb919fb6a	-0.00014684876
185	0xb8a508aa	-7.869427e-05
186	0x39193071	0.00014609263
187	0x3917bfd1	0.0001447194
188	0x3917f11f	0.00014490307
189	0xb9195122	-0.00014621441
190	0xb90c94f9	-0.00013406937
191	0xb91b47fc	-0.00014808768
